model_cnn.pth (torch, 623026 bytes, 16 tensors)

conv2d_1.0.weight f4 [16, 1, 3, 3]
000000 39 4e 87 3e 87 7e 92 3e aa 9b 8c bd 27 a7 a1 3e
       0.26426867 0.28612158 -0.06865628 0.3157284
000010 7c 74 81 bd b0 31 9d 3d 76 48 1d be c2 df 50 3e
       -0.06321046 0.07675493 -0.15359673 0.20397857
000020 b3 28 9b 3e 84 c2 73 be e8 be 97 3e 74 df 8b 3d
       0.3030449 -0.2380467 0.29637837 0.0682973
000030 0f 1c 82 3e a4 b9 52 3d 8a 94 2b 3e ba 4b 21 bd
       0.25412032 0.051446572 0.16755882 -0.03937886
000040 10 3e 87 3e 81 b9 6a 3d 5b 13 27 be 29 6b af 3d
       0.26414537 0.057305817 -0.16315977 0.08565361
000050 5c e0 20 be 55 53 2f bd 67 37 0a be de dd 67 3e
       -0.15710586 -0.04280408 -0.13497697 0.2264323
000060 55 23 7b be 9e 15 15 be e6 13 a3 bd 4f 8e 55 be
       -0.24525197 -0.14559028 -0.0796278 -0.20855068
000070 ec 2f bf 3c 48 bc ac be 15 7e 95 3e dd dc 95 be
       0.02333828 -0.33737397 0.29197755 -0.29270068
000080 e0 fa 7d 3e 21 4a 3c 3d 18 04 f1 bd 17 78 49 3e
       0.24802732 0.045969132 -0.11768359 0.19674717
000090 ac b5 7c 3d 79 c1 8e 3e 85 87 3e 3d 71 72 c0 bd
       0.061696693 0.27881983 0.04651596 -0.09396828
0000a0 dd fa cd 3d c9 0e a1 bd 2e d8 1b 3e 7a 1a 9e 3e
       0.10057614 -0.07864148 0.15219185 0.30879575
0000b0 30 e9 50 3e ca 42 17 be cf 90 47 3e f9 0c 80 3d
       0.20401454 -0.14771572 0.19488834 0.06252474
0000c0 5b 67 32 3e e8 92 4f be 8b 38 a9 be eb 9b ff bd
       0.1742224 -0.20270884 -0.3305095 -0.12480911
0000d0 8c 4a 82 be fa 90 8d 3e 93 9a ba 3d 3d 95 09 3e
       -0.254475 0.2764967 0.09111514 0.13435836
0000e0 e4 69 cf 3d b6 1c 14 bc d5 63 83 3e ce 3a 75 be
       0.10127619 -0.009040048 0.25662103 -0.23948213
0000f0 71 da 94 3c 8f 8b 6b be f9 aa ca 3d 53 6b cb bd
       0.018170567 -0.23002456 0.09895892 -0.0993258
000100 f3 ad ec 3d e2 c5 a4 bd bc 5e 95 3e 9e 05 32 be
       0.11556616 -0.08045556 0.2917384 -0.17384955
000110 e1 f8 48 be 1a 61 3c be b5 e5 a0 3e cf 52 d9 3d
       -0.1962619 -0.18396416 0.31425253 0.106114976
000120 de c5 ab 3e 5e 71 86 be 9d 15 9f be 87 21 7f be
       0.33549398 -0.26258367 -0.31071177 -0.24915133
000130 af 8b 58 be ef af 1b 3e a6 8f 07 3e 81 40 95 3e
       -0.21147035 0.15203832 0.13238391 0.29150775
000140 16 ab 1f be 1c 53 65 be b7 c5 35 3e 18 af 07 be
       -0.15592608 -0.22394985 0.17751203 -0.13250387
000150 9d 8b 51 3e 0e 91 9e bd 73 65 45 3e 5f 36 84 be
       0.20463414 -0.07742511 0.19276981 -0.25822732
000160 0b 3a 2d be 1f f9 d4 3d 8b d9 9e 3d 7e d3 9e bd
       -0.16916673 0.103990786 0.07756337 -0.07755183
000170 e0 96 52 3e 58 d3 6f 3e 37 b3 6e be e6 fe 2c be
       0.20565367 0.23420465 -0.23310553 -0.16894111
000180 3e 3d a0 3e 2f 7e d4 bd 37 f0 de bd db 22 a5 be
       0.31296724 -0.1037563 -0.10885661 -0.32253155
000190 b0 78 43 be 5b 88 aa 3d f6 36 34 bd e3 c4 77 be
       -0.19089007 0.08326789 -0.043997727 -0.241962
0001a0 d6 1a 00 3c 93 28 69 be 04 cb 90 be a3 f5 3b be
       0.007818898 -0.22769384 -0.2827989 -0.18355422
0001b0 0e 9e 86 be 1d cd 3b be 20 48 b9 3e d4 af bb 3d
       -0.2629246 -0.18339963 0.3618784 0.09164396
0001c0 69 ca 06 3e 69 b2 90 be c0 e3 42 be d7 23 a7 bd
       0.13163151 -0.28261116 -0.19032192 -0.08161133
0001d0 a5 19 a8 3d 11 3f 95 be c0 05 0b be de 4d 47 be
       0.08208016 -0.29149678 -0.13576412 -0.19463298
0001e0 2c 27 15 3c e4 17 ed bd 52 77 65 bc 3f e3 62 be
       0.009103578 -0.115768224 -0.014005499 -0.22157
0001f0 76 f4 66 be 54 a4 43 be 29 d2 d7 bd 7f 5e 82 be
       -0.22554192 -0.19105655 -0.10538132 -0.2546272
000200 88 e3 93 3e 12 68 64 bd d8 ff 97 3e d1 7d e9 3d
       0.2888453 -0.05576331 0.2968738 0.11400951
000210 12 fe 8a be ad 6c 76 3e ab f1 a6 bd a8 79 03 be
       -0.27146965 0.24064894 -0.08151563 -0.12839377
000220 56 aa 8d be 8b ab a9 be 3b a5 ce 3d 84 0b 8b bd
       -0.27669019 -0.3313869 0.10090109 -0.06789306
000230 13 34 08 3e 56 0f 8c be 7d 6a 80 3e fc e2 7a be
       0.13301115 -0.2735545 0.25081244 -0.2450065

conv2d_1.0.bias f4 [16]
000000 da 8a 85 bd 6f 4b 81 3d ef db 3c 3e bf f8 8c 3e
       -0.065206245 0.06313216 0.18443273 0.27533528
000010 16 f1 98 3e b8 9c 85 be c7 5f b9 3d 96 ef 0a be
       0.29871434 -0.2609613 0.09051471 -0.13567957
000020 ff dd af bc 02 bb 7d be f7 0f 9e 3e 93 85 7a be
       -0.02146816 -0.24778369 0.30871555 -0.24465017
000030 ac b5 54 3e c9 02 fe 3d b1 f5 d1 3d 3e fc 34 be
       0.20772427 0.12402875 0.1025194 -0.17674348

conv2d_1.2.weight f4 [16, 16, 3, 3]
000000 5e 84 9a 3d 97 51 92 3c dd a9 1a 3c 07 d6 90 bd
       0.07544778 0.01786117 0.009439913 -0.070720725
000010 88 19 13 3d 13 85 35 bc f8 4f 11 bd 9a eb 98 3d
       0.03591302 -0.011079091 -0.035476655 0.074668124
000020 97 73 b7 3c 59 78 3e bd 34 21 30 bd 96 1c 82 bb
       0.022393985 -0.04650149 -0.043000415 -0.003970693
000030 19 b1 4c 3d da ee 93 bc 1b 14 38 bd 9f 01 d1 bc
       0.04997358 -0.01805823 -0.04494105 -0.025513468
000040 fa 87 72 bd 6e 76 06 3d 18 a0 89 3d 23 49 99 bd
       -0.05921171 0.032827787 0.067199886 -0.07484653
000050 cd ba b0 3c 9c f5 3f 3d e1 b8 9d 3c b6 3e d6 bc
       0.021573449 0.04686509 0.019253196 -0.02615295
000060 96 3a 41 3d 99 24 43 3d 8b 05 12 3d 7d b7 5c bc
       0.047175013 0.047642324 0.035649817 -0.013471481
000070 90 ac a9 bc 2e 44 27 3c a3 e0 2c bc 60 f7 ae bc
       -0.020712167 0.010209126 -0.010551604 -0.021358192
000080 77 cd 66 3d 4d de 98 3d 99 23 ad bb 83 21 6b bc
       0.05634829 0.074642755 -0.0052837846 -0.014351252
000090 9f 26 a3 3a bb 6f a1 bb 86 59 a4 3c 02 46 d8 3c
       0.0012447423 -0.0049266494 0.02006222 0.02640057
0000a0 eb bc 94 bd e1 35 e6 bc ea 57 96 3d 82 66 12 3d
       -0.07262596 -0.028101863 0.07340987 0.03574229
0000b0 4d 6c 85 ba ca 18 42 bd 58 d4 50 bd 7d 94 9a bd
       -0.0010179371 -0.047386922 -0.050983757 -0.07547853
0000c0 10 86 de bc 4e 76 e4 3c 55 3b 5c 3d 02 e8 17 3d
       -0.027163535 0.027888443 0.05376752 0.037086494
0000d0 28 43 91 bd 72 34 4c bd 9b 48 56 bc fa f5 a3 3d
       -0.07092887 -0.049854703 -0.013078834 0.08005901
0000e0 7b b0 37 3c 41 11 a5 bc 3a a3 16 3d ac 33 e5 bc
       0.01121151 -0.020149829 0.03677676 -0.02797874
0000f0 3e c3 4f bd 44 ac 85 3d 20 31 0f bd f2 c1 56 bc
       -0.050723307 0.06526998 -0.03495896 -0.013107764
000100 10 20 a4 bd fe bc 6a 3d c5 ec 83 3d 27 1e 0b 3d
       -0.08013928 0.057309143 0.064416446 0.033964302
000110 00 c1 61 bd 2a b8 a7 bd 39 c0 81 bd da df 89 3d
       -0.0551157 -0.081894234 -0.06335492 0.067321494
000120 7f 7c 2c 3d a8 a9 96 3d 36 6f 49 3d fe 3e d3 3c
       0.042110916 0.07356578 0.049178325 0.025786873
000130 de a9 88 3b 4c ab 78 bd c4 84 86 bd 27 35 9b bd
       0.0041706404 -0.060710236 -0.06568292 -0.075784974
000140 72 63 1c 3d 22 9c 1f bd 70 63 89 bc 87 ad 47 bd
       0.038180776 -0.03896726 -0.016771048 -0.048749473
000150 47 a8 85 bc 3c 61 73 bd 72 87 59 bd ce a4 ea 3c
       -0.016315592 -0.0594189 -0.053107686 0.028643038
000160 c3 01 bf bc 74 c2 55 3d 4b 4c d8 bc 8b b5 7b bd
       -0.02331627 0.052187398 -0.026403567 -0.06145243
000170 de 48 6e bc ed 04 19 bd 46 2d b5 bc 08 64 9a bd
       -0.01454374 -0.037358213 -0.022116315 -0.07538611
000180 40 17 4c 3d 2e e3 5e bd 28 4b 3a 3d 46 e4 1a 3d
       0.04982686 -0.054415874 0.04548183 0.037815355
000190 16 dc 73 3d 04 e9 82 bd 60 7c 75 3d ab 5d 21 bd
       0.059536062 -0.063921005 0.059933066 -0.03939597
0001a0 0b 51 fd 3c 8c 46 a0 3d 36 8e 40 bc ab f0 28 ba
       0.030922433 0.07825956 -0.011752656 -0.0006444554
0001b0 fc 0f 91 bc f5 0a 8e bd ec c5 22 3d c9 14 a0 bd
       -0.017707817 -0.06935684 0.039739534 -0.078164645
0001c0 df bb 62 3d 50 a5 87 3d f6 73 a7 3d ba 74 66 bc
       0.05535495 0.06623328 0.08176415 -0.014065916
0001d0 d6 09 84 bd 24 b8 ba 3c 86 62 45 3d 84 4a a2 bd
       -0.064471886 0.022792883 0.048189662 -0.07924369
0001e0 83 0d 53 bc 3d 07 34 bd 2a 9e 0d bb 29 66 21 bd
       -0.012881639 -0.043952215 -0.0021609166 -0.03940407
0001f0 f9 bd 02 bd 18 80 d7 bc 3f 3f a5 bd 33 f1 8c 3d
       -0.031919453 -0.026306197 -0.08068704 0.068819426
000200 3b d8 90 3d d1 e8 19 bc 45 3c ba bb cd 90 00 bd
       0.07072493 -0.009393887 -0.005683454 -0.031388093
000210 e4 d5 91 bd 07 e6 9f bd 7e fd 07 3d cd c9 36 bd
       -0.071208745 -0.07807546 0.033200733 -0.044626046
000220 17 08 55 bd 2b 0e d5 bb 0d 27 e0 bc 1c ac b5 bc
       -0.05200967 -0.006501933 -0.02736237 -0.022176795
000230 ea 76 b5 3b 56 cd 90 bc f6 0c eb bc 54 19 24 bd
       0.0055378573 -0.017676037 -0.028692704 -0.040063217
000240 b7 f3 84 bd b7 fc 94 3d e3 98 08 bd 71 0f ce 3c
       -0.064917974 0.07274764 -0.03334893 0.025153847
000250 0c c9 d5 bc 0c 1b f4 3b e2 4d a5 3d 88 b0 2b 3d
       -0.026096843 0.0074495133 0.080714956 0.0419164
000260 87 b9 91 bd 66 be 0d 3d ed 5c a5 3d 26 99 b3 3c
       -0.07115465 0.034605406 0.08074365 0.021923613
000270 50 7b 6d 3d 45 a4 ab 3d 31 6f 31 bc 57 c8 9f 3c
       0.057978928 0.08380941 -0.010829733 0.01950471
000280 87 52 63 bd 1b 13 76 bc 4a 87 5e 3d 3c b3 28 3d
       -0.055498626 -0.015019204 0.05432824 0.041186556
000290 f3 fd 57 bd 22 1d 94 bd 87 12 81 bd c0 85 a4 bd
       -0.05273242 -0.07232119 -0.06302362 -0.08033323
0002a0 97 b6 71 bd 28 80 90 bc 3f c9 6f 3d ac 95 20 3c
       -0.059012022 -0.017639235 0.058541533 0.00980131
0002b0 10 fd 91 bd b3 e9 88 bd f1 d2 19 3d 62 bc 91 bd
       -0.07128346 -0.066851996 0.037554685 -0.07116009
0002c0 2b 99 09 bc 88 79 0e 3d e8 4f 40 bd 59 b8 df bb
       -0.0083983345 0.03478387 -0.046951205 -0.006827396
0002d0 0f 75 da bb 3f dd 9e bc 26 11 2d bd 42 61 96 bd
       -0.0066667865 -0.019392608 -0.042252682 -0.07342769
0002e0 bf aa 88 bd 6c 18 2d bd c8 a2 a6 3d 09 ac 21 bd
       -0.06673192 -0.04225962 0.08136517 -0.039470706
0002f0 19 9e 5b bd 76 79 a5 3c 66 26 bc 3c 16 05 3b 3d
       -0.05361757 0.020199519 0.022967529 0.045659147
000300 e6 53 7e 3d 68 14 3e 3d 57 37 a9 bd d6 2d f2 3b
       0.06209173 0.04640618 -0.08262508 0.007390718
000310 83 c3 4e 3d 16 62 fc bb 58 67 47 bd 88 da a1 3d
       0.050479423 -0.0077021224 -0.04868254 0.0790301
000320 1b 56 ff bc 37 99 44 bd c2 91 98 bd f6 08 ce 3b
       -0.031168988 -0.04799768 -0.07449676 0.0062876893
000330 ff 81 19 3d 96 34 9e 3c 23 07 97 3c 05 ab 8d bd
       0.03747749 0.019312184 0.01843602 -0.06917385
000340 3d f9 80 bd 56 57 c0 3a 43 1d 8e 3d e9 5d 7f 3d
       -0.062975384 0.0014674466 0.06939175 0.06234542
000350 68 bc 46 bd a0 0b 84 bc fb 0b 3c bd ce aa 24 bd
       -0.048519522 -0.016118824 -0.045909863 -0.040201955
000360 e8 1d 2b 3c fd 02 60 3d 02 60 8d 3d c9 69 9e bd
       0.010444142 0.05469035 0.06903078 -0.07735021
000370 fe f6 70 3d 35 83 71 bd 96 67 b4 3c 03 b0 7d 3d
       0.0588293 -0.05896302 0.02202205 0.061935436
000380 65 f4 e4 3a 2a 46 9b 3d b3 6a 91 bd 1b 60 02 bd
       0.0017467855 0.07581742 -0.071004294 -0.031829935
000390 6b 15 47 3d 2b bb 94 bc f6 bd 8b bc 20 42 0f bd
       0.04860441 -0.018155655 -0.017058354 -0.03497517
0003a0 7e 48 6b 3d d3 6c 27 3d 62 a9 cb 3c d8 25 45 bd
       0.05744218 0.040875267 0.024861041 -0.048131794
0003b0 e2 89 8a bd bd ca ec 3b b1 63 bf 3c 62 68 14 bd
       -0.0676458 0.0072263167 0.023362966 -0.03623236
0003c0 14 18 ca bc 08 a2 61 3d 1e 63 12 3c 00 68 76 3b
       -0.024669684 0.055086166 0.008934764 0.003759861
0003d0 30 01 a8 bc d2 8d 9a bd 7a 78 a0 bd 98 29 23 bd
       -0.020508379 -0.07546581 -0.07835479 -0.03983459
0003e0 ce 81 2d bd f0 af d4 3c 4b bb c6 bc 83 89 05 bd
       -0.04236012 0.0259628 -0.02425923 -0.032601845
0003f0 af 70 88 3d 2d 85 a8 3c 5b 56 73 3d 55 92 72 bd
       0.06662118 0.020571316 0.059408527 -0.059221584

conv2d_1.2.bias f4 [16]
000000 f5 b8 4b 3c bb 97 19 bd 77 d0 af 3d 2b e0 31 bd
       0.012434234 -0.037498217 0.085846834 -0.043426674
000010 5f 48 83 3d 28 79 9c bd a7 8b 01 bd 39 9f 9f bd
       0.06410288 -0.07640296 -0.031627323 -0.07794041
000020 28 8a da bc fb fd 34 3d 59 a0 83 bd 52 97 a2 bd
       -0.026677206 0.044187527 -0.06427068 -0.07939018
000030 25 79 8b 3d 32 8a 50 3d 32 c3 06 3c 19 2c 84 bd
       0.06810216 0.050913043 0.008225249 -0.064537235

conv2d_2.0.weight f4 [32, 16, 3, 3]
000000 7f ca 9f bc 01 99 c7 bc 85 d5 6a 3d 28 36 02 bd
       -0.019505737 -0.02436495 0.057332534 -0.03178993
000010 e3 ee d6 bc 55 be 81 bd 3e 27 2e bd f3 35 36 3d
       -0.026236957 -0.06335131 -0.042517893 0.044485044
000020 c0 70 5b 3d 99 ee 67 3c 54 c2 60 bc 2e a4 ac 3d
       0.053574324 0.014156007 -0.013718206 0.08429752
000030 a6 be 86 3c d7 47 b1 bc 30 52 d4 bc 60 14 3f bc
       0.01644833 -0.021640701 -0.025918096 -0.011662573
000040 41 54 3c 3d 0b e3 fa 3c 97 dd 5e 3d 05 a0 1e bc
       0.04597879 0.03062584 0.054410543 -0.009681706
000050 6f 2a 80 3d 56 bc 23 bd 36 fb 35 bd ac 51 18 bd
       0.062580936 -0.039974533 -0.044429027 -0.037187263
000060 91 f2 ac bd 5e 76 79 bd db 23 a8 bd 40 60 a1 bb
       -0.08444703 -0.0609039 -0.08209964 -0.004924804
000070 00 f2 4d 3a 46 2e b1 bc f8 42 69 bd 0b d8 9a 3d
       0.000785619 -0.02162851 -0.056948632 0.07560738
000080 e6 31 e2 bc d3 a9 22 3d 40 b5 6d 3d b8 60 60 bd
       -0.027611684 0.03971274 0.05803418 -0.05477974
000090 ae 00 82 bc e6 f0 26 3d bb 8f 94 3d e6 81 be bc
       -0.015869465 0.040757082 0.07253977 -0.0232553
0000a0 09 04 39 3d 75 e6 a6 bd 40 d9 8f bd 8f 80 56 3d
       0.045169864 -0.08149425 -0.07023859 0.052368697
0000b0 c4 49 c9 bc 4f e7 a0 3d 56 ef 06 3b 72 3c 1f bd
       -0.024571307 0.078566186 0.0020589433 -0.038876005
0000c0 c6 c9 90 3d dc 8b 87 3d f7 c5 a2 3a 5d 31 5e bd
       0.07069735 0.06618473 0.0012418617 -0.054246295
0000d0 96 03 d3 bb 7b cc 2e bd 6e 3d 84 3d ef b9 eb 3b
       -0.0064396365 -0.042675477 0.06457029 0.007193796
0000e0 f7 d2 ac 3c d8 4e 5f 3d bc 80 fe 3c d7 53 45 bd
       0.02109669 0.05451855 0.031067245 -0.04817566
0000f0 e5 52 93 3d fd b8 5a 3d a6 06 47 bd 8b 02 8f 3d
       0.07193545 0.053399075 -0.048590325 0.06982907
000100 59 6b f9 3c c7 e6 25 bc ae fc 57 bd 32 e7 de bb
       0.030446695 -0.010125822 -0.05273121 -0.006802463
000110 86 ba 99 bd 74 f3 58 3d 1f ed 85 3d 80 f5 97 bc
       -0.0750628 0.05296655 0.06539368 -0.01854968
000120 f7 4b c1 3d f0 27 ec bc 97 ff 87 3c dd 3d 2a bd
       0.09438317 -0.028827637 0.016601367 -0.041562904
000130 b8 58 98 bb f5 5e 06 3d 67 2f 62 3d 93 e7 d1 39
       -0.004649248 0.0328054 0.055220988 0.00040036123
000140 75 db 16 bd f9 d9 62 3d 7b 4c 56 3d b2 37 25 3c
       -0.036830384 0.055383656 0.05231903 0.01008408
000150 eb 43 2b bd c6 b7 67 3c 71 6d 6d bb b3 1e 94 3d
       -0.04181282 0.014142936 -0.0036228562 0.07232418
000160 6f 22 09 3c 4e 53 1a 3b 05 1c d9 3c b3 6f 2a 3d
       0.008370026 0.0023548189 0.026502619 0.04161043
000170 0c 2d 25 ba 35 f3 be 3d 6e 03 20 3d 0a 9c 88 bd
       -0.0006300963 0.09323732 0.03906577 -0.06670387
000180 a1 11 a1 3c 0f 3d 8b bd 4d 85 7d bd 30 b0 b8 3c
       0.019661726 -0.067987554 -0.061894704 0.02254495
000190 7e 2e ce 3c b1 48 e8 ba bc da ae 3d 04 3b 1d bd
       0.025168654 -0.0017721859 0.08537814 -0.03838636
0001a0 0b 23 f1 bc ed 58 0c bc 87 4c b0 3b cb 41 36 bb
       -0.029435655 -0.008566123 0.0053802165 -0.0027810212
0001b0 b3 58 8b 3d c1 40 2d bd 1d ed 51 bd 1e 2e 97 3a
       0.068040274 -0.042298082 -0.05125152 0.001153413
0001c0 0e 60 67 3d 1a cd 58 3c 89 24 20 3d 42 a9 2a 3c
       0.05648809 0.013232494 0.039097343 0.010416331
0001d0 eb 76 84 3d e5 c4 2a 3d 4f fc 51 3d 13 73 a0 bc
       0.06467994 0.04169168 0.05126601 -0.019586122
0001e0 aa 76 a1 bd d5 a7 49 bd df 75 98 3c 1e d5 45 3d
       -0.078839615 -0.049232323 0.018610893 0.048298948
0001f0 57 6e 2e bd fa 03 70 3d f4 90 37 bb d1 97 78 bc
       -0.042585697 0.058597542 -0.0028009983 -0.015172915
000200 a2 46 42 bc f6 d1 02 bd 54 1c 7e 3d 8b 48 53 bc
       -0.0118576605 -0.031938516 0.062038735 -0.012895714
000210 b2 68 19 3d c9 60 a7 bd 23 1f 64 bd f6 c1 9b 3c
       0.03745336 -0.08172757 -0.055693757 0.019013386
000220 7a 5a 9d 3d 52 f3 4a 3d 4a cf d9 3c 51 90 92 bd
       0.07683273 0.049548455 0.026588101 -0.071564324
000230 11 1f 54 3c 31 41 41 bd 9c a0 7f bd 39 17 a7 3c
       0.01294686 -0.047181312 -0.06240903 0.020396816
000240 4c dc 55 bd b4 fd 9b 3d 33 f3 28 bd ca 3e a4 3c
       -0.052212045 0.076167494 -0.041247558 0.020049471
000250 56 7c 23 3d 91 ee 9a bd 8d c6 17 3d de 1d 9a bc
       0.039913498 -0.07565034 0.037054587 -0.01881307
000260 8a 78 19 3d 18 63 a2 3d 94 11 a5 bc cf 48 ba bc
       0.03746847 0.07929057 -0.020149983 -0.022739796
000270 9e 93 83 3d 58 8b ce 3c 21 db dd 3b ba 7a 81 3d
       0.0642464 0.025212929 0.006770507 0.06322236
000280 ae 3b ca bc 9e a0 1d 3c f3 fe 81 3d ce 38 28 3d
       -0.02468666 0.009620814 0.06347456 0.0410698
000290 15 80 3c bd fd 53 ee 3c 23 24 5e bd f8 54 15 bd
       -0.046020586 0.029092783 -0.05423368 -0.036457986
0002a0 78 20 77 3d 6b 61 5c bc 2c ec 0a bd 56 8e c1 3b
       0.0603337 -0.013450961 -0.033916637 0.0059068603
0002b0 d0 d2 a6 3c b6 2d 54 bd c6 2e 66 bd 10 49 a5 bd
       0.020364195 -0.051801406 -0.05619695 -0.08070576
0002c0 cb 63 b0 3c 03 3d 5c bd 80 19 d0 3b 1b af 98 bc
       0.02153196 -0.053769123 0.006350696 -0.018638184
0002d0 73 b3 3b bd 5b 94 29 bc 4c 22 48 bd de 41 21 bd
       -0.045825433 -0.010350312 -0.048860833 -0.039369456
0002e0 09 a7 1f 3c 16 01 86 bd f6 f4 b8 bd 46 18 50 3d
       0.009744414 -0.06543176 -0.090310976 0.0508044
0002f0 c7 a6 da bb 42 f3 05 bd 8b 5d a4 3b f0 5d 8f 3d
       -0.0066727134 -0.03270269 0.005016034 0.07000339
000300 89 27 95 bd 22 a5 52 bd cc 88 88 bd 79 5d 0a bc
       -0.07282931 -0.051427014 -0.06666717 -0.008445137
000310 ed a8 cb ba c2 36 79 bd 39 db 92 3d 6c ca 45 bd
       -0.0015538015 -0.060843237 0.0717072 -0.048288748
000320 b8 35 c2 3d 6d 37 24 bd 25 da 06 3c 48 c7 0d 3d
       0.09482902 -0.04009192 0.008230721 0.034613878
000330 2f ef a6 bc f4 89 c2 3d e3 46 23 bd 1b e3 4e 3c
       -0.020377724 0.09498969 -0.039862525 0.012627388
000340 89 b9 34 bd 4b 38 27 3d f8 9e b9 3d 6c ec c7 3d
       -0.044122253 0.04082517 0.09063524 0.09761891
000350 fd ac fb 3c 26 49 ae bc 81 a5 d1 3d f1 2b e2 3c
       0.030722136 -0.021275114 0.102366455 0.027608844
000360 a9 64 40 3d ed c5 00 bd 71 77 21 bd 89 ce 81 bd
       0.046970997 -0.031438757 -0.03942055 -0.063382216
000370 7a f7 cb 3d d0 fa d0 3b ac 8f 9b bd 62 90 99 3c
       0.09959312 0.0063775554 -0.075957626 0.018745605
000380 d1 fd 36 bd 0b 52 4d 3c 2a e8 1a 3d 2c 26 00 bd
       -0.044675652 0.012531768 0.037819065 -0.031286404
000390 2e b3 d0 3c 27 e8 23 bd 39 8d e5 3c 7f 9c 8f bd
       0.025476065 -0.04001632 0.028021442 -0.07012271
0003a0 f1 9e d0 3c 88 f4 c1 3d 5f 9d ad 3d e6 02 61 3d
       0.025466414 0.09470469 0.08477282 0.054934405
0003b0 0f 0f 74 3d 2c fe b0 3d a7 54 3c 3d 84 3b b1 3c
       0.059584673 0.086422294 0.04597917 0.021634825
0003c0 92 e2 f5 3a 1d 56 b0 3d 42 53 76 3d ea 3e d2 bc
       0.001875954 0.08610175 0.060137995 -0.025664765
0003d0 84 12 39 3c cf ec df bc fd 80 44 3d 1d a5 7e bd
       0.011295918 -0.027334599 0.047974575 -0.062169183
0003e0 c4 29 47 3d ad e6 81 bb 0d 16 49 3d f4 7b 39 3d
       0.048623815 -0.0039642663 0.049093295 0.045284227
0003f0 21 83 1a bd 0e 38 42 3d f5 9c 25 3d ea a7 85 bd
       -0.03772271 0.04741674 0.04043289 -0.06526168

conv2d_2.0.bias f4 [32]
000000 44 d0 06 bd be 69 bb 3c fe c2 03 3d 3f 22 31 bc
       -0.03291346 0.02287757 0.03216838 -0.010811388
000010 c6 05 5a bd 73 62 33 bd cf d2 9b bd ed d7 08 bd
       -0.053228162 -0.04379506 -0.07608568 -0.033409048
000020 da b5 1c bc 3b eb 98 3d bf de 35 bd ce d9 9d bd
       -0.009564841 0.07466742 -0.04440188 -0.077075586
000030 ef 1c 5e 3d e9 8d 8f 3d a6 1d 85 bd d8 d5 c9 ba
       0.054226812 0.07009489 -0.064997956 -0.0015398813
000040 fb db 0f 3d 3e 57 8b 3d 2d 54 a3 bc 40 04 42 3d
       0.0351219 0.068037495 -0.0199376 0.047367334
000050 3e 0e 97 3d b2 82 66 3d 68 c2 48 3d 19 54 71 3d
       0.07375763 0.056276985 0.049013525 0.058918092
000060 2b c3 a8 bd f9 d1 d7 3c da e6 98 3d bd 54 91 bd
       -0.0824035 0.02634524 0.074659064 -0.07096241
000070 a0 89 9f bd 5f 13 9a bd d0 47 e2 3c aa 5c 94 3d
       -0.07789922 -0.07523226 0.027622133 0.07244237

conv2d_2.2.weight f4 [32, 32, 3, 3]
000000 a0 5b d7 3a c1 e7 8b bc d3 b5 16 3c 4f e0 f0 bc
       0.0016430505 -0.017078282 0.009198624 -0.029403834
000010 17 5a ed 3c 28 da 9e bc 52 94 87 bc 23 4c a3 bc
       0.028973622 -0.019391134 -0.016550217 -0.019933766
000020 99 0a e9 3b 6d 22 39 3d ef 50 98 3c 5b 05 42 3d
       0.007111859 0.045198847 0.01859328 0.04736839
000030 3e 28 4c bd 27 ed 27 bd b7 9b 2b 3d 06 55 5b 3d
       -0.049843065 -0.04099765 0.041896548 0.05354788
000040 9b 89 69 3d de 10 4a bd 88 8f 1d 3d 06 a3 20 bd
       0.057015996 -0.049332492 0.03846696 -0.03921797
000050 07 6f 59 bb 46 99 9c 3c bb be 36 3d 0f a2 d5 b8
       -0.003317775 0.019116055 0.04461549 -0.00010186817
000060 74 78 02 bd 1c 3a 18 bd 8c db 78 bb 86 c3 7c 3d
       -0.031853154 -0.037164792 -0.0037972657 0.061709903
000070 2b 1f 2e 3d 71 c2 3a 3d 1d d2 ea bc ef 45 09 bd
       0.042510193 0.04559559 -0.028664643 -0.03351396
000080 ef de 97 3d d9 0a 5f 3d 11 f2 0e bc 93 85 b0 3c
       0.07415568 0.054453705 -0.008724705 0.021548068
000090 6d e1 2d 3d aa 43 59 3d b1 34 42 bd 8b 3f ef bc
       0.04245131 0.053043045 -0.04741353 -0.029205104
0000a0 ab 95 bb 3c 9b 68 38 3d 48 f6 27 3c a6 53 6e bb
       0.022898516 0.045021635 0.010251589 -0.0036365776
0000b0 d7 95 15 3b 30 a3 5b 3d 85 7f 3d bd b5 e9 db 3c
       0.0022824907 0.053622425 -0.04626419 0.026844839
0000c0 7a cc 2c bd 07 96 b7 3b f8 ff 63 bd c1 52 1c 3d
       -0.04218719 0.0056026014 -0.055664033 0.038164858
0000d0 2e 7a 06 bd cd 43 80 3b 2c 22 2b bd ce 33 9c 3b
       -0.032831363 0.0039143325 -0.041780636 0.004766918
0000e0 f1 c9 87 bc 69 99 d0 bc 04 7d aa bc 9e 05 5d 3d
       -0.016575785 -0.025463777 -0.020811565 0.053960435
0000f0 e8 0c 23 3c 8c 61 5f bc 04 9a 84 3d 3e 5b 54 3c
       0.009951808 -0.013634097 0.06474689 0.012961207
000100 26 81 96 bc 52 66 0f b9 3f b0 c1 bc 37 f7 c7 bc
       -0.01837213 -0.0001367566 -0.023643611 -0.024409873
000110 4a d3 9c bc fc b2 52 3c 09 d7 5b bd 93 5f 3b bd
       -0.01914372 0.012860056 -0.05367187 -0.045745444
000120 95 a6 3d 3d 91 3d e5 bb d3 82 de 3b 5b 70 1a 3d
       0.046301443 -0.0069958647 0.006790498 0.037704807
000130 31 1a 48 bc 8b 7e 57 3d 57 9e b8 bb 60 b0 0c ba
       -0.012213276 0.052610915 -0.00563411 -0.0005366858
000140 9e 76 2c bd 80 97 c7 3c e6 f2 2e bd d0 e0 0f 3d
       -0.04210531 0.024364233 -0.042712115 0.035126507
000150 1c 53 d5 ba 83 7a 71 bc 10 8d 5c bc 91 bd 06 3d
       -0.0016275379 -0.014738682 -0.013461366 0.03289563
000160 b9 a8 8c 3d 84 60 d5 3c 48 83 4e 3d a6 1e 13 bd
       0.06868119 0.026046999 0.05041817 -0.0359179
000170 58 9c 10 3a c0 48 9d bc 9a ed e8 bc fb f1 ce 3c
       0.0005516461 -0.019199729 -0.02843361 0.02526187
000180 d1 c6 dd bb 72 ed ca 3c c1 fe 31 bc 6d 59 5c bd
       -0.0067680855 0.024771426 -0.010863961 -0.05379622
000190 80 e0 f9 bc dd fe 67 bd 9b ce cb 3b 4e 67 46 bd
       -0.030502558 -0.05663954 0.0062196977 -0.048438363
0001a0 16 6f 35 3d f4 2f 07 3d 35 00 36 bd 9b 2c cc bc
       0.044295393 0.033004716 -0.04443379 -0.024923613
0001b0 c1 3d 6a bd 03 4c 20 3d 1e c5 f5 bc a5 48 a1 bc
       -0.0571878 0.03913499 -0.03000122 -0.01968796
0001c0 23 96 24 bb 54 7c b2 3c c6 89 e2 bc a0 0b 9a 3c
       -0.0025113903 0.0217878 -0.027653586 0.018804371
0001d0 c2 f9 a8 3c b4 ab b8 bb f4 98 21 3d d5 56 52 bd
       0.020626906 -0.005635703 0.039452508 -0.05135234
0001e0 e4 d7 fd bc e4 25 75 bb b2 f3 9b bb 10 41 ab 3c
       -0.030986734 -0.0037406618 -0.0047592754 0.020905048
0001f0 e6 57 29 3d ef 47 2e bd 4e 4e fd 3c 5d a5 67 3c
       0.041343592 -0.04254907 0.030921128 0.014138547
000200 05 73 48 3d 81 d2 00 3d a4 d8 51 bc 02 e6 08 bc
       0.048937816 0.031450752 -0.012807999 -0.008355619
000210 b3 9d 20 bd 5f 05 55 3c f2 df 3c 3d 69 5b a2 3c
       -0.039212894 0.013001769 0.04611201 0.019818978
000220 db bb 42 3d dc 5c ca 3c 73 cd 32 3c c2 5b 52 bc
       0.047542434 0.024702482 0.010913241 -0.01283926
000230 b2 3a 51 bd c0 1f c1 bc 98 db 17 3d e8 d1 18 3d
       -0.051081367 -0.02357471 0.037074655 0.037309557
000240 82 54 44 bc 6f 19 69 3d 89 27 69 3d 78 05 33 bd
       -0.011983039 0.05690902 0.05692247 -0.043706387
000250 61 12 4f bd 9d be b9 bc 4c a3 9a bb 21 39 c9 3c
       -0.050554637 -0.0226739 -0.0047191735 0.024563374
000260 03 ae cd 3c 18 dd 27 3d e8 d3 d0 bc ec ff 2e 3d
       0.02510739 0.040982336 -0.02549167 0.042724535
000270 fd fa a0 3c c8 13 11 bd 05 d2 18 bd 1a b8 e1 3c
       0.01965093 -0.035419255 -0.037309665 0.027553607
000280 35 8c 7d 3d 34 b2 04 bd bc b6 7e 3c 49 d4 42 bd
       0.06190129 -0.03239651 0.015546497 -0.047565732
000290 46 b8 40 3d 2f e2 f3 3c 93 b9 2a bb d8 28 35 3d
       0.047050737 0.029770939 -0.0026050552 0.044228405
0002a0 dd 85 18 3d 28 6c 57 3d 66 94 a0 3c e8 f6 8f ba
       0.037237037 0.05259338 0.019602012 -0.0010983618
0002b0 01 4a e3 3c 84 e0 96 3c ca f2 65 bd bc 39 e4 bc
       0.027745249 0.018417604 -0.056139745 -0.027859561
0002c0 35 e5 f4 3c 46 29 3f bd f3 6f 05 3d b3 e6 dc bc
       0.02989445 -0.04667022 0.032577466 -0.026965475
0002d0 90 b2 57 3d b5 93 1c bd a5 48 18 3d b5 c1 11 bd
       0.052660525 -0.038226802 0.037178654 -0.035585124
0002e0 85 43 04 3d a7 3a b4 3c a8 c7 20 3c 0e 12 35 3b
       0.032290954 0.022000624 0.009813227 0.002762917
0002f0 83 1b a4 3c 40 30 8a bc 70 6a 4a bc 01 c9 b9 3c
       0.02003265 -0.01686871 -0.012354478 0.022678854
000300 a9 41 09 bd ec 83 48 3c 2c e0 08 3d 0e a9 3a bd
       -0.033509884 0.012238484 0.033416912 -0.04557138
000310 1d ee b0 3b 6b e8 44 3c f1 57 2f bd 57 7c 4a 3d
       0.005399479 0.012018303 -0.042808477 0.049434986
000320 46 f4 b2 3b c9 6b 56 bd 45 f5 8d bc 4f 0f 69 3c
       0.0054612486 -0.052348886 -0.017328868 0.014224841
000330 61 3f 3c 3d 53 e0 7b bc 9e 4a 65 3d 40 ad a5 bc
       0.04595888 -0.015373307 0.055979364 -0.020224214
000340 f7 98 2e bd d8 51 3a bc f5 ef 0c bd 4e 65 c6 3c
       -0.042626347 -0.011372052 -0.03440853 0.024218228
000350 53 72 31 3d 7d ad 46 bd fe 34 2a bd e2 45 0c 3d
       0.04332192 -0.048505295 -0.041554444 0.034246333
000360 c1 ab 2b bc df 95 60 3d ad 20 6a 3d 48 2f 20 bd
       -0.010477961 0.05483043 0.05716007 -0.03910759
000370 83 ce 0e 3d af 68 67 bd 0d 4f c4 3c 7e b4 09 bd
       0.034864914 -0.05649632 0.023963476 -0.033619396
000380 f7 7a af b9 6b 2d 9a 3d 02 f1 d1 3c 3a 00 3b bc
       -0.00033470217 0.07528194 0.025627617 -0.011413628
000390 43 27 14 3d 4e e8 91 ba 77 a0 8c 3d 54 2e 36 bd
       0.036170255 -0.0011131854 0.06866544 -0.044477776
0003a0 8e 63 2d bc 1f 11 38 bd 8a 7a 26 bd c2 22 bf bc
       -0.010582818 -0.044938203 -0.040644206 -0.023332004
0003b0 62 8f 37 bd 2d 2c 56 bd 2b 35 d7 bc f3 d6 36 bd
       -0.044814475 -0.052288223 -0.02627047 -0.044638585
0003c0 42 51 57 bd f5 e1 61 bc 96 7f 79 bd 51 12 52 3d
       -0.052567728 -0.0137867825 -0.06091269 0.051287
0003d0 b4 d4 66 3d 65 0b 94 3d c6 eb 1e 3d 9e ae 79 3c
       0.056355193 0.07228736 0.03879907 0.015239386
0003e0 60 3b 3c 3c 42 42 2c bc 10 a5 6e 3d fc 1f 50 3d
       0.0114887655 -0.010513844 0.058262885 0.050811753
0003f0 cc 8b 68 3d a0 92 33 3b 1e 8c d7 bc f4 8b 18 3d
       0.056773946 0.0027400628 -0.02631193 0.037242845

conv2d_2.2.bias f4 [32]
000000 c8 6c a1 3c be 72 1e 3c 78 e9 3f 3d e9 f9 04 3c
       0.019705191 0.009670911 0.046853513 0.008116224
000010 4f 14 6b 3d 30 8b af 3c 23 62 0c 3b 7e 3a 68 3d
       0.057392415 0.021428674 0.0021420799 0.056696407
000020 54 6d 4e 3c 46 c4 0e b9 42 73 7d bb 8d 48 33 3d
       0.012599308 -0.00013615293 -0.0038673435 0.04377036
000030 4a 23 8f bc e2 ba 62 3d f8 c9 05 3d c3 47 20 3c
       -0.017472882 0.055354007 0.032663316 0.009782734
000040 1a 05 2b bc 14 2a 08 3d 21 69 5a bd f0 e6 33 bc
       -0.010438228 0.033243254 -0.053322915 -0.010980353
000050 9a 2f d4 bc 17 2f 39 bc d8 12 d8 bc 25 88 bb bc
       -0.025901604 -0.011302731 -0.026376173 -0.022892067
000060 5d b0 e7 3c 30 de 04 bb 29 4e 28 bd 7a be c0 bb
       0.028282339 -0.0020274036 -0.041090164 -0.0058820816
000070 fa 2c dd 3c 4e ca a9 bc 15 12 84 3d 67 be 15 bd
       0.026998986 -0.02072635 0.064487614 -0.036558535

conv2d_3.0.weight f4 [64, 32, 3, 3]
000000 d3 5a 65 3d 0e a9 e1 3c 69 b5 ec bc cb 9d 52 bd
       0.05599482 0.027546432 -0.028895097 -0.051420014
000010 4a d3 e2 3c 62 bc be bb 32 8e c4 3c 0f 28 02 3d
       0.027688641 -0.005820797 0.023993585 0.031776484
000020 7d b9 07 bd 19 c0 bf 3b c8 c3 5c bc cf 0b 5c bd
       -0.03313588 0.0058517572 -0.013474412 -0.0537222
000030 b4 cb 13 3c ab af 3c 3c 90 6f 3e bd 1f fb 7c 3d
       0.009020735 0.011516492 -0.046493113 0.061762925
000040 1b b2 17 3d 54 9b 21 3d 5f ff 3c bd 6e ee 39 bd
       0.03703509 0.039454773 -0.04614198 -0.0453934
000050 a6 a2 fd 3c f9 c3 20 3d a2 c4 38 bd d9 cd 7e 3d
       0.030961346 0.039249394 -0.0451094 0.06220803
000060 f8 0e d1 bb 15 26 28 bd 27 a7 15 bd b0 3d 12 bc
       -0.0063799582 -0.041051943 -0.036536362 -0.00892584
000070 15 ef 12 3d 2b f7 12 bd 1c d7 4e 3d 39 6b 87 3d
       0.035872538 -0.03588025 0.050498113 0.06612248
000080 72 0a 80 3d 94 d3 14 3d 56 c4 6e bc b4 c8 59 bc
       0.06251992 0.03633459 -0.014573177 -0.01329248
000090 a9 df 4c 3d d2 da 8d bb 85 ba 8a 3c 66 81 89 3d
       0.050017986 -0.004329064 0.016934643 0.06714134
0000a0 15 6a 4b bd 4b 8c 96 bb 56 8b 8c bc ab 36 34 bb
       -0.049661715 -0.004594361 -0.017156284 -0.0027498405
0000b0 aa b2 14 3c 8f 7e a5 bb 07 02 85 3d 09 a0 01 3d
       0.0090758 -0.0050504874 0.06494527 0.031646762
0000c0 f1 3d e0 bc 07 d6 88 3d 7e 44 da bb 05 8b 83 3c
       -0.027373286 0.066814475 -0.006660997 0.0160575
0000d0 eb 6b 57 3c b2 d8 12 bd 05 3c 17 3d d3 62 eb bc
       0.013148288 -0.035851188 0.036922473 -0.028733646
0000e0 b8 64 3a bd d7 7d 6e 3d e4 6c 35 3d 10 68 81 bc
       -0.04550621 0.05822548 0.0442933 -0.015796691
0000f0 3f 91 0b bd 3c 75 7c 3d ed b6 ee 3c 9c ac 00 bd
       -0.034074064 0.06163524 0.02913996 -0.031414613
000100 59 5d 28 bd d0 a3 87 bc f2 a5 c0 bc 05 2e 62 3c
       -0.04110465 -0.016557604 -0.023516629 0.013804917
000110 cd a1 79 3c 43 d7 50 bd 28 1d 16 3d d1 6f 17 3d
       0.01523633 -0.05098654 0.0366489 0.03697187
000120 3e 78 3c bd 3c ff 60 3d c1 98 82 bc bf 21 1f 3d
       -0.04601311 0.05493091 -0.01594198 0.038850542
000130 29 9d 88 3d a2 5d 33 3d 5e 2f 3f 3d 32 9b 1c 3c
       0.06670601 0.043790467 0.046676032 0.009558486
000140 9e d3 83 3c dc 46 3a bd 26 c5 1a bd 14 70 56 3d
       0.016092118 -0.045477733 -0.03778567 0.05235298
000150 b7 d8 4a bd d1 51 f5 3c 65 e0 f3 bc 0f 67 6b 3d
       -0.04952308 0.02994624 -0.029770086 0.05747133
000160 5c 6e 4d 3d ab e8 dd bb 34 85 3a b8 53 75 08 bd
       0.050154075 -0.006772121 -4.446991e-05 -0.033315014
000170 5f f3 7e 3d 1a 86 d4 bc ea a3 03 3d 9c 88 54 3d
       0.062243816 -0.02594285 0.032138743 0.051888093
000180 47 90 47 bd 23 55 49 bd 8b 1c 07 bd df 1a 8b ba
       -0.048721578 -0.04915346 -0.032986205 -0.0010612867
000190 99 87 36 3d 6c 89 22 bc ed c6 76 bc f7 4e 48 3d
       0.04456291 -0.009920459 -0.015062076 0.04890343
0001a0 37 ba 69 3d a2 81 1a 3d ad 9a 6d 3d 2f 7e 3c bd
       0.057062354 0.037721284 0.05800884 -0.046018776
0001b0 74 3e 57 bd b9 67 20 3c 2c 81 4a bd f0 bf 86 bc
       -0.052549794 0.009790354 -0.049439594 -0.016448945
0001c0 21 eb 12 3d f8 85 6a 3d 65 07 42 bc 04 dd 54 bd
       0.035868768 0.05725667 -0.011842583 -0.05196859
0001d0 c7 30 ee bc 28 88 82 3d d8 ae 8a bb 98 3e 45 bd
       -0.029075993 0.06373626 -0.004232269 -0.048155397
0001e0 81 fe c3 bc 71 8c ee bc 3f 9f fe bb 4e a5 10 bd
       -0.023925068 -0.029119702 -0.0077704485 -0.035313897
0001f0 c9 02 49 bc e8 40 7c 3d 2d 0e db bc a2 dc 38 bc
       -0.01226873 0.061585337 -0.026740158 -0.011283072
000200 8d 92 0f 3d a4 8f 57 bd 80 5c ef bc 5f ca 41 bb
       0.03505187 -0.05262722 -0.029218912 -0.0029570085
000210 3c 7f 5e 3d f7 b2 6f 3c dd 5c ce 3b 2f 9b 55 bc
       0.05432056 0.014630071 0.0062976913 -0.013037487
000220 46 96 0b 3d 2d a2 97 bc 92 23 46 bb 1b 87 9a bc
       0.03407886 -0.018509949 -0.0030233604 -0.018863251
000230 42 70 ea 3c 6e 54 85 3d a0 1b 1b bd ca 29 29 3b
       0.028617982 0.06510244 -0.037868142 0.0025812262
000240 10 50 af bb 31 c9 f7 bc cf a4 2f bd f6 d1 d9 bc
       -0.0053501204 -0.030247303 -0.042881783 -0.026589375
000250 e7 40 43 bd 7f aa 33 3d 92 bd 11 bd 0d 6f 2d 3d
       -0.047669318 0.04386377 -0.03558118 0.042342234
000260 54 cf 5e 3d 8f d8 4d bb 59 26 80 3d 95 fb 4d 3d
       0.054396942 -0.0031409597 0.06257314 0.050288755
000270 39 a9 02 bd d0 db 2f 3d 09 8e c7 3c ad e3 5b 3d
       -0.031899665 0.04293424 0.02435972 0.053683925
000280 d7 59 18 bd 4d 49 5a 3d 69 2f 0f 3c 55 d2 f6 3c
       -0.037195053 0.05329256 0.008739331 0.030129591
000290 91 d6 f2 bc 91 e3 11 3d 13 b8 df bb b4 24 43 3d
       -0.029643329 0.035617415 -0.0068273633 0.047642425
0002a0 62 24 df 3b 20 1f 1d 3d 10 97 0e bd 8d 6b 3a bd
       0.006809757 0.03835976 -0.034812033 -0.045512725
0002b0 d0 dc df 3c bc aa 1b 3d 66 2e ca 3c 14 9b de 3c
       0.027326971 0.038004622 0.024680328 0.027173556
0002c0 e3 13 42 3d c9 4f b6 bc 9c 61 23 3d d1 98 15 3d
       0.047382247 -0.022254841 0.03988801 0.03652269
0002d0 ee 57 d9 bc d0 9c 12 bd a3 a2 73 bd c8 03 2e 3d
       -0.026531186 -0.03579408 -0.059481274 0.042484075
0002e0 b6 26 e8 ba 5f 2d 50 3c 43 da 0c bd bf fe 16 bd
       -0.0017711732 0.01270613 -0.034387838 -0.03686404
0002f0 5a 14 63 3d 1e 0d 2a 3d 84 be 09 3d 39 56 27 3d
       0.05543933 0.041516416 0.033628955 0.040853713
000300 12 5d 42 3d d7 cd 20 3d 45 b9 20 3d b9 0b f8 bb
       0.04745204 0.039258804 0.039239187 -0.007569757
000310 06 76 85 3c fe 95 37 bd 98 c4 dd bc 50 63 cf bb
       0.01629163 -0.044820778 -0.027071282 -0.0063289776
000320 e1 e4 ab bb 7f 9f 5b 3d fe 3e 47 3d 54 3c 7d 3c
       -0.0052457904 0.053618904 0.04864406 0.015456278
000330 89 48 62 3d 9c 21 e1 bc 5d 7d 0d 3c 7e 0e 2a bd
       0.055244956 -0.027481847 0.008635846 -0.041517727
000340 87 13 37 bd da d0 16 3d 38 94 cf 3c 54 58 66 3b
       -0.044696357 0.03682027 0.02533923 0.0035147863
000350 3a 25 01 bd a4 ff 4e 3d 61 09 73 3b 79 00 46 3d
       -0.031529643 0.050536767 0.0037084448 0.048340295
000360 69 5b 13 bd d9 f0 4d 3d 68 c3 10 3b 3a e9 57 bc
       -0.035975847 0.05027852 0.0022089127 -0.013178164
000370 e8 58 15 3a 15 49 23 bd 82 3e 6c bb 28 61 2f 3c
       0.0005697147 -0.03986462 -0.0036048 0.010704316
000380 86 dd 14 bd 0b d3 17 3d 19 17 78 3d ac 25 1e 3d
       -0.036344074 0.0370665 0.060568903 0.038610145
000390 c8 7f b3 bc 1a 3e dd bc 2f b7 25 bd db dc 2f bd
       -0.021911517 -0.027007151 -0.0404579 -0.042935234
0003a0 f7 72 e6 3c 56 cf bc 3c e1 32 a8 bc 07 39 61 3b
       0.028130991 0.023048084 -0.020532073 0.0034366266
0003b0 1e c9 d0 bb 83 68 f9 3a 1d 42 6c bd cb fd 59 3d
       -0.0063716313 0.0019028339 -0.057680238 0.05322055
0003c0 a3 5c 56 bc f9 f6 34 bd f8 6c b0 3b 1d 00 a1 3c
       -0.01308361 -0.044180844 0.005384084 0.019653374
0003d0 3f af f0 3c f1 51 df bc de 8f 5f bb d5 28 37 bd
       0.029380439 -0.027260752 -0.003411285 -0.044716675
0003e0 e1 85 33 bd af 6f 07 bd 63 51 01 bd 91 87 30 3d
       -0.04382885 -0.033065494 -0.031571757 0.043098036
0003f0 2e 98 39 bd 43 56 8a bb 0a fc 86 bc 3b b8 44 3d
       -0.045311145 -0.004221709 -0.016477603 0.04802726

conv2d_3.0.bias f4 [64]
000000 a1 31 d5 bc e2 fc 57 bd 9d 50 43 3d f1 a8 89 3d
       -0.026024641 -0.052731402 0.0476843 0.06721676
000010 0b 1d 47 3d 0c ca 74 3d 75 b6 a4 bb 8d 9a 44 bd
       0.048611682 0.059763 -0.0050266334 -0.047998954
000020 7e 3f 91 bc ab 36 16 3c d3 0b 84 3d af e1 88 3c
       -0.01773047 0.009168307 0.06447568 0.016709177
000030 88 a7 11 3d 33 32 61 3d 8c bd a3 bb c6 7a 36 bd
       0.03556016 0.054979514 -0.004996961 -0.04455068
000040 fc 4b cb bc c9 2b 6b bd c3 02 13 3d 4d fb b7 bc
       -0.024816506 -0.057414804 0.035891306 -0.022458697
000050 cc 26 33 bc 1e a6 0b bd 39 9a 8f bc 81 b7 77 3d
       -0.010934543 -0.03409397 -0.017529594 0.060477737
000060 2b 04 86 3c ae 65 d3 bc 4f 98 4b 3d 07 98 eb bc
       0.01635941 -0.02580532 0.0497058 -0.028759016
000070 8f e2 a3 3c 62 7e 11 bd b6 29 e2 3b 24 e5 06 bd
       0.020005492 -0.03552092 0.006901945 -0.03293337
000080 72 e4 22 3d 88 42 82 3b c3 33 ad 3c 11 e1 2b bd
       0.039768644 0.0039752163 0.021142846 -0.041962687
000090 72 fa 7f 3d c2 65 6c 3d 41 9b 47 3d 9c 80 60 bd
       0.062494703 0.05771423 0.048732046 -0.05481015
0000a0 f9 67 68 bd e0 41 1b bd 39 80 14 3d 6e a9 16 3d
       -0.05673978 -0.03790462 0.036255095 0.036782674
0000b0 3d 5a d2 3c 40 2c 3d bd 7a 8e 31 3d 2f ab 3d bd
       0.025677795 -0.04618478 0.043348767 -0.04630583
0000c0 5b 2d 50 bd 87 ca 7e bc 5b 0b 11 3d c8 1c 18 bd
       -0.050824504 -0.015551216 0.03541122 -0.037136823
0000d0 eb f0 1a 3d fd 44 1c 3d 4d cb e4 3c bc 8d 4d bd
       0.037827414 0.03815173 0.027928973 -0.050183997
0000e0 72 d8 81 bb 9e 1f 6f bd 8d 86 fd bb 78 3f 26 3d
       -0.00396257 -0.058379762 -0.007736987 0.040587872
0000f0 d2 d9 9e bb 5d 6a 7a 3d a3 f5 6d 3d 36 a3 84 bb
       -0.0048477435 0.061136592 0.058095586 -0.0040477766

conv2d_3.2.weight f4 [64, 64, 3, 3]
000000 0c cc 98 b9 c8 19 ad 3c 65 51 a8 bb 8d 62 1f bc
       -0.00029143726 0.021130458 -0.005136656 -0.009728086
000010 97 32 e5 3c fc 15 13 bd be 1d ad bc db 67 39 bc
       0.027978225 -0.035909638 -0.021132346 -0.011316265
000020 f0 4f 17 3d a8 77 ff bc 82 5c 9f bc bf 70 3d bc
       0.03694147 -0.031184986 -0.01945329 -0.011562525
000030 65 a6 50 bb be de e6 bc 41 42 b0 bc f7 e5 6c 3c
       -0.003183746 -0.028182384 -0.021515967 0.014459125
000040 5f c1 29 3d 35 46 7b 3c ad 2d c4 3b bc ad 04 3d
       0.04144418 0.015336563 0.0059868903 0.03239225
000050 ac 65 10 bb c8 f5 bc 3c 5c f6 20 3c b1 ed a5 bc
       -0.0022033257 0.023066416 0.009824362 -0.020254942
000060 bf a8 f9 3c db 40 37 3c ea 49 29 3b 59 ff e3 3c
       0.030475972 0.011184896 0.002583141 0.02783172
000070 4b 5e 84 3c 4c b5 1d 3c a0 ea d1 bc e6 8a 1e bb
       0.016158244 0.009625744 -0.025624573 -0.0024191677
000080 ee 69 c9 bc 56 0a 1c bc 16 1f 2b bc e0 6d 30 3c
       -0.024586644 -0.009523949 -0.010444423 0.010768384
000090 4f 06 8c bb ba e7 d2 3b e2 c5 19 bd b4 41 f8 bb
       -0.004273213 0.0064363154 -0.03754223 -0.007576192
0000a0 b7 3a 92 bb 99 18 03 3d 5a cd 31 bc 93 64 ea 3c
       -0.0044625658 0.03200588 -0.010852182 0.02861241
0000b0 ee be 09 3c b7 b7 17 3d 41 ea 14 bd d1 13 d8 3c
       0.008407338 0.03704044 -0.036356214 0.026376637
0000c0 c6 9f d1 bb cb 51 8b bc 4a 89 b5 bc aa 28 98 3b
       -0.0063972203 -0.017006775 -0.022160191 0.0046435194
0000d0 5f dc 7b 3c 1e a1 71 bc b9 a5 a5 bb ed 2c aa 3a
       0.015372365 -0.014747886 -0.005055156 0.001298336
0000e0 90 f1 58 bc 3b 95 72 bb 08 16 f7 3c 40 4e 23 bd
       -0.013241187 -0.0037015218 0.030161873 -0.039869547
0000f0 70 c9 b9 bc 74 ab 5d 3c fb d0 b4 bc 2b 9d bf 3a
       -0.02267906 0.013529647 -0.022072306 0.0014618983
000100 6f 2e 20 3d bb 02 f2 bc cc 19 23 bd 20 90 70 3c
       0.039106783 -0.029542318 -0.039819524 0.0146828
000110 0e 37 29 3d e6 2a 0b bd 32 49 07 3d 60 f0 36 bc
       0.04131227 -0.033976458 0.03302879 -0.011165708
000120 01 8e ec bb db db 05 3d 72 03 53 3d 0d ae e1 3a
       -0.0072190766 0.032680374 0.051516958 0.0017218009
000130 1b 4c a8 bc 0b af a8 bc 9f c2 e6 ba 51 ec 15 bd
       -0.020544102 -0.02059128 -0.0017605609 -0.036602322
000140 95 38 82 3c af 2d 54 3c 54 c5 0f bc 86 ef 59 3b
       0.015896121 0.012950345 -0.008775074 0.003325434
000150 75 cf a2 3b b1 e5 1e 3c 56 80 9c ba e1 ca c7 3c
       0.0049685785 0.009698317 -0.0011940103 0.024388732
000160 d6 69 fe bc 5e a3 26 3c fc 3b 1f 3c 42 ca 31 bd
       -0.031056326 0.010170786 0.009718891 -0.04340578
000170 be 60 4b 3c ab 7f 14 bd 70 4e d0 bc 96 e4 be bc
       0.012413202 -0.036254566 -0.025428027 -0.023302358
000180 c0 e1 18 bc f5 43 dd 3c da 58 20 bb 61 d8 a4 3c
       -0.009331167 0.027009944 -0.0024467022 0.020122709
000190 f8 25 b5 bc 49 cf 93 bc 16 61 45 bd cc d2 41 3c
       -0.022112831 -0.018043177 -0.04818829 0.011830043
0001a0 be 21 26 bd 80 cc 1d bd 83 1f cf bc 18 22 0c bd
       -0.040559523 -0.038525105 -0.02528358 -0.0342122
0001b0 cf 76 f0 bc e1 58 26 3c 58 d7 05 3c 27 ca 07 bd
       -0.029353527 0.010153026 0.008169018 -0.033151772
0001c0 1d 37 89 3c a4 c2 5d 3c 11 0a 89 3b 43 2f 2b 3d
       0.016749913 0.0135351755 0.004182108 0.04179312
0001d0 52 b2 3a 3d 04 23 31 3d cb 5d 08 bd 18 62 a2 3c
       0.045580216 0.043246284 -0.033292573 0.019822165
0001e0 ed 7d 1f bd 8c c9 d1 bc 4f 29 15 3d e3 f0 95 bb
       -0.03893845 -0.0256088 0.036416348 -0.004575835
0001f0 60 82 2c bd f5 96 81 bc 19 c0 4c 3c b2 0d 35 bd
       -0.042116523 -0.015819052 0.0124969715 -0.044202514
000200 a6 0f 81 3c df 5f e3 bc 59 5b b7 3c 9b e3 07 bb
       0.015754532 -0.027755676 0.022382425 -0.0020735029
000210 69 51 94 3c 47 e9 1a 3d 38 e2 bb bc 07 90 bf 3c
       0.018105226 0.037820127 -0.022935018 0.023384107
000220 9b f8 02 3b a0 fa 4c bc 05 6e 02 bd a5 10 af 3a
       0.0019984606 -0.0125109255 -0.031843204 0.0013356401
000230 94 a1 8e 3c 3a 51 07 3d 9d 2a 2e 3c 9d 58 ba 3c
       0.01741103 0.033036448 0.010630277 0.022747332
000240 d5 c0 3d bd 2e 30 58 bd 05 db ee bb 84 ee 41 bd
       -0.046326477 -0.052780323 -0.0072892928 -0.047346607
000250 46 19 ab bc 28 3f 10 bd 1c 9b 47 3c 83 8f 1c bd
       -0.020886075 -0.03521648 0.012182977 -0.0382228
000260 78 a9 d0 bc 4f f0 e2 3c 22 7e b9 bc 53 e1 d9 bc
       -0.025471434 0.027702479 -0.022643153 -0.0265967
000270 27 26 eb 3c a1 a3 11 3d 57 01 43 3c 55 d5 50 bc
       0.028704716 0.03555644 0.011902175 -0.012746175
000280 a4 41 c6 bc 74 89 fd bc ba 46 c1 3b 10 c0 58 39
       -0.024201222 -0.030949332 0.005898324 0.00020670914
000290 df 1d 68 bb d5 f8 b1 bc c8 8c 24 3d 79 ce cb bc
       -0.0035418195 -0.021725098 0.040173322 -0.024878727
0002a0 41 84 64 bc 1b 51 36 3d c3 21 c2 3b fd b1 ac 3a
       -0.013947547 0.044510942 0.005924435 0.0013175603
0002b0 03 7b ad 3c b2 be 89 3b 62 79 0d bc 7a 0c 32 3c
       0.02117682 0.004203641 -0.008634897 0.010867232
0002c0 3d 06 2b 3c c3 ef 00 bd f3 3b e3 3b 0e a0 8b bc
       0.010438499 -0.031478655 0.0069346367 -0.017044093
0002d0 b0 42 43 3d cc 5b af 3c 3f 0c a9 3c c8 85 27 3d
       0.04767102 0.021406077 0.020635722 0.040899068
0002e0 5c 76 8c bb 28 9b d1 3c 46 8b 12 bd b4 0a 91 3c
       -0.0042865705 0.02558668 -0.035777353 0.017705299
0002f0 a2 b8 07 3d e6 5b a3 bc 4b 31 e0 bb 6b 2e e9 3b
       0.033135064 -0.019941282 -0.0068418137 0.007116129
000300 b8 0d 91 bc 35 95 ed bc 82 2c a8 bc 0b 44 0f bd
       -0.017706737 -0.029001812 -0.020529035 -0.034977
000310 bb e2 4b 3c 80 1c 45 bc 75 52 45 3d 86 66 8e bc
       0.0124441935 -0.012030721 0.04817434 -0.017382871
000320 de f7 26 3d fb 11 a1 bc ff 7d 34 bd 9d 9d 90 3c
       0.04076373 -0.019661894 -0.04406547 0.01765328
000330 db e6 a8 bc 8f 5d f1 bc 06 e0 9a bc 43 f3 a7 bc
       -0.020617893 -0.029463558 -0.01890565 -0.020501738
000340 5a 00 53 bb 8b 2e 8d 3c 3c bd 55 3c 3e 82 b6 3c
       -0.0032196254 0.017234107 0.013045605 0.022278901
000350 cd 94 d1 3c 3d 33 40 3c 19 9e ac 3a 54 17 0c bd
       0.025583649 0.011730966 0.0013169675 -0.034201935
000360 11 a6 bd 3c 4f a9 17 bd 9e e8 99 bb 9b 04 5d bb
       0.023150476 -0.0370267 -0.0046969196 -0.003372467
000370 34 22 fd 3c 04 ca 06 bd b4 e7 59 bc b9 46 ad 3c
       0.030900098 -0.0329075 -0.013299871 0.021151887
000380 05 4a 55 3c 8b 51 f4 3b 98 dd b7 3c 88 9a de 3c
       0.013018136 0.0074560097 0.022444531 0.027173296
000390 c0 ab 09 3d b0 f0 18 3d ab d6 60 ba 96 d7 23 3d
       0.03361106 0.037338912 -0.000857691 0.04000052
0003a0 00 1e 19 bc 9b e7 f2 3c 90 21 9c 3c d7 fb 97 bc
       -0.009345531 0.029651454 0.019058973 -0.018552704
0003b0 e7 b2 7f bc 95 f7 1b bd bb 39 c5 3b 7e 94 03 bc
       -0.0156066185 -0.03807791 0.006018845 -0.008031009
0003c0 4a 88 a2 3c eb 1d ef 3c bb 79 0e 3d d7 58 8b bc
       0.019840378 0.02918907 0.03478406 -0.017010136
0003d0 d6 8f c4 3c 02 be 9d bc 41 75 06 bc b1 57 9e bc
       0.023994368 -0.019255642 -0.008206666 -0.019328924
0003e0 71 af 16 3d de 16 97 3b 06 ac a6 ba da 0e 4d bc
       0.036788408 0.0046108803 -0.0012716062 -0.012515748
0003f0 4d d1 c3 3c 01 da e7 ba fe 05 c0 3c 20 a8 d6 bc
       0.023903513 -0.0017688872 0.023440357 -0.026203215

conv2d_3.2.bias f4 [64]
000000 a3 21 8c 3c f6 b3 e2 3c 09 a1 90 bb 06 88 9a 3c
       0.017105883 0.027673703 -0.004413728 0.01886369
000010 f8 2c 24 3d a9 af ae bc 16 83 e2 bc 81 33 7f 3c
       0.040081948 -0.021323996 -0.027650397 0.015576244
000020 a7 fc d4 bb 03 b1 24 3d cb b6 99 bc 50 21 ba 3a
       -0.006499845 0.040207874 -0.01876392 0.0014200602
000030 fa 87 25 3d 1a 56 75 3a 03 c3 32 3a b6 e7 aa 3c
       0.04041288 0.00093588384 0.000681922 0.020862442
000040 cf 81 ff bc e2 00 fe bc 45 0d 61 bc 3e da 08 bd
       -0.031189827 -0.03100628 -0.013736074 -0.033411257
000050 f2 cb c3 3b d3 9e e8 3c 89 05 1e 3d f0 40 61 3c
       0.00597524 0.028396046 0.038579497 0.013748392
000060 d4 5f 1f 3b 23 8d 07 3d b4 be 4d 3c df c0 17 bc
       0.0024318593 0.033093583 0.012557674 -0.009262293
000070 9e fd 44 3c 61 77 df 3b 80 ff b1 bc d6 97 80 bc
       0.012023358 0.006819651 -0.021728277 -0.015697401
000080 b8 5b 97 bc ad c5 fe bc 57 cc 41 3d 8b c3 ab 3c
       -0.018476352 -0.031100119 0.047314014 0.020967266
000090 da 14 a8 bc ab 4e 5e bc d1 96 54 3c 7f f4 c9 3b
       -0.020517755 -0.013568561 0.012975411 0.0061631794
0000a0 89 f6 f8 bc bc 59 ce bc fe b0 ea 3c 00 96 03 3d
       -0.030390995 -0.025189273 0.02864885 0.032125473
0000b0 60 72 1a 3c 92 e5 3e bc 5c 87 be bb a3 2b ca bc
       0.009426683 -0.0116514135 -0.005814476 -0.02467901
0000c0 27 d6 77 3c 7e 0b 36 3c 6f dc ed bb fd da 9e 3c
       0.0151267415 0.011111138 -0.0072589437 0.019391531
0000d0 9a e8 04 bd 03 90 5b 3c 57 b7 11 bd ff ad ba bc
       -0.03244839 0.013401034 -0.035575237 -0.022788046
0000e0 d8 fb bc bc 13 e1 14 3d d7 9f 93 ba 0c f6 94 3b
       -0.023069307 0.03634746 -0.0011262846 0.0045459326
0000f0 3a 80 0c bd d3 11 c4 bc ab bd dd bc 76 68 16 bd
       -0.034301974 -0.02393428 -0.02706798 -0.036720715
