models/01_going_modular.pth (torch, 727524 bytes, 36 tensors)

conv2d_1.0.weight f4 [16, 1, 3, 3]
0	0x3eafe7a5	0.34356418
1	0x3ebb65b4	0.3660103
2	0x3c4d1bde	0.012518851
3	0x3ec54656	0.38530225
4	0x3bd70164	0.006561445
5	0x3e163df6	0.14672074
6	0xbe14d257	-0.14533363
7	0x3e5918e1	0.21200897
8	0x3e9e70df	0.3094549
9	0xbe42d75c	-0.19027466
10	0x3eaf9295	0.3429152
11	0x3de97756	0.11399715
12	0x3ea97876	0.33099717
13	0x3e057e43	0.13036446
14	0x3e7986c3	0.24367814
15	0x3bae2c21	0.005315319
16	0x3e9ec8b8	0.3101251
17	0x3dcd24cf	0.10016786
18	0xbda8a09d	-0.082337596
19	0x3e20b515	0.15694077
20	0xbda5220b	-0.08063134
21	0xbdfdeda7	-0.12398844
22	0xbe611355	-0.21980031
23	0x3e0c7cc7	0.13719474
24	0xbea91f97	-0.33031914
25	0xbe62d649	-0.22152056
26	0xbe265308	-0.16242611
27	0xbea27e9c	-0.3173722
28	0xbdaf738f	-0.08566963
29	0xbee4cd4a	-0.44687873
30	0x3ea2255e	0.31669134
31	0xbe8a0310	-0.26955462
32	0x3e8b7d85	0.272442
33	0xbd339424	-0.04384245
34	0xbe50aa73	-0.20377521
35	0x3dd94f3b	0.10610815
36	0x3dd14509	0.102182455
37	0x3ea18b51	0.31551602
38	0x3dafe229	0.085880585
39	0xbe17d4d4	-0.14827281
40	0x3d3cba87	0.046076324
41	0xbe0b6cc1	-0.13615705
42	0x3e5bfa8b	0.21482293
43	0x3ec01523	0.37516126
44	0x3e8b7823	0.27240095
45	0xbe1538b8	-0.14572418
46	0x3e450a28	0.19242156
47	0x3d744b40	0.059642076
48	0x3e2d574e	0.16927835
49	0xbe500b5e	-0.20316836
50	0xbea8f1c3	-0.3299695
51	0xbe03e0b3	-0.12878685
52	0xbe82e7be	-0.2556743
53	0x3e8c09e4	0.27351296
54	0x3e4c2f99	0.19940032
55	0x3e74e6ea	0.23916212
56	0x3e526847	0.20547591
57	0xbd711301	-0.058856014
58	0x3e56452d	0.20924826
59	0xbe957e00	-0.29197693
60	0xbca896ec	-0.020579778
61	0xbe8930ea	-0.2679513
62	0x3d80d304	0.06290248
63	0xbd708cda	-0.058728077
64	0x3e1fea2a	0.1561667
65	0xbc99bb88	-0.01876618
66	0x3e97e817	0.29669258
67	0xbe2e6108	-0.17029202
68	0xbe32bc22	-0.1745458
69	0xbe50391b	-0.20334284
70	0x3eaa52b0	0.3326621
71	0x3e0e51d8	0.13898408
72	0x3e315d47	0.17320739
73	0xbed3c795	-0.41363207
74	0xbef38b18	-0.47567058
75	0xbe6a0b86	-0.22855958
76	0xbe489e66	-0.19591674
77	0x3e2866d5	0.16445477
78	0x3e730290	0.23731446
79	0x3eca63c5	0.39529243
80	0xbd56cea8	-0.052443177
81	0xbe68b0e3	-0.22723727
82	0x3e351aa0	0.17685938
83	0xbe09f7ee	-0.13473484
84	0x3e4f29d0	0.20230794
85	0xbda1ff4b	-0.079100214
86	0x3e434223	0.19068198
87	0xbe849a40	-0.25898933
88	0xbe2c40f8	-0.16821659
89	0x3dd02106	0.10162549
90	0x3d882460	0.06647563
91	0xbdb63131	-0.08896101
92	0x3e47d723	0.19515662
93	0x3e790649	0.24318804
94	0xbe6b969b	-0.2300667
95	0xbe2969c6	-0.16544256
96	0x3ebcf18d	0.3690304
97	0xbd4e4d9a	-0.050366975
98	0xbd722d64	-0.05912532
99	0xbea522db	-0.32253155
100	0xbe4378b0	-0.19089007
101	0x3daa885b	0.08326789
102	0xbd3436f6	-0.043997727
103	0xbe77c4e3	-0.241962
104	0x3c001ad6	0.007818898
105	0xbe692893	-0.22769384
106	0xbe90cb04	-0.2827989
107	0xbe3bf5a3	-0.18355422
108	0xbed53736	-0.41643685
109	0xbead1b33	-0.33809814
110	0x3e52ac11	0.2057345
111	0x3c967e35	0.018370727
112	0x3d74db1a	0.059779264
113	0xbeb6b7b2	-0.35687023
114	0xbe2938f0	-0.16525626
115	0xbd6baa36	-0.057535373
116	0x3dd947b6	0.10609381
117	0xbea3acdd	-0.31967822
118	0xbe27c374	-0.16383153
119	0xbe63129e	-0.2217507
120	0xbcbf2311	-0.02333215
121	0xbe194a90	-0.1496985
122	0xbd4ec83a	-0.05048392
123	0xbe9f97f2	-0.31170613
124	0xbea16153	-0.31519565
125	0xbe9132a8	-0.2835896
126	0xbd44f48e	-0.048084788
127	0xbe4c7957	-0.19968162
128	0x3eaf9166	0.34290618
129	0x3c041c14	0.008063335
130	0x3eb88d08	0.36045098
131	0x3e334aa1	0.17508937
132	0xbe797596	-0.24361262
133	0x3e899157	0.26868698
134	0xbd5c8913	-0.05384166
135	0xbe02d78b	-0.12777536
136	0xbe8daa56	-0.27669019
137	0xbea9ab8b	-0.3313869
138	0x3dc35176	0.09537022
139	0xbd951fd6	-0.07281463
140	0x3e04e393	0.12977438
141	0xbe8c0f56	-0.2735545
142	0x3e7d6a73	0.24747638
143	0xbe7a8e98	-0.24468458

conv2d_1.0.bias f4 [16]
0	0x3ada982f	0.0016677434
1	0x3d541343	0.051776182
2	0x3e3ddb9f	0.1854081
3	0x3e6a1428	0.22859251
4	0x3e8bedf2	0.27329975
5	0xbe87534c	-0.26430738
6	0x3dc7904e	0.09744321
7	0xbdd4940a	-0.10379799
8	0x3c0e6ed8	0.008693419
9	0xbe7f7c10	-0.2494967
10	0x3e97e58b	0.29667315
11	0xbe7a8593	-0.24465017
12	0x3e2d10fe	0.16901013
13	0x3e0b5613	0.13607053
14	0x3d911984	0.07084945
15	0xbe388a63	-0.1802154

conv2d_1.2.weight f4 [16, 16, 3, 3]
0	0x3d926e5f	0.07149958
1	0x3c6d7ac7	0.014494604
2	0x3bd40b1f	0.0064710523
3	0xbd8ffbb2	-0.07030429
4	0x3d07ff75	0.033202607
5	0xbc7029e8	-0.014658429
6	0xbd279e2c	-0.04092233
7	0x3d8a639f	0.067572825
8	0x3c6b7c53	0.014372903
9	0xbd54fdb6	-0.05199977
10	0xbd471580	-0.04860449
11	0xbc23dd93	-0.010001558
12	0x3d2c0485	0.041996498
13	0xbcdf0b77	-0.027227147
14	0xbd5c1483	-0.0537305
15	0xbd0c6392	-0.034274645
16	0xbd890d66	-0.06692009
17	0x3cbc1f9d	0.022964293
18	0x3d64340e	0.055713706
19	0xbdaeae16	-0.08529298
20	0x3c773e4b	0.015090535
21	0x3d256b2c	0.04038541
22	0x3c53f88f	0.012937679
23	0xbd1b9a5c	-0.037989005
24	0x3d27dba9	0.04098097
25	0x3d2bfe72	0.041990705
26	0x3cc11a31	0.02357206
27	0xbcaefc7d	-0.02136063
28	0xbcebfaf2	-0.028806183
29	0x3b993304	0.004675271
30	0xbc8c0b1c	-0.017095141
31	0xbce6414d	-0.02810731
32	0x3d38f730	0.04515761
33	0x3d902740	0.07038736
34	0xbc10c4e8	-0.008836009
35	0xbcc5420f	-0.02407935
36	0xbbbadfa9	-0.005702932
37	0xbc476fbe	-0.0121726375
38	0x3c5055f6	0.012715807
39	0x3caa24d9	0.020769523
40	0xbd9ffdc7	-0.07812076
41	0xbd1afdcd	-0.0378397
42	0x3d896944	0.06709531
43	0x3cefb467	0.029260827
44	0xbc3c2261	-0.011482806
45	0xbd4dcab6	-0.05024215
46	0xbd50d458	-0.050983757
47	0xbd98e0a7	-0.07464724
48	0xbcde8610	-0.027163535
49	0x3ce68a16	0.028142016
50	0x3d59a43b	0.053135138
51	0x3d1d97bb	0.03847478
52	0xbd96dc1b	-0.073662005
53	0xbd4d43db	-0.05011354
54	0xbc8519fa	-0.016247738
55	0x3d9e9718	0.077436626
56	0x3c079016	0.008274099
57	0xbcbff28d	-0.023431087
58	0x3d06b126	0.032883786
59	0xbd19741f	-0.037464257
60	0xbd6f919b	-0.05848847
61	0x3d6393dc	0.05556093
62	0xbd370c8a	-0.044689693
63	0xbca06b2c	-0.019582354
64	0xbda9c7aa	-0.08290036
65	0x3d6471c3	0.055772554
66	0x3d814d90	0.06313622
67	0x3cf8cbf0	0.030370682
68	0xbd6e00c0	-0.058106184
69	0xbda87010	-0.08224499
70	0xbd8a9ca4	-0.06768158
71	0x3d7e8848	0.062141687
72	0x3d10f4db	0.035389762
73	0x3d8352f4	0.064123064
74	0x3d1a2ce2	0.03764046
75	0x3cacc710	0.021091014
76	0xba55ecab	-0.00081605715
77	0xbd81cb04	-0.0633755
78	0xbd9238f3	-0.071397685
79	0xbd9fa202	-0.077945724
80	0x3d0bba98	0.034113497
81	0xbd279570	-0.040914
82	0xbc896370	-0.016771048
83	0xbd44706b	-0.047958773
84	0xbc78cbc0	-0.015185297
85	0xbd703e08	-0.058652908
86	0xbd5f0856	-0.05445131
87	0x3ce272ab	0.027642569
88	0xbccae2d6	-0.024766367
89	0x3d52b846	0.051445268
90	0xbd0ae5c6	-0.033910535
91	0xbd8c3857	-0.068466835
92	0xbcb41fd1	-0.021987827
93	0xbd298d4c	-0.041394517
94	0xbce0345f	-0.027368722
95	0xbdb0ae12	-0.08626951
96	0x3d355e9d	0.044279683
97	0xbd78937e	-0.060687535
98	0x3d0d26bd	0.03446077
99	0x3d1ae446	0.037815355
100	0x3d73dc16	0.059536062
101	0xbd82e904	-0.063921005
102	0x3d757c60	0.059933066
103	0xbd215dab	-0.03939597
104	0x3cfd510b	0.030922433
105	0x3da0468c	0.07825956
106	0xbc408e36	-0.011752656
107	0xba28f0ab	-0.0006444554
108	0xbcd9e910	-0.02660039
109	0xbd9f2d0f	-0.07772266
110	0x3cfc3de2	0.030791227
111	0xbdac37b2	-0.084090605
112	0x3d4ca1e9	0.049959097
113	0x3d5d25f7	0.053991284
114	0x3d9bfbf2	0.07616414
115	0xbcab0656	-0.020877045
116	0xbd9aa854	-0.07551637
117	0x3c997bf0	0.018735856
118	0x3d3c8fd6	0.04603561
119	0xbda9ddb4	-0.0829424
120	0xbc962b94	-0.018331327
121	0xbd499f5e	-0.04922425
122	0xbc605893	-0.013692993
123	0xbd2992e8	-0.041399866
124	0xbd0d10b6	-0.034439765
125	0xbd080b4a	-0.03321389
126	0xbdb0c914	-0.086321026
127	0x3d7f0b67	0.062266733
128	0x3d80e0fb	0.062929116
129	0xbc962aca	-0.01833095
130	0xbc739741	-0.014867605
131	0xbd286aaf	-0.041117366
132	0xbda0d02e	-0.07852207
133	0xbdab5820	-0.08366418
134	0x3cc1e19b	0.023667147
135	0xbd3b6863	-0.045753848
136	0xbd5b6f73	-0.053573083
137	0xbbd50e2b	-0.006501933
138	0xbce355eb	-0.02775093
139	0xbcdcdb5b	-0.026960066
140	0x3b2f7aab	0.0026775997
141	0xbc90cd56	-0.017676037
142	0xbceb0cf6	-0.028692704
143	0xbd236eb3	-0.039900493
144	0x3bbb5c9a	0.005717826
145	0x3e0aa40b	0.1353914
146	0x3d0bbe44	0.034117
147	0x3dce50eb	0.10074028
148	0x3d26d852	0.040733643
149	0x3d95175f	0.07279848
150	0x3e418adb	0.18900625
151	0x3e1381f9	0.1440505
152	0x3ca3dc36	0.020002466
153	0x3daef01e	0.085418925
154	0x3e03403b	0.1281747
155	0x3d819617	0.063274555
156	0x3e08de5f	0.13366078
157	0x3e225395	0.15852197
158	0x3d52e5a4	0.051488534
159	0x3d8c5e59	0.06853933
160	0xbc0b0504	-0.008485083
161	0x3c85eaf2	0.016347382
162	0x3b8045a0	0.00391455
163	0xbc804190	-0.015656263
164	0xbdfbb720	-0.12290788
165	0xbd3c83e4	-0.04602422
166	0xbd0c6ca3	-0.03428329
167	0xbd8b8812	-0.06813063
168	0xbc816a69	-0.01579781
169	0x3ce041c0	0.027375102
170	0x3dd4b6a5	0.10386399
171	0x3d1d5a46	0.03841617
172	0xbd22d3ea	-0.03975288
173	0xbd5cb977	-0.05388781
174	0x3dd1cd7f	0.102442734
175	0x3a2b65c9	0.00065382995
176	0x3d2a4f5e	0.041579597
177	0x3b05e90c	0.0020433096
178	0xbd9df5e0	-0.077129126
179	0xbd770bad	-0.06031387
180	0x3d65db49	0.05611733
181	0x3d363fa0	0.04449427
182	0x3c2dd15f	0.010609
183	0xbd61586c	-0.055015966
184	0xbd4b45ce	-0.049627118
185	0xbd25da29	-0.040491257
186	0x3e04d69b	0.1297249
187	0x3c10bee1	0.008834572
188	0xbca40805	-0.020023355
189	0x3ca57976	0.020199519
190	0x3cbc2666	0.022967529
191	0x3d3b0516	0.045659147
192	0x3d81ba2b	0.06334337
193	0x3d3e1468	0.04640618
194	0xbda93757	-0.08262508
195	0x3bf22dd6	0.007390718
196	0x3d4ec383	0.050479423
197	0xbbfc6216	-0.0077021224
198	0xbdbe3e09	-0.09289176
199	0x3d17ccd4	0.037060574
200	0xbdb01e58	-0.085995376
201	0xbd5bea38	-0.053690165
202	0xbdabe8fb	-0.08394047
203	0xbc0e3dea	-0.008681754
204	0x3dd76f57	0.10519283
205	0x3db34322	0.08753039
206	0x3da547ef	0.08070361
207	0xbd38e209	-0.04513744
208	0xbdb4b8ce	-0.08824311
209	0x3c057bef	0.008147224
210	0x3d3b2009	0.045684848
211	0x3c3e9c04	0.011633877
212	0xbd908c3e	-0.07057999
213	0xba18a87d	-0.00058234466
214	0xbd3360fe	-0.04379367
215	0xbcccac99	-0.024984645
216	0x3e24d693	0.16097479
217	0x3e464e6f	0.19365858
218	0x3e58962d	0.21151038
219	0xbca3e428	-0.020006254
220	0x3de0618d	0.10956106
221	0xbcef686d	-0.029224599
222	0x3d508f20	0.050917745
223	0x3dc1bfa3	0.0946038
224	0x3bcb81a7	0.006210524
225	0x3d9b462a	0.07581742
226	0xbd916ab3	-0.071004294
227	0xbd02601b	-0.031829935
228	0x3d47156b	0.04860441
229	0xbc94bb2b	-0.018155655
230	0xbc8bbdf6	-0.017058354
231	0xbd0e43d0	-0.03473264
232	0x3d6b487e	0.05744218
233	0x3d276cd3	0.040875267
234	0x3d8c8eb9	0.0686316
235	0xbb9f7284	-0.0048659462
236	0xbd191aca	-0.037379064
237	0x3cd1bc72	0.025602553
238	0x3d28ca25	0.041208405
239	0xbd0f841e	-0.035038106
240	0x3c7bcf45	0.015369241
241	0x3dc4f3c8	0.0961681
242	0x3d0cb995	0.034356672
243	0x3b766800	0.003759861
244	0xbca80130	-0.020508379
245	0xbd9a8dd2	-0.07546581
246	0xbda0787a	-0.07835479
247	0xbd232998	-0.03983459
248	0xbd2d81ce	-0.04236012
249	0x3cd4aff0	0.0259628
250	0xbcc6bb4b	-0.02425923
251	0xbd058983	-0.032601845
252	0x3db3fae5	0.08788089
253	0x3d176be1	0.036968116
254	0x3d665378	0.056231946
255	0xbd69c575	-0.057073075

conv2d_1.2.bias f4 [16]
0	0x3bdfa175	0.006824667
1	0xbb14b4d2	-0.0022690785
2	0x3d79d541	0.06099439
3	0xbd31e02b	-0.043426674
4	0x3d33f065	0.04393043
5	0xbdaa16af	-0.08305108
6	0xbc4c9b8e	-0.012488259
7	0xbda059a0	-0.078295946
8	0xbd191d30	-0.03738135
9	0x3cde8e21	0.027167382
10	0xbd8a2b5b	-0.06746551
11	0xbd7fd2df	-0.06245696
12	0x3d7872fb	0.06065653
13	0x3d2678dd	0.040642608
14	0x3c3f8405	0.011689191
15	0xbd87c152	-0.0662867

conv2d_2.0.weight f4 [32, 16, 3, 3]
0	0xbcb4dd00	-0.022078037
1	0xbcdd08c0	-0.026981711
2	0x3d52cde0	0.05146587
3	0xbcdf4a86	-0.027257215
4	0xbcc49e60	-0.0240013
5	0xbd71f510	-0.0590716
6	0xbd20c388	-0.039248973
7	0x3d38d083	0.045120727
8	0x3d5bea88	0.053690463
9	0xbd4e57a3	-0.050376546
10	0xbdb20cd3	-0.08693852
11	0x3c8d7127	0.01726587
12	0xbc1502d2	-0.009094911
13	0xbd6b64be	-0.057469122
14	0xbd4acd93	-0.049512457
15	0x3ce9597c	0.028485052
16	0x3d9ffbab	0.07811674
17	0x3d8d6473	0.06903925
18	0x3d2a0fda	0.041519023
19	0xbcb85e6e	-0.022505965
20	0x3d4df6f2	0.050284334
21	0xbd094e85	-0.033522148
22	0xbd1be503	-0.0380602
23	0xbcf39793	-0.029735362
24	0xbdbea737	-0.093092375
25	0xbd8e1fab	-0.06939634
26	0xbdb98a4f	-0.090595834
27	0xbba16040	-0.004924804
28	0x3a4df200	0.000785619
29	0xbcb12e46	-0.02162851
30	0xbd6942f8	-0.056948632
31	0x3d9ad80b	0.07560738
32	0xbce231e6	-0.027611684
33	0x3d22a9d3	0.03971274
34	0x3d6db540	0.05803418
35	0xbd6060b8	-0.05477974
36	0xbc0b3a30	-0.00849776
37	0x3d53f4c2	0.05174709
38	0x3db6bc98	0.0892269
39	0xbad43e22	-0.0016192833
40	0x3d8debd6	0.06929748
41	0xbd6712d5	-0.056414444
42	0xbd498545	-0.04919936
43	0x3d96785c	0.073471755
44	0xbb40c56e	-0.0029414552
45	0x3d9d19e9	0.076709576
46	0x3a488cd4	0.00076503796
47	0xbd21a949	-0.039468084
48	0x3dafb482	0.08579351
49	0x3da269d5	0.07930342
50	0x3c5438c9	0.012952992
51	0xbd444cc4	-0.047924772
52	0xbb80baef	-0.003928534
53	0xbd14fdf2	-0.036374994
54	0x3be77f9d	0.0070647732
55	0xbd517670	-0.05113834
56	0xbd2aa750	-0.041663468
57	0x3d6b4c12	0.057445593
58	0x3d142737	0.03617021
59	0xbd321784	-0.043479457
60	0x3dd88cde	0.10573743
61	0x3dc25034	0.09487954
62	0xbc27fb3a	-0.010252768
63	0x3d7c5bbb	0.06161092
64	0x3ccc09fa	0.024907101
65	0xbc8661d6	-0.016404074
66	0xbd81c107	-0.06335645
67	0xbc742fb0	-0.014903948
68	0xbdac2340	-0.08405161
69	0x3d42d1db	0.047563415
70	0x3d77363e	0.060354464
71	0xbcc489d6	-0.023991507
72	0x3d9e376b	0.07725414
73	0xbcfcc91b	-0.030857613
74	0x3c69cfab	0.014270703
75	0xbd6ddf88	-0.058074504
76	0xbb66e580	-0.0035232008
77	0x3d09fa26	0.033685826
78	0x3d130628	0.035894543
79	0xbb3721d6	-0.0027943752
80	0xbd2c1f1e	-0.042021863
81	0x3bf7c6bf	0.007561534
82	0x3b6e3d8b	0.00363526
83	0xbd249821	-0.040184144
84	0xbd4e0403	-0.050296795
85	0x3baebc15	0.0053324797
86	0xbc47c3b2	-0.0121926535
87	0x3d8f1987	0.06987291
88	0x3bd86a2a	0.0066044526
89	0x3a73ad2b	0.00092955184
90	0x3bb5ee4d	0.0055520893
91	0x3d3597ab	0.044334095
92	0xba86f556	-0.0010296504
93	0x3d88557f	0.06656932
94	0x3d31d4cb	0.043415826
95	0xbd80f5da	-0.062968925
96	0xbb8b6e3e	-0.0042550853
97	0xbd90dcf0	-0.070733905
98	0xbd830a12	-0.06398405
99	0xbd0f2f4a	-0.034957208
100	0xbd09988a	-0.03359274
101	0xbd7dbe9a	-0.06194935
102	0x3d735eca	0.05941657
103	0xbd8770d2	-0.06613316
104	0xbd76c377	-0.060245004
105	0x3cafac8a	0.021444578
106	0x3d10980a	0.035301246
107	0x3cf0b9f7	0.02938555
108	0x3cffdb24	0.031232424
109	0xbda35579	-0.07975287
110	0xbdb2c6cd	-0.087293245
111	0x3c8be781	0.017078163
112	0x3d93f16b	0.07223781
113	0x3cef9ee9	0.029250579
114	0x3d938e3a	0.07204862
115	0x3d3164d0	0.043309033
116	0x3dd034b5	0.10166303
117	0x3d344d06	0.044018768
118	0x3d593dc9	0.05303744
119	0xbc952b5a	-0.018209148
120	0xbd945938	-0.072435796
121	0xbd31a7a0	-0.04337275
122	0x3cd88066	0.026428413
123	0x3d73786b	0.05944101
124	0xbd02ca8f	-0.031931456
125	0x3d8ea52e	0.06965099
126	0x3d4d641a	0.050144292
127	0x3d23ff46	0.04003837
128	0x3d38cb7a	0.045115925
129	0x3c1b9636	0.009496262
130	0x3dd389f6	0.10329048
131	0x3cf68726	0.03009374
132	0x3c79e84b	0.015253137
133	0xbddc417a	-0.10754676
134	0xbda9696f	-0.08272063
135	0x3c160b27	0.009157932
136	0x3d8846fc	0.06654164
137	0x3d228126	0.039673947
138	0x3c41f5d4	0.011838395
139	0xbda89e03	-0.08233263
140	0x3acd5756	0.0015666287
141	0xbd6e1b12	-0.058131285
142	0xbd91ba3c	-0.071155995
143	0x3c3ab34b	0.011395286
144	0xbd4c4aa4	-0.04987587
145	0x3d86e8bb	0.065873586
146	0xbd17d31d	-0.037066568
147	0x3cbf5143	0.023354178
148	0x3d16b7e2	0.036796458
149	0xbd5623f4	-0.05228038
150	0x3d4143b2	0.0471837
151	0xbc2279fe	-0.0099167805
152	0x3d369282	0.044573314
153	0x3ccf3bad	0.02529701
154	0xbdc32afb	-0.09529682
155	0xbdc5acc5	-0.09652094
156	0x3de6d8d0	0.112718225
157	0x3d47c9a1	0.048776273
158	0x3d0b2c90	0.033978045
159	0x3ca9995b	0.020703008
160	0xbdb12f62	-0.08651616
161	0xbd459890	-0.048241198
162	0x3d63e1bc	0.0556352
163	0x3d00015e	0.031251304
164	0xbd67a987	-0.05655816
165	0x3c13da29	0.009024181
166	0xbd9875d1	-0.07444347
167	0xbd728f8f	-0.05921894
168	0x3d53edbb	0.05174039
169	0xbcbf779d	-0.023372466
170	0xbd36ac2d	-0.044597793
171	0x3bc18e56	0.0059068603
172	0x3ca6d2d0	0.020364195
173	0xbd542db6	-0.051801406
174	0xbd662ec6	-0.05619695
175	0xbda54910	-0.08070576
176	0x3cb063cb	0.02153196
177	0xbd5c3d03	-0.053769123
178	0x3bd01980	0.006350696
179	0xbc98af1b	-0.018638184
180	0xbd65df79	-0.056121323
181	0xbcd1aa6d	-0.02559396
182	0xbd892453	-0.066963814
183	0xbd2d3306	-0.042284988
184	0x3adb9017	0.0016751316
185	0xbd8fcca0	-0.07021451
186	0xbda6b79d	-0.0814049
187	0x3d57523c	0.05256866
188	0xba99d90d	-0.001173766
189	0xbd1184ce	-0.035527043
190	0xbaa82f7c	-0.0012831534
191	0x3d809545	0.06278471
192	0xbd7f433c	-0.06231998
193	0xbd133d3a	-0.035947062
194	0xbd550c3b	-0.052013617
195	0x3af7d4c6	0.0018908016
196	0x3bcc937b	0.006243167
197	0xbd63c540	-0.055608034
198	0x3c4c5ceb	0.012473325
199	0xbdd97c86	-0.10619454
200	0x3cfe5910	0.031048328
201	0x3bb4a3d1	0.0055126925
202	0x3d5fa8bd	0.05460428
203	0x3da93a22	0.08263041
204	0xbdb00fb5	-0.08596746
205	0x3d132edb	0.035933357
206	0xbdc9938c	-0.098425955
207	0xbc070df7	-0.008243076
208	0xbd6701b0	-0.056398094
209	0x3ca31b80	0.019910574
210	0x3d82c5ff	0.06385421
211	0x3d8f439d	0.06995318
212	0x3b27d28b	0.002560767
213	0xbd11fa43	-0.03563906
214	0x3db738b4	0.08946362
215	0x3c649922	0.013952525
216	0x3d66f033	0.056381416
217	0xbd314b63	-0.043284785
218	0xbd1e6918	-0.038674444
219	0xbd8dad14	-0.06917778
220	0x3d9d08eb	0.076677166
221	0x3c627cc0	0.013823688
222	0xbd752458	-0.059849113
223	0x3bea88ab	0.0071574054
224	0xbd12664e	-0.035742097
225	0xbbde5232	-0.006784701
226	0x3c918cb3	0.017767286
227	0xbd5d21cd	-0.053987313
228	0x3d807802	0.0627289
229	0xbb433150	-0.0029784031
230	0x3d84f537	0.064920835
231	0xbdc0859b	-0.09400483
232	0x3a56789b	0.0008181424
233	0x3d8f3fc1	0.06994582
234	0x3d975f62	0.0739124
235	0x3cf90620	0.030398428
236	0x3d7b29c3	0.061319124
237	0x3da55367	0.08072548
238	0x3ced9222	0.029000346
239	0x3ce3ae86	0.02779318
240	0x3c07b161	0.0082820365
241	0x3d9fac4f	0.07796537
242	0x3d929c0f	0.07158672
243	0xbda543b5	-0.08069555
244	0xbd20aa61	-0.039224986
245	0xbdb05bb9	-0.08611245
246	0x3d5f3616	0.05449494
247	0xbd638ae0	-0.055552363
248	0x3d574e56	0.05256494
249	0xbd1cf8e5	-0.0383233
250	0x3c77bb89	0.015120395
251	0x3c5c3c8b	0.013442169
252	0xbdb09555	-0.08622233
253	0x3b8941cc	0.004188752
254	0xbbed30dc	-0.0072384905
255	0xbcfc96bf	-0.0308336

conv2d_2.0.bias f4 [32]
0	0xbcac887b	-0.021061173
1	0x3ccaa8d5	0.024738709
2	0x3cfc73fc	0.030817024
3	0x3bddc564	0.0067679156
4	0xbd8d06b5	-0.06886045
5	0xbd3704f8	-0.044682473
6	0xbdc42791	-0.09577859
7	0xbd30e956	-0.043191276
8	0xbce114b9	-0.027475702
9	0x3d54a76c	0.05191748
10	0xbc6901ee	-0.0142216515
11	0xbd07599f	-0.033044454
12	0x3cd9e1cb	0.026596924
13	0x3da7a3d8	0.081855476
14	0xbd851da6	-0.064997956
15	0xbc898dad	-0.01679119
16	0x3d1ebe0a	0.038755454
17	0x3d7b07bf	0.061286684
18	0xbb5d88a8	-0.0033803377
19	0x3d52611d	0.051362146
20	0x3d9af617	0.07566469
21	0x3d3f1d5a	0.04665885
22	0x3d03a320	0.03213799
23	0x3d2e46a1	0.042547826
24	0xbd16b9f8	-0.036798447
25	0x3be9280f	0.007115371
26	0x3d880525	0.06641606
27	0xbd5de85d	-0.054176677
28	0xbdc51974	-0.096239954
29	0xbd425fd7	-0.04745468
30	0x3c5da91b	0.013529087
31	0x3d88da5f	0.06682276

conv2d_2.2.weight f4 [32, 32, 3, 3]
0	0xbc6dcebb	-0.01451462
1	0xbd073a97	-0.03301486
2	0xbb4729ad	-0.003038983
3	0xbd59d3ef	-0.05318063
4	0x3bbc5f8b	0.0057486943
5	0xbd35c3e8	-0.044376284
6	0xbd45dc6f	-0.048305925
7	0xbd53a098	-0.051666826
8	0xbcc0d6ef	-0.023539988
9	0x3cc249d4	0.023716845
10	0xb905d8eb	-0.00012764677
11	0x3cf59bfc	0.029981606
12	0xbd91ff8f	-0.07128822
13	0xbd6b13b1	-0.057391826
14	0x3ce8a21f	0.028397618
15	0x3d03923a	0.032121874
16	0x3d29baaa	0.041437782
17	0xbd7ad5ec	-0.061239168
18	0x3ca51ecd	0.020156289
19	0xbd68d2c4	-0.056841627
20	0xbcc5e04e	-0.024154808
21	0xbb25cc39	-0.0025298728
22	0x3d101d18	0.035183996
23	0xbc92ace2	-0.017904703
24	0xbd41df9f	-0.047332402
25	0xbd56a2b6	-0.052401267
26	0xbcfdd6ca	-0.030986208
27	0x3d192aab	0.037394207
28	0x3cc5dd54	0.024153389
29	0x3ce633a5	0.028100798
30	0xbd79cb46	-0.060984872
31	0xbd685933	-0.056725692
32	0x3d5d6e22	0.05406011
33	0x3d1f2335	0.038851935
34	0xbc574cf0	-0.013140902
35	0x3c7bf684	0.015378598
36	0x3d2de16d	0.04245131
37	0x3d5943aa	0.053043045
38	0xbd4234b1	-0.04741353
39	0xbcef3f8b	-0.029205104
40	0x3cbb95ab	0.022898516
41	0x3d38689b	0.045021635
42	0x3c27f648	0.010251589
43	0xbb6e53a6	-0.0036365776
44	0x3b1595d7	0.0022824907
45	0x3d5ba330	0.053622425
46	0xbd3d7f85	-0.04626419
47	0x3cdbe9b5	0.026844839
48	0xbd2ccc7a	-0.04218719
49	0x3bb79607	0.0056026014
50	0xbd63fff8	-0.055664033
51	0x3d1c52c1	0.038164858
52	0xbd067a2e	-0.032831363
53	0x3b8043cd	0.0039143325
54	0xbd175eb0	-0.036955535
55	0x3bb0d3f9	0.005396363
56	0xbceb10b8	-0.028694496
57	0xbd175189	-0.036942992
58	0xbd0355a7	-0.032064106
59	0x3cf86aa6	0.030324291
60	0x3c06eb57	0.00823482
61	0xbc78aaf0	-0.015177473
62	0x3d4d9182	0.050187595
63	0x3bbb33ad	0.0057129473
64	0xbca156dc	-0.019694738
65	0xbc1290e7	-0.00894568
66	0xbcf06487	-0.02934481
67	0xbccb8adf	-0.024846492
68	0xbcdba4be	-0.026811954
69	0x3bfa06cc	0.007630205
70	0xbd5360db	-0.05160604
71	0xbd387942	-0.045037515
72	0x3d220505	0.03955557
73	0xbc673978	-0.014112823
74	0xbc04f305	-0.008114581
75	0x3ca89713	0.02057985
76	0xbcd7eaa8	-0.02635701
77	0x3d33c926	0.043893002
78	0xbc5a8960	-0.013338417
79	0x3b6b5105	0.0035906446
80	0xbd3f039c	-0.0466343
81	0x3c2fbdcf	0.010726406
82	0xbd3dd9e4	-0.046350375
83	0x3cbc243c	0.022966497
84	0xbc96e7fb	-0.018421164
85	0xbc9398a3	-0.018017119
86	0xbca9d009	-0.020729082
87	0x3c905c09	0.01762201
88	0x3d70d34b	0.058795255
89	0x3bfd07ba	0.0077218683
90	0x3ca96289	0.020676868
91	0xbd834c61	-0.064110525
92	0xbcfb1af0	-0.030652493
93	0xbd4435ce	-0.047902875
94	0xbd63893e	-0.055550806
95	0xbb82c39e	-0.0039906045
96	0xbcfb2644	-0.030657895
97	0x3bba34eb	0.005682578
98	0xbcf943be	-0.03042781
99	0xbd5c1475	-0.053730447
100	0xbcf86d15	-0.030325452
101	0xbd67fedd	-0.05663954
102	0x3c5116ce	0.012761785
103	0xbd35322b	-0.044237297
104	0x3d398875	0.04529615
105	0x3c999249	0.018746512
106	0xbcbe5fb9	-0.023239003
107	0xbc21ab03	-0.0098674325
108	0xbd7e99d8	-0.062158436
109	0x3ceeb5bd	0.029139394
110	0xbd221d7a	-0.039578892
111	0xbcbcb909	-0.02303745
112	0xbb298843	-0.0025868572
113	0x3c949ea4	0.018142052
114	0xbcdde15f	-0.027085004
115	0x3c9d098f	0.019169597
116	0x3c9e7e02	0.019347195
117	0xbaa8f792	-0.0012891165
118	0x3d2872d2	0.041125126
119	0xbd47ffcd	-0.048827935
120	0xbccdab22	-0.025106017
121	0x3bcdd7b2	0.0062818164
122	0xbc1f675b	-0.009729232
123	0x3ccf48fb	0.025303354
124	0x3d360035	0.04443379
125	0xbd31f571	-0.04344696
126	0x3cfd4e4e	0.030921128
127	0x3c67a55d	0.014138547
128	0x3d487305	0.048937816
129	0x3d00d281	0.031450752
130	0xbc51d8a4	-0.012807999
131	0xbc08e602	-0.008355619
132	0xbd209db3	-0.039212894
133	0x3c55055f	0.013001769
134	0x3d3cdff2	0.04611201
135	0x3ca61b2d	0.02027663
136	0x3d466c44	0.048443094
137	0x3cc0ccc3	0.023535138
138	0x3c39c3d9	0.011338198
139	0xbbde0ef9	-0.006776687
140	0xbd508458	-0.050907463
141	0xbc34fb0d	-0.011046183
142	0x3d4ce1cd	0.050020028
143	0x3d51dc58	0.051235527
144	0xbd0efff2	-0.034912057
145	0x3d0c1be5	0.03420629
146	0x3d0f2d35	0.034955222
147	0xbd82d081	-0.06387425
148	0xbd8d0e8d	-0.06887541
149	0xbd1fc76b	-0.03900854
150	0xbc9b8d92	-0.018988404
151	0x3c5d6c8a	0.013514647
152	0x3c63a990	0.013895407
153	0x3cba45cb	0.022738358
154	0xbd365912	-0.044518538
155	0x3cbf432a	0.023347456
156	0xba65e613	-0.00087699405
157	0xbd62637d	-0.05527066
158	0xbd69c865	-0.057075877
159	0x3be2113d	0.0068990276
160	0x3d278ba5	0.04090466
161	0xbd594e3a	-0.05305312
162	0xbc1a421c	-0.009415176
163	0xbd8e4299	-0.06946296
164	0x3cc85c97	0.024458213
165	0x3aec2a0d	0.0018017903
166	0xbcd92eea	-0.026511628
167	0x3ca02911	0.019550832
168	0x3c35c365	0.011093949
169	0x3cfd0bcb	0.030889412
170	0xbb2afe36	-0.0026091463
171	0xbc3d665b	-0.011560048
172	0x3c84a604	0.016192444
173	0x3bf515ea	0.007479419
174	0xbd846771	-0.064650424
175	0xbd079b10	-0.033106863
176	0x3cd5d027	0.026100231
177	0xbd395fad	-0.04525726
178	0x3d0d635e	0.034518592
179	0xbcbac138	-0.022797212
180	0x3d2d42ff	0.04230022
181	0xbd4abdf3	-0.049497556
182	0x3cdb4b0c	0.026769184
183	0xbd24354f	-0.0400899
184	0x3cf33352	0.029687557
185	0x3caf76a1	0.021418871
186	0x3c25ced5	0.010120113
187	0x3bbc88e9	0.0057536256
188	0x3cbf1e3c	0.023329847
189	0xbd1de11d	-0.038544763
190	0xbd07cebb	-0.033156138
191	0x3b2b857a	0.0026172088
192	0xbd664d90	-0.056226313
193	0xbbefa8fd	-0.007313846
194	0x3c817d92	0.015806947
195	0xbd8cfc42	-0.06884052
196	0xbc688f75	-0.014194359
197	0xbbe174db	-0.0068803853
198	0xbd74d791	-0.059775893
199	0x3cf32fd7	0.029685898
200	0xbc5d4ba5	-0.013506805
201	0xbd8e8ae7	-0.06960087
202	0xbd06ecc0	-0.032940626
203	0xbb3a2848	-0.0028405357
204	0x3cf09af4	0.029370762
205	0xbcfac080	-0.03060937
206	0x3d1fcd0d	0.03901391
207	0xbd25487c	-0.04035233
208	0xbd75d612	-0.060018606
209	0xbcdc5000	-0.026893616
210	0xbd5575b8	-0.05211422
211	0x3c47afe2	0.01218793
212	0x3d03affc	0.032150254
213	0xbd80e475	-0.06293575
214	0xbd4b7194	-0.049668863
215	0x3ce91a0d	0.028454805
216	0xbc4f18ec	-0.012640219
217	0x3d5c14ee	0.053730898
218	0x3d5b1e15	0.053495485
219	0xbd165715	-0.03670414
220	0x3d189dd7	0.037259903
221	0xbd341ff9	-0.043975804
222	0x3c70a76b	0.014688353
223	0xbd2eb676	-0.042654477
224	0xbc0f2aeb	-0.00873826
225	0x3d5b922b	0.053606194
226	0x3bbb56af	0.0057171206
227	0xbd155169	-0.036454592
228	0x3caed4fd	0.021341795
229	0xbc601ae3	-0.013678285
230	0x3d46b466	0.048511885
231	0xbd4595d5	-0.048238594
232	0xbc3ad938	-0.011404328
233	0xbd52486d	-0.0513386
234	0xbd1da82a	-0.038490452
235	0xbcb74cb0	-0.022375435
236	0xbd367c27	-0.044551995
237	0xbd4b64bf	-0.049656626
238	0xbc88c272	-0.016694281
239	0xbd1a22a8	-0.037630707
240	0xbd38dd02	-0.045132644
241	0xbbdc87bc	-0.006730048
242	0xbd5dca2c	-0.054147884
243	0x3c91b57f	0.01778674
244	0x3cbacafb	0.022801867
245	0x3d175b9d	0.036952604
246	0x3c834162	0.016022388
247	0xbbd8f59a	-0.006621075
248	0xbc9a487d	-0.018833393
249	0xbd2afc8e	-0.04174476
250	0x3cdd3eb5	0.02700744
251	0x3ce56c5f	0.028005777
252	0x3d18b6c9	0.037283693
253	0xbc950d2e	-0.018194761
254	0xbd391fb1	-0.04519624
255	0x3ca10118	0.019653842

conv2d_2.2.bias f4 [32]
0	0x3c0f935f	0.008763163
1	0xbc3e1d4f	-0.011603667
2	0x3d038765	0.032111544
3	0xbb2a4413	-0.0025980517
4	0x3cfb28c0	0.03065908
5	0xbbce84d0	-0.0063024536
6	0xbc48afeb	-0.012248973
7	0x3cf2ce8d	0.029639507
8	0x3c9597d7	0.01826088
9	0xbc07d048	-0.008289404
10	0xbc8f02e4	-0.017457433
11	0x3b618246	0.0034409924
12	0xbcdefc77	-0.027219994
13	0x3d0fb13e	0.03508114
14	0x3c7ca2cb	0.015419672
15	0xbc30e67e	-0.010797141
16	0x3a928324	0.0011177999
17	0x3c1b5bfc	0.00948238
18	0xbd82106c	-0.063507885
19	0xbce9a411	-0.028520616
20	0xbd720dde	-0.059095256
21	0xbc9646c1	-0.018344285
22	0xbd5a06f7	-0.0532293
23	0xbd46f0c4	-0.048569456
24	0x3c3bbe69	0.011458972
25	0xbb9804e4	-0.004639255
26	0xbd14c39c	-0.03631936
27	0x3b826d37	0.0039803046
28	0x3c863ed1	0.016387375
29	0xbd0e180f	-0.034690913
30	0x3cee277e	0.029071566
31	0xbd309128	-0.04310718

conv2d_3.0.weight f4 [64, 32, 3, 3]
0	0x3d6faad8	0.05851254
1	0x3cb9cec4	0.022681601
2	0xbd0aba70	-0.033869207
3	0xbd452b06	-0.048136733
4	0x3cbc4cf9	0.022985922
5	0xbc340409	-0.01098729
6	0x3cbe9f1a	0.023269225
7	0x3cce1e23	0.025160855
8	0xbd23a200	-0.039949417
9	0x3be2f35f	0.0069259848
10	0x3b6f1fc0	0.003648743
11	0xbd064f00	-0.032790184
12	0xbbbbcc72	-0.005731159
13	0xbc101b0c	-0.008795511
14	0xbd4ad56b	-0.049519937
15	0x3d898643	0.067150615
16	0x3cc952bc	0.024575584
17	0x3cbc56bc	0.022990577
18	0xbd524ea9	-0.051344547
19	0xbd508bcb	-0.050914567
20	0x3cd0859d	0.025454337
21	0x3d2ba99f	0.04190981
22	0xbd2f5e15	-0.042814333
23	0x3d757dc2	0.059934385
24	0xbcadb506	-0.021204483
25	0xbd64fd93	-0.05590589
26	0xbd54c6c2	-0.051947363
27	0xbcb31821	-0.021862091
28	0x3cb8aa9d	0.022542292
29	0xbd4941e0	-0.04913509
30	0x3d1071ab	0.035264652
31	0x3d4ed731	0.05049819
32	0x3d40451b	0.046940904
33	0x3c9c3e8b	0.019072792
34	0xbd0242af	-0.031801876
35	0xbcf6f32d	-0.030145252
36	0x3c66ed21	0.014094622
37	0xbd08d03e	-0.03340172
38	0xbb3cc19e	-0.0028801928
39	0x3cfcab58	0.030843422
40	0xbdb2fe1b	-0.08739873
41	0xbcadcf54	-0.021217026
42	0xbd2899fb	-0.041162472
43	0xbcc31312	-0.023812804
44	0xbb8c67a5	-0.0042848163
45	0xbc512078	-0.012764089
46	0x3d6a4c15	0.057201464
47	0x3cc3c35e	0.02389687
48	0xbd17a4dd	-0.03702246
49	0x3d69df03	0.057097446
50	0xbc85fb43	-0.016355162
51	0x3c0b0520	0.008485109
52	0x3bb43e32	0.0055005783
53	0xbd316711	-0.043311182
54	0x3cf59717	0.029979272
55	0xbd12a24e	-0.035799317
56	0xbd570787	-0.052497413
57	0x3d4a9913	0.04946239
58	0x3d1085ad	0.035283733
59	0xbcca0e1d	-0.024664933
60	0xbd2cc21d	-0.04217731
61	0x3d59f5ac	0.053212807
62	0x3caab0a7	0.020836188
63	0xbd2f6a32	-0.042825885
64	0xbd91b715	-0.07114998
65	0xbcc7b754	-0.02437941
66	0xbd05b1ee	-0.03264039
67	0xbb3c5aa5	-0.0028740552
68	0x3d6f6ddf	0.05845439
69	0xbd7e8b4e	-0.06214457
70	0x3c9db503	0.019251352
71	0x3ca11b06	0.019666206
72	0xbd894f49	-0.067045756
73	0x3d1f6990	0.03891903
74	0xbd01278a	-0.031531848
75	0x3869bc22	5.572674e-05
76	0x3d1b1fd7	0.03787216
77	0x3cf57b4e	0.029966023
78	0x3cd356b8	0.025798187
79	0xbbca4be0	-0.006173596
80	0x3a04d41c	0.0005067007
81	0xbd4d5002	-0.05012513
82	0xbd2f1b05	-0.042750377
83	0x3d42692e	0.04746359
84	0xbd5c94c6	-0.05385282
85	0x3ccfe48a	0.02537753
86	0xbd0e35ac	-0.034719154
87	0x3d513d54	0.051083878
88	0x3d321354	0.043475464
89	0xbc5a2c2f	-0.013316198
90	0xbbf6ed2b	-0.007535597
91	0xbd276e8d	-0.040876914
92	0x3d611dc7	0.05496004
93	0xbd11766e	-0.035513334
94	0x3cac4e8f	0.021033553
95	0x3d292214	0.041292265
96	0xbd686623	-0.05673803
97	0xbd6d639d	-0.057956327
98	0xbd2964c4	-0.041355863
99	0xbc813cd6	-0.01577608
100	0x3d36e8fe	0.044655792
101	0xbc1f7ec4	-0.009734813
102	0xbd25bc7f	-0.040462967
103	0x3c51bb98	0.0128010735
104	0x3cb788c6	0.022404086
105	0x3c0b185d	0.008489695
106	0x3cb4d8f9	0.022076117
107	0xbdae89af	-0.08522355
108	0xbd573e74	-0.052549794
109	0x3c2067b9	0.009790354
110	0xbd4a812c	-0.049439594
111	0xbc86bff0	-0.016448945
112	0x3d12eb21	0.035868768
113	0x3d6a85f8	0.05725667
114	0xbc420765	-0.011842583
115	0xbd54dd04	-0.05196859
116	0xbcee30c7	-0.029075993
117	0x3d6a8ffd	0.057266224
118	0xbccd591e	-0.025066908
119	0xbd80be2d	-0.06286273
120	0xbcff962b	-0.031199535
121	0xbd4fbb3b	-0.050715666
122	0xbd00fec8	-0.03149298
123	0xbd2ebf55	-0.042662937
124	0xbc963782	-0.018337015
125	0x3d26bb3a	0.040705897
126	0xbce49a75	-0.027905682
127	0xbc4f6eb8	-0.012660675
128	0x3d07831e	0.033084027
129	0xbd618b43	-0.05506445
130	0xbcfd8456	-0.030946892
131	0xbba40ef6	-0.0050066663
132	0x3d3dcba1	0.046336774
133	0x3c06479d	0.008195785
134	0xb998c0e4	-0.00029135414
135	0xbd0a542d	-0.033771683
136	0x3c562424	0.01307014
137	0xbd26ea1b	-0.040750604
138	0xbc170ea4	-0.009219799
139	0x3d0e5d11	0.034756724
140	0x3db480cf	0.08813631
141	0x3d2eae48	0.042646676
142	0xbd60b52b	-0.054860275
143	0xbc6ff7cc	-0.014646482
144	0xbd041dd4	-0.03225501
145	0xbd4c7170	-0.04991287
146	0xbd41b92a	-0.047295727
147	0xbd5a7230	-0.053331554
148	0xbda1465e	-0.078747496
149	0x3cd96a62	0.026539985
150	0xbd633cba	-0.055477835
151	0x3c85b229	0.016320305
152	0x3cef967d	0.029246563
153	0xbca2260d	-0.019793535
154	0x3d3a7d65	0.04552974
155	0x3d083fbc	0.033263907
156	0xbd4c2f91	-0.04985005
157	0x3cc984aa	0.024599392
158	0x3bc765ca	0.0060851322
159	0x3d1b7ab4	0.037958816
160	0xbd594b74	-0.053050473
161	0x3d19c39c	0.037540063
162	0xbbbf148b	-0.0058313063
163	0x3c6f8be7	0.014620758
164	0xbd05fdf1	-0.03271288
165	0x3d1eef7a	0.0388026
166	0x3d28ebf7	0.04124066
167	0x3dca9e4d	0.09893475
168	0xbc35cfce	-0.011096908
169	0x3cd84c3a	0.026403535
170	0xbd424c87	-0.047436263
171	0xbd55e763	-0.05222262
172	0x3ca7a756	0.020465534
173	0x3cffb6e6	0.031215142
174	0x3c859a7a	0.016309012
175	0x3c97a815	0.018512765
176	0x3d1efac1	0.038813356
177	0xbcf85ea1	-0.03031856
178	0x3d012f73	0.03153939
179	0x3ce767ef	0.028247802
180	0xbccce510	-0.02501157
181	0xbd0df2e1	-0.034655455
182	0xbd6fb07f	-0.05851793
183	0x3d317e47	0.043333318
184	0xba4a45e2	-0.0007716102
185	0x3c5cc198	0.013473891
186	0xbd2ad290	-0.041704714
187	0xbd3577db	-0.044303756
188	0x3d461146	0.048356317
189	0x3d2a0d1e	0.041516416
190	0x3d0287bf	0.03186774
191	0x3d410209	0.04712108
192	0x3d425d12	0.04745204
193	0x3d0e91b9	0.03480694
194	0x3d2e56c1	0.042563204
195	0xbbf80bb9	-0.007569757
196	0x3c7b73ac	0.015347403
197	0xbd4f726a	-0.050646223
198	0xbcad058d	-0.02112081
199	0xbbb46643	-0.0055053546
200	0xbb3c462b	-0.0028728347
201	0x3d6e0b4d	0.058116246
202	0x3d44eee7	0.048079398
203	0x3c980171	0.018555375
204	0x3d610eac	0.054945633
205	0xbcf61963	-0.030041402
206	0x3c3bb4e3	0.011456701
207	0xbd3f7492	-0.04674203
208	0xbd4d4fa1	-0.05012477
209	0x3d010b2b	0.03150479
210	0x3c9afd25	0.018919537
211	0xbb4fd9c9	-0.0031715503
212	0xbd1c2b48	-0.038127214
213	0x3d2dfe36	0.042478763
214	0xbb9420aa	-0.0045204954
215	0x3d24c67a	0.040228345
216	0xbd26c1b9	-0.040712092
217	0x3d397c47	0.045284536
218	0xbb3666fa	-0.0027832375
219	0xbc96d8ee	-0.018413987
220	0xbb9f6503	-0.0048643365
221	0xbd3a2743	-0.0454476
222	0xbc308666	-0.010774231
223	0x3b62455d	0.0034526207
224	0xbd32b242	-0.04362703
225	0x3c902da0	0.01759988
226	0x3d29c10f	0.04144388
227	0x3cf8e00b	0.03038027
228	0xbced1fb0	-0.028945774
229	0xbca6b094	-0.02034787
230	0xbcf95f7e	-0.030441042
231	0xbd56d9e6	-0.052453898
232	0x3cd48690	0.02594307
233	0x3c88a4b6	0.016680103
234	0xbd147ed3	-0.03625376
235	0xbc591506	-0.013249641
236	0xbc181280	-0.0092817545
237	0x3a5f2180	0.0008511767
238	0xbd2d2934	-0.042275622
239	0x3d8752a5	0.0660756
240	0xbd16c3c6	-0.036807798
241	0xbd7716c7	-0.060324457
242	0xbc28c260	-0.010300249
243	0x3b5e939c	0.0033962494
244	0x3c513e4b	0.012771199
245	0xbcf3d1f0	-0.029763192
246	0xbb8d0136	-0.004303123
247	0xbce3342a	-0.027734835
248	0xbce55eee	-0.027999368
249	0xbd61676a	-0.055030264
250	0xbd3ce843	-0.04611994
251	0x3ce3b12c	0.027794443
252	0xbd779a5e	-0.06044995
253	0xbc431f26	-0.011909282
254	0xbb33fbd7	-0.002746334
255	0x3c4b1a30	0.01239638

conv2d_3.0.bias f4 [64]
0	0xbd57538e	-0.05256992
1	0xbd8d875d	-0.06910584
2	0x3c427017	0.011867545
3	0x3d22176e	0.039573126
4	0x3c966127	0.018356873
5	0x3cecf182	0.028923754
6	0xbc9a2368	-0.018815711
7	0xbd595217	-0.053056803
8	0xbcd1040a	-0.025514621
9	0x3ba08591	0.004898735
10	0x3d05d840	0.032676935
11	0xbc5acab6	-0.013353994
12	0x3adbaff0	0.0016760807
13	0x3ce28179	0.027649628
14	0xbd1e26a5	-0.038611073
15	0xbdc12627	-0.09431105
16	0xbd3da786	-0.04630234
17	0xbd0210b3	-0.031754207
18	0xbacbbe5d	-0.0015544404
19	0xbd736f0e	-0.059432082
20	0xbce75642	-0.028239373
21	0xbd31d3dd	-0.04341494
22	0xbc89ef94	-0.016837873
23	0x3d2da9ae	0.042398147
24	0x3c3d3cae	0.011550112
25	0xbd39fb8f	-0.04540592
26	0x3cb8853c	0.022524469
27	0xbd5abcd5	-0.05340274
28	0xbbf8366a	-0.007574846
29	0xbd87a522	-0.066232935
30	0x3af4dc00	0.0018681288
31	0xbd4c799c	-0.049920663
32	0x38c49722	9.374159e-05
33	0xbd13fd4b	-0.03613023
34	0xbc96aeff	-0.018393992
35	0xbcb13a20	-0.021634161
36	0x3c0edd57	0.008719764
37	0x3d294bd6	0.04133209
38	0x3c744549	0.014909097
39	0xbd94e270	-0.07269752
40	0xbca9bf79	-0.020721184
41	0xbd49d4c4	-0.049275175
42	0x3cb5e6a4	0.022204705
43	0x3b11b8ae	0.0022235322
44	0xbb9ecfd4	-0.0048465524
45	0xbd93a1d3	-0.072086
46	0x3bbdc6c2	0.005791516
47	0xbd0ce5fb	-0.034399014
48	0xbd8dbc1c	-0.06920645
49	0xbcce47da	-0.025180746
50	0x3c5710aa	0.013126532
51	0xbc8bf7c1	-0.017085912
52	0x3ccdb146	0.025108945
53	0x3c33706f	0.010952099
54	0x3c0880f8	0.00833153
55	0xbd1a616f	-0.037690576
56	0xbc461de0	-0.012092084
57	0xbd515cc6	-0.051113866
58	0xbb8d9310	-0.0043205097
59	0x3c00b044	0.007854525
60	0xbcc0786f	-0.023494927
61	0x3cd8192c	0.02637919
62	0x3ce05f21	0.027389111
63	0xbc4900c8	-0.012268253

conv2d_3.2.weight f4 [64, 64, 3, 3]
0	0x3b69d563	0.0035680167
1	0x3cc4931d	0.02399593
2	0xbb0bfce4	-0.0021360451
3	0x3bb8dcef	0.0056415717
4	0x3d28f027	0.041244652
5	0xbcca5947	-0.024700774
6	0xbcd4f1f2	-0.025994275
7	0xbc9f7468	-0.019464687
8	0x3d0333e5	0.032031912
9	0xbcc00d63	-0.023443883
10	0xbc9af745	-0.018916735
11	0xbba45def	-0.0050160806
12	0xbcc5e10c	-0.024155162
13	0xbd53900e	-0.051651053
14	0xbd41f410	-0.047351897
15	0x3c9e2a09	0.019307153
16	0x3d0644f4	0.032780603
17	0x3bed9e00	0.007251501
18	0x3ab58ecb	0.001385176
19	0x3ce2146a	0.027597625
20	0xbb9cee79	-0.0047891703
21	0x3d0e0e85	0.034681816
22	0x3c9a5f8c	0.018844388
23	0xbc35d88f	-0.011098995
24	0x394ad8c6	0.00019344976
25	0xbcaeab59	-0.02132194
26	0xbcb43c8b	-0.022001525
27	0x3c85de1c	0.016341262
28	0x3b35565e	0.0027669887
29	0xbb6e2e1a	-0.0036343397
30	0xbd18deb3	-0.037321758
31	0xbc661ada	-0.014044488
32	0xbd104726	-0.035224102
33	0xbd1a2a61	-0.037638072
34	0xbd1b01a5	-0.037843365
35	0xbc96fb77	-0.018430455
36	0xbcfab272	-0.030602667
37	0xbc6df8ba	-0.014524633
38	0xbd605541	-0.054768804
39	0xbc7c897e	-0.01541364
40	0xbc451e19	-0.012031102
41	0x3caac889	0.020847576
42	0xbc18200b	-0.009284983
43	0x3cf5933a	0.02997743
44	0x3bfe1b73	0.007754737
45	0x3c1959d3	0.009359795
46	0xbd7d9d78	-0.061917752
47	0x3b6bd4c5	0.0035984975
48	0xbd10c90b	-0.03534798
49	0xbd3eb5b3	-0.04656
50	0xbd587c9d	-0.052853215
51	0x3a3d3eea	0.0007219153
52	0x3c40102b	0.011722605
53	0xbc98f96c	-0.018673621
54	0xbb5f344a	-0.0034058266
55	0xbc0fbc4b	-0.00877292
56	0xbcaf8c4f	-0.021429209
57	0x3c074e1d	0.00825837
58	0x3d1e3740	0.03862691
59	0xbce993f6	-0.028512936
60	0xbd2cb9b3	-0.042169284
61	0xbc16b8a6	-0.009199297
62	0xbd3fe2dd	-0.046847213
63	0x3d155170	0.036454618
64	0x3d96bd3f	0.073603146
65	0x3bb82654	0.0056198034
66	0xbdc1593f	-0.094408505
67	0xbcfeeffe	-0.031120297
68	0xba17fbb6	-0.0005797701
69	0xbd959cab	-0.07305273
70	0xbbfe01c7	-0.0077516767
71	0xbcf79d89	-0.030226486
72	0x3d2047f5	0.039131124
73	0x3d9ca114	0.07647911
74	0x3dceba46	0.100941226
75	0xbd72623d	-0.05917572
76	0xbdbfcf22	-0.09365679
77	0xbd92056d	-0.07129941
78	0xbd9f5520	-0.07779908
79	0xbdf69459	-0.12040014
80	0xbdb64ea4	-0.08901718
81	0x3c61507c	0.013752099
82	0xbbc90e88	-0.0061357655
83	0x3c0c3a32	0.008558797
84	0x3be31397	0.0069298255
85	0x3c3d5eae	0.011558218
86	0x3a72610f	0.000924603
87	0x3d0a41e3	0.03375424
88	0xbcba7050	-0.022758633
89	0x3cb4d5a3	0.022074526
90	0xbbe38d9c	-0.0069443714
91	0xbd69ec2f	-0.057110008
92	0x39e760db	0.00044131916
93	0xbd9ed0be	-0.07754658
94	0xbd8d3cc5	-0.068963565
95	0xbd8b1ca7	-0.067925744
96	0xbc291e2b	-0.010322134
97	0x3cc4bdc8	0.024016276
98	0xbbd208b8	-0.0064097308
99	0x3d296594	0.041356638
100	0xba0e80b6	-0.00054360495
101	0x3b37212f	0.0027943363
102	0xbd29eb52	-0.041484185
103	0x3caaacd2	0.02083436
104	0xbcb80b3e	-0.022466298
105	0xbd88228b	-0.066472135
106	0xbd63cd96	-0.055615984
107	0xbd90987a	-0.070603326
108	0xbd367175	-0.044541795
109	0x39d6eee7	0.00040995257
110	0x3b1002f6	0.002197442
111	0xbd58eee6	-0.052962206
112	0xbba53c7d	-0.005042611
113	0xbc1eeccc	-0.009700011
114	0x3aa5f7e6	0.001266238
115	0x3d1b0619	0.037847612
116	0x3d1d6534	0.038426593
117	0x3d02dfde	0.031951778
118	0xbd2ec231	-0.042665664
119	0x3c41fd9f	0.011840253
120	0xbd74da71	-0.059778634
121	0xbd4154db	-0.047200065
122	0x3c8485aa	0.016177017
123	0xbcca440f	-0.024690656
124	0xbd6f4d7e	-0.05842351
125	0xbcf2de72	-0.029647086
126	0x3d96eb43	0.07369091
127	0x3c9f2b15	0.019429723
128	0x3da5f80c	0.08103952
129	0xbdcce45c	-0.100044936
130	0xbd3f4dd8	-0.046705097
131	0xbd5e8040	-0.054321527
132	0xbcb9f410	-0.022699386
133	0xbcc9c342	-0.024629239
134	0xbdc41b2a	-0.09575494
135	0x3d12b95d	0.035821307
136	0xbb106c6a	-0.0022037276
137	0xbbe5278f	-0.006993241
138	0xbd1f9ebe	-0.038969748
139	0xbc5785f5	-0.013154496
140	0x3c78d682	0.015187861
141	0x3d0a852a	0.0338184
142	0x3bc1e5b3	0.005917275
143	0x3ce0407e	0.027374502
144	0xbd1a6df8	-0.03770253
145	0xbd1fa323	-0.03897394
146	0x3b05466b	0.0020336162
147	0xbd351e58	-0.04421839
148	0xbbde0db6	-0.006776537
149	0xbcc34c96	-0.02384023
150	0x3b1f373f	0.0024294404
151	0xbd0c9a9c	-0.034327134
152	0xbcbb9a98	-0.022900864
153	0xbca84c07	-0.020544065
154	0xbd64ccab	-0.05585925
155	0xbd52940b	-0.051410716
156	0x3d503694	0.0508333
157	0x3d3634b7	0.044483867
158	0x3c47b8f0	0.012190089
159	0x3a9e74da	0.0012089268
160	0xbbefaf37	-0.0073145884
161	0xbbeea850	-0.007283248
162	0xba21dfd3	-0.0006175015
163	0xbbe75fdd	-0.0070609883
164	0xbc1346a5	-0.008989011
165	0xbcf3f9c7	-0.029782189
166	0x3d00c5b0	0.03143853
167	0xbd01c436	-0.031681262
168	0xbcc0d1f2	-0.02353761
169	0x3d0f14eb	0.03493206
170	0xbae94515	-0.0017797077
171	0xbb92d113	-0.00448049
172	0x3d19e03e	0.03756737
173	0x3c177202	0.00924349
174	0x3bdb1e4b	0.006686961
175	0x3c86f823	0.016475743
176	0x3c66423b	0.0140538765
177	0xbd2cbe15	-0.042173464
178	0xbb3b6dc3	-0.0028599359
179	0xbce7321a	-0.028222132
180	0x3d21f96e	0.039544515
181	0x3c5e78a1	0.013578565
182	0x3c523e68	0.012832262
183	0x3cc7b359	0.024377512
184	0xbca1bca2	-0.019743267
185	0x3c2a007b	0.010376091
186	0xbd2f1377	-0.042743172
187	0x3c39f116	0.011348983
188	0x3cedc7c3	0.029025918
189	0xbdc8bed8	-0.098020256
190	0xbd62dc01	-0.055385593
191	0xbd6b494c	-0.05744295
192	0x3c0f97ee	0.00876425
193	0x3c8bcf4d	0.017066622
194	0x3c99fc24	0.018796988
195	0xbcf9d0bc	-0.03049504
196	0x3ce7932e	0.028268423
197	0xbc5a42a4	-0.013321552
198	0x3d09f67b	0.033682328
199	0xbcc37d74	-0.023863532
200	0x3d1b1083	0.037857544
201	0xbd887605	-0.066631354
202	0xbda8bea5	-0.082394876
203	0xbcafa011	-0.02143863
204	0x3b456451	0.0030119608
205	0x3b6f4c55	0.0036514003
206	0x3ca66b35	0.020314792
207	0xbd1c30e3	-0.03813256
208	0xbcac3035	-0.02101908
209	0x3b633730	0.0034670345
210	0xbcdc9cc3	-0.026930219
211	0xbc8afbed	-0.01696583
212	0xbc6ae4b2	-0.014336752
213	0xbc15b249	-0.009136745
214	0xbca15439	-0.01969348
215	0xbd5cfb79	-0.05395076
216	0x3d07f114	0.033188894
217	0xbce1a604	-0.027544983
218	0x3c3b1165	0.011417721
219	0x3d293936	0.041314326
220	0x3dab16dd	0.0835397
221	0x3cd6896b	0.026188573
222	0xbcf19239	-0.02948867
223	0x3bb21c26	0.0054354845
224	0xb9f7e6f4	-0.00047283585
225	0x3bf4518b	0.0074560097
226	0x3cb7dd98	0.022444531
227	0x3cde9a88	0.027173296
228	0x3cb40a2a	0.021977503
229	0x3cd1c4bc	0.025606506
230	0xbc4c2d61	-0.012461991
231	0x3d629c42	0.0553248
232	0xbcc9c148	-0.024628296
233	0x3d1447ef	0.036201414
234	0x3cb7336e	0.02236339
235	0xbc74672b	-0.014917175
236	0xbc530cec	-0.012881499
237	0xbd26b7e5	-0.04070272
238	0x3b7d81ed	0.0038682178
239	0xbc3a3d21	-0.011367113
240	0x3c506972	0.012720453
241	0x3cb84d1f	0.022497712
242	0x3ce962d8	0.028489515
243	0xbc94464c	-0.018099926
244	0x3c89d258	0.016823933
245	0xbcf2d386	-0.029641878
246	0xbb46f40e	-0.003035787
247	0xbca6cb13	-0.020360505
248	0x3cf3f5b3	0.029780244
249	0x3c2ce823	0.010553393
250	0x3a28f3f0	0.0006445041
251	0xbc2378b3	-0.009977507
252	0x3cc61494	0.024179734
253	0xbb7ed1e6	-0.0038882433
254	0x3cb187d6	0.021671217
255	0xbd0f5806	-0.034996055

conv2d_3.2.bias f4 [64]
0	0x3bd673a0	0.0065445453
1	0x3c17c782	0.009263875
2	0xbc9e072a	-0.019290525
3	0xbc1d5b15	-0.009604235
4	0x3cc33c1c	0.023832373
5	0xbd3345ae	-0.043767624
6	0xbcd22cb9	-0.025656091
7	0xbb37de7c	-0.0028056195
8	0xbca742ac	-0.020417534
9	0x3cb332d1	0.021874817
10	0xbcfa39db	-0.030545166
11	0xbcb3f1de	-0.021965917
12	0x3cdf0bc1	0.027227284
13	0xbc4375fb	-0.011929984
14	0xbc87989d	-0.016552264
15	0x3be83fe6	0.0070876954
16	0xbd512270	-0.051058233
17	0xbd1fc05b	-0.039001804
18	0xba5aa57a	-0.0008340698
19	0xbd37428c	-0.0447412
20	0xbc207b33	-0.009794998
21	0x3c865cbb	0.01640164
22	0x3ca0e687	0.019641174
23	0x3c6c3894	0.014417786
24	0xbbe8fdf5	-0.007110352
25	0x3c73ee05	0.014888291
26	0x3a1739f0	0.0005768826
27	0xbc8656cb	-0.016398808
28	0xbb6c0d85	-0.00360188
29	0x3bc833a8	0.0061096735
30	0xba66d16d	-0.00088050106
31	0xbcc298db	-0.023754528
32	0xbce10599	-0.02746849
33	0xbd1e2ee4	-0.038618937
34	0x3ccbcbeb	0.02487751
35	0x3c0842f8	0.008316748
36	0xbcf3a986	-0.029743921
37	0xbcedcb06	-0.029027473
38	0x3be3a7f2	0.006947511
39	0xbc4eabde	-0.0126142185
40	0xbd2ff99d	-0.04296266
41	0xbd229311	-0.039691035
42	0x3c73b7fb	0.014875407
43	0x3bd35bf5	0.006450171
44	0x3aa82c18	0.0012830524
45	0xbd2d7e03	-0.042356502
46	0xbc922b9d	-0.017843062
47	0xbd50537a	-0.05086086
48	0x3a5888f0	0.00082601514
49	0xbbd5403c	-0.0065079015
50	0xbc84f743	-0.016231185
51	0x3a622794	0.00086271134
52	0xbd52ea49	-0.051492963
53	0xbb14c8e7	-0.0022702755
54	0xbd4c1cc9	-0.04983214
55	0xbd209792	-0.03920705
56	0xbcd4999d	-0.025952155
57	0x3cb509b0	0.022099346
58	0xbc5a9091	-0.013340131
59	0xbba0e211	-0.0049097617
60	0xbd64a765	-0.055823702
61	0xbd46d1c8	-0.048539907
62	0xbd3fd895	-0.046837408
63	0xbce2d3b7	-0.027688844

conv1d_1.0.weight f4 [16, 3, 3]
0	0xbe8a9a3c	-0.27070796
1	0x3e76e08f	0.241091
2	0xbe2f9853	-0.17147951
3	0xbe2b0ecd	-0.16704865
4	0xbde98c54	-0.114037186
5	0x3ea87c31	0.3290725
6	0x3e350653	0.17678194
7	0xbe6644c0	-0.22487164
8	0x3da1f25b	0.07907554
9	0x3e4c406e	0.19946453
10	0x3e8f6a6b	0.28010878
11	0x3e82e86b	0.25567946
12	0x3c8b1ec3	0.016982442
13	0x3e3fbbb9	0.18723954
14	0xbde2f988	-0.110827506
15	0x3e5bae82	0.21453288
16	0x3e47f886	0.19528398
17	0x3dafdc94	0.08586994
18	0xbe06bbe7	-0.13157617
19	0x3d6f8b5b	0.05848251
20	0x3e6d2dd3	0.23162012
21	0xbea6bd5c	-0.32566345
22	0x3be6ca8f	0.00704319
23	0x3d9c19f1	0.076221354
24	0xbe3a9a46	-0.18222913
25	0x3ea17cfe	0.31540674
26	0xbe5f91b1	-0.2183292
27	0x3e5f4ce0	0.21806669
28	0x3c6a650e	0.01430632
29	0xbdb0b975	-0.08629123
30	0xbddd667b	-0.10810562
31	0x3e03309d	0.12811513
32	0xbe171774	-0.1475504
33	0x3d86e22a	0.06586106
34	0x3d9360f2	0.07196225
35	0xbde1efba	-0.11032052
36	0x3e2958ab	0.1653773
37	0x3e5991bc	0.21247
38	0x3e260a7b	0.16214935
39	0xbe2529f2	-0.16129282
40	0x3d8a963f	0.067669384
41	0xbe26a809	-0.16275038
42	0xbe84b4bf	-0.25919148
43	0xbe8ad630	-0.27116537
44	0x3c871a82	0.016492132
45	0xbe60b4c1	-0.21943952
46	0xbe036874	-0.12832814
47	0x3e654588	0.22389805
48	0x3e002029	0.12512268
49	0xbe41e6af	-0.18935655
50	0xbe9f37c1	-0.31097224
51	0xbe957649	-0.29191807
52	0x3e087f7f	0.13329886
53	0xbd4c7eec	-0.04992573
54	0x3df11ae7	0.11772709
55	0x3e283efc	0.16430277
56	0x3e963cca	0.29343253
57	0xbe255d9c	-0.1614899
58	0x3e2783f2	0.16358927
59	0x3e1ef516	0.1552318
60	0xbe2a329e	-0.16620871
61	0x3d24d035	0.040237624
62	0x3c422609	0.011849889
63	0x3e255193	0.161444
64	0x3eb59ac3	0.35469636
65	0x3d5d0672	0.053961225
66	0x3e96d888	0.29462075
67	0xbe4dfefa	-0.20116797
68	0x3dc37bd0	0.095451
69	0xbd37e467	-0.044895556
70	0xbe89418b	-0.26807818
71	0xbe547c6f	-0.20750593
72	0x3e636d31	0.22209622
73	0x3d20666d	0.03916018
74	0xbdb5a511	-0.088693745
75	0x3bf71758	0.0075406246
76	0x3e17cd41	0.14824392
77	0xbe1c626e	-0.15271923
78	0x3e8c26dc	0.27373397
79	0x3cbe3acb	0.023221394
80	0xbe0facdf	-0.14030789
81	0x3ea26dc3	0.31724367
82	0x3e454bdb	0.19267218
83	0x3d0412b8	0.032244414
84	0x3e55b44a	0.20869556
85	0x3dedbec8	0.11608654
86	0x3e0db23a	0.1383752
87	0x3d06cb0a	0.032908477
88	0x3e75b573	0.23994999
89	0xbe8234e5	-0.2543098
90	0xbe102a7f	-0.14078711
91	0xbe8c27ed	-0.2737421
92	0xbe586ecf	-0.2113602
93	0xbe791f3d	-0.24328323
94	0xbe573553	-0.21016435
95	0xbe13495a	-0.1438345
96	0x3d4823fd	0.048862446
97	0xbcad611b	-0.021164468
98	0xbe64537d	-0.22297473
99	0x3e9a2de8	0.3011315
100	0x3e643525	0.22285898
101	0xbe354a35	-0.17704089
102	0x3d393a53	0.045221638
103	0xbe8f5461	-0.27994063
104	0xbddc2b5f	-0.1075046
105	0x3ea689b9	0.3252695
106	0xbe608a98	-0.2192787
107	0xbd8e3b10	-0.06944859
108	0x3cdbcb2e	0.026830282
109	0xbe8aada9	-0.27085617
110	0x3de4c2ad	0.11169944
111	0xbe6c7c3f	-0.23094271
112	0xbe8462f4	-0.25856745
113	0xbe19fe09	-0.15038313
114	0xbe1f519f	-0.1555848
115	0xbe93ab12	-0.28841454
116	0xbdf33102	-0.11874582
117	0x3de53e7e	0.1119356
118	0x3c39ca3b	0.011339719
119	0xbdb62ad0	-0.088948846
120	0xbe2cbe01	-0.16869356
121	0x3e31b724	0.17355019
122	0xbe8995fd	-0.26872244
123	0x3da1632b	0.07880243
124	0xbdb9f173	-0.09079256
125	0x3e30a974	0.17252141
126	0xbe40b527	-0.18819104
127	0xbe472bb6	-0.19450268
128	0x3e53ffdb	0.2070307
129	0x3e637a9b	0.22214739
130	0xbc039610	-0.008031383
131	0xbe981702	-0.29705054
132	0xbe862820	-0.26202488
133	0xbe1fd67c	-0.15609163
134	0x3e6d358f	0.23164962
135	0x3e0c914e	0.13727304
136	0x3e11b8c5	0.1423064
137	0xbe8a8cb8	-0.27060485
138	0xbe84b557	-0.259196
139	0x3df5d004	0.120025665
140	0xbe661dec	-0.22472352
141	0x3e14a556	0.14516196
142	0xbe962e7b	-0.29332337
143	0xbddc98b2	-0.10771312

conv1d_1.0.bias f4 [16]
0	0x3d596afe	0.05308055
1	0xbea7dad1	-0.3278413
2	0x3e17a9a0	0.148108
3	0x3e63bb09	0.22239317
4	0x3e932a46	0.2874319
5	0x3db4db0e	0.08830844
6	0xbdc9cb5a	-0.09853239
7	0xbe14eeb8	-0.14544189
8	0x3e362372	0.17786959
9	0x3e5d80cb	0.21631162
10	0x3cc6b491	0.024256023
11	0xbe15262c	-0.14565343
12	0x3e4248fc	0.18973154
13	0xbeaed5fa	-0.34147626
14	0xbe08d40a	-0.13362136
15	0xbd3de9ff	-0.046365734

conv1d_1.1.weight f4 [16]
0	0x3f8a248c	1.0792403
1	0x3f7b4481	0.98151404
2	0x3f841d3e	1.0321424
3	0x3f7b4149	0.9814649
4	0x3f7f4f80	0.9973068
5	0x3f7a7666	0.9783691
6	0x3f8139d0	1.0095768
7	0x3f86b329	1.0523425
8	0x3f74e206	0.95657384
9	0x3f771157	0.96510834
10	0x3f8009c6	1.0002983
11	0x3f8018f3	1.0007614
12	0x3f71a3e9	0.9439073
13	0x3f7b16f0	0.98081875
14	0x3f8416c8	1.0319452
15	0x3f802062	1.0009882

conv1d_1.1.bias f4 [16]
0	0x3c3478d1	0.011015133
1	0x3d78379c	0.06059991
2	0xbd7c85a1	-0.061650876
3	0x3bd1f357	0.006407182
4	0x3d0370ae	0.03208988
5	0xba062a8d	-0.0005118035
6	0x3d7a5a53	0.061121296
7	0x3d216206	0.039400123
8	0x3d00fe33	0.031492423
9	0xbc95b486	-0.018274557
10	0xbc408ae9	-0.011751869
11	0x3c322589	0.010873207
12	0x3c46316c	0.012096744
13	0xbc5c6314	-0.013451356
14	0x3d973113	0.07382407
15	0xbb532864	-0.003222012

conv1d_1.1.running_mean f4 [16]
0	0x3d31c720	0.04340279
1	0x3d890e9b	0.06692239
2	0x3dae35cf	0.08506357
3	0x3e6e2fbb	0.23260395
4	0x3d70d0da	0.058792926
5	0xbdf8c1a8	-0.12146312
6	0xbc8d9bed	-0.017286265
7	0xbe861e3e	-0.26194948
8	0x3e93ff0b	0.2890552
9	0x3ede5ca2	0.43430048
10	0xbea4f446	-0.32217616
11	0xbe1a6444	-0.15077311
12	0xbe85569e	-0.26042646
13	0xbea21888	-0.3165934
14	0xbe8f92d2	-0.28041703
15	0xbe83336e	-0.25625175

conv1d_1.1.running_var f4 [16]
0	0x3ac8b408	0.0015312443
1	0x3cd100fa	0.025513161
2	0x3b93211f	0.0044900323
3	0x3af1b232	0.0018439947
4	0x3cad2fa9	0.02114089
5	0x3c3339b5	0.010939051
6	0x3c84edd5	0.016226688
7	0x3d43f3da	0.047839977
8	0x3b6e977e	0.0036406214
9	0x3d03327f	0.03203058
10	0x3d2f2bf2	0.04276652
11	0x3c2e949d	0.010655549
12	0x3cf49ceb	0.02985998
13	0x3c338fb3	0.0109595535
14	0x3b8d23ef	0.004307262
15	0x3c0b0aac	0.008486431
