models/first_model01_fluxsteps15_dropout_linearflux.pth (torch, 623242 bytes, 16 tensors)

conv2d_1.0.weight f4 [16, 1, 3, 3]
0.33225212 0.35413423 0.00090038707 0.35681254 -0.023370333 0.11918349 -0.07053622 0.28687796
0.38552245 -0.15646128 0.37813196 0.15074927 0.34254283 0.14107968 0.2575478 0.05577418
0.35937634 0.15297177 -0.20573726 0.03831537 -0.19585912 -0.05640105 -0.15227048 0.20322019
-0.37434506 -0.26811957 -0.21332468 -0.40164784 -0.17134276 -0.53696907 0.21802957 -0.36637527
0.1776077 -0.06550869 -0.2271777 0.084732994 0.15480319 0.37472397 0.14263262 -0.09098368
0.10187283 -0.08219878 0.26865986 0.4242842 0.31919435 -0.14572418 0.19242156 0.059642076
0.16927835 -0.20316836 -0.3299695 -0.12878685 -0.2556743 0.27351296 0.27040833 0.31253743
0.2833278 0.11205664 0.37866202 -0.11778344 0.1089409 -0.14138684 0.1921289 -0.12649311
0.120157145 -0.049415395 0.24374095 -0.17151599 -0.16158265 -0.22382389 0.3299872 0.14086577
0.44122916 -0.14053513 -0.1785314 -0.116762236 -0.081230305 0.2758198 0.32467136 0.48190582
0.034803595 -0.22723727 0.17685938 -0.13473484 0.20230794 -0.079100214 0.19068198 -0.25898933
-0.16821659 0.10162549 0.14159739 -0.013988032 0.27010027 0.12062083 -0.3480984 -0.28283936
0.50949466 0.09010045 0.08705498 -0.32253155 -0.19089007 0.08326789 -0.043997727 -0.241962
0.007818898 -0.22769384 -0.2827989 -0.18355422 -0.25153768 -0.17248212 0.36522964 0.21052155
0.2564032 -0.15206522 -0.23053004 -0.11262139 0.045724325 -0.52926713 -0.38125125 -0.44057634
-0.2484293 -0.3749711 -0.27542615 -0.4359196 -0.43991268 -0.40601975 0.0026242305 -0.14648442
0.3977663 0.03457063 0.39033887 0.20843697 -0.2151081 0.2988672 -0.019480765 -0.12777536
-0.27669019 -0.3313869 0.09537022 -0.07281463 0.12977438 -0.2735545 0.24747638 -0.24468458
00000000: f31c aa3e 1551 b53e f407 6c3a 22b0 b63e
00000010: 2473 bfbc 7916 f43d 4b75 90bd abe1 923e
00000020: 3363 c53e 6337 20be 839a c13e 045e 1a3e
00000030: c661 af3e 3177 103e 4edd 833e 7773 643d
00000040: 2d00 b83e a2a4 1c3e caac 52be 94f0 1c3d
00000050: 4b8f 48be ca04 67bd cbec 1bbe f418 503e
00000060: 28aa bfbe f846 89be c971 5abe c9a4 cdbe
00000070: 7a74 2fbe ce76 09bf 2543 5f3e 8a95 bbbe
00000080: cbde 353e 6c29 86bd 45a1 68be 7e88 ad3d
00000090: ba84 1e3e d2db bf3e 490e 123e a755 babd
000000a0: b4a2 d03d d557 a8bd c98d 893e c73b d93e
000000b0: 716d a33e b838 15be 280a 453e 404b 743d
000000c0: 4e57 2d3e 5e0b 50be c3f1 a8be b3e0 03be
000000d0: bee7 82be e409 8c3e f672 8a3e e804 a03e
000000e0: 5710 913e f47d e53d fddf c13e 7238 f1bd
000000f0: 681c df3d b6c7 10be 70bd 443e 6987 01be
00000100: f314 f63d cc67 4abd 3a97 793e e3a1 2fbe
00000110: ec75 25be 1732 65be 15f4 a83e 1e3f 103e
00000120: cae8 e13e 71e8 0fbe efd0 36be 0a21 efbd
00000130: 135c a6bd 4138 8d3e 533b a63e 5cbc f63e
00000140: 378e 0e3d e3b0 68be a01a 353e eef7 09be
00000150: d029 4f3e 4bff a1bd 2342 433e 409a 84be
00000160: f840 2cbe 0621 d03d e8fe 103e 0f2e 65bc
00000170: 954a 8a3e 0e08 f73d f439 b2be 52d0 90be
00000180: 3e6e 023f 9686 b83d e249 b23d db22 a5be
00000190: b078 43be 5b88 aa3d f636 34bd e3c4 77be
000001a0: d61a 003c 9328 69be 04cb 90be a3f5 3bbe
000001b0: 8cc9 80be 279f 30be 61ff ba3e f692 573e
000001c0: 4847 833e fcb6 1bbe 1110 6cbe 0ba6 e6bd
000001d0: 6e49 3b3d 0d7e 07bf 5d33 c3be 3993 e1be
000001e0: 4064 7ebe 36fc bfbe a804 8dbe db30 dfbe
000001f0: 3c3c e1be d2e1 cfbe 48fb 2b3b 0300 16be
00000200: 06a8 cb3e ef99 0d3d 7fda c73e 8070 553e
00000210: 4c45 5cbe 1f05 993e 2096 9fbc 8bd7 02be
00000220: 56aa 8dbe 8bab a9be 7651 c33d d61f 95bd
00000230: 93e3 043e 560f 8cbe 736a 7d3e 988e 7abe

conv2d_1.0.bias f4 [16]
0.009836238 0.0604061 0.14154023 0.24601263 0.26978105 -0.26430738 0.07619872 -0.11563541
0.002830643 -0.2494967 0.21944706 -0.24465017 0.11085796 0.1571199 0.09388177 -0.1802154
00000000: 2c28 213c 636c 773d ecef 103e bcea 7b3e
00000010: be20 8a3e 4c53 87be 130e 9c3d 42d2 ecbd
00000020: 4f82 393b 107c 7fbe bbb6 603e 9385 7abe
00000030: 8009 e33d 0ae4 203e 1645 c03d 638a 38be

conv2d_1.2.weight f4 [16, 16, 3, 3]
0.06518518 0.0066688177 -0.0018251168 -0.08213885 0.023027046 -0.024101328 -0.04691514 0.061913677
0.008106901 -0.057522435 -0.0538491 -0.01599709 0.03507015 -0.032639757 -0.05885481 -0.039372906
-0.073301055 0.017655993 0.05205697 -0.07845336 0.0106698 0.031935666 0.0034614112 -0.041047823
0.032118894 0.032530826 0.019513512 -0.025727473 -0.033621732 -0.0025315029 -0.025282728 -0.03585779
0.042809032 0.058942772 -0.019389661 -0.02939534 -0.010130378 -0.016375937 0.008412298 0.011563804
-0.08755135 -0.042691335 0.058822587 0.021098023 -0.015793765 -0.05024215 -0.050983757 -0.07464724
-0.027163535 0.028142016 0.053135138 0.03847478 -0.073662005 -0.05011354 -0.024570487 0.0683054
0.00047692738 -0.033441402 0.022931434 -0.04352372 -0.064767964 0.049785934 -0.049370043 -0.012235701
-0.08290036 0.055772554 0.06313622 0.030370682 -0.058106184 -0.08224499 -0.06768158 0.062141687
0.029221596 0.060118515 0.033040795 0.027464086 -0.005995852 -0.0691726 -0.071397685 -0.07899391
0.036691647 -0.040914 -0.016771048 -0.047958773 -0.015185297 -0.058652908 -0.05445131 0.027642569
-0.024766367 0.051445268 -0.037815318 -0.072323725 -0.025932636 -0.05329487 -0.03710949 -0.09034251
0.035155535 -0.06961934 0.03039704 0.037815355 0.059536062 -0.063921005 0.059933066 -0.03939597
0.030922433 0.07825956 -0.011752656 -0.0006444554 -0.03006471 -0.08199587 0.027739229 -0.09471769
0.041515604 0.05195885 0.067671314 -0.0319564 -0.08051342 0.018735856 0.04603561 -0.0829424
-0.018915307 -0.049954623 -0.007288645 -0.041017793 -0.034063965 -0.026454907 -0.09104597 0.05629396
0.057443943 -0.024175517 -0.020557633 -0.045659017 -0.08616054 -0.093171634 0.01921315 -0.045753848
-0.053573083 -0.006501933 -0.02775093 -0.026960066 0.0026775997 -0.017676037 -0.028692704 -0.039900493
-0.06359159 0.080598116 -0.037901755 -0.003321057 -0.04089682 -0.010827784 0.09097172 0.026850846
-0.08032369 0.04467846 0.09135873 0.019225156 0.042242996 0.07188071 -0.026338795 0.017475702
-0.058856856 -0.034627847 0.074819386 0.050947808 -0.062171705 -0.028217435 -0.014455169 -0.07334603
-0.10113478 -0.052350853 0.03931731 0.03434935 -0.044746183 -0.062028572 0.041349374 -0.059656452
-0.024910329 0.043767683 -0.04191467 -0.024763647 -0.0022433458 -0.013721646 -0.046896443 -0.0986383
-0.089790754 -0.0754557 0.11247456 -0.010689722 -0.048615355 0.020199519 0.022967529 0.045659147
0.06334337 0.04640618 -0.08262508 0.007390718 0.050479423 -0.0077021224 -0.042577606 0.087901995
-0.040551346 -0.035854984 -0.06204566 0.0010578756 0.032022372 0.0049925987 0.008920282 -0.08201163
-0.07782394 0.0154229235 0.07598618 0.04807678 -0.048519522 0.008024865 -0.04292443 -0.040212683
0.010323899 0.038847007 0.06744733 -0.11312046 0.023010159 -0.08269861 0.0784132 0.12526986
0.007428922 0.07581742 -0.071004294 -0.031829935 0.04860441 -0.018155655 -0.017058354 -0.03473264
0.05744218 0.040875267 0.03300205 -0.03984695 -0.07214183 -0.006927369 0.0052117887 -0.06547485
0.009676563 0.087981775 0.014696752 0.003759861 -0.020508379 -0.07546581 -0.07835479 -0.03983459
-0.04236012 0.0259628 -0.02425923 -0.032601845 0.09328139 0.045488648 0.060995992 -0.025110507
00000000: cf7f 853d 1986 da3b c238 efba 6a38 a8bd
00000010: 37a3 bc3c 2670 c5bc 172a 40bd 3299 7d3d
00000020: cfd2 043c a59c 6bbd e090 5cbd 540c 83bc
00000030: b8a5 0f3d 44b1 05bd be11 71bd 7c45 21bd
00000040: dd1e 96bd 4da3 903c b039 553d 28ac a0bd
00000050: 63d0 2e3c f9ce 023d d8d8 623b c321 28bd
00000060: 1a8f 033d 0b3f 053d cdda 9f3c 6cc2 d2bc
00000070: f1b6 09bd 92e7 25bb b91d cfbc 9edf 12bd
00000080: 8658 2f3d fa6d 713d 11d7 9ebc 7fce f0bc
00000090: e3f9 25bc d426 86bc bcd3 093c 1c76 3d3c
000000a0: 1f4e b3bd 1cdd 2ebd f4ef 703d c3d5 ac3c
000000b0: ed61 81bc b6ca 4dbd 58d4 50bd a7e0 98bd
000000c0: 1086 debc 168a e63c 3ba4 593d bb97 1d3d
000000d0: 1bdc 96bd db43 4dbd 0c48 c9bc b4e3 8b3d
000000e0: 1c0c fa39 daf9 08bd b4da bb3c ee45 32bd
000000f0: 11a5 84bd 56ec 4b3d 3e38 4abd 4078 48bc
00000100: aac7 a9bd c371 643d 904d 813d f0cb f83c
00000110: c000 6ebd 1070 a8bd a49c 8abd 4888 7e3d
00000120: 2162 ef3c d53e 763d c955 073d 5dfc e03c
00000130: da78 c4bb 5daa 8dbd f338 92bd 8fc7 a1bd
00000140: fb49 163d 7095 27bd 7063 89bc 6b70 44bd
00000150: c0cb 78bc 083e 70bd 5608 5fbd ab72 e23c
00000160: d6e2 cabc 46b8 523d 3ce4 1abd 761e 94bd
00000170: ae70 d4bc b94b 5abd 1f00 18bd 7e05 b9bd
00000180: 40ff 0f3d 9694 8ebd 3703 f93c 46e4 1a3d
00000190: 16dc 733d 04e9 82bd 607c 753d ab5d 21bd
000001a0: 0b51 fd3c 8c46 a03d 368e 40bc abf0 28ba
000001b0: 444a f6bc 73ed a7bd 613d e33c 59fb c1bd
000001c0: 440c 2a3d ced2 543d 4297 8a3d b7e4 02bd
000001d0: 38e4 a4bd f07b 993c d68f 3c3d b4dd a9bd
000001e0: 46f4 9abc 389d 4cbd 96d5 eebb 4602 28bd
000001f0: a886 0bbd f6b7 d8bc 4f76 babd 7f94 663d
00000200: 574a 6b3d bc0b c6bc 7b68 a8bc f304 3bbd
00000210: f074 b0bd c5d0 bebd e564 9d3c 6368 3bbd
00000220: 736f 5bbd 2b0e d5bb eb55 e3bc 5bdb dcbc
00000230: ab7a 2f3b 56cd 90bc f60c ebbc b36e 23bd
00000240: 4f3c 82bd a010 a53d df3e 1bbd 17a6 59bb
00000250: 6d83 27bd 0567 31bc 624f ba3d 4ef6 db3c
00000260: bf80 a4bd c300 373d 491a bb3d 137e 9d3c
00000270: fe06 2d3d 3236 933d 75c4 d7bc 3429 8f3c
00000280: e313 71bd eed5 0dbd e83a 993d a6ae 503d
00000290: c2a7 7ebd 4028 e7bc 60d5 6cbc 7236 96bd
000002a0: c01f cfbd d96d 56bd 300b 213d e7b1 0c3d
000002b0: c647 37bd ac11 7ebd f65d 293d 535a 74bd
000002c0: bf10 ccbc be45 333d b8ae 2bbd 22dd cabc
000002d0: 1905 13bb c1d0 60bc 7c16 40bd e102 cabd
000002e0: 37e4 b7bd 8588 9abd 1059 e63d f223 2fbc
000002f0: e520 47bd 7679 a53c 6626 bc3c 1605 3b3d
00000300: 2bba 813d 6814 3e3d 5737 a9bd d62d f23b
00000310: 83c3 4e3d 1662 fcbb db65 2ebd f605 b43d
00000320: 2b19 26bd addc 12bd 9723 7ebd 6aa8 8a3a
00000330: e429 033d f498 a33b 6026 123c b7f5 a7bd
00000340: 2862 9fbd 6eb0 7c3c a49e 9b3d 28ec 443d
00000350: 68bc 46bd b97a 033c 87d1 2fbd 0eb6 24bd
00000360: 9225 293c 0a1e 1f3d d321 8a3d b3ab e7bd
00000370: cd7f bc3c e45d a9bd 1a97 a03d be46 003e
00000380: 516e f33b 2a46 9b3d b36a 91bd 1b60 02bd
00000390: 6b15 473d 2bbb 94bc f6bd 8bbc d043 0ebd
000003a0: 7e48 6b3d d36c 273d 282d 073d 8e36 23bd
000003b0: 19bf 93bd fcfe e2bb a7c7 aa3b ae17 86bd
000003c0: 728a 1e3c ca2f b43d a5ca 703c 0068 763b
000003d0: 3001 a8bc d28d 9abd 7a78 a0bd 9829 23bd
000003e0: ce81 2dbd f0af d43c 4bbb c6bc 8389 05bd
000003f0: 500a bf3d 4e52 3a3d efd6 793d 8db4 cdbc

conv2d_1.2.bias f4 [16]
-0.002572704 -0.022170926 0.061570074 -0.043426674 0.034513246 -0.08075096 -0.020786889 -0.07738311
-0.03738135 0.03637082 -0.04918521 -0.082580596 0.048612937 0.036971215 0.0026823408 -0.06710884
00000000: d09a 28bb cd9f b5bc e730 7c3d 2be0 31bd
00000010: c35d 0d3d c260 a5bd 4449 aabc 097b 9ebd
00000020: 301d 19bd 92f9 143d 6e76 49bd 0420 a9bd
00000030: 5c1e 473d 216f 173d 36ca 2f3b 5c70 89bd

conv2d_2.0.weight f4 [32, 16, 3, 3]
-0.022386683 -0.026804563 0.05124901 -0.026786128 -0.023315081 -0.059123717 -0.039248973 0.045120727
0.053690463 0.0170196 -0.038314924 0.080040894 0.014360027 -0.028369842 -0.0288831 -0.01375427
0.040616084 0.030480634 0.03838723 -0.025360081 0.05101769 -0.04643474 -0.05073537 -0.040663205
-0.08438532 -0.06124124 -0.08079597 -0.004924804 0.000785619 -0.02162851 -0.056948632 0.07560738
-0.027611684 0.03971274 0.05803418 -0.05477974 0.00037867198 0.057375897 0.08948802 -0.022123631
0.049670275 -0.07630701 -0.06825038 0.054050684 -0.022364639 0.09098408 0.015255329 -0.025969872
0.09400565 0.08597665 0.020377487 -0.03610677 0.009444483 -0.026510514 0.00460333 -0.0471642
-0.030274557 0.005751479 -0.012688788 -0.0875535 0.018599233 -0.006958593 -0.098614916 0.04619355
0.01616032 -0.016054463 -0.068835154 -0.023046574 -0.08170362 0.038479626 0.0512748 -0.023991507
0.07725414 -0.030857613 0.014270703 -0.058074504 -0.0035232008 0.033685826 0.035894543 -0.0027943752
-0.042021863 0.038822386 0.035011657 -0.0027230443 -0.048490964 0.008224899 -0.0037503052 0.07812485
0.013199764 0.009461234 -0.061817143 -0.008866139 -0.05099894 0.032996252 0.010099338 -0.08466362
-0.035223857 -0.096726425 -0.07946887 -0.02133799 -0.0074741784 -0.04382945 0.05860019 -0.05529157
-0.05810983 -0.008362704 0.0020150065 -0.024859164 0.030634264 -0.08317408 -0.08378819 0.010785609
0.06439335 0.023183359 0.046234302 0.015490766 0.07153065 0.035026874 0.044736646 -0.0238924
-0.08063528 -0.05070713 0.019166607 0.045459226 -0.04551755 0.058287244 0.0048921434 -0.0070093945
-0.003741097 -0.03540229 0.057360575 -0.015764304 0.030528551 -0.09084672 -0.061209116 0.005096595
0.06654164 0.039673947 0.023416674 -0.08233263 0.0015666287 -0.05500847 -0.071155995 0.011395286
-0.052340586 0.07530331 -0.044811796 0.031528823 0.04744426 -0.06463925 0.04139665 -0.00432683
0.043550275 0.11013936 0.041498844 0.014844122 0.05933455 -0.0137682455 -0.092107765 0.049231544
-0.04146449 -0.058839176 0.13484354 0.11071341 0.025859607 0.06399758 -0.022397686 -0.00319704
0.020757226 -0.05606976 -0.07642767 0.0059068603 0.020364195 -0.051801406 -0.05619695 -0.08070576
0.02153196 -0.053769123 0.006350696 -0.018638184 -0.049060658 -0.020972265 -0.06057291 -0.022153044
0.019451084 -0.04909434 -0.08110221 0.05444283 0.00018799742 -0.023125913 0.0084229335 0.07519063
-0.061827075 -0.03658193 -0.053580064 -0.00078979804 0.0026132178 -0.06090178 0.18769129 0.076533094
0.2227589 -0.068428025 -0.024121253 -0.00046163538 -0.100486405 0.011733083 -0.12248017 0.01148568
-0.042759627 0.04153378 0.056558862 0.0571922 -0.009001447 -0.014253268 0.09916074 0.025841985
0.056381416 -0.043284785 -0.038674444 -0.06917778 0.076677166 0.013823688 -0.059849113 0.0071574054
-0.035742097 0.10772295 0.13166368 0.06433694 0.07215405 0.0031266266 0.071609706 -0.11578331
-0.021484658 0.04432404 0.19717693 0.13757879 0.1640535 0.15660398 0.07830157 0.0841433
-0.045024563 0.028127382 0.02233213 -0.0962122 -0.032143787 -0.09433693 0.043647803 -0.05597307
0.04384647 -0.032493636 0.025277676 0.015003543 0.023989646 0.10957144 0.10063436 -0.054931127
00000000: 4764 b7bc 3e95 dbbc 7bea 513d 956e dbbc
00000010: 45ff bebc b62b 72bd 88c3 20bd 83d0 383d
00000020: 88ea 5b3d b06c 8b3c 1cf0 1cbd 7bec a33d
00000030: 5246 6b3c df67 e8bc 409c ecbc 9759 61bc
00000040: 0d5d 263d 86b2 f93c ee3b 1d3d f2bf cfbc
00000050: edf7 503d 5b32 3ebd e4cf 4fbd 768e 26bd
00000060: 36d2 acbd 18d8 7abd 5c78 a5bd 4060 a1bb
00000070: 00f2 4d3a 462e b1bc f842 69bd 0bd8 9a3d
00000080: e631 e2bc d3a9 223d 40b5 6d3d b860 60bd
00000090: 7e88 c639 fd02 6b3d 7f45 b73d 9e3c b5bc
000000a0: 0f73 4b3d da46 9cbd dbc6 8bbd 4064 5d3d
000000b0: 0c36 b7bc dd55 ba3d 7df1 793c c5be d4bc
000000c0: 0986 c03d 8714 b03d b0ee a63c b1e4 13bd
000000d0: 08bd 1a3c 942c d9bc 88d7 963b 402f 41bd
000000e0: 5902 f8bc e776 bc3b a2e4 4fbc 404f b3bd
000000f0: 6b5d 983c e904 e4bb 9ef6 c9bd 7335 3d3d
00000100: a662 843c a684 83bc 72f9 8cbd 2bcc bcbc
00000110: 3a54 a7bd d09c 1d3d 8605 523d d689 c4bc
00000120: 6b37 9e3d 1bc9 fcbc abcf 693c 88df 6dbd
00000130: 80e5 66bb 26fa 093d 2806 133d d621 37bb
00000140: 1e1f 2cbd 3904 1f3d 6268 0f3d 1a75 32bb
00000150: 769e 46bd bac1 063c aec7 75bb ecff 9f3d
00000160: d343 583c 4b03 1b3c f933 7dbd 4843 11bc
00000170: 44e4 50bd 1427 073d b277 253c 1f64 adbd
00000180: e446 10bd 8118 c6bd 93c0 a2bd 02cd aebc
00000190: f4e9 f4bb 8286 33bd c106 703d 6a79 62bd
000001a0: 9304 6ebd b903 09bc 330e 043b 72a5 cbbc
000001b0: b5f4 fa3c 2c57 aabd 2499 abbd 1fb6 303c
000001c0: a9e0 833d 07eb bd3c 2e60 3d3d fbcc 7d3c
000001d0: a97e 923d 5778 0f3d c63d 373d ffb9 c3bc
000001e0: 1c24 a5bd 48b2 4fbd 4a03 9d3c 7433 3a3d
000001f0: 9c70 3abd 9bbe 6e3d 464e a03b 10af e5bb
00000200: 312d 75bb fe01 11bd ecf2 6a3d 2424 81bc
00000210: 0317 fa3c d80d babd 69b6 7abd 5601 a73b
00000220: fc46 883d 2681 223d 53d4 bf3c 039e a8bd
00000230: 5657 cd3a 9050 61bd 3cba 91bd 4bb3 3a3c
00000240: 1563 56bd 9f38 9a3d 938c 37bd 5e24 013d
00000250: ea54 423d 9561 84bd 898f 293d 15c8 8dbb
00000260: c661 323d bf90 e13d b1fa 293d c334 733c
00000270: c908 733d 3594 61bc ffa2 bcbd 04a7 493d
00000280: abd6 29bd 5901 71bd 6d14 0a3e b6bd e23d
00000290: 87d7 d33c 2a11 833d 5a7b b7bc 6e85 51bb
000002a0: 0f0b aa3c 68a9 65bd 1c86 9cbd 568e c13b
000002b0: d0d2 a63c b62d 54bd c62e 66bd 1049 a5bd
000002c0: cb63 b03c 033d 5cbd 8019 d03b 1baf 98bc
000002d0: d4f3 48bd 07ce abbc 4d1b 78bd 4d7a b5bc
000002e0: e157 9f3c 2617 49bd ea18 a6bd 72ff 5e3d
000002f0: 2c21 4539 8e72 bdbc 5800 0a3c 8cfd 993d
00000300: 633e 7dbd efd6 15bd c576 5bbd 730a 4fba
00000310: 8542 2b3b 2574 79bd 2532 403e 62bd 9c3d
00000320: e91a 643e fe23 8cbd ef99 c5bc a707 f2b9
00000330: d1cb cdbd 1e3c 403c e2d6 fabd 6f2e 3c3c
00000340: b824 2fbd 531f 2a3d 44aa 673d 5e42 6a3d
00000350: ce7a 13bc 8a86 69bc c914 cb3d 92b2 d33c
00000360: 33f0 663d 634b 31bd 1869 1ebd 14ad 8dbd
00000370: eb08 9d3d c07c 623c 5824 75bd ab88 ea3b
00000380: 4e66 12bd da9d dc3d d8d2 063e 16c3 833d
00000390: 81c5 933d 17e8 4c3b 1ca8 923d cd1f edbd
000003a0: 9800 b0bc 208d 353d c0e8 493e 74e1 0c3e
000003b0: a4fd 273e cb5c 203e 935c a03d 5353 ac3d
000003c0: ad6b 38bd 656b e63c dff1 b63c e70a c5bd
000003d0: 34a9 03bd b833 c1bd 0ac8 323d 0544 65bd
000003e0: 5b98 333d 0c18 05bd 2113 cf3c 6cd1 753c
000003f0: ef85 c43c fe66 e03d 6319 ce3d 76ff 60bd

conv2d_2.0.bias f4 [32]
-0.038155947 2.3587781e-05 0.054412473 0.00437154 -0.06603853 0.02646513 -0.0832942 -0.038164217
-0.02175587 0.050678965 -0.027505005 -0.074124716 0.0325823 0.059535258 -0.0651135 0.016398743
0.030668443 0.034400277 -0.01525049 0.0069723693 0.021988064 0.027176514 -0.031803515 0.065306194
-0.07457515 0.018094564 0.037185777 -0.0772289 -0.06955359 -0.07135275 0.06619279 0.070867345
00000000: 6949 1cbd 60de c537 9ddf 5e3d 233f 8f3b
00000010: 353f 87bd 66cd d83c 2696 aabd 1552 1cbd
00000020: 5e39 b2bc bf94 4f3d 2d52 e1bc b3ce 97bd
00000030: 0575 053d 3edb 733d 3a5a 85bd a856 863c
00000040: 633c fb3c 4ee7 0c3d 31dd 79bc 7978 e43b
00000050: 5020 b43c 48a1 de3c 6744 02bd 41bf 853d
00000060: dbba 98bd 0d3b 943c 1d50 183d 2f2a 9ebd
00000070: 1d72 8ebd 6421 92bd 1690 873d e622 913d

conv2d_2.2.weight f4 [32, 32, 3, 3]
-0.0026779124 -0.022967355 0.02328654 -0.041833185 0.017890783 -0.012168769 -0.03749578 -0.04174836
-0.006389849 0.06292505 0.036724683 0.06430915 -0.038780473 -0.029722825 0.054382533 0.023708606
0.026935264 -0.07849962 -0.057430662 -0.13797235 -0.07120666 -0.06579598 -0.030391643 -0.052576672
-0.12959667 -0.14355971 -0.10089291 0.058503248 0.040702816 0.047887843 -0.024108153 -0.027648201
0.08274431 0.026881048 -0.037686378 -0.003827698 0.04245131 0.053043045 -0.04741353 -0.029205104
0.022898516 0.045021635 0.010251589 -0.0036365776 0.0022824907 0.053115863 -0.05487365 0.017565778
-0.048113696 -0.013886961 -0.073757686 -0.03486279 -0.096936174 -0.06275938 -0.036955535 0.005396363
-0.02767777 -0.03013551 -0.025536185 0.036561295 0.00823482 -0.015177473 0.050187595 0.025303584
-0.008066085 0.013407338 -0.023006605 -0.0277304 -0.016432274 0.017623188 -0.056456298 -0.039654676
0.13845648 0.08383539 0.092886046 0.079438806 0.035539567 0.11907811 0.0008979288 0.03031606
-0.030266656 0.04744774 -0.024516841 0.05304489 0.009075475 -0.0068431557 -0.006145742 0.00078255904
0.03158147 -0.009475289 0.047671996 -0.036818795 0.00032161662 -0.06511676 -0.072472416 -0.017797865
-0.040245123 -0.008095489 -0.045016177 -0.03984247 -0.01838026 -0.04548708 0.0048599844 -0.0622337
0.026742997 -0.012367217 -0.06982217 -0.05209391 -0.044633362 0.047307417 -0.021359613 0.007631492
0.022191701 0.047187794 -0.046744883 -0.0019280412 -0.0010382715 -0.012314071 0.017037442 -0.055877917
-0.06640288 -0.06166531 -0.050519213 0.008223154 0.0075600455 -0.06448805 0.030921435 0.014138547
0.048937816 0.031450752 -0.012807999 -0.008355619 -0.039212894 0.013001769 0.04611201 0.017687589
0.03814353 0.01539626 -0.024511527 -0.043948524 -0.084522076 -0.04345036 0.019158067 0.017779386
-0.010188867 0.056445874 0.057529226 -0.062113583 -0.07157586 -0.042891342 -0.038501494 -0.011083353
-0.007823869 0.0423522 -0.025380623 0.041931678 0.0019322307 -0.054541185 -0.057740167 0.01672323
0.049693324 -0.045687936 0.061363034 -0.0022258884 0.08808892 0.05614469 0.025515568 0.07185483
0.018686071 0.03650006 0.0041658906 -0.006689845 0.018933753 0.011924413 -0.060849603 -0.0362233
0.023448344 -0.05937483 0.012902341 -0.0435654 0.060086537 -0.032469943 0.043672226 -0.025096053
0.04169322 0.031899285 0.010069761 0.0022912435 0.019156622 -0.033215784 -0.03085472 0.00309511
-0.09593545 -0.052891232 -0.03245095 -0.11178416 -0.06375617 -0.058191113 -0.02883856 0.059987668
0.016040752 -0.057569947 -0.023957277 0.007050925 0.025325319 -0.037634157 0.031963386 -0.04792506
-0.07243038 -0.041313503 -0.096775025 -0.03944604 -0.020803662 -0.091787934 -0.0855141 -0.010040611
0.0748383 0.13825461 0.1262688 0.008054907 0.08195119 -0.016372947 -0.0046536927 -0.04755773
-0.025057316 0.07459174 0.02031063 -0.016193619 0.023988694 -0.016246932 0.04901247 -0.04129709
-0.010918888 -0.046923973 -0.035825938 -0.019259235 -0.040010344 -0.08082398 -0.056544904 -0.07615373
-0.07687627 -0.041384716 -0.08809404 0.045524854 0.055875674 0.07502209 0.017135067 -0.003645199
-0.01193153 -0.03031898 0.04298257 0.02351813 0.15468918 0.10321457 0.076273076 0.065977454
00000000: ea7f 2fbb 0926 bcbc 6ac3 be3c 4659 2bbd
00000010: b18f 923c 845f 47bc 2d95 19bd 5400 2bbd
00000020: f061 d1bb d9de 803d 9f6c 163d 84b4 833d
00000030: 46d8 1ebd 487d f3bc 38c0 5e3d 8d38 c23c
00000040: 58a7 dc3c 69c4 a0bd 6a3c 6bbd a048 0dbe
00000050: ccd4 91bd 0bc0 86bd e5f7 f8bc a35a 57bd
00000060: fdb4 04be 5101 13be f1a0 cebd 1aa1 6f3d
00000070: ffb7 263d 0b26 443d 767e c5bc 7b7e e2bc
00000080: d975 a93d a535 dc3c 085d 1abd 1eda 7abb
00000090: 6de1 2d3d aa43 593d b134 42bd 8b3f efbc
000000a0: ab95 bb3c 9b68 383d 48f6 273c a653 6ebb
000000b0: d795 153b 0590 593d 31c3 60bd 1be6 8f3c
000000c0: de12 45bd 2386 63bc 450e 97bd 49cc 0ebd
000000d0: 7986 c6bd fd87 80bd b05e 17bd f9d3 b03b
000000e0: 7ebc e2bc bfde f6bc 4331 d1bc 4cc1 153d
000000f0: 57eb 063c f0aa 78bc 8291 4d3d 7649 cf3c
00000100: 9d27 04bc 74aa 5b3c 5978 bcbc dd2a e3bc
00000110: fa9c 86bc 815e 903c b83e 67bd f16c 22bd
00000120: 89c7 0d3e e4b1 ab3d 0a3b be3d d0b0 a23d
00000130: f091 113d 39df f33d fb62 6b3a 6359 f83c
00000140: c7f1 f7bc 9058 423d 8bd7 c8bc 9945 593d
00000150: 4db1 143c 8d3c e0bb 3862 c9bb a624 4d3a
00000160: 925b 013d 3e3e 1bbc b643 433d 4ecf 16bd
00000170: a79e a839 f05b 85bd 6b6c 94bd d4cc 91bc
00000180: 12d8 24bd f1a2 04bc e262 38bd dc31 23bd
00000190: 3392 96bc a950 3abd 8140 9f3b c4e8 7ebd
000001a0: 2114 db3c de9f 4abc edfe 8ebd 6c60 55bd
000001b0: 79d1 36bd 6cc5 413d 5bfa aebc 9811 fa3b
000001c0: 5fcb b53c fd47 413d 9077 3fbd 54b6 fcba
000001d0: 9c16 88ba f5c0 49bc 1b92 8b3c 3ee0 64bd
000001e0: 3cfe 87bd c494 7cbd 3ced 4ebd 68ba 063c
000001f0: 42ba f73b 5012 84bd f34e fd3c 5da5 673c
00000200: 0573 483d 81d2 003d a4d8 51bc 02e6 08bc
00000210: b39d 20bd 5f05 553c f2df 3c3d 90e5 903c
00000220: 643c 1c3d 9840 7c3c 66cc c8bc 5e03 34bd
00000230: e919 adbd 01f9 31bd 61f1 9c3c 13a6 913c
00000240: 35ef 26bc ca33 673d c4a3 6b3d d06a 7ebd
00000250: 5d96 92bd d5ae 2fbd beb3 1dbd f496 35bc
00000260: af2f 00bc 8079 2d3d 06eb cfbc 8dc0 2b3d
00000270: e742 fd3a 9466 5fbd f480 6cbd 28ff 883c
00000280: 3a8b 4b3d 4623 3bbd ce57 7b3d 36e0 11bb
00000290: f767 b43d f9f7 653d 0606 d13c a028 933d
000002a0: 8813 993c 1681 153d 0682 883b 7d36 dbbb
000002b0: f51a 9b3c 9d5e 433c 6f3d 79bd e25e 14bd
000002c0: be16 c03c 0633 73bd 5764 533c a271 32bd
000002d0: 4d1d 763d 34ff 04bd a6e1 323d 3d96 cdbc
000002e0: 83c6 2a3d d3a8 023d a4fb 243c b028 163b
000002f0: 59ee 9c3c 460d 08bd 0ac3 fcbc 54d7 4a3b
00000300: ce79 c4bd 7aa4 58bd 4aeb 04bd 18ef e4bd
00000310: 9892 82bd ce59 6ebd d83e ecbc a1b5 753d
00000320: e567 833c 77ce 6bbd 0d42 c4bc 720b e73b
00000330: 0b77 cf3c 4626 1abd 0aec 023d 114d 44bd
00000340: 6156 94bd 5938 29bd fc31 c6bd 2c92 21bd
00000350: 716c aabc 50fb bbbd 0422 afbd 6081 24bc
00000360: d344 993d 9e92 0d3e 9c4c 013e bbf8 033c
00000370: 07d6 a73d 8f20 86bc 017e 98bb e5cb 42bd
00000380: 0045 cdbc 8ec3 983d 7a62 a63c 7ba8 84bc
00000390: f083 c43c 4918 85bc 4dc1 483d 2327 29bd
000003a0: 23e5 32bc 5a33 40bd 38be 12bd 8bc5 9dbc
000003b0: e3e1 23bd 0b87 a5bd a19b 67bd 7df6 9bbd
000003c0: 4e71 9dbd 0583 29bd a66a b4bd 4578 3a3d
000003d0: e4dd 643d 2ea5 993d d75e 8c3c 4ae4 6ebb
000003e0: 777c 43bc 825f f8bc 7e0e 303d 18a9 c03c
000003f0: d766 1e3e 2962 d33d 0f35 9c3d 301f 873d

conv2d_2.2.bias f4 [32]
-0.009475603 -0.0033147677 0.047897503 0.0029910516 0.019769525 0.0021030654 -0.01948991 0.06858913
-0.0036695567 0.0101397 -0.01442182 0.014109945 -0.012751879 0.026719451 0.035991747 0.025167711
-0.032872275 0.025328973 -0.08808575 -0.010023967 -0.016667476 -0.026497714 -0.056059938 -0.03156915
0.005215566 -0.0032836127 -0.050438747 -0.016848834 0.008648486 -0.0105112875 0.026841085 -0.05957478
00000000: 8f3f 1bbc 933c 59bb 2c30 443d 8505 443b
00000010: b3f3 a13c 95d3 093b 4ea9 9fbc 7578 8c3d
00000020: f27c 70bb fc20 263c 7f49 6cbc 662d 673c
00000030: 42ed 50bc c0e2 da3c 156c 133d 842c ce3c
00000040: 14a5 06bd b57e cf3c 4d66 b4bd 913b 24bc
00000050: 3b8a 88bc bc11 d9bc 1b9f 65bd a74e 01bd
00000060: 57e7 aa3b e131 57bb dc98 4ebd 9106 8abc
00000070: 61b2 0d3c 8937 2cbc d6e1 db3c af04 74bd

conv2d_3.0.weight f4 [64, 32, 3, 3]
0.04914644 0.020015923 -0.042474005 -0.06875145 0.008820287 -0.03237779 0.030612124 0.036832586
-0.03642512 0.0069259848 -0.012559024 -0.053057615 0.02219136 0.024560103 -0.04507701 0.055424687
0.030899849 0.033499558 -0.022644624 -0.0155469 0.060607687 0.057946153 -0.024201185 0.08249178
0.027255148 -0.004265945 -0.010326819 -0.06607255 -0.025473492 -0.09691286 0.05567901 0.07779482
0.070013165 0.016336216 -0.032638825 -0.030945404 0.06777499 0.0023017705 0.02577896 0.07787358
-0.05603042 -0.0016694973 -0.005963654 0.027742002 0.031149074 0.015157128 0.10011887 0.06312851
-0.079433784 0.012693828 -0.05146257 0.0641847 0.06251996 0.015918776 -0.035408195 -0.10156732
-0.12238493 0.0815564 0.06770546 0.0012108521 -0.038571555 0.057126556 0.022273526 -0.0035931473
-0.014865066 0.0025197025 -0.02600556 0.014195674 0.013879388 -0.054210458 0.034888986 0.022226721
-0.041681085 0.05964358 -0.023527905 0.030329779 0.056976505 0.034586843 0.036676634 0.010803777
0.008443558 -0.09004861 -0.08314305 0.0031858184 -0.019480247 0.058756948 -0.0077626733 0.059149332
0.05056331 -0.007143435 0.036261972 0.0066749346 0.101088226 -0.08640342 -0.029864863 -0.0071397
-0.03300165 -0.03582495 -0.025273373 -0.042925704 0.006484254 -0.04104939 0.040628888 0.10483466
0.10731628 -0.0045632147 0.019268269 -0.08845427 -0.12084754 -0.05881242 -0.11666764 -0.0021494143
0.049581684 0.06595217 -0.039088085 -0.08028584 -0.053369936 -0.0224311 -0.074393705 -0.13272746
-0.0025171307 0.020230304 0.017014505 -0.0624694 -0.047138687 0.059434574 0.000376481 0.010365773
0.051212624 -0.09496389 -0.06696896 -0.029975658 0.03434137 0.005833754 -0.007302648 -0.008043678
0.036360677 -0.014385481 0.038347375 0.022227515 0.061884724 0.06463754 -0.040732022 0.00054324436
-0.0019957041 -0.027197832 -0.03995383 -0.040058725 -0.061268624 0.029611692 -0.06622887 0.0045900666
0.01598062 0.008859427 0.07298423 0.05121028 -0.058616877 0.017408967 -0.0031958467 0.04590016
-0.049207658 0.03921858 0.024725154 0.044420756 -0.017438583 0.044270024 0.00056973886 0.054886762
0.011096173 0.042830598 -0.030940624 -0.023802867 0.04796171 0.049686566 -0.011838864 -0.01989203
0.02154577 -0.054258008 0.00616876 -0.003733363 -0.074077696 -0.07842764 -0.09870534 0.08980108
0.045994565 0.059089422 -0.06664183 -0.068799116 0.01861481 0.05653892 0.04815666 0.05447333
-0.035744138 -0.04811064 -0.040419932 0.016190672 0.036914837 -0.040876914 -0.023164244 -0.00667074
-0.0026218598 0.026635697 0.014900235 -0.016934212 0.03752859 -0.046299696 -0.005612628 -0.04674203
-0.04757738 0.03105408 0.018919537 -0.011567396 -0.028220044 0.042478763 0.0047415122 0.048103858
-0.015925582 0.077532716 0.021914054 -0.02583121 -0.0011023113 -0.034953795 0.006180398 0.0039005498
-0.034664605 0.035869736 0.06123405 0.027562868 -0.032010254 -0.06669111 -0.0671548 -0.051243283
0.0147618605 0.0032855428 -0.022038586 0.000965198 -0.0092817545 0.0008511767 -0.05859796 0.0497976
-0.020680426 -0.050759643 -0.0010660695 0.032820635 0.05393644 -0.0072107133 -0.011107925 -0.034481406
-0.035668332 -0.022511812 -0.03356998 0.04508615 -0.053151947 -0.012232743 -0.024430666 0.031953607
00000000: c74d 493d 6ff8 a33c 39f9 2dbd 8fcd 8cbd
00000010: f782 103c 939e 04bd 47c6 fa3c c4dd 163d
00000020: 8232 15bd 5ff3 e23b 5dc4 4dbc f152 59bd
00000030: a8ca b53c 4532 c93c aca2 38bd ff04 633d
00000040: ae21 fd3c d536 093d 3881 b9bc 6db8 7ebc
00000050: c43f 783d f258 6d3d 9041 c6bc 73f1 a83d
00000060: 3046 df3c 57c9 8bbb d131 29bc 0c51 87bd
00000070: c9ad d0bc 407a c6bd ac0f 643d e452 9f3d
00000080: 1063 8f3d 87d3 853c 4ab0 05bd 3781 fdbc
00000090: 9dcd 8a3d 4dd9 163b 662e d33c 2f7c 9f3d
000000a0: 2780 65bd 09d3 daba c16a c3bb 3243 e33c
000000b0: 582c ff3c 9a55 783c 1f0b cd3d 8549 813d
000000c0: 2eae a2bd c6f9 4f3c 6aca 52bd 4573 833d
000000d0: 770a 803d 1868 823c 2f08 11bd 8702 d0bd
000000e0: f3a4 fabd 0b07 a73d 29a9 8a3d 74b5 9e3a
000000f0: 35fd 1dbd 89fd 693d f876 b63c 027b 6bbb
00000100: 9b8c 73bc 9821 253b 9d09 d5bc f994 683c
00000110: 5f66 633c c90b 5ebd c1e7 0e3d d014 b63c
00000120: c9b9 2abd d44c 743d 98bd c0bc 2876 f83c
00000130: 3260 693d efaa 0d3d 3d3a 163d 5302 313c
00000140: d956 0a3c 686b b8bd e746 aabd 2ac9 503b
00000150: 0a95 9fbc 20ab 703d 065e febb 9246 723d
00000160: 791b 4f3d 7a13 eabb 6f87 143d 69b9 da3b
00000170: 5807 cf3d 47f4 b0bd 28a7 f4bc 25f4 e9bb
00000180: bd2c 07bd 2fbd 12bd 1b0a cfbc ddd2 2fbd
00000190: dd79 d43b 6823 28bd 7a6a 263d 8eb3 d63d
000001a0: a3c8 db3d 0587 95bb 7dd8 9d3c 8327 b5bd
000001b0: ea7e f7bd 4be5 70bd 72ef eebd 30dd 0cbb
000001c0: 2a16 4b3d ee11 873d d41a 20bd e76c a4bd
000001d0: 6f9a 5abd 6dc1 b7bc ba5b 98bd b5e9 07be
000001e0: 72f6 24bb 06ba a53c 0162 8b3c eadf 7fbd
000001f0: 7f14 41bd ab71 733d 6d62 c539 34d5 293c
00000200: 54c4 513d 6e7c c2bd 0627 89bd 838f f5bc
00000210: 89a9 0c3d 1329 bf3b 0d4b efbb a1c9 03bc
00000220: efee 143d 15b1 6bbc 2312 1d3d 7a16 b63c
00000230: d67a 7d3d b060 843d 9fd6 26bd 8368 0e3a
00000240: 5cca 02bb fdcd debc a1a6 23bd 9e14 24bd
00000250: cff4 7abd 3894 f23c 00a3 87bd 4568 963b
00000260: cae9 823c 2127 113c c278 953d dfc1 513d
00000270: 4018 70bd 409d 8e3c 6971 51bb ce01 3c3d
00000280: f88d 49bd a9a3 203d 688c ca3c 8af2 353d
00000290: 5cdb 8ebc 7c54 353d 875a 153a f1d0 603d
000002a0: b9cc 353c 236f 2f3d 3177 fdbc 3bfe c2bc
000002b0: 7f73 443d 2484 4b3d cbf7 41bc 9cf4 a2bc
000002c0: c180 b03c a53d 5ebd 4f23 ca3b 70ab 74bb
000002d0: 0cb6 97bd ac9e a0bd 0626 cabd a1e9 b73d
000002e0: cc64 3c3d c007 723d 837b 88bd 8de6 8cbd
000002f0: 167e 983c 5b95 673d eb3f 453d 6d1f 5f3d
00000300: 7268 12bd aa0f 45bd 5f8f 25bd 4da2 843c
00000310: 0334 173d 8d6e 27bd f1c2 bdbc 3996 dabb
00000320: 82d3 2bbb 1b33 da3c 1e20 743c 9eb9 8abc
00000330: 94b7 193d c0a4 3dbd 23ea b7bb 9274 3fbd
00000340: 80e0 42bd 2065 fe3c 25fd 9a3c 2d85 3dbc
00000350: b92d e7bc 36fe 2d3d b05e 9b3b 8d08 453d
00000360: 5e76 82bc 79c9 9e3d 1a85 b33c f99b d3bc
00000370: 6e7b 90ba b62b 0fbd f084 ca3b 5ea0 7f3b
00000380: 79fc 0dbd 25ec 123d 8ed0 7a3d 86cb e13c
00000390: 2f1d 03bd 5995 88bd 7588 89bd 7ae4 51bd
000003a0: bbdb 713c 4352 573b 448a b4bc 5705 7d3a
000003b0: 8012 18bc 8021 5f3a 6a04 70bd 91f8 4b3d
000003c0: ff69 a9bc 58e9 4fbd 5bbb 8bba ee6e 063d
000003d0: 75ec 5c3d d947 ecbb 04fe 35bc 603c 0dbd
000003e0: f518 12bd b16a b8bc ad80 09bd 41ac 383d
000003f0: dbb5 59bd d86b 48bc d222 c8bc c9e1 023d

conv2d_3.0.bias f4 [64]
-0.010518974 -0.029607795 0.012479525 0.11863088 0.0062673856 0.0450009 -0.052109797 -0.045348383
-0.03811437 -0.030314615 0.08517377 -0.023676742 0.08429804 0.06725076 -0.031006236 -0.017544648
0.0075617936 -0.06125808 0.06220784 -0.0369206 -0.021361247 -0.04858066 -0.07690014 0.09385372
-0.010610946 -0.036134638 0.04559766 -0.061353005 0.030977417 -0.05106248 -0.056019638 -0.07565496
0.086251915 -0.032474943 -0.027516562 -0.029898219 0.06134621 0.11851582 0.022441866 -0.07476862
-0.057277583 -0.052034874 0.08789388 0.004831352 0.07654631 -0.06389424 0.0814348 -0.08737273
-0.0810972 -0.04979092 0.07516074 -0.06886496 -0.053639278 -0.021256562 0.033226628 -0.06598178
0.034696497 -0.0695439 -0.0073195323 0.02925968 -0.033623047 0.083457805 0.06779023 0.03322624
00000000: c657 2cbc 0c8c f2bc ec76 4c3c bff4 f23d
00000010: a45e cd3b dd52 383d 1571 55bd 3abf 39bd
00000020: d01d 1cbd 5b56 f8bc 966f ae3d baf5 c1bc
00000030: 73a4 ac3d c4ba 893d ca00 febc cbb9 8fbc
00000040: ecc8 f73b c1e9 7abd a6cd 7e3d 0e3a 17bd
00000050: c8fd aebc 84fc 46bd d27d 9dbd 6136 c03d
00000060: 89d9 2dbc ea01 14bd 9dc4 3a3d 4a4d 7bbd
00000070: 5ac4 fd3c e426 51bd d974 65bd fdf0 9abd
00000080: d8a4 b03d 7204 05bd 6a6a e1bc 1ced f4bc
00000090: 2a46 7b3d 6cb8 f23d 01d8 b73c 4a20 99bd
000000a0: e69b 6abd 8522 55bd b501 b43d 5150 9e3b
000000b0: 50c4 9c3d fcda 82bd 4ac7 a63d 79f0 b2bd
000000c0: 4a16 a6bd 90f1 4bbd e0ed 993d 1209 8dbd
000000d0: dcb4 5bbd 3e22 aebc a518 083d 7521 87bd
000000e0: ea1d 0e3d 086d 8ebd b0d8 efbb ffb1 ef3c
000000f0: 52b8 09bd edeb aa3d 9bd5 8a3d 3d18 083d

conv2d_3.2.weight f4 [64, 64, 3, 3]
-0.0033752809 0.008342837 -0.015505195 -0.0013314998 0.01989486 -0.010226373 -0.043514337 -0.03719549
0.019942932 -0.04220421 -0.030549197 -0.010303821 0.035325605 0.012564585 -0.011179253 0.010731772
0.04732114 0.013480963 -0.00945247 0.018003818 -0.006698202 -0.0041076704 -0.01908467 -0.045588564
0.024773214 0.0055376315 0.004985357 -0.00964064 -0.028683342 -0.036444925 -0.008561097 0.004438108
-0.026409438 -0.026076503 -0.030481357 -0.008456446 -0.01840556 0.0026092343 -0.038398303 -0.030796682
-0.023594383 0.011686374 -0.041904647 0.0063753114 -0.014212781 0.01669485 -0.057997655 0.0035153648
-0.03257855 -0.043756247 -0.04619755 -0.058435358 -0.045265358 -0.08003815 -0.0486048 -0.043426685
-0.03794603 -0.03099589 -0.0017425872 -0.06314357 -0.024259966 0.012635399 -0.0057477667 0.02162434
0.08145309 -0.008743494 -0.051323365 0.0031914294 0.030563815 -0.05601129 0.0128452545 -0.0028162694
-0.026300188 0.014988129 0.023050813 -0.008422982 -0.033054445 -0.0039573396 -0.03791002 -0.07106704
-0.017431743 -0.022768965 -0.05317003 -0.035265807 0.037372 0.037129104 0.047006566 0.005163685
-0.05560174 -0.009752218 -0.007661124 -0.05533204 0.00038813928 -0.06719837 -0.057333868 -0.05571428
-0.019114286 0.018479576 -0.009745325 -0.0017237912 -0.05784683 -0.048769835 -0.06003804 -0.008971434
-0.0550433 -0.011468681 -0.0055647655 -0.0074279234 -0.07671777 -0.045972776 -0.0365213 -0.016568989
0.024795195 0.02455621 -0.010182191 0.028122269 0.0391569 0.020689815 -0.057941437 -0.013268613
-0.049858157 -0.048066594 0.012941614 -0.010874919 -0.047981646 -0.0301443 -0.012540397 -0.056945644
0.011524719 -0.009712129 0.085749656 0.06221215 0.019852847 0.035650264 -0.030509882 0.015772006
-0.01781844 -0.008706903 -0.013678583 0.018281579 0.04718998 0.029375805 0.008973202 0.02998548
-0.037951604 -0.037018575 0.00508481 -0.043199413 0.003051267 -0.026311072 -0.05475856 -0.13227884
-0.11206573 0.031828083 -0.018758519 0.008023322 0.03856509 0.063581266 0.038025796 -0.020363742
-0.016271267 -0.023929274 -0.014761662 -0.02335481 -0.03098141 -0.053883817 0.0044436506 -0.061665446
-0.007787478 0.034305576 -0.0043319883 0.021072058 0.02851793 -0.010587921 0.041598335 0.07335952
0.05717585 0.017539471 0.091846265 0.050047178 0.032709792 0.0074029374 0.00821311 0.029201
-0.012931045 0.017580183 -0.04347845 0.011359273 0.027866956 -0.019941282 -0.0068418137 0.007116129
-0.018074255 -0.029674064 -0.021873867 -0.034977 0.0124441935 -0.012030721 0.019346818 -0.021009471
0.050707985 -0.025933787 -0.046989806 0.015697408 0.022913855 0.01374385 0.031173563 -0.049968246
-0.034955535 -0.009315872 -0.01291911 -0.005758287 -0.00028022472 -0.02611437 -0.044291556 -0.08500979
0.0011180938 -0.049011018 -0.013416269 -0.022776145 0.01675935 -0.039911803 -0.030106585 0.01190587
0.0046879016 0.0074560097 0.022444531 0.027173296 0.03361106 0.037338912 -0.000857691 0.04000052
-0.009345531 0.029651454 0.01717222 -0.03323762 -0.035933394 -0.03523362 -0.0020126286 -0.028301733
0.03990166 0.039334692 0.039868418 -0.010573328 0.02911016 -0.014830967 -0.0058394126 -0.0057349633
0.036691155 -0.00023323298 -0.007165586 -0.016226893 0.010545252 -0.022911435 0.0036172555 -0.062201634
00000000: d133 5dbb 65b0 083c 8009 7ebc b885 aeba
00000010: 8cfa a23c 848c 27bc 173c 32bd 4c5a 18bd
00000020: 5c5f a33c 52de 2cbd 4f42 fabc 5cd1 28bc
00000030: 95b1 103d b0db 4d3c 3029 37bc 50d4 2f3c
00000040: d0d3 413d 42df 5c3c 88de 1abc be7c 933c
00000050: 977c dbbb a399 86bb 7457 9cbc 13bb 3abd
00000060: 32f1 ca3c 0575 b53b 355c a33b c6f3 1dbc
00000070: 54f9 eabc 4647 15bd d843 0cbc 8c6d 913b
00000080: 9b58 d8bc 649e d5bc 0ab4 f9bc e88c 0abc
00000090: 42c7 96bc b0ff 2a3b 8a47 1dbd 5349 fcbc
000000a0: 0249 c1bc 3578 3f3c 35a4 2bbd fde7 d03b
000000b0: b9dc 68bc a3c3 883c f38e 6dbd 0962 663b
000000c0: 1671 05bd c039 33bd a439 3dbd ea59 6fbd
000000d0: 2b68 39bd 0beb a3bd d415 47bd 2ee0 31bd
000000e0: 4c6d 1bbd 18eb fdbc 8667 e4ba 6b51 81bd
000000f0: d6bc c6bc b404 4f3c c357 bcbb 8725 b13c
00000100: e1d0 a63d df40 0fbc 7338 52bd 4d27 513b
00000110: f760 fa3c 186c 65bd e774 523c 2991 38bb
00000120: 7e73 d7bc c590 753c 0fd5 bc3c 8c00 0abc
00000130: 1964 07bd 92ac 81bb 8a47 1bbd 998b 91bd
00000140: 04cd 8ebc fb85 babc d1c8 59bd e172 10bd
00000150: 6213 193d b014 183d f589 403d 2134 a93b
00000160: a6be 63bd c4c7 1fbc 2b0a fbbb d9a3 62bd
00000170: 2c7f cb39 4d9f 89bd ebd6 6abd a834 64bd
00000180: 9095 9cbc 7b62 973c dbaa 1fbc d6f0 e1ba
00000190: ccf0 6cbd e1c2 47bd 73ea 75bd ecfc 12bc
000001a0: 1575 61bd 22e7 3bbc a358 b6bb f065 f3bb
000001b0: 351e 9dbd f34d 3cbd 5c97 15bd b0bb 87bc
000001c0: 4b1f cb3c 1b2a c93c 34d3 26bc ac60 e63c
000001d0: fc62 203d b07d a93c 0054 6dbd 9964 59bc
000001e0: 1138 4cbd 7ae1 44bd 1009 543c b72c 32bc
000001f0: 6788 44bd 2ef1 f6bc 3d76 4dbc d63f 69bd
00000200: 2dd2 3c3c 9f1f 1fbc 849d af3d 2bd2 7e3d
00000210: 70a2 a23c 0306 123d dcef f9bc 4b34 813c
00000220: faf7 91bc 66a7 0ebc 231c 60bc 40c3 953c
00000230: 484a 413d 87a5 f03c 5604 133c 1ca4 f53c
00000240: 2473 1bbd caa0 17bd 7a9e a63b def1 30bd
00000250: c4f7 473b 518a d7bc 834a 60bd 1b74 07be
00000260: b882 e5bd 2a5e 023d 77ab 99bc 4074 033c
00000270: 6ef6 1d3d e536 823d f0c0 1b3d ddd1 a6bc
00000280: 524b 85bc 5307 c4bc e6da 71bc 9652 bfbc
00000290: bacc fdbc 47b5 5cbd 0b9c 913b e894 7cbd
000002a0: 1a2e ffbb 0184 0c3d 5af3 8dbb 4f9f ac3c
000002b0: 6f9e e93c f678 2dbc 0463 2a3d 843d 963d
000002c0: 3931 6a3d f0ae 8f3c e519 bc3d 45fe 4c3d
000002d0: b4fa 053d 5794 f23b 4890 063c f036 ef3c
000002e0: bcdc 53bc 5104 903c 7616 32bd 3f1c 3a3c
000002f0: 3e49 e43c e65b a3bc 4b31 e0bb 6b2e e93b
00000300: 7610 94bc 0617 f3bc d330 b3bc 0b44 0fbd
00000310: bbe2 4b3c 801c 45bc 387d 9e3c 0e1c acbc
00000320: 2db3 4f3d 1873 d4bc 6278 40bd da97 803c
00000330: d6b5 bb3c e32d 613c b35f ff3c 81ab 4cbd
00000340: 892d 0fbd 99a1 18bc adaa 53bc 03b0 bcbb
00000350: 20eb 92b9 ceed d5bc 106b 35bd 9d19 aebd
00000360: 018d 923a c7bf 48bd e9cf 5bbc 0a95 babc
00000370: e84a 893c 8f7a 23bd 16a2 f6bc d710 433c
00000380: f89c 993b 8b51 f43b 98dd b73c 889a de3c
00000390: c0ab 093d b0f0 183d abd6 60ba 96d7 233d
000003a0: 001e 19bc 9be7 f23c c1ac 8c3c 2c24 08bd
000003b0: e52e 13bd 2151 10bd 4ee6 03bb 09d9 e7bc
000003c0: ec6f 233d 6a1d 213d 114d 233d c03b 2dbc
000003d0: 6e78 ee3c 96fd 72bc 8b58 bfbb 5cec bbbb
000003e0: 7749 163d 0090 74b9 4bcd eabb 43ee 84bc
000003f0: fec5 2c3c c3b0 bbbc 7a0f 6d3b 24c7 7ebd

conv2d_3.2.bias f4 [64]
-0.008762262 0.08639055 0.0024532157 -0.006827954 0.11549627 -0.037413206 -0.034148365 0.006220448
-0.020760795 0.06906937 -0.019123515 -0.01230252 0.020588188 -0.008208851 -0.0073983674 0.0035656285
-0.030470746 0.007308564 -0.031448085 -0.043763407 -0.0025231647 0.013115333 0.11565439 -0.004120821
-0.008505679 0.011959968 0.0053123594 -0.025560379 -0.0017263689 -0.020106032 -0.033742227 -0.024234712
-0.015973534 -0.05814885 0.029480241 0.055067036 -0.05238186 -0.034278918 0.0050359685 0.0027786654
-0.04667813 -0.035200067 0.062432725 0.0694428 -0.003155637 0.009220077 -0.029717889 -0.031152634
-0.015037694 0.000656627 -0.018023001 -0.002167463 -0.051695812 0.0011124958 -0.05531904 -0.034728568
-0.049956966 0.10179931 -0.017124977 0.020274647 -0.053189073 -0.044167213 -0.026182827 -0.046505306
00000000: 978f 0fbc 87ed b03d 21c6 203b 08bd dfbb
00000010: 4f89 ec3d 973e 19bd 28df 0bbd e6d4 cb3b
00000020: 8b12 aabc 3e74 8d3d eba8 9cbc 8290 49bc
00000030: 8fa8 a83c 6b7e 06bc 016e f2bb 52ad 693b
00000040: c99d f9bc ae7c ef3b b5cf 00bd 4241 33bd
00000050: ae5b 25bb b2e1 563c 35dc ec3d f407 87bb
00000060: 675b 0bbc bef3 433c 4d13 ae3b 0064 d1bc
00000070: 5447 e2ba 68b5 a4bc 4a35 0abd e087 c6bc
00000080: eeda 82bc 7d2d 6ebd 8c80 f13c f98d 613d
00000090: 5c8e 56bd 0d68 0cbd c404 a53b 451a 363b
000000a0: 9131 3fbd f22d 10bd 75b9 7f3d 0738 8e3d
000000b0: cece 4ebb ce0f 173c ee72 f3bc cf33 ffbc
000000c0: a960 76bc 7e21 2c3a f9a4 93bc ff0b 0ebb
000000d0: fdbe 53bd 2ad1 913a 3896 62bd 8b3f 0ebd
000000e0: ad9f 4cbd 287c d03d ae49 8cbc 0417 a63c
000000f0: c9dc 59bd aee8 34bd 5e7d d6bc 597c 3ebd

fc1.weight f4 [64, 1280]
-0.0016951652 0.057589635 0.023667458 0.019365117 0.008645785 0.047667325 0.021627624 -0.008620543
0.04202849 0.048782323 0.018788805 0.023148326 0.0011450636 0.015209741 -0.0030466544 0.038602296
0.022140983 0.010963773 -0.017439272 -0.0012143098 0.04573385 -0.0014950323 0.02794141 0.034547955
0.010493225 0.0433268 -0.0026207725 0.03683198 0.019565905 0.013513024 0.010034116 0.024677519
0.0022166856 0.01981661 0.022388397 -0.0074520106 0.011254716 0.016466739 0.014656725 0.00047345896
-0.02129627 -0.043979775 -0.048706 -0.050486423 -0.010544838 -0.037407473 -0.03585893 -0.0071417815
-0.010678806 -0.039371867 -0.061176877 -0.06440186 -0.028197944 -0.042531677 -0.017531317 0.0058552637
0.019045727 -0.015152459 0.011245046 0.0028099364 -0.019371271 -0.0049557504 -0.0071200808 0.0020115455
0.016254175 0.025234455 0.05548809 0.013808643 0.03729003 0.016457407 -0.022228826 -0.020448659
0.01639094 0.0014042733 -0.010770621 0.0010243908 0.012742566 -0.012762793 0.023588354 0.0031190538
0.019011756 0.057502344 0.046844773 0.03383006 0.05595331 0.060187623 0.05714605 0.0483739
0.065416925 0.02629349 0.033168036 0.021760333 0.027165655 0.022322841 0.024292031 0.02534024
0.04095477 0.035841092 0.021391729 0.07002224 0.035311986 -0.0009801642 0.017927412 -0.009239182
0.002830614 0.032918043 -0.0088055115 0.004971132 0.016808 -0.004656398 0.020381391 -0.011554959
-0.013057514 -0.0032815193 -0.0048034354 -0.017012797 -0.0021619678 0.016932756 0.00993449 0.0037747214
-0.018184258 0.013453471 -0.021846084 0.0034693927 -0.0092554055 0.013166442 -0.019984296 -0.0184084
0.015596126 0.0116776535 -0.0047951923 -0.027512008 -0.020910772 -0.012326924 0.014659507 0.014470907
0.013159825 -0.019535394 -0.019803887 0.009569366 -0.018987989 0.012804395 -0.023247072 -0.0075682993
0.003154923 -0.025812624 0.017658409 0.022902355 0.028853498 0.004977684 -0.009407077 -0.008174233
0.020786267 0.026431253 0.003172224 -0.010853803 0.02001717 -0.0226377 -0.008653386 -0.0014868387
-0.006268558 -0.0003460562 -0.002805117 0.0027261695 0.005681492 -0.024611222 -0.007466802 0.012276782
-0.0008292939 -0.0012947172 -0.018629583 -0.04514586 -0.009767474 -0.014973182 -0.017353375 -0.0009464441
-0.013049078 -0.0022924254 -0.008610792 0.028462674 0.04112177 0.05147153 0.08274915 0.04475763
0.059752643 -0.053702082 -0.05351271 -0.012623875 -0.010431059 -0.026611798 -0.042177632 -0.022507912
-0.044067703 -0.04868437 -0.059555557 0.053715248 0.0056070285 0.04145902 0.01733358 -0.00951346
-0.015149872 -0.043222442 -0.04972804 -0.027429016 -0.0027685252 0.014802744 -0.013975264 0.009514167
0.009006439 -0.027725475 -0.0477987 -0.015319191 -0.048336647 -0.013864737 -0.04707622 -0.070452504
-0.055979654 -0.04778927 -0.06447215 -0.051758632 0.01409479 -0.00961511 -0.0022991644 0.008331326
-0.011344956 -0.024312356 0.017714623 -0.020690136 0.0069004437 0.007421026 -0.032539595 -0.024456766
0.033652734 0.011275512 -0.00570433 0.023001708 -0.0014634331 0.0070662308 -0.009809595 0.0033325783
-0.03501709 -0.000953749 -0.014310894 -0.0024662667 0.023756474 -0.010946646 0.022328017 -0.007842391
0.0075015486 -0.026958087 -0.03119181 -0.018928695 -0.014485865 -0.020694727 0.0074467054 -0.012971519
00000000: 4e30 deba 1ce3 6b3d 42e2 c13c 98a3 9e3c
00000010: 0da7 0d3c d03e 433d 6a2c b13c 2e3d 0dbc
00000020: 1126 2c3d f9cf 473d fbea 993c 8fa1 bd3c
00000030: f515 963a 4732 793c 61aa 47bb 711d 1e3d
00000040: 0261 b53c 66a1 333c cedc 8ebc 7a29 9fba
00000050: 6b53 3b3d f6f4 c3ba 62e5 e43c 2882 0d3d
00000060: c7eb 2b3c 7177 313d 44c1 2bbb 21dd 163d
00000070: ad48 a03c bb65 5d3c 2266 243c 8228 ca3c
00000080: d045 113b 7156 a23c df67 b73c ff2f f4bb
00000090: b365 383c 41e5 863c c322 703c 963a f839
000000a0: 8475 aebc 2324 34bd f17f 47bd daca 4ebd
000000b0: 42c4 2cbc 9438 19bd d0e0 12bd 9b05 eabb
000000c0: 29f6 2ebc 6544 21bd 9b94 7abd 1fe5 83bd
000000d0: 60ff e6bc b235 2ebd d69d 8fbc 83dd bf3b
000000e0: c905 9c3c 0542 78bc 243d 383c e926 383b
000000f0: 80b0 9ebc d963 a2bb 914f e9bb 22d4 033b
00000100: 7a27 853c 7db8 ce3c 7b47 633d a63d 623c
00000110: 6ebd 183d afd1 863c 3a19 b6bc f283 a7bc
00000120: 4b46 863c 980f b83a 4277 30bc da44 863a
00000130: 32c6 503c 091b 51bc 5d3c c13c 0a69 4c3b
00000140: 8bbe 9b3c 9487 6b3d 4ee0 3f3d 6491 0a3d
00000150: 4c2f 653d 4c87 763d fa11 6a3d b623 463d
00000160: 4ff9 853d 7265 d73c 35db 073d ba42 b23c
00000170: 828a de3c 64de b63c 1500 c73c 5696 cf3c
00000180: 30c0 273d 1cce 123d b53d af3c d267 8f3d
00000190: 4da3 103d da78 80ba 82dc 923c f05f 17bc
000001a0: d381 393b 12d5 063d fe44 10bc e1e4 a23b
000001b0: eeb0 893c b394 98bb e0f6 a63c 0351 3dbc
000001c0: 2fef 55bc c20e 57bb 2366 9dbb 6c5e 8bbc
000001d0: cdaf 0dbb 90b6 8a3c 45c4 223c 5161 773b
000001e0: 27f7 94bc f26b 5c3c 8ff6 b2bc c05e 633b
000001f0: fca3 17bc 0fb8 573c 1bb6 a3bc 36cd 96bc
00000200: e586 7f3c a153 3f3c fd20 9dbb dd60 e1bc
00000210: 114d abbc def6 49bc 6e2e 703c 6217 6d3c
00000220: 4e9c 573c b108 a0bc c33b a2bc d5c8 1c3c
00000230: b38c 9bbc 86c9 513c a570 bebc 7fff f7bb
00000240: d3c2 4e3b ff74 d3bc 5ea8 903c b89d bb3c
00000250: 2c5e ec3c d71b a33b 2420 1abc 38ed 05bc
00000260: f647 aa3c 5b86 d83c 16e5 4f3b 26d4 31bc
00000270: 0cfb a33c b372 b9bc eec6 0dbc 07e2 c2ba
00000280: 7a68 cdbb e06e b5b9 0ed6 37bb 89a9 323b
00000290: cf2b ba3b 799d c9bc 13ac f4bb 8e24 493c
000002a0: f964 59ba 80b3 a9ba 119d 98bc deea 38bd
000002b0: c107 20bc 1452 75bc aa28 8ebc ca1a 78ba
000002c0: cdcb 55bc 843c 16bb 4814 0dbc 8e2a e93c
000002d0: 4d6f 283d d0d3 523d 6378 a93d c753 373d
000002e0: 30bf 743d b7f6 5bbd 2530 5bbd 5fd4 4ebc
000002f0: 08e7 2abc fc00 dabc 74c2 2cbd 8362 b8bc
00000300: 5680 34bd 4369 47bd 87f0 73bd 8504 5c3d
00000310: 2abb b73b efd0 293d 27ff 8d3c 58de 1bbc
00000320: 2b37 78bc 040a 31bd a1af 4bbd d1b2 e0bc
00000330: 2570 35bb 3587 723c 81f8 64bc 4fe1 1b3c
00000340: be8f 133c 8920 e3bc 92c8 43bd 58fd 7abc
00000350: a6fc 45bd ec28 63bc ffd2 40bd 6749 90bd
00000360: ec4a 65bd aebe 43bd f909 84bd dc00 54bd
00000370: d6ed 663c b288 1dbc 94ad 16bb 1d80 083c
00000380: 32e0 39bc b52a c7bc 421e 913c 5c7e a9bc
00000390: 1e1d e23b 142c f33b 3d48 05bd 8e59 c8bc
000003a0: 73d7 093d edbc 383c 63eb babb 146e bc3c
000003b0: abd0 bfba d78b e73b 6cb8 20bc 6367 5a3b
000003c0: 156e 0fbd 0305 7aba 3d78 6abc 17a1 21bb
000003d0: f09c c23c 9059 33bc 3fe9 b63c 5f7d 00bc
000003e0: 8dcf f53b 35d7 dcbc f785 ffbc 5a10 9bbc
000003f0: 1f56 6dbc fd87 a9bc 7e03 f43b 7e86 54bc

fc1.bias f4 [64]
0.048078503 0.023469768 0.03384285 -0.03051575 -0.020020228 0.038085606 0.055595234 -0.04224628
0.02340164 -0.025109448 0.011545932 -0.010575722 0.03506831 -0.01881694 0.0079979235 0.025485313
-0.042930707 -0.0020454652 -0.031933755 0.03127007 0.031242123 0.06645547 -0.044878103 0.013448148
0.01659532 0.009843517 -0.00026242883 0.0024339745 -0.021791255 0.0026389617 0.013743249 0.0043853507
0.057617664 -0.015052904 -0.050462123 -0.0151645485 0.016780902 0.0036412466 -0.034845226 -0.045597333
0.00020426241 0.02046583 -0.05284664 -0.022850797 0.0006048315 -0.0067308047 -0.0026517748 0.020309249
-0.0376511 0.0145576475 -0.0044792267 0.032547243 0.022532975 -0.03496819 -0.04540086 0.047814447
0.031635392 -0.019429918 0.006649573 -0.008796505 -0.019383563 0.023697563 -0.011505069 0.0005761318
00000000: f7ed 443d ac43 c03c cd9e 0a3d 2bfc f9bc
00000010: 7601 a4bc a7ff 1b3d d4b7 633d 6f0a 2dbd
00000020: ccb4 bf3c 54b2 cdbc 262b 3d3c cb45 2dbc
00000030: caa3 0f3d fc25 9abc b909 033c 93c6 d03c
00000040: 1cd8 2fbd 360d 06bb f8cc 02bd 0b15 003d
00000050: 7bef ff3c ce19 883d 1ad2 37bd 9f55 5c3c
00000060: e9f2 873c b446 213c 9a96 89b9 5183 1f3b
00000070: 9383 b2bc 6ef2 2c3b 5d2b 613c fdb2 8f3b
00000080: 8000 6c3d 75a0 76bc 5fb1 4ebd ba74 78bc
00000090: 1a78 893c fba1 6e3b deb9 0ebd 45c4 3abd
000000a0: 462f 5639 f5a7 a73c b875 58bd 9831 bbbc
000000b0: 8e8d 1e3a 158e dcbb 66c9 2dbb 955f a63c
000000c0: 0a38 1abd 3383 6e3c 7ac6 92bb 4250 053d
000000d0: 1397 b83c ce3a 0fbd 41f6 39bd 15d9 433d
000000e0: 1d94 013d 7e2b 9fbc a9e4 d93b 371f 10bc
000000f0: 47ca 9ebc 6421 c23c c27f 3cbc 8d07 173a
