models/model13_logflux_lr005_nofs.pth (torch, 622626 bytes, 16 tensors)

conv2d_1.0.weight f4 [16, 1, 3, 3]
00000000: 685d 8b3e 8aa0 973e 407a 79bd fd8d a63e
00000010: 596b 5fbd d307 b23d 2d06 15be 959b 5b3e
00000020: c0cc a03e 1a4b 7cbe d375 953e 1c34 733d
00000030: f687 803e 97f2 313d 813d 253e 00b0 48bd
00000040: 1f66 843e e084 553d a1ed 10be 6e2b db3d
00000050: 4a3f 0fbe c27f 04bd b13c f9bd 211b 6c3e
00000060: ef10 82be 9eab 12be d3f3 a3bd bd00 5bbe
00000070: 7719 953c 36d0 b0be 21c0 923e 197f 9cbe
00000080: ba63 753e 4fc9 153d e335 00be a0fc 3f3e
00000090: 36ed 4d3d 5c67 8d3e e064 263d 36a6 c3bd
000000a0: 40de c13d 85d2 a2bd ae59 173e e0e7 9b3e
000000b0: 048a 4c3e 98e7 0ebe fbcb 5c3e 12e7 a53d
000000c0: ca24 453e b95d 4dbe dc56 a8be 60df debd
000000d0: c91f 88be 1a87 993e ce79 953d 9c2e eb3d
000000e0: f0c5 b03d eaeb 03bd f168 7d3e 9c11 85be
000000f0: 45ea 643b f6cf 80be 0526 a93d a9a7 01be
00000100: 6229 d43d 7dcf cabd 4c60 893e 32fb 4bbe
00000110: 5083 4abe 0cdc 56be d5f3 943e 0ac0 cb3d
00000120: 9b76 b23e 54b6 81be 9238 9bbe df9a 75be
00000130: a36e 53be a283 1f3e ca4b 113e af39 993e
00000140: 4873 1bbe 1e9e 5cbe d74d 573e d043 eabd
00000150: fa29 703e 9b35 88bd fc74 693e 9bc3 80be
00000160: a785 20be 07be 0c3e 9bb8 8b3d 0eff b5bd
00000170: 46df 483e f94c 623e 090c 7dbe 732a 39be
00000180: 4b53 9c3e 4481 e9bd 35b9 f6bd db22 a5be
00000190: b078 43be 5b88 aa3d f636 34bd e3c4 77be
000001a0: d61a 003c 9328 69be 04cb 90be a3f5 3bbe
000001b0: ca5e 82be 184a 34be ad50 bd3e 4218 c43d
000001c0: 26bc 093e 0754 90be 3429 3fbe 14de a1bd
000001d0: ba54 aa3d 3f86 99be 4c68 f4bd da2e 3cbe
000001e0: 2279 ce3c 8262 05be da19 283b a21a 6bbe
000001f0: d072 50be 06ee 4abe a6fd d5bd b618 83be
00000200: 3da9 963e fbb9 48bd eef5 9b3e 347c ed3d
00000210: 3fe1 87be 8575 7c3e 07c9 9ebd 5eec 01be
00000220: 56aa 8dbe 4370 a6be e27c e23d 116d 6cbd
00000230: fe19 193e 9066 92be 8aa6 8b3e fdf3 84be
0.272197 0.2961467 -0.060907602 0.32530203 -0.054545734 0.086928986 -0.14553137 0.21446069
0.31406212 -0.24638024 0.29191455 0.059375867 0.2510373 0.043444242 0.16136743 -0.04899597
0.25859162 0.052128673 -0.14153148 0.10701643 -0.13988987 -0.0323484 -0.12169779 0.23057224
-0.25403544 -0.1432328 -0.0800549 -0.21387 0.01820062 -0.34533852 0.28662208 -0.30565718
0.23963824 0.036568936 -0.12520556 0.18748713 0.05027505 0.2761792 0.040623546 -0.095531866
0.09466219 -0.0795031 0.14780304 0.30450344 0.19974524 -0.13955534 0.21562187 0.08100714
0.19252315 -0.20055284 -0.32878768 -0.10882449 -0.2658675 0.29985887 0.07298623 0.114834994
0.086315036 -0.032207407 0.24747063 -0.25989997 0.0034929675 -0.25158662 0.08259205 -0.12661614
0.10359456 -0.099028565 0.2683128 -0.19920042 -0.19776654 -0.20982379 0.2909228 0.09948738
0.34856114 -0.25334418 -0.30316597 -0.2398486 -0.20647673 0.15577558 0.14189067 0.29926822
-0.15180695 -0.21544692 0.21025787 -0.114387155 0.23453513 -0.066508494 0.22798532 -0.25149235
-0.15675984 0.13744365 0.0682232 -0.088865384 0.19616422 0.22099675 -0.24711622 -0.180826
0.30532297 -0.114016086 -0.12047044 -0.32253155 -0.19089007 0.08326789 -0.043997727 -0.241962
0.007818898 -0.22769384 -0.2827989 -0.18355422 -0.25462943 -0.1760639 0.36975613 0.09574939
0.13450679 -0.28189108 -0.18668061 -0.07903686 0.083169416 -0.29985234 -0.119339556 -0.18377247
0.025204245 -0.13025859 0.0025650174 -0.22959378 -0.20356297 -0.19817361 -0.1044877 -0.2560479
0.29425994 -0.04900549 0.30461067 0.115959555 -0.26539037 0.24654205 -0.07753187 -0.12687823
-0.27669019 -0.32507524 0.11058976 -0.0577212 0.14951321 -0.28593874 0.27275497 -0.25967398

conv2d_1.0.bias f4 [16]
00000000: 8280 85bd 70f3 563d d695 453e 9f06 8d3e
00000010: e431 973e 7a7b 73be e1ab 983d 0274 1bbe
00000020: 9c81 24bc 92d9 57be 784b 9f3e 9385 7abe
00000030: d419 5e3e d4ea 083e df1b d83d 7ff8 1ebe
-0.065186515 0.052478254 0.19295439 0.27544114 0.2953025 -0.23777571 0.07454658 -0.15180972
-0.010040667 -0.2107909 0.31112266 -0.24465017 0.2168954 0.1337083 0.10552191 -0.15524481

conv2d_1.2.weight f4 [16, 16, 3, 3]
00000000: 164b aa3d ac61 ae3c 9a6d 803c 75e0 99bd
00000010: 830d 113d b313 17bc d033 1bbd a6f8 923d
00000020: 8014 673c cc7c 28bd ba4c 1abd 5c00 143b
00000030: 1e39 443d 02bc a1bc d6e5 3abd 4e94 e8bc
00000040: a32b 7bbd 2772 dd3c 7ca9 a63d 2e42 86bd
00000050: fa5c 023d c9c6 563d e00e ba3c e2dc 97bc
00000060: cbfa a23d 603f a23d 506d 963d afc4 33bb
00000070: 71fe 58bc f1e9 a53c 990f 3ebc de43 c5bc
00000080: 5b05 733d b52b a53d 3465 3db8 44f0 38bc
00000090: 936e 0e3c d918 293b 101d e33c be94 d43c
000000a0: 4ba1 94bd 3287 e6bc 15b8 923d b76d 0b3d
000000b0: 8cb0 85bb 11d9 2abd e0ea 33bd 20f7 77bd
000000c0: 6679 c5bc 144d a93c d970 883d c539 5c3d
000000d0: 8200 2bbd 171f 5fbd 473c 7fbb 2f2f b73d
000000e0: 318c d63c 62d1 6cbc 65c9 393d 0b45 c5bc
000000f0: dd4f 2fbd c9a5 883d 663c 0dbd fe9e 1bbc
00000100: 62c1 8cbd 441e 363d 8f57 8c3d 8b7c 1b3d
00000110: 1a16 3fbd d9bc a6bd 83f2 44bd 1a83 813d
00000120: 3063 433d 3384 ab3d 3bed 503d 5f68 083d
00000130: de40 efba 51ef 79bd 43c7 8fbd ad28 8fbd
00000140: b30f 463d 3add 90bc c3c6 4b3c febc 52bd
00000150: 5a89 b1bc 809c 17bd fec0 20bd 5365 1f3d
00000160: 388b 7d3c da87 c43d 6958 8dbc 4e3f 50bd
00000170: 689f 70bb 67c6 07bd 47c2 8cbc f7f5 96bd
00000180: 8ebd 5d3d d88c 54bd 58d0 433d 46e4 1a3d
00000190: 16dc 733d 04e9 82bd 607c 753d ab5d 21bd
000001a0: 0b51 fd3c 8c46 a03d 368e 40bc abf0 28ba
000001b0: 7f4f ed3b 25a5 39bd 0a15 8a3d ab5b 81bd
000001c0: 15c7 953d f4dd a33d 5ca6 e33d 482a 2a3c
000001d0: 19c5 1bbd d235 7b3d e265 b03d 169a 2bbd
000001e0: cb7f 863c 0237 90bc 2153 053d c293 29bc
000001f0: dbc4 00bc dbcf 9abb 27c3 92bd f4cf a23d
00000200: 5a75 9c3d 0ad5 debb 9f5a bdbb 9951 0cbd
00000210: 0cbf 90bd 4b74 9ebd 5ce9 143d f141 15bd
00000220: 7018 19bd 584b 483c dc68 00bc 05c1 83bc
00000230: 2406 c43c cffb 8c3b ea56 96bc 1f3d 2ebc
00000240: 3da9 80bd 7d9c 973d e398 08bd 0c34 e13c
00000250: 315a c1bc dbb2 943b 5ed7 a73d bd9f 333d
00000260: 6cd8 98bd a065 123d ea57 a73d 2699 b33c
00000270: 602f 713d f92d ad3d f5cb 78bc 1507 a33c
00000280: 652b 5fbd 9344 a1bc bcf5 763d 0a24 323d
00000290: f3fd 57bd 3135 87bd bee3 88bd c314 adbd
000002a0: 2892 36bd 903b 0f3c 770a 5c3d 9eb6 353c
000002b0: 8bda a0bd b3e9 88bd 7d90 083d a97f a5bd
000002c0: eef7 50bc d4da f13c 2e0a 6bbd 345b 3ebc
000002d0: 8d7b d5bb b286 9fbc 2611 2dbd 3997 96bd
000002e0: 18a8 88bd 7528 41bd e7f5 a43d a67f 24bd
000002f0: 8c94 6fbd 7679 a53c 6626 bc3c 1605 3b3d
00000300: 6f3c 823d 6814 3e3d 5737 a9bd 05f1 d73b
00000310: 83c3 4e3d 1662 fcbb 5868 52bd 7ab6 9e3d
00000320: 1b56 ffbc c39d 4cbd 530b 99bd e881 9f3a
00000330: 9696 143d 9158 a33c 5353 6b3c a59d 83bd
00000340: aa45 9bbd 5657 c03a 2e54 b73d 45f3 1e3d
00000350: 68bc 46bd dfd5 93bc a545 54bd ceaa 24bd
00000360: 4a28 a73c e413 4e3d 0260 8d3d 6a50 8ebd
00000370: 0e51 753d 5ebd 70bd b4bf 283d 9a65 843d
00000380: 5661 993a 2a46 9b3d 2889 87bd 1b60 02bd
00000390: b9f3 573d 076d a3bc f6bd 8bbc 2d6f 05bd
000003a0: 7e48 6b3d d36c 273d 7fad b43c b25a 4bbd
000003b0: e289 8abd 186a 923b 9979 a93c 7690 27bd
000003c0: bde0 e1bc c0c5 553d db86 883b 0068 763b
000003d0: 3001 a8bc d28d 9abd 7a78 a0bd 9829 23bd
000003e0: ce81 2dbd f0af d43c 4bbb c6bc 8389 05bd
000003f0: 2646 463d a7e5 3d3d 5b56 733d 543b 78bd
0.08315103 0.021286808 0.015677262 -0.07513515 0.035413276 -0.009221005 -0.03789121 0.07176332
0.014104009 -0.04113464 -0.03767083 0.0022583222 0.047906034 -0.01974297 -0.045629345 -0.02839103
-0.061320912 0.027031971 0.08137795 -0.065555915 0.03182695 0.05243567 0.022712171 -0.018537942
0.07957991 0.07922244 0.073450685 -0.0027430465 -0.013244257 0.020253154 -0.011600398 -0.024080213
0.05933128 0.08064977 -4.5155364e-05 -0.011287753 0.008693355 0.0025802164 0.027723819 0.025949832
-0.07257327 -0.028140638 0.07164017 0.03404018 -0.004079884 -0.041710917 -0.043925166 -0.06053841
-0.024105739 0.020666637 0.06662149 0.05376603 -0.04174853 -0.05447301 -0.003894584 0.089445464
0.026189895 -0.014454218 0.04535808 -0.024080774 -0.042800773 0.06672246 -0.03448143 -0.009498356
-0.06872822 0.044462457 0.06852638 0.03796057 -0.046651937 -0.081414886 -0.04808284 0.06323834
0.047702014 0.083748244 0.05100749 0.03330266 -0.0018253585 -0.061019246 -0.07020428 -0.0699018
0.048354816 -0.017683614 0.012437525 -0.05144977 -0.02167194 -0.037014484 -0.03924655 0.03891499
0.015475087 0.09596224 -0.017254071 -0.050841622 -0.0036716107 -0.033148196 -0.017182482 -0.07371133
0.05413585 -0.05189213 0.047806114 0.037815355 0.059536062 -0.063921005 0.059933066 -0.03939597
0.030922433 0.07825956 -0.011752656 -0.0006444554 0.0072421427 -0.04532351 0.06742294 -0.063163124
0.073133625 0.080013186 0.11115715 0.010386057 -0.038029764 0.061330624 0.086131826 -0.041894995
0.016418358 -0.017604355 0.03254998 -0.01035017 -0.007859434 -0.0047244853 -0.071661286 0.0794982
0.076395705 -0.0068002986 -0.005778625 -0.034257505 -0.07067689 -0.07737025 0.03635536 -0.03643984
-0.03737682 0.012224995 -0.0078375 -0.01608325 0.02392871 0.004302479 -0.01835199 -0.01063469
-0.0628228 0.07402895 -0.03334893 0.027490638 -0.023602577 0.004537923 0.08195375 0.04385351
-0.07463154 0.03574145 0.08171065 0.021923613 0.05888307 0.08456034 -0.015185346 0.019900838
-0.054484744 -0.019686019 0.060292944 0.0434914 -0.05273242 -0.06601942 -0.066840634 -0.084512256
-0.04457298 0.008742228 0.053720918 0.011090903 -0.07854184 -0.066851996 0.03334092 -0.0808099
-0.012754424 0.02952329 -0.057382755 -0.011618424 -0.0065149725 -0.019473407 -0.042252682 -0.07353062
-0.06672686 -0.047157723 0.08054715 -0.040160798 -0.058491275 0.020199519 0.022967529 0.045659147
0.06359183 0.04640618 -0.08262508 0.006590011 0.050479423 -0.0077021224 -0.05136904 0.077496484
-0.031168988 -0.04995514 -0.07472863 0.0012169452 0.036276422 0.019939693 0.014363128 -0.06426553
-0.07581647 0.0014674466 0.08951603 0.03880622 -0.048519522 -0.018046318 -0.05182423 -0.040201955
0.020404954 0.050311938 0.06903078 -0.069489315 0.059891753 -0.058774345 0.041198447 0.064646915
0.0011701982 0.07581742 -0.06617957 -0.031829935 0.052722666 -0.01994945 -0.017058354 -0.03257673
0.05744218 0.040875267 0.022055386 -0.04964704 -0.0676458 0.0044682138 0.020687865 -0.040909253
-0.027572984 0.052190542 0.0041664666 0.003759861 -0.020508379 -0.07546581 -0.07835479 -0.03983459
-0.04236012 0.0259628 -0.02425923 -0.032601845 0.048406743 0.04636159 0.059408527 -0.060603455

conv2d_1.2.bias f4 [16]
00000000: 7454 803c 9894 26bd 96c4 b63d 2be0 31bd
00000010: 7f3a 833d 3efe 88bd d4c2 bcbc d0e6 aabd
00000020: de51 68bc 3aad 183d 4182 31bd 7330 a1bd
00000030: d550 873d be44 583d 6c9c d03b 855c 64bd
0.01566527 -0.040669054 0.089242145 -0.043426674 0.064076416 -0.06689118 -0.02304212 -0.08344805
-0.014179675 0.037274577 -0.04333711 -0.07870569 0.06607214 0.052799933 0.006366303 -0.055752296

conv2d_2.0.weight f4 [32, 16, 3, 3]
00000000: bcf9 f7bc 5fc2 3abd 3c20 153d 3210 3bbd
00000010: 259e 17bd 4d61 90bd aba3 26bd 2d75 1a3d
00000020: f80c 583d b105 483c fe5a 0ebc 3162 993d
00000030: a6be 863c f3d7 a6bc 6a29 0ebd 6014 3fbc
00000040: 7c6b 113d bb63 bc3c 89e1 583d bc61 38bc
00000050: c098 783d 3283 3bbd 445b 50bd 12a7 32bd
00000060: ad91 b4bd a875 85bd d3e4 b0bd 4060 a1bb
00000070: 00f2 4d3a 462e b1bc f842 69bd 0bd8 9a3d
00000080: e631 e2bc d3a9 223d 40b5 6d3d b860 60bd
00000090: 5932 63bc 8ec7 233d 922b 913d 3c39 d3bc
000000a0: e4a0 413d 361c a1bd 3b55 6dbd 2b5b 713d
000000b0: 3fe6 93bc 7f2a 8e3d 4e0b 86bb cb50 40bd
000000c0: bca4 933d 9fe6 8a3d d05b cc3a 54ab 66bd
000000d0: a3ae 09bc 87c0 39bd 695c 723d b97e c03a
000000e0: fc9c 923c 8593 583d 9b26 f33c 5e0e 55bd
000000f0: 7efb 813d 4958 373d 633e 67bd 8e13 8c3d
00000100: a4a3 f33c 6d8f 3bbc c37d 71bd 5169 60bc
00000110: 9c02 a4bd a495 223d 6904 583d 1f76 f6bc
00000120: a67b 793d 36a1 4abd a85c 9abb 69de 60bd
00000130: 0457 0cbc e118 f13c 9392 213d fc8a e7bb
00000140: 36a7 30bd c319 913d 77c5 893d 4ff4 d53c
00000150: 10dc 4abd 1d9d 0e3b 9952 82bc 0ee0 903d
00000160: 29de 653b dff7 ddba 1ba8 37bb 5146 d23c
00000170: 9c6f adbc c078 8f3d cf55 fe3c 5c52 9ebd
00000180: 315a d23b d4cb 97bd 2457 90bd 5b0f 8f3c
00000190: 2ce7 aa3c 5c60 03bc aa31 a63d 4c4c 2cbd
000001a0: a524 09bd 7d52 9dbc f116 a4bb 9241 56bc
000001b0: f38e 533d a2ce 6dbd adce 8abd cf73 c03a
000001c0: bf38 6d3d e937 5d3c 4ab6 203d 8d7f 493c
000001d0: 35eb 823d 3fdc 3b3d 188e 653d f9e8 67bc
000001e0: 6521 b1bd 46cf 69bd 5d0d 2d3c c172 363d
000001f0: c008 3dbd 6a4a 623d 4ac1 02bc 7f36 babc
00000200: b090 9cbc 97be 0abd e276 513d 31d5 8abc
00000210: 1f98 163d 89f5 abbd 1d73 4fbd afd6 793c
00000220: f086 913d a40e 303d 13b4 b83c bd82 a3bd
00000230: b362 263b 67e6 65bd 0cb1 96bd 1a7f ca3b
00000240: c844 51bd 1a50 963d a251 2ebd 5b85 ac3c
00000250: df37 343d 1734 99bd 9f5e 093d dc40 9fbc
00000260: daca fb3c 3998 a23d 0adb 83bc d601 a7bc
00000270: 0f6a 873d 0d80 543c 4b6c a13b ba7a 813d
00000280: 71e3 21bd d4ff 613c b79b 6f3d 38df 013d
00000290: f9ef 66bd 707d c33c 6492 7ebd 01fa 3ebd
000002a0: 9b87 523d a39d d7bc 5275 44bd 568e c13b
000002b0: d0d2 a63c b62d 54bd c62e 66bd 1049 a5bd
000002c0: cb63 b03c 033d 5cbd 8019 d03b 1baf 98bc
000002d0: 6dc0 5bbd 4fd2 c6bc 9342 87bd 7b04 2fbd
000002e0: 51d8 0ebb 7b25 9abd d9eb 9cbd 6fd3 713d
000002f0: 02fc a33b 8e44 e9bc 1b7c 003c cabe 953d
00000300: 2aa3 85bd 85b9 26bd bd57 67bd e09c 5eba
00000310: dc4e 81bb a215 85bd a38a 653d 8b92 8abd
00000320: 1aa5 903d 85ca 65bd dd80 66bc 7441 413c
00000330: a62f 12bd 9ab8 9b3d 96a7 76bd 8200 cebb
00000340: 80c0 84bd 4495 893c b47a 993d 815d a03d
00000350: 581c 083c 991e 1ebd e527 aa3d dd91 a43b
00000360: bab5 8a3d ea0f 06bd b342 e9bc d81b 56bd
00000370: 1c72 a23d bfbe cd3c 4f9e 69bd 51a1 553c
00000380: 6b01 c8bc 941e 303c 1c31 053d 4cd5 1dbd
00000390: 1ae3 033d 6acf 1abd b03e fe3c 82b3 acbd
000003a0: 60ec 143c 431b a13d aa80 9c3d aef0 ed3c
000003b0: 989f 7e3d 5b91 9b3d a3c5 6a3c d5dc b33c
000003c0: cebf 2e3b b255 8d3d cd17 893d c386 30bd
000003d0: fb62 f7bb b8ed 46bd 8b24 003d b650 a4bd
000003e0: 48f4 de3c 05b5 86bc f004 0e3d eafd e23c
000003f0: d0c4 1fbd 99cc 423d a961 1b3d 76c2 93bd
-0.03027045 -0.045595523 0.036407694 -0.045669742 -0.037016053 -0.07049809 -0.04068343 0.037709404
0.052746743 0.012208388 -0.008688686 0.07489432 0.01644833 -0.020366644 -0.034707464 -0.011662573
0.035502896 0.022996774 0.052949462 -0.01125377 0.06069255 -0.045779414 -0.050868288 -0.043616362
-0.08816848 -0.06516582 -0.08637395 -0.004924804 0.000785619 -0.02162851 -0.056948632 0.07560738
-0.027611684 0.03971274 0.05803418 -0.05477974 -0.013866984 0.039985232 0.070883885 -0.025784127
0.047272578 -0.07866709 -0.05794261 0.058924835 -0.018054126 0.06941699 -0.004090703 -0.04695205
0.07209155 0.06782269 0.0015591327 -0.056315735 -0.008403453 -0.045349624 0.05917016 0.0014686204
0.017897122 0.05287506 0.029681494 -0.052015655 0.063467965 0.04476193 -0.05645598 0.06839667
0.029741116 -0.01144777 -0.058957826 -0.013696984 -0.0800831 0.03969349 0.05273858 -0.030085621
0.060908936 -0.04947015 -0.0047107525 -0.054899607 -0.008565668 0.029430808 0.039446425 -0.007066129
-0.043128215 0.07084992 0.067271166 0.026117472 -0.049526274 0.0021761127 -0.015908526 0.07073985
0.0035075045 -0.0016934833 -0.0028023783 0.025668295 -0.021171384 0.07005453 0.031046776 -0.077305526
0.006419443 -0.07411924 -0.07047871 0.017463377 0.020862184 -0.008018579 0.081149414 -0.04206495
-0.033482213 -0.019204373 -0.0050076176 -0.013077157 0.05165 -0.05805839 -0.067777015 0.0014682951
0.057915445 0.0135021 0.039236344 0.012298477 0.063925184 0.04586434 0.056043714 -0.014154666
-0.086489476 -0.057082437 0.010562268 0.04454303 -0.046150923 0.055246748 -0.007980654 -0.022731064
-0.019111961 -0.033873167 0.051138766 -0.01694736 0.036766168 -0.083964415 -0.05064689 0.015248938
0.071058154 0.042982712 0.022546804 -0.07983921 0.002538842 -0.056127932 -0.07357988 0.0061797025
-0.051090986 0.07339497 -0.04255832 0.021059683 0.043998595 -0.074806385 0.033537503 -0.019440107
0.030736376 0.079391904 -0.016095657 -0.020386618 0.06612026 0.012969983 0.0049262396 0.06322236
-0.039523546 0.013793904 0.05849811 0.03170702 -0.0563812 0.023863524 -0.062151328 -0.04662514
0.051398855 -0.026320284 -0.047963448 0.0059068603 0.020364195 -0.051801406 -0.05619695 -0.08070576
0.02153196 -0.053769123 0.006350696 -0.018638184 -0.05365031 -0.024270205 -0.06604495 -0.042728882
-0.0021796415 -0.0752668 -0.07662172 0.05903953 0.005004407 -0.028475072 0.007842089 0.07311781
-0.06525262 -0.04070427 -0.056480158 -0.0008492004 -0.0039461683 -0.06498267 0.056040417 -0.06766232
0.070627406 -0.05610134 -0.014068809 0.01179539 -0.035689972 0.07603569 -0.060218416 -0.0062866816
-0.06482029 0.016794808 0.07494107 0.078303345 0.008307539 -0.0386034 0.083083905 0.005022271
0.06772943 -0.03273002 -0.028474187 -0.052272648 0.07931921 0.025115369 -0.05703574 0.013038949
-0.024414739 0.010749478 0.032517537 -0.038533494 0.032199003 -0.03779546 0.031035751 -0.08432676
0.009089559 0.07866528 0.07641728 0.02904543 0.06216392 0.07596084 0.014329347 0.021955887
0.0026664617 0.06901111 0.06693993 -0.04309727 -0.007549641 -0.04856655 0.03128485 -0.08023207
0.027216092 -0.016443739 0.034672678 0.027708966 -0.039006054 0.0475584 0.037934933 -0.07214825

conv2d_2.0.bias f4 [32]
00000000: 03eb 02bd 8fe2 833c fd99 0f3d f7be b7bb
00000010: 1ab6 3cbd 7362 33bd 2a39 aebd bcdf fdbb
00000020: 8151 abba 5ba7 a53d dfc1 17bd 0f39 89bd
00000030: 35ff 6a3d 41fd 8a3d 6a81 76bd 5f24 253c
00000040: 4635 e73c 24bc 783d 5dac d4bc 5378 553d
00000050: 2a8d 9c3d 3281 383d d8a2 3c3d 6866 3f3d
00000060: efe9 9cbd 5956 983c c612 973d c10e 8fbd
00000070: 74b4 96bd 410d 6fbd 60d0 0c3d bd1e 9e3d
-0.031962406 0.016099242 0.035058964 -0.0056074816 -0.046072103 -0.04379506 -0.08506997 -0.0077476185
-0.0013070555 0.08088561 -0.037050124 -0.06700336 0.05737229 0.067865856 -0.060182013 0.010079472
0.028223645 0.0607263 -0.025961095 0.052116703 0.076441124 0.045045085 0.046053737 0.04672852
-0.07661807 0.018595861 0.073766276 -0.06985236 -0.073586375 -0.05836225 0.03437841 0.077207066

conv2d_2.2.weight f4 [32, 32, 3, 3]
00000000: d6d0 abb8 a088 94bc 6d90 303c 31e5 e6bc
00000010: 6cfb f43c 4b28 64bc 3458 f5bb 93c9 3ebc
00000020: 8621 9e3c 2364 273d fd0c 5e3c b7b5 2c3d
00000030: 1f38 67bd fa16 52bd 474f f13c bd1e 3e3d
00000040: eabc 3a3d 5dfa 73bd d882 2c3d e92d 1fbd
00000050: 681a 29ba 1ae7 dd3c c2a6 613d e507 3f3c
00000060: 98b2 bdbc c262 f2bc 7848 ef3b f224 873d
00000070: ddf4 3c3d 8b50 4f3d 6848 a9bc 6d7f d7bc
00000080: 12b1 a73d f2d2 6e3d 3dce bbbb 5c25 cd3c
00000090: 5df2 303d 3ec5 5c3d 1fbd 38bd af9d 3cbc
000000a0: 5132 273d ae06 853d 52df 0c3d a058 a23c
000000b0: 5f71 d63c 30a3 5b3d 857f 3dbd b5e9 db3c
000000c0: 7acc 2cbd 0796 b73b f8ff 63bd c152 1c3d
000000d0: 2e7a 06bd cd43 803b 9a0d 0ebd fff8 6a3a
000000e0: 60c2 76bc bfde f6bc f958 fcbc d412 473d
000000f0: b875 bd3b f0aa 78bc 8d0d 7b3d ee54 28bc
00000100: 459b 18bd 678a b4bc aeac 69bd c4fb 6ebd
00000110: 4a34 50bd e49f d6bc f4f5 babd 08c3 adbd
00000120: a532 5f3d ea67 c23b 8c73 933c c88e fb3c
00000130: 9aca 3cbc a93d 553d 85b7 1fbd 582f 8ebc
00000140: cb60 7ebd 9e74 983c a77a 47bd c310 f43c
00000150: 4baa a13b c854 eebb 3480 c6bb 904b 313d
00000160: 1f2e a43d bac4 1c3d a4e0 1f3d 9ed7 41bd
00000170: 06fd 35bc f7d7 05bd b802 2bbd d4e2 2e3c
00000180: 776d afbc d456 173c 5a5e ddbc 7434 7dbd
00000190: 5f31 1fbd e6ea 79bd 8b56 ce3a c4ae 62bd
000001a0: b9ba 203d 6f40 d43c bd63 01bd 1bdb 5fbc
000001b0: 0528 5ebd be2b 2f3d 0780 dbbc 5163 fdbc
000001c0: 9deb 58bc 98ca 313c e699 35bd 5c6d ce3a
000001d0: 2789 583b 8833 78bb 75e6 363d 3537 4dbd
000001e0: 46f7 ebbc 9724 a8ba 9729 e8bb 1041 ab3c
000001f0: c221 1d3d acd1 3cbd 3881 3c3d 796e df3c
00000200: 2326 7d3d 1f40 623d 2c0e 233c 805e 683c
00000210: e042 3bbc 0186 1d3d 7123 923d cfad 2f3c
00000220: 79a9 2f3d 4c0d 333c 1a14 babb 35ea 0dbd
00000230: b3a2 9cbd f03f 26bd e985 b73c 64e3 a13c
00000240: d3d8 7a3c 131a b43d d2c4 b33d 9b9d 30bd
00000250: 9f8b 4abd cb87 adbc 5743 e0bc 88a7 df3a
00000260: af10 c23a 36db 113d 12be febc 4a57 1b3d
00000270: cb99 403c 77f0 32bd 12c9 3abd f9e0 a93c
00000280: f138 5e3d d0bb 22bd 5151 d23c e47b 1cbd
00000290: 163d 673d 239c 323d ca3d 293c c77e 6b3d
000002a0: 5c65 463d ed39 813d 727e f63c b5f7 fc3c
000002b0: 2bfe 7a3d 661b 603d 1a05 53bd 3e17 e1bc
000002c0: 8c6a e83c 0ca0 80bd 6488 1a3c b880 57bd
000002d0: 4a21 6d3d e72c 06bd 6db7 313d d93d 30bd
000002e0: 1d77 c63c 9bc9 623c 1ce2 c6bb 934d 58bc
000002f0: b340 663b 4393 57bc a2c2 0ebc 5cd7 d43c
00000300: 95fd cabc 4fe8 a83c f9af 293d b728 14bd
00000310: c427 6c3c 39e7 ab3c ac67 53bd 5a27 253d
00000320: 096d 70bb e5e3 83bd 44a0 f2bc 8453 e43a
00000330: b6a5 243d ddbd abbc 336b 4b3d ffda 9d3a
00000340: b82e a3bc 8097 373c b0db 3bbd 8852 4f3c
00000350: a99c 043d 83c4 81bd 6eac 67bd 29a9 9f3c
00000360: 91a1 19bc 2943 7b3d febf 763d fbc9 26bd
00000370: 6aaf 003d 5faf 46bd 6776 b23c 125b 14bd
00000380: 8463 feba 3c16 b63d 98e1 223d e7ae a93b
00000390: 1d35 7e3c 218d afbc d440 3c3d 1bd6 92bd
000003a0: 7cd1 02bd f676 87bd 9c9a 97bb 18da 473c
000003b0: ad38 09bc 4963 40bd bff8 b8bc 5817 36bd
000003c0: 6b8a 56bd d3f8 63bc ea91 81bd 4010 7d3d
000003d0: 5728 883d 98ea a33d 9734 473d fdd7 d13c
000003e0: a91f b13c 4f45 26bc 1ef4 643d 3cb0 493d
000003f0: e03c 613d 71ba f939 5f4c ecbc 4fec 2c3d
-8.192814e-05 -0.018131554 0.010776621 -0.028185459 0.029905044 -0.013925622 -0.0074873213 -0.011644739
0.019303095 0.040866982 0.013552901 0.042165484 -0.056450006 -0.051291443 0.029456748 0.046416033
0.04559032 -0.059564937 0.04211697 -0.038862143 -0.0006450773 0.027087737 0.055090673 0.011659597
-0.02315645 -0.029588107 0.00730234 0.06598844 0.046131957 0.05061392 -0.020664409 -0.026305879
0.0818807 0.058306642 -0.0057313726 0.025042228 0.043199886 0.053899042 -0.045102235 -0.011512204
0.04081947 0.06495415 0.034392662 0.01981765 0.026177106 0.053622425 -0.04626419 0.026844839
-0.04218719 0.0056026014 -0.055664033 0.038164858 -0.032831363 0.0039143325 -0.03468094 0.0008963495
-0.015060991 -0.03013551 -0.030804144 0.04860194 0.0057818554 -0.015177473 0.06129222 -0.010274155
-0.03725745 -0.022038652 -0.057049446 -0.05834557 -0.050831117 -0.026199289 -0.09128943 -0.08484465
0.054491658 0.0059327977 0.017999433 0.030707732 -0.011522913 0.052060757 -0.038993377 -0.01735656
-0.062104028 0.018610295 -0.048700955 0.029793149 0.0049336306 -0.0072732903 -0.0060577635 0.043284953
0.080166094 0.03827355 0.039032593 -0.04732477 -0.011107689 -0.032676663 -0.04175064 0.010674197
-0.021414502 0.00923701 -0.02702253 -0.0618176 -0.038865443 -0.061015032 0.0015742345 -0.05534245
0.039240573 0.02590963 -0.03158926 -0.013663079 -0.054237384 0.042766325 -0.026794447 -0.030931147
-0.013239768 0.010851525 -0.044336222 0.0015749144 0.0033040734 -0.0037872512 0.044653375 -0.050101478
-0.028804433 -0.0012828287 -0.007085036 0.020905048 0.038362272 -0.046098396 0.04602167 0.027274357
0.061803948 0.055236932 0.009952109 0.014182687 -0.011429518 0.038457874 0.07135666 0.010722592
0.04288623 0.010928463 -0.005678666 -0.034647185 -0.0764822 -0.04058832 0.02240272 0.019761749
0.015310484 0.08794036 0.08777775 -0.043119054 -0.04944956 -0.021182915 -0.02737586 0.0017063478
0.0014805997 0.035609446 -0.031096492 0.037925042 0.011755417 -0.043686356 -0.04560191 0.020737158
0.054253522 -0.039729893 0.02567354 -0.03820409 0.05645474 0.043605935 0.010329673 0.05749395
0.048436508 0.063098766 0.03008959 0.030879835 0.06127755 0.05471363 -0.051518537 -0.027476903
0.028371118 -0.062805265 0.009431932 -0.05261299 0.057893075 -0.032757666 0.04338782 -0.043027733
0.02422672 0.013842012 -0.006069435 -0.013202089 0.0035133779 -0.0131576685 -0.008713396 0.025981598
-0.02477912 0.020618586 0.041427586 -0.03617164 0.014413778 0.020984279 -0.05161254 0.04032073
-0.0036686084 -0.06439952 -0.029617436 0.0017419909 0.040197097 -0.020964557 0.04966278 0.0012043415
-0.019919738 0.011205554 -0.045863807 0.012653954 0.032375965 -0.0633631 -0.056560926 0.019489842
-0.009376899 0.061343346 0.06024169 -0.040719967 0.031417288 -0.04850709 0.021784974 -0.036219664
-0.001940832 0.088909596 0.039765924 0.0051783207 0.015515593 -0.0214296 0.045960262 -0.071697436
-0.03193806 -0.06614487 -0.004626585 0.012197994 -0.008375329 -0.046969686 -0.022579549 -0.044455856
-0.0523781 -0.013914305 -0.06326659 0.061783075 0.06648319 0.080037296 0.048634138 0.025615687
0.021621542 -0.01014836 0.05589687 0.049240336 0.054989696 0.0004763189 -0.02884501 0.04221755

conv2d_2.2.bias f4 [32]
00000000: 7edb a93c d1e1 f93b 3c18 563d ab46 db3b
00000010: 0e9d 823d 4afd 133c 7b93 28bb 2a5d 6a3d
00000020: 85d5 283c 781b 233b bba7 77bb 3d87 0c3d
00000030: 3a25 a6bc d4d5 3d3d d0ad 013d 7687 13bc
00000040: 3c24 1abc 257e 093d 5ce9 48bd 149c e3bc
00000050: 0e35 63bc 9085 27bb 7ae7 d2bc 2e6b f9bc
00000060: 3ce9 d03c dea7 f13b c9bc 51bd 17b5 783c
00000070: 05be f93c be32 6cbc 8091 733d 0e10 42bd
0.020734545 0.0076257964 0.052269205 0.006691774 0.06377612 0.009032557 -0.002572267 0.057217754
0.010304813 0.0024888199 -0.0037789184 0.03430866 -0.020281423 0.0463465 0.0316599 -0.009004464
-0.009408053 0.033567566 -0.049050674 -0.027784385 -0.01386763 -0.0025561787 -0.025745142 -0.030446615
0.02550184 0.0073747477 -0.05120543 0.015179894 0.030486116 -0.014416395 0.05946493 -0.047378592

conv2d_3.0.weight f4 [64, 32, 3, 3]
00000000: dac1 643d 1688 da3c 7e1f edbc 3e81 87bd
00000010: 975a 1e3c dcc4 cabc 19d9 c93c ed5f 003d
00000020: 04ed 0ebd 9ad7 e0ba 3d9d b0bc f0e1 80bd
00000030: a48c 093b 0c97 fd3b 89e7 5abd 5366 563d
00000040: 8a24 073d 5afa 0c3d 0c73 28bd 99d9 26bd
00000050: 4b35 103d 08eb 383d 2ab3 1ebd ad23 8b3d
00000060: 8828 79bb fc0b 1bbd a950 09bd 1e38 87bb
00000070: 8441 273d 1f26 02bd 424e 633d e965 933d
00000080: 82b7 8b3d 000d 183d 0017 45bc 7246 26bc
00000090: 8f97 5d3d f9df 17b9 401c ab3c b334 913d
000000a0: b567 3abd 823c 0bba ca6a 8dbc eba5 2abb
000000b0: f954 153c 7a8f 06bc 6500 793d 5ec3 c33c
000000c0: 60fc 12bd 2d2b 2f3d fc74 c0bc c02a f23b
000000d0: 2604 bd3b e91c 29bd bef2 1c3d 1070 e0bc
000000e0: a401 36bd 2ae1 7a3d a9bb 443d ae22 43bc
000000f0: 43ff 06bd a9e0 823d 4493 023d d367 debc
00000100: 32dd 16bd 14ef 53bc 7c33 adbc 19a3 883c
00000110: 533e 923c 2bdc 4bbd 5dac 1c3d 1df4 1d3d
00000120: 080e 2bbd bd87 723d 92fb 43bc 3365 2f3d
00000130: 4923 923d 058f 463d e17d 453d 8171 433c
00000140: 5d07 993c 3c38 23bd 2a8c 04bd 55d1 6a3d
00000150: 0d06 2ebd 4204 1a3d ee0c bdbc 09f5 743d
00000160: e41f 5a3d 9a31 6dbb c84c 9abc f010 51bd
00000170: 7c05 2f3d b7d0 98bc 8080 193d c535 663d
00000180: c4b6 47bd 8ec5 52bd 4e45 09bd 3e4b 5f3b
00000190: 0c44 4a3d 541b 3dbc 075a 8abb d41f 403d
000001a0: 621d 4b3d e952 e73c 31a3 603d f059 4ebd
000001b0: bfd4 00bd 5017 043d 4127 dbbc a1ca 193c
000001c0: 15a2 823d 1ad1 ac3d 67b6 dbbc 1845 4dbd
000001d0: d35b 34bd ab20 773d 9386 eebb 804b 54bd
000001e0: bcf6 f1bc 5a42 0fbd 0e5f 6bbc 5ebb 17bd
000001f0: ef4a 67bc dee8 723d 2dbc 36bd 5e60 00bd
00000200: 5114 963c 7c34 96bd 3019 54bd c06d cabc
00000210: 3e0e 453d bfe3 2b3c cbd2 343a 3dac 493b
00000220: 967a 513d 1613 34ba 65a0 a83c c163 cb3b
00000230: 8042 5c3d 2d6b 443d 20e4 36bd 0a3d f1bb
00000240: 2c3c 50b9 7c56 b9bc 3257 0ebd 10bb d4bc
00000250: c37b 3fbd 7148 283d c434 33bd 0836 093d
00000260: 2aaa 2f3d 39e5 043a 7c49 883d e703 5b3d
00000270: 83ba ddbc 085c 473d 36ad f53c 3f28 643d
00000280: fe09 0cbd 92d2 673d f572 ab3c 7c36 273d
00000290: 6e0d aebc 90bf 833d 81cb a93c 7ff5 943d
000002a0: 686b e5bb c1f6 bb3c 80ce 48bd a981 27bd
000002b0: 991f 063d 661a 313d 61e3 f13c 2273 123d
000002c0: 0f8f 6b3d b869 c5bc 5a5a 263d 0c59 1d3d
000002d0: 8c11 b8bc c0e0 06bd 2d44 61bd 9b52 e33c
000002e0: ed21 91bc 2232 8bbb c946 1bbd 1574 2bbd
000002f0: d58e 4b3d 2d44 d03c 881e 923c 79ff 063d
00000300: 4041 e73c b22f a83c a239 e93c 00c3 35bc
00000310: ea34 433c b1b4 5fbd c4b3 55bc 2397 2c3b
00000320: ce88 c03b e62e 3b3d 25fb 0d3d 321e 943b
00000330: 188a 6c3d 12d0 e5bc 4c04 4b3c ea4b 19bd
00000340: 1234 25bd 37c1 273d 14c3 053d 0c05 3d3c
00000350: 7cc4 c2bc 521f 693d de54 3d3c e6f4 673d
00000360: 20cc 6cbd f67c e33c ea36 8fbc 77d5 27bd
00000370: faee efbc 8423 90bd 616f a0bb 7b67 083c
00000380: 3a54 24bd fe61 393d f4b7 8e3d 4b7a 333d
00000390: 1d8e 86bc a8e5 bbbc ee4d 08bd f22c 01bd
000003a0: 226f 273d 13e4 043d 2cc9 fabb 8cbc 5b3c
000003b0: e934 553c 89dd 97bb e1a1 94bd df66 293d
000003c0: f856 1ebc 0d29 8bbd 0514 7fbc 1c73 c03c
000003d0: 7c9b 043d 4362 babc 3e18 73bc 3e25 66bd
000003e0: b081 67bd f395 31bd 29e2 2bbd 3b82 fc3c
000003f0: e1e4 27bd 44ae 3439 0da6 4ebc 3de9 4f3d
0.055848934 0.026676219 -0.02894568 -0.06616448 0.009665153 -0.024752073 0.024639653 0.031341482
-0.034894004 -0.0017154098 -0.021559352 -0.06293094 0.002098837 0.0077389535 -0.053443465 0.052343678
0.03299383 0.03441844 -0.041125342 -0.04073486 0.035207074 0.04514602 -0.038745083 0.06793914
-0.0038018543 -0.037853226 -0.03352419 -0.0041265627 0.040833965 -0.031774636 0.055494554 0.07197172
0.06822111 0.037121773 -0.012029409 -0.010148631 0.054099616 -0.00014483918 0.020887494 0.0709013
-0.04550906 -0.00053114456 -0.017262835 -0.0026038836 0.009114497 -0.008212918 0.060791392 0.02389687
-0.035885215 0.042765785 -0.023493282 0.00739035 0.005768317 -0.041287336 0.038317434 -0.027397186
-0.04443516 0.06124989 0.04803053 -0.011910124 -0.03295828 0.06390507 0.031878725 -0.027149117
-0.036832042 -0.012935419 -0.021142714 0.016679334 0.017851984 -0.049770515 0.038250316 0.038562883
-0.041761428 0.05921148 -0.0119618345 0.04282112 0.07135636 0.048476238 0.04821575 0.011928917
0.018680269 -0.03984855 -0.032360233 0.05732854 -0.04248624 0.037601717 -0.023077454 0.059803996
0.05325307 -0.0036192895 -0.01883544 -0.051041543 0.04272984 -0.01865421 0.037476063 0.056203622
-0.048758283 -0.051457934 -0.03351336 0.0034071947 0.0493813 -0.01154216 -0.004222158 0.046905354
0.04958857 0.028237777 0.05484313 -0.05037874 -0.03145289 0.032248795 -0.026752116 0.009386689
0.06378571 0.084383205 -0.026820375 -0.05011472 -0.044032883 0.06033389 -0.007279226 -0.051829815
-0.029536597 -0.034975387 -0.0143659245 -0.03704392 -0.014116987 0.05930411 -0.044613052 -0.031341903
0.018320234 -0.07334229 -0.051781833 -0.024710536 0.048109286 0.010491311 0.00068978657 0.0030772828
0.051142298 -0.0006869299 0.020584295 0.00620696 0.053774357 0.047953773 -0.04465115 -0.0073620128
-0.00019858842 -0.022624247 -0.034751125 -0.025968105 -0.046748888 0.04108471 -0.043751493 0.033498794
0.04288689 0.0005069557 0.06654641 0.05347052 -0.027066475 0.048671752 0.02998982 0.055702444
-0.034189217 0.0565973 0.02092884 0.040823445 -0.021246638 0.06433022 0.020726921 0.07273387
-0.007001329 0.02294481 -0.04902506 -0.040895138 0.032744978 0.043238066 0.029527368 0.03575433
0.05750948 -0.024098262 0.04061351 0.038415 -0.022469305 -0.032929182 -0.054996658 0.02774935
-0.017716372 -0.0042479197 -0.037909303 -0.04185875 0.049696762 0.025423134 0.017836824 0.03295848
0.028229356 0.020530555 0.028469864 -0.011093855 0.011914471 -0.05461568 -0.013043348 0.0026335202
0.0058756834 0.045699023 0.03466334 0.004520201 0.057748884 -0.028053317 0.012391161 -0.037425913
-0.04033286 0.04095575 0.032656744 0.011536848 -0.023775332 0.056914635 0.011555878 0.056630038
-0.057811856 0.027769547 -0.01748224 -0.04097506 -0.029288758 -0.07038024 -0.00489609 0.008325453
-0.040119387 0.04525947 0.0696868 0.0438178 -0.016425187 -0.022936657 -0.033277445 -0.031537004
0.04087747 0.03244407 -0.007653376 0.013411652 0.013013103 -0.0046345633 -0.072574385 0.04135787
-0.00966429 -0.06794939 -0.015568738 0.023492388 0.032374844 -0.022751933 -0.014837323 -0.05618786
-0.056520164 -0.043355893 -0.04196373 0.030823817 -0.04098976 0.00017231057 -0.012612832 0.050759543

conv2d_3.0.bias f4 [64]
00000000: 61a6 ddbc d313 6bbd 7398 513d cb45 4d3d
00000010: 3a16 683d 6077 8b3d a0ad d2ba bc8b 5abd
00000020: 2977 c2bc 45d2 633c 3996 923d bfd5 483b
00000030: 84f9 da3c 7a1d 4b3d 9bb9 03bc 094a 27bd
00000040: 74c8 09bd 1517 7ebd 145f 0c3d e780 24bd
00000050: 692a bebb e2ab 08bd b42d 92bb f8bb 843d
00000060: ca74 573c b4ad 9fbc 4f4e 3c3d 5d6d 03bd
00000070: afcf c23c 1e79 3dbd cf35 eebb 577a 0dbd
00000080: 4c87 213d 4024 8abb b75f b53c 2f8d 26bd
00000090: 01a6 993d 9359 723d 7f11 3d3d 57d7 81bd
000000a0: e67c 81bd 6913 33bd c20d 033d c027 6b3d
000000b0: b1f6 eb3c f2e8 57bd 367a 403d 9f4d 47bd
000000c0: 1711 74bd 3f3e 66bc 89b6 113d c6e1 0cbd
000000d0: 3174 2f3d 6c7f 023d 23db 013d 14ac 4abd
000000e0: bc23 aebb 4335 63bd 6424 a8bb 3d52 393d
000000f0: 01bb 843c c8e9 843d ad46 7d3d f80a 9ebc
-0.027056875 -0.057391953 0.051170778 0.050115388 0.056661822 0.06809878 -0.0016073473 -0.053355917
-0.02373846 0.013905113 0.07157559 0.003064498 0.026730306 0.049588658 -0.008039857 -0.04084209
-0.033638433 -0.06203373 0.03427036 -0.040161993 -0.0058033955 -0.033367045 -0.0044610146 0.06481165
0.013150403 -0.019492008 0.04597312 -0.03208672 0.023780672 -0.046258084 -0.007269598 -0.0345405
0.03943567 -0.004215747 0.022140367 -0.040661987 0.07502366 0.059167456 0.046159264 -0.06339901
-0.063226506 -0.043719683 0.031995542 0.057410955 0.028804155 -0.05271239 0.04699155 -0.04865801
-0.05958661 -0.014052927 0.03557447 -0.034395 0.042835418 0.0318598 0.031703126 -0.049480513
-0.0053143185 -0.055470716 -0.005131291 0.045244444 0.016202452 0.06489903 0.06183498 -0.01929234

conv2d_3.2.weight f4 [64, 64, 3, 3]
00000000: 4257 88ba 3070 aa3c b2fd c6bb 3691 783b
00000010: 5aff 2b3d 27ef b1bc 7cb8 7ebc 6b94 d6bb
00000020: 5824 283d 233c 32bd 9315 f8bc 59b3 b5bc
00000030: 57a7 2fbc e147 0cbd f91d efbc ace5 803c
00000040: 509e 2e3d 9d97 883c a1e2 2c3c b848 183d
00000050: d40e 4a3b 715f 8c3c f0ad 603b 5cb3 cfbc
00000060: cdba bf3c bde5 883b eed5 3dbb 0b61 e83c
00000070: db94 893c 3a6d 2e3c c11c e9bc 8e86 d2bb
00000080: 6c29 e9bc 1649 80bc ed6f 91bc 6720 793b
00000090: f272 7eba a343 473c ce72 04bd f1ce 0ebc
000000a0: 0bed 76bb e893 073d 675d 45bc d6eb ef3c
000000b0: e80a 2b3c 413c 0a3d 0507 1bbd 9fbb da3c
000000c0: 5d28 2ebc e7d9 9dbc bfbe b8bc dee9 d13b
000000d0: 8efb 933c f468 20bc ad59 9f3b d78f 293c
000000e0: 7644 39bb 227a debb f328 cd3c 8741 39bd
000000f0: 741f 28bd dc2f a9bb 697d 14bd 2b9d bf3a
00000100: 6f2e 203d bb02 f2bc 86d0 0cbd 2090 703c
00000110: 2385 283d e62a 0bbd 3249 073d 86d7 86bc
00000120: 6230 eabc 5647 6f3c c433 ea3c da8e 30bb
00000130: ebbe b9bc fdb8 cbbc 51e8 0a3b 7ab6 00bd
00000140: 0358 a03c 693b c93c 13f7 dd3a d445 533c
00000150: b9cc 343c c06a 5f3c cafc 813b 3c20 813c
00000160: eef4 25bd ea7b b73b 35d1 443c da74 29bd
00000170: 8129 6d3c 54a8 27bd 2443 f6bc ece3 e4bc
00000180: dc32 22bc 0819 cf3c 6081 fdba 26c4 873c
00000190: 2d44 e0bc c83d adbc d417 15bd 7b0c a73c
000001a0: 009d e4bc 35ec 16bd 71d7 c5bc c634 17bd
000001b0: 39c8 e1bc 63a1 413c a6b7 123c 9953 19bd
000001c0: c68b 363c 617c 0d3c d420 fd39 1cc1 1e3d
000001d0: b962 343d 1c1b 0e3d b96b 37bd 547c e73b
000001e0: 2585 38bd d9e9 0abd 3fec d53c fe32 f63a
000001f0: fbcc 0bbd 1143 abbb 34c0 c93c b28a f1bc
00000200: 5010 f03c 13f5 48bc 8ec5 123d 70f8 623c
00000210: 407a 033d 71fa 503d 9d3e 19bc 35c9 113d
00000220: 28a2 403c b384 cebb 876a 8bbc 1b6a 6a3c
00000230: 0cfc da3c 8cc3 313d cd1a a93c 15f9 f73c
00000240: 83f2 2cbd c7b3 31bd 7f45 6abb fec1 ecbc
00000250: e4f3 b83b 1edd a3bc c793 143d 4bb8 9ebc
00000260: ad73 d2bb 1c81 0d3d a51d 50bc e84a abbc
00000270: 8368 173d 91f7 4a3d 460d a13c 15e8 6ebc
00000280: 73b1 11bc 9304 97bc 2344 c83b 0b76 d638
00000290: 6ddb eaba 2c80 8cbc e245 3d3d 6016 90bc
000002a0: 2d1e 0ebc a6b2 533d 38ab 683c 4dd7 ecba
000002b0: 8dad ad3c eb69 e03b faf8 913b b520 8c3c
000002c0: a36c 8a3c 2838 16bd 358a f33b 2597 78bc
000002d0: d819 3f3d a0ed a53c e687 a73c 903a db3c
000002e0: 38ad a0bc 4765 3b3c 571f 7bbd f375 dbbb
000002f0: c7b4 5f3c 6271 eebc c8d3 48bc 1c6a e33a
00000300: 23af bebc 5cb8 efbc 507b cbbc e61c d1bc
00000310: 3ca9 b73c c787 c9ba 7c9b 5a3d b79e 3ebc
00000320: ca57 3a3d abb0 7bbc fefa 27bd ee87 a93c
00000330: 4d5f e5bc 3000 14bd 5274 00bd 9db6 09bd
00000340: 947f 61bc 8ed5 1b3c d77e 633b 8651 523c
00000350: c340 963c 96b7 ce3b 84a9 a5bb c667 18bd
00000360: 77be 4e3c 0672 47bd eff8 81bc fd60 37bc
00000370: 1b84 ba3c 2b24 1cbd 72e7 33bc b990 c13c
00000380: 7b55 933c d34c a93c 41a1 133d 4df4 1f3d
00000390: 32bf e63c 59dc ee3c c645 3abc 3f2d 3f3d
000003a0: c33e 12bb b51e 123d c00c 923c b2c1 99bc
000003b0: 7826 7abc ebc4 3fbd 117f e1ba 7017 52bc
000003c0: c14d 763c 17a9 b63c 08f1 fc3c 4f60 c3bb
000003d0: d380 063d c79c 2dbc 6ddd 97bb 07af 93bc
000003e0: 8a80 1f3d 5fd0 be3b 0891 beb6 436f 0ebc
000003f0: c058 a23c f76b 95bb 8ce5 d53c 4a1c 17bd
-0.0010401981 0.020805448 -0.0060727233 0.003792835 0.04199157 -0.021720482 -0.015546914 -0.0065484545
0.041050285 -0.043514382 -0.030283725 -0.022180246 -0.010721049 -0.034248237 -0.029189097 0.015734516
0.042631447 0.016673857 0.010552079 0.037178725 0.0030831592 0.017135354 0.0034283362 -0.02535408
0.023404503 0.0041777776 -0.0028966623 0.028366586 0.016794613 0.010646159 -0.028456094 -0.0064247316
-0.028462134 -0.01565985 -0.017753566 0.0038013698 -0.0009706459 0.012162122 -0.03233605 -0.008716331
-0.003767791 0.03310004 -0.012046195 0.02928726 0.010439612 0.03374887 -0.03784849 0.026700793
-0.010629741 -0.019268943 -0.022551892 0.006406053 0.018064287 -0.009790648 0.004862985 0.0103492355
-0.0028269566 -0.0067894617 0.02504394 -0.045228507 -0.04104562 -0.005163176 -0.036252413 0.0014618983
0.039106783 -0.029542318 -0.03437855 0.0146828 0.041142594 -0.033976458 0.03302879 -0.016460191
-0.028587524 0.01460441 0.028589137 -0.0026940615 -0.022674045 -0.024868483 0.00211956 -0.031424023
0.019573217 0.024564462 0.0016934596 0.012895066 0.011035138 0.013636291 0.0039669024 0.01576244
-0.040516786 0.0055994885 0.0120127695 -0.041371204 0.014475227 -0.040932015 -0.030061312 -0.027940713
-0.009899821 0.02528049 -0.0019340925 0.016573023 -0.027376259 -0.021147624 -0.036399677 0.020391693
-0.027906895 -0.03684636 -0.024150582 -0.036915563 -0.027561294 0.011818263 0.008954918 -0.03743324
0.011141723 0.008635611 0.0004828038 0.038758382 0.04403946 0.034693822 -0.044780467 0.0070643816
-0.04504885 -0.03391442 0.026113627 0.0018783507 -0.03413103 -0.005226501 0.024627782 -0.02948508
0.029304653 -0.0122654615 0.035832934 0.013853177 0.03209901 0.05102009 -0.009353307 0.035592277
0.011757411 -0.00630244 -0.01701857 0.014307524 0.026731513 0.04339938 0.020642662 0.030270139
-0.042223465 -0.04338434 -0.003574699 -0.028901096 0.0056443084 -0.020002898 0.036273744 -0.019374987
-0.006422481 0.034546956 -0.01270238 -0.020909742 0.036964905 0.049552504 0.01965965 -0.0145817
-0.008892405 -0.018434798 0.006111638 0.000102263024 -0.0017918177 -0.01715096 0.046209224 -0.017588794
-0.008674187 0.051684044 0.014200978 -0.0018069536 0.02120092 0.006848564 0.004454729 0.01710544
0.016897505 -0.03667465 0.007432247 -0.015172754 0.046655506 0.02025491 0.020450544 0.026761323
-0.019613847 0.011437721 -0.061309185 -0.0066974103 0.0136539405 -0.0291068 -0.012257524 0.0017350349
-0.023276871 -0.029262714 -0.024839073 -0.025526475 0.022419564 -0.0015375548 0.053370938 -0.01163452
0.04549388 -0.015361945 -0.04101085 0.0206947 -0.027999545 -0.03613299 -0.03136093 -0.03362142
-0.013763327 0.009511365 0.0034713054 0.0128368195 0.018341428 0.0063085062 -0.005055608 -0.03720834
0.012618653 -0.048692726 -0.015865771 -0.011192557 0.02276807 -0.03812043 -0.010980474 0.02362858
0.017985096 0.020666515 0.036042456 0.039051343 0.02816734 0.029157804 -0.011369174 0.04667401
-0.002231524 0.035673816 0.017828345 -0.018769119 -0.015267961 -0.046818655 -0.0017204006 -0.012822971
0.015033186 0.022297425 0.030876651 -0.0059624086 0.0328377 -0.010596461 -0.0046345503 -0.018027795
0.038940944 0.0058231796 -5.679325e-06 -0.008693519 0.01981771 -0.0045599896 0.026110433 -0.036892213

conv2d_3.2.bias f4 [64]
00000000: 05fa 193c 5b19 903c a681 663c 6bb8 873c
00000010: ed10 393d ea66 e7bc 865f 05bd 7163 1b3c
00000020: 0b3a 79bc fe05 2f3d 2736 98bc c1ea e2bb
00000030: 96f0 1f3d a255 16bc 3ac9 9ebc 9328 a73c
00000040: f98e 1dbd 0ca3 f7bc ccff d8bb 16b3 45bd
00000050: 530c 0fbc e63c 9d3c 6f40 083d d921 cb3b
00000060: cb70 c23b b976 e13c 4214 7d3c bce5 7cbc
00000070: 2afa 673c 5c77 c73b 67e3 e9bc dc60 01bd
00000080: 7d89 8ebb e763 90bc 8eaa 023d ef19 fc3c
00000090: ed3c cabc ac12 2abc 012b 833c bd48 f43b
000000a0: 5273 2abd b7d5 08bd 7b4c 9f3c 4af7 fa3c
000000b0: 7b0e 1d3c f310 d9bc 26bc abbc 6fd7 c1bc
000000c0: ccbb 9a3c 1035 793c 4900 74bc d79c 293c
000000d0: e7f7 25bd 56a4 d13b 0e06 2ebd cf20 1fbd
000000e0: 3818 08bd abfd 073d 8894 89bb dec5 3d3b
000000f0: ae4b 34bd 5629 cbbc d724 bbbc e337 28bd
0.009397988 0.017590215 0.0140689965 0.01656743 0.045182157 -0.028247315 -0.0325618 0.009484158
-0.015211592 0.042730324 -0.01858051 -0.0069249575 0.0390478 -0.00917569 -0.019383062 0.02040509
-0.038466427 -0.030229114 -0.0066222902 -0.048266493 -0.008730966 0.019194078 0.033264574 0.0061991033
0.005933856 0.027522432 0.015446724 -0.015435632 0.014158765 0.006087227 -0.028550817 -0.031586513
-0.004349886 -0.017625762 0.031900935 0.030774085 -0.024687255 -0.010380428 0.016011717 0.00745496
-0.041613884 -0.03340694 0.019445648 0.030635495 0.009585972 -0.02649734 -0.02096374 -0.023662297
0.018888377 0.015210405 -0.014892646 0.010352335 -0.04051962 0.006397764 -0.042486243 -0.038849648
-0.03322622 0.0332009 -0.0041986145 0.002895705 -0.044017486 -0.024799984 -0.022844715 -0.041068923

fc1.weight f4 [64, 1280]
00000000: 893e aebc 665e 853c 9728 a6bc 8ffe c3bc
00000010: 09c2 83bc 087f bf3c ec72 453c 893e cdbc
00000020: f531 513a 263a fa3b b7d1 d43c 65b3 b73c
00000030: 8637 6538 c9f1 6b3c afd3 23bc d7ac fd3c
00000040: b60b e93c b1e4 9d3c f2b4 c3bb d37a 693c
00000050: 1218 8e3c 94b1 d1bc da67 803b e219 213c
00000060: c895 4fbc 0442 be3c 66b7 adbc c6f3 8f3c
00000070: de52 9a3a f1c1 ebbb a9b4 32bc 80d0 193c
00000080: 950b 65bc 8bee 393b dc8d 643b dc21 3ebc
00000090: 3041 123c 6abd 4f3c eb08 0b3c a745 90bc
000000a0: aa7f cf3c d492 0b3c 9dd8 053b 406f daba
000000b0: ba36 b93c 581a 4e3b 3a56 5c3c 96a5 293d
000000c0: 5112 1e3d c97c 2f3c f473 10bc ee62 31bc
000000d0: ebb0 be3c ad0f de3b db7c b33c b044 a93c
000000e0: e388 033d 88b9 89bb 4828 aa3c 9e0f c43c
000000f0: 263b 89bc a172 c73b 309a 8e3b b70f 6a3c
00000100: 016d ac3c fdda dabc 74c8 c63a 9149 25bd
00000110: 9100 83bc 6a5e f2bc ada1 a8bc c2b2 81bc
00000120: 1359 a03c 15ed 833b 2488 86bc c509 2d39
00000130: 7fb7 663c 50a6 3dbc 064d ca3c 7761 573b
00000140: b2cc 8dbb 4457 d73c 9557 4a3c 9883 72ba
00000150: 5621 8f3c eee7 de3c f9a8 a03c 2cb8 003c
00000160: 290a ce3c 99af 93bc d5f2 013b 269c 53bc
00000170: 5df7 00bc 85c2 3dbc 6f64 49bc a21d feba
00000180: 39fc 8d3c a09e 3d3c 5577 9bbb dda1 283d
00000190: d980 183d d2cf 50bc 8411 ce3b 54a5 a5bc
000001a0: f247 9cbb 3558 8e3c c836 e1bc fe27 72bc
000001b0: 67c6 1bbb e7b0 b1bc f057 123c 46db 80bc
000001c0: df7f 91bc f7f9 f4bb 1e88 5ebc 72a4 8cbc
000001d0: 8073 f3ba fa4d 8e3c c3b7 293c 31bb e63a
000001e0: f640 d4bc ce21 823b 9226 03bd 7da6 d1bb
000001f0: 80bd 52bc 6f5c b9b9 789b 04bd d395 febc
00000200: fde1 a43b a835 f43b 00c7 19bc ed2d 1abd
00000210: 5a91 f5bc 769c adbc 367e 643c 65bf 5f3c
00000220: 7921 0e3c 33d7 b0bc e4c3 c3bc 4695 943a
00000230: ab20 10bb 12de ef3c 9f4e 03bc ce65 013c
00000240: a174 9b3c fd22 44bd 9893 ecbb ce47 88bb
00000250: 77a3 183b 2af6 5bbc f866 0ebd 3844 15bd
00000260: 1296 0fbc 2e5f 18bb dd56 a3bc 3932 f5bb
00000270: 3c9a b03c 0825 a8bc c754 c3bb 9840 2c3b
00000280: 943b 40bc 59f2 4abc 2672 76bc e1cf 1bbc
00000290: 8bdb 28bb 741b 80bc 00d0 3fba 5460 9a3c
000002a0: bf80 be3b a4b9 933b 11a8 e839 fcb5 edbc
000002b0: 3266 0e3c df11 073c 08aa 4cbb 5809 62bc
000002c0: 6238 d7bc cdc3 7cbc b2b6 9fbc 45bf a03c
000002d0: ccfa 8f3c cce7 d23c 617c 623d 3ca5 8f3c
000002e0: 05b6 173d f8ef acbc 790f d3bc 9d59 563c
000002f0: 1f68 893c 12dd 243c e822 16bd 6fca c2bc
00000300: c823 33bd b4e4 0dbd 529a 22bd ab22 9d3c
00000310: 96b3 aebc d876 8c3c 074d 083a e832 d9bc
00000320: 79f8 cf3c 4670 88bc 4ce8 b5bc e658 a7ba
00000330: 3be1 7d3c b988 10bb b720 e1bc b073 f8bb
00000340: 2b7c 27bc 9916 2dbd 3e7a 0cbd c66f d5bb
00000350: fa95 36bd 801c 21bc 24df 27bd 8016 03bb
00000360: dcba debb d1b0 503a 29a6 26bc 7f4a e03b
00000370: 3f37 d7bb d108 06bd 33e2 e3bc 40af 8cbc
00000380: e157 09bd b20b 4cbd 7883 efba 1844 48bd
00000390: 9c9a afbc 13b1 b0bc 7a8e 96bc b4d1 bebc
000003a0: 1c29 eb3c 2843 c93b 36f6 57bb e0b7 fa3c
000003b0: 014f b539 ced8 4d3c d0f9 c4bb ffe1 083c
000003c0: 1242 bebb 8036 ec3c 7c35 763c 94a3 e33c
000003d0: d7c5 0c3d d0b8 11bd 2134 ca39 632d e4bc
000003e0: b7ea 2bbc 3ba7 e8bc 9d90 8bbc c631 32bb
000003f0: 06cc 753a 95cd e6bb 156d e23c adc2 ccbb
-0.021270053 0.016280364 -0.020283027 -0.023925094 -0.016083734 0.023376003 0.012051325 -0.025054233
0.00079801615 0.0076363264 0.025978906 0.02242441 5.4649565e-05 0.014400908 -0.0099992 0.030966206
0.028447967 0.019274088 -0.005972498 0.014250475 0.017345462 -0.025597371 0.00391863 0.009832831
-0.012669988 0.023224838 -0.021205615 0.017572295 0.0011773964 -0.0071947505 -0.010907331 0.009388089
-0.013979812 0.0028370942 0.0034874594 -0.011604752 0.008926675 0.012679437 0.008486013 -0.017611338
0.02532943 0.008518893 0.00204233 -0.0016665235 0.022609103 0.0031448808 0.013448292 0.04141768
0.038591687 0.010710903 -0.008816708 -0.010826809 0.02327772 0.006776771 0.021910122 0.020662636
0.032112967 -0.0042030253 0.02077116 0.023933228 -0.016751837 0.006086663 0.0043518767 0.014285973
0.02104807 -0.02671575 0.0015165941 -0.04035336 -0.015991481 -0.029586036 -0.020584906 -0.015832309
0.019573724 0.004026065 -0.016422339 0.00016502205 0.014081835 -0.0115752965 0.02469493 0.003286449
-0.00432738 0.026286729 0.012349983 -0.00092511764 0.01747195 0.027210202 0.019611822 0.00785641
0.02515133 -0.018028067 0.0019828577 -0.012915647 -0.007871476 -0.011582022 -0.012292012 -0.0019387493
0.017332183 0.011573464 -0.00474445 0.04116999 0.037232254 -0.012744861 0.006288709 -0.020220436
-0.0047693187 0.017376045 -0.027491942 -0.014780043 -0.002376938 -0.021690799 0.008932099 -0.015729558
-0.017761169 -0.007476087 -0.013582258 -0.017168257 -0.001857385 0.017371166 0.010358754 0.0017603395
-0.025909882 0.003971315 -0.032019205 -0.006398021 -0.012862563 -0.00035354818 -0.03237483 -0.031077301
0.0050318227 0.0074526854 -0.009385824 -0.037641454 -0.029976536 -0.02119277 0.013946107 0.013656472
0.008674973 -0.02158699 -0.023897119 0.0011335991 -0.0021992128 0.029280696 -0.00801435 0.007897807
0.018976511 -0.04788493 -0.007219743 -0.0041589504 0.0023290792 -0.013425389 -0.034766167 -0.03644201
-0.008763807 -0.002325009 -0.01993888 -0.0074827936 0.02155792 -0.02052547 -0.005961034 0.0026283618
-0.0117329545 -0.012386882 -0.015041864 -0.009510011 -0.0025765623 -0.01563809 -0.0007317066 0.018844761
0.0058136876 0.004508214 0.00044375708 -0.029017441 0.008691357 0.008244007 -0.0031229276 -0.013796173
-0.026272003 -0.015427542 -0.019496296 0.019622454 0.017575644 0.025745295 0.0552944 0.017534845
0.03703882 -0.02111052 -0.025764214 0.013082889 0.016773282 0.010062473 -0.036654383 -0.023778168
-0.043735296 -0.034641936 -0.039697953 0.01918157 -0.021325868 0.017146513 0.0005199466 -0.026513532
0.025387036 -0.016655099 -0.022205494 -0.0012767583 0.015495594 -0.002205415 -0.02748142 -0.0075821504
-0.010222475 -0.04225788 -0.034296267 -0.0065135686 -0.044576623 -0.009833455 -0.040984288 -0.0020002425
-0.0067971777 0.0007960918 -0.010171452 0.006844818 -0.006567865 -0.03272325 -0.027817821 -0.01717341
-0.033531073 -0.04981584 -0.0018273434 -0.048893064 -0.021436028 -0.02156881 -0.018378485 -0.023293354
0.028706126 0.006142039 -0.003295315 0.030605257 0.00034581873 0.012563897 -0.0060112253 0.008354663
-0.005806216 0.028834581 0.0150274 0.027787961 0.034368362 -0.03557664 0.0003856728 -0.027853673
-0.010492972 -0.028400054 -0.01703673 -0.0027190312 0.000937641 -0.0070435503 0.027639905 -0.006248793

fc1.bias f4 [64]
00000000: b35a 883c 7a7b 113c 6ac8 bab8 0dc5 a2bc
00000010: ff49 0f3c 08d0 4b3c c3e5 9f3c 3189 2cbc
00000020: 4384 253a 8514 29bc 6eab 20bc 78df 46bc
00000030: 2780 303b 7657 153b 961e 01bc 0788 ceba
00000040: 08b8 b9bc b2c7 6d3c 8dd3 44bc 8689 8c3c
00000050: fc40 033d 628c db3c 979d 96bc d661 873c
00000060: b68d 833c 5e52 e5bb ac3d 5a3c aa55 9b3c
00000070: 2bff 4cbc 09d4 933a cd7c 49bc de49 a53b
00000080: 54bb e03c b421 5fba 8775 5dbc 6000 fabb
00000090: a0eb 67b9 bab8 72bc b404 c6bb ace5 29bc
000000a0: 009b 513b ad16 953c b5bc 00bd 7a07 70bb
000000b0: 5d03 9fbb d1bf ac3c 9493 043c f24e 2c3c
000000c0: 7c0f 8abc 121d f33b 9df7 193b 0530 bb3c
000000d0: 1899 7fbc b4de 89bb 1697 83bc 1306 053d
000000e0: 0b61 a4ba f4bc b0ba 2c12 2a3b 5850 3abb
000000f0: 4ec8 2bbc 870c f53b c01c dabc 87a2 cfbb
0.016644811 0.008879537 -8.906501e-05 -0.019869352 0.008745669 0.012439735 0.019518739 -0.010530756
0.0006313959 -0.010319834 -0.009806497 -0.01213824 0.0026931853 0.0022787726 -0.007880827 -0.0015757092
-0.02267076 0.014512943 -0.012013328 0.01715542 0.032044396 0.026800338 -0.018385692 0.016526144
0.016058784 -0.0069983443 0.013320368 0.018961746 -0.012512009 0.0011278401 -0.012297821 0.005044206
0.027433075 -0.0008511797 -0.01351679 -0.0076294392 -0.00022117654 -0.01481455 -0.006043041 -0.010369699
0.0031983256 0.01819929 -0.031429965 -0.003662555 -0.004852696 0.021087559 0.008091826 0.010516869
-0.016853087 0.007419237 0.0023493536 0.022850046 -0.015600465 -0.0042074565 -0.016063254 0.032476496
-0.0012541128 -0.0013484047 0.0025950773 -0.0028429236 -0.010484768 0.0074783 -0.026625037 -0.0063365134
