models/model05_fluxsteps_dropout_nofs.pth (torch, 622706 bytes, 16 tensors)

conv2d_1.0.weight f4 [16, 1, 3, 3]
000000 22 50 8b 3e 1a 90 97 3e e5 b2 7b bd 90 76 a6 3e
       0.27209574 0.29602128 -0.061449904 0.3251233
000010 2a 3a 61 bd ee 8a b1 3d f2 92 15 be 70 1f 5b 3e
       -0.05498711 0.08669077 -0.14606836 0.21398711
000020 7b ca a0 3e b9 ca 7e be 92 72 94 3e 87 c7 69 3d
       0.3140448 -0.2488202 0.2899366 0.05707505
000030 21 06 80 3e f0 6f 29 3d 0e 5f 23 3e 31 e1 50 bd
       0.25004676 0.041366518 0.15954229 -0.05099601
000040 8a a8 83 3e 53 46 4e 3d 7d 75 07 be f4 78 e7 3d
       0.25714523 0.050360035 -0.13228412 0.11302367
000050 06 e0 0a be bc b2 ad bc ae f4 e4 bd 14 b7 74 3e
       -0.1356202 -0.021203391 -0.111794814 0.23897964
000060 d6 31 7c be a9 41 0d be e7 95 97 bd 41 98 5e be
       -0.24628386 -0.13794579 -0.074016385 -0.21737768
000070 a6 01 74 3c e4 bf b2 be b0 39 91 3e f2 9b 9e be
       0.014892971 -0.34912026 0.28364325 -0.30978352
000080 31 d3 71 3e 3b 29 06 3d 7d e8 03 be 98 17 3c 3e
       0.2361572 0.032754164 -0.12881656 0.18368375
000090 d1 58 15 3d a6 0a 88 3e f4 dd f9 3c fd a7 db bd
       0.036461655 0.26570624 0.030501343 -0.107254006
0000a0 d4 68 a6 3d 87 63 ba bd 98 31 09 3e 40 78 95 3e
       0.08125463 -0.091010146 0.13397825 0.29193306
0000b0 20 41 3f 3e d3 b7 1b be 3e 92 68 3e d3 a9 c3 3d
       0.18677187 -0.15206842 0.22712037 0.09553876
0000c0 cb 37 49 3e 46 83 4c be 39 0c a3 be 89 33 af bd
       0.1965019 -0.19971952 -0.31845263 -0.085547514
0000d0 3d 7f 91 be 6c b8 9f 3e 92 9d 84 3d 49 0b db 3d
       -0.28417388 0.3119539 0.06475367 0.10695512
0000e0 44 07 a1 3d b0 f2 2d bd d4 d7 76 3e 18 3c 89 be
       0.07862714 -0.042467773 0.2410577 -0.2680366
0000f0 8b cf a0 bb a2 94 86 be ad 0b 96 3d a9 cb 07 be
       -0.0049075535 -0.26285273 0.07326446 -0.13261284
000100 3e 62 ce 3d 79 83 c8 bd f0 c3 87 3e 70 18 50 be
       0.10077332 -0.097907014 0.26516676 -0.20321822
000110 d2 81 4c be 41 f0 59 be bd 25 94 3e 28 1a cb 3d
       -0.19971398 -0.21283056 0.28935042 0.09917098
000120 de 3d b2 3e 1e 94 81 be bb 22 9a be 61 4d 76 be
       0.34812826 -0.25308317 -0.30104622 -0.24052955
000130 1f 0c 53 be 5a 69 20 3e 97 f3 10 3e 70 d0 99 3e
       -0.20610093 0.15665188 0.14155422 0.30041838
000140 72 2f 1b be 37 d7 4f be 96 6a 6f 3e 42 f6 b9 bd
       -0.15154818 -0.20296942 0.23380503 -0.09080173
000150 01 d0 83 3e 5a 3b 3e bd 3f fa 80 3e e9 b6 70 be
       0.25744632 -0.04644332 0.25190923 -0.23507275
000160 48 e3 10 be 49 0d 34 3e 60 bf 81 3d d2 0b c0 bd
       -0.14149201 0.17583193 0.0633533 -0.093772545
000170 8a 7a 44 3e a2 16 5d 3e be 44 81 be 2c 17 3e be
       0.1918737 0.21590665 -0.2524776 -0.18563527
000180 dc b0 99 3e 52 d9 f4 bd ae e7 00 be db 22 a5 be
       0.30017745 -0.11955513 -0.12588379 -0.32253155
000190 b0 78 43 be 5b 88 aa 3d f6 36 34 bd e3 c4 77 be
       -0.19089007 0.08326789 -0.043997727 -0.241962
0001a0 d6 1a 00 3c 93 28 69 be 04 cb 90 be a3 f5 3b be
       0.007818898 -0.22769384 -0.2827989 -0.18355422
0001b0 6b a0 84 be 66 d8 38 be c5 42 bb 3e 96 6c bb 3d
       -0.2590364 -0.180513 0.3657438 0.091515705
0001c0 d7 56 05 3e c9 a9 92 be b0 f2 43 be c9 44 ab bd
       0.13021408 -0.2864516 -0.19135547 -0.08362729
0001d0 64 36 a1 3d cb 70 9c be 20 e8 01 be 29 df 42 be
       0.07871702 -0.30554804 -0.12686205 -0.19030441
0001e0 f4 65 21 3d 97 16 00 be e7 c6 22 3c f1 94 73 be
       0.03940387 -0.12508617 0.009935117 -0.23787285
0001f0 07 c9 34 be b5 28 55 be c6 86 df bd 30 93 85 be
       -0.17654811 -0.2081631 -0.10914378 -0.26088858
000200 b3 4f 94 3e 2a 6e 5b bd 9b 10 9a 3e 41 43 e4 3d
       0.28967056 -0.053571858 0.30090794 0.1114564
000210 a8 1d 8a be c3 8e 78 3e 82 cc a7 bd 90 f5 e7 bd
       -0.2697575 0.2427321 -0.08193304 -0.11326134
000220 a9 e5 85 be 80 df a9 be 37 2d 13 3e cd 09 0b bd
       -0.2615178 -0.3317833 0.14372717 -0.033944894
000230 87 43 44 3e b0 de 93 be a6 8b 9d 3e 86 cb 69 be
       0.19166385 -0.28880835 0.30770606 -0.22831544

conv2d_1.0.bias f4 [16]
000000 09 46 90 bd f9 a0 3c 3d 90 c2 4c 3e f7 73 8d 3e
       -0.07044608 0.046051953 0.19996095 0.27627537
000010 d7 f4 8d 3e 27 85 67 be 41 d9 8e 3d 39 45 1d be
       0.2772586 -0.22609387 0.06975032 -0.15358438
000020 5b 31 17 bc 1d 23 3d be 61 e4 9e 3e 93 85 7a be
       -0.009228076 -0.18470426 0.31033614 -0.24465017
000030 0e 8c 5e 3e b6 8c 07 3e df e5 c6 3d 62 81 f0 bd
       0.21733114 0.1323727 0.09711813 -0.11743428

conv2d_1.2.weight f4 [16, 16, 3, 3]
000000 f4 f6 a7 3d 8c 39 a6 3c a3 18 6f 3c f7 06 9e bd
       0.082013994 0.020291112 0.014593276 -0.07716172
000010 6d e3 08 3d e2 16 2c bc 04 b9 23 bd cf 62 8f 3d
       0.033420015 -0.010503503 -0.039971367 0.07001268
000020 5c 5e 4e 3c 93 ea 2b bd 7b a0 1c bd 8d 63 ac 3a
       0.012595739 -0.041971754 -0.038238984 0.0013152227
000030 c6 aa 3e 3d 9d 10 ab bc cb 48 3e bd 8e 68 f2 bc
       0.04654958 -0.020881945 -0.04645614 -0.029590871
000040 4e fa 7f bd be 42 d3 3c db 63 ae 3d 73 9f 7b bd
       -0.06249457 0.025788661 0.0851514 -0.06143136
000050 35 36 fe 3c f8 fd 76 3d eb 36 f1 3c 3a 05 37 bc
       0.031031707 0.060300797 0.029445132 -0.01117068
000060 86 ab a4 3d 92 92 a4 3d 96 9d 95 3d 73 01 9d ba
       0.08040528 0.080357686 0.07305448 -0.0011978581
000070 0f 7f 49 bc 63 28 ab 3c d2 3c 1c bc 54 fc bd bc
       -0.01229836 0.020893281 -0.009535985 -0.023191608
000080 f0 e4 80 3d ae bd a9 3d 98 89 bd 3a 92 62 1e bc
       0.06293666 0.08288132 0.0014460562 -0.009667056
000090 58 0c 09 3c d4 6d 22 3b 46 5c e3 3c 12 ff ce 3c
       0.008364759 0.00247847 0.02775396 0.025268111
0000a0 66 1d 96 bd 0e 0c ec bc b6 33 91 3d 16 b7 09 3d
       -0.07329826 -0.028814342 0.07089941 0.03362187
0000b0 80 29 94 bb 5c 11 30 bc 45 90 f9 bb 9f 37 0d bd
       -0.0045215487 -0.010746326 -0.007616075 -0.034476873
0000c0 7a 42 ce bc fd cb a4 3b a5 68 b8 3d 51 e9 a3 3d
       -0.025178183 0.0050292 0.09004334 0.08003486
0000d0 f5 5f 33 bd 53 73 8a bd 7d 99 56 bb 14 d8 b5 3d
       -0.043792684 -0.067602776 -0.0032745295 0.08879104
0000e0 dc 2b df 3c f6 a2 7a bc 1c 07 3b 3d c6 08 c5 bc
       0.027242593 -0.015297642 0.045661077 -0.024052035
0000f0 73 21 31 bd 15 65 89 3d 70 47 13 bd 86 d9 0e bc
       -0.04324479 0.06708733 -0.0359568 -0.008718854
000100 4d 66 81 bd 29 78 57 3d 08 15 8f 3d 05 2c 17 3d
       -0.063183405 0.052604828 0.06986433 0.036907215
000110 fc 14 49 bd 58 72 b0 bd 6c 04 2c bd f0 b2 73 3d
       -0.049092278 -0.08615559 -0.041996405 0.05949682
000120 f0 7c 3d 3d 53 7f a9 3d ed e1 43 3d d3 66 30 3d
       0.046261728 0.08276238 0.04782288 0.04306681
000130 e0 33 aa 3a 0e b1 6d bd 86 96 9c bd 10 24 a5 bd
       0.0012985431 -0.05803018 -0.076458976 -0.08063519
000140 df 0b 4d 3d 6f 4d 4d 3d f2 b7 9d 3d f5 77 d8 3b
       0.05006015 0.050122675 0.077011004 0.006606097
000150 aa cc 49 3c d6 cb e7 3c a4 0a b8 3c 7a e2 93 3d
       0.012316862 0.028295439 0.022466011 0.07220931
000160 f7 3b 90 3c cc 7c d5 3d fd 1b 8a bc c6 53 4f bd
       0.017606718 0.10424194 -0.016859049 -0.050617002
000170 43 23 44 bb 14 80 05 bd c1 32 8c bc 07 e7 96 bd
       -0.0029928244 -0.032592848 -0.017114045 -0.07368284
000180 8b b2 62 3d af f8 52 bd 69 99 45 3d 46 e4 1a 3d
       0.055346053 -0.051506694 0.048242006 0.037815355
000190 16 dc 73 3d 04 e9 82 bd 60 7c 75 3d ab 5d 21 bd
       0.059536062 -0.063921005 0.059933066 -0.03939597
0001a0 0b 51 fd 3c 8c 46 a0 3d 36 8e 40 bc ab f0 28 ba
       0.030922433 0.07825956 -0.011752656 -0.0006444554
0001b0 2d ab 80 3c 57 76 22 bd 6d c0 91 3d 70 00 73 bd
       0.015706623 -0.03966364 0.071167804 -0.05932659
0001c0 c9 02 a4 3d 2e 91 b1 3d 4b 96 f7 3d 54 59 9e 3c
       0.08008344 0.08670269 0.12089213 0.019329704
0001d0 25 bd 0b bd 75 83 8d 3d b2 5d cd 3d 45 7d 23 bd
       -0.03411593 0.06909839 0.100276366 -0.03991439
0001e0 9e 67 a1 3c 94 9e 82 bc 3d 8f 16 3d c3 bf 95 bc
       0.019702729 -0.015944757 0.036757696 -0.018279916
0001f0 8e 3f 8a bc 24 4d 40 bc 5b 05 92 bd 94 24 a4 3d
       -0.016876008 -0.011737142 -0.07129928 0.08014789
000200 73 da 9a 3d 27 90 e3 bb f6 ec 90 bb 72 de 0c bd
       0.07561197 -0.0069446745 -0.004422779 -0.034391828
000210 cc d8 90 bd 81 6c 9f bd 8f 27 14 3d 6f 5c 04 bd
       -0.07072601 -0.07784367 0.03617054 -0.032314714
000220 f1 b4 88 3c c8 25 8a bc 5e 23 4d 3d a3 14 45 3c
       0.016687842 -0.016863719 0.050082557 0.012028846
000230 d5 d9 39 3d 88 58 f0 3c 99 0f d5 3c 1b c9 a4 3c
       0.045373756 0.02933909 0.026008414 0.020115426
000240 a9 9d 75 bd a2 fd 99 3d e3 98 08 bd fa 5d f5 3c
       -0.05996481 0.0751908 -0.03334893 0.029952038
000250 7f ed a9 bc db b2 94 3b 53 17 af 3d b5 4e 40 3d
       -0.02074313 0.004537923 0.085493706 0.04695006
000260 6c d8 98 bd 14 43 16 3d 50 78 aa 3d 26 99 b3 3c
       -0.07463154 0.036685064 0.08323729 0.021923613
000270 bf db 77 3d fc a5 b3 3d f5 cb 78 bc 81 ee bc 3c
       0.0605123 0.087718934 -0.015185346 0.023062946
000280 85 81 57 bd 93 44 a1 bc 4e ab da 3c 4c c5 17 3d
       -0.052613754 -0.019686019 0.026693013 0.03705339
000290 f3 fd 57 bd 8b 8b 3b bd c7 c8 81 bd c3 14 ad bd
       -0.05273242 -0.045787375 -0.06337123 -0.084512256
0002a0 40 61 44 bd 1e 93 84 3b 77 0a 5c 3d 4d b4 1b 3c
       -0.047944307 0.004045858 0.053720918 0.009503436
0002b0 23 d9 a6 bd b3 e9 88 bd 60 d3 fd 3c f4 05 a5 bd
       -0.08146884 -0.066851996 0.03098458 -0.08057776
0002c0 ee f7 50 bc 9a 22 f8 3c 92 2c 80 bd 34 5b 3e bc
       -0.012754424 0.030289937 -0.06258501 -0.011618424
0002d0 4a 98 ba bb bb 03 97 bc 26 11 2d bd e9 52 93 bd
       -0.005694424 -0.018434396 -0.042252682 -0.07193548
0002e0 c3 93 85 bd 75 28 41 bd 80 fa a8 3d 7f 99 1d bd
       -0.06522324 -0.047157723 0.08250904 -0.038476463
0002f0 8c 94 6f bd 76 79 a5 3c 66 26 bc 3c 16 05 3b 3d
       -0.058491275 0.020199519 0.022967529 0.045659147
000300 e1 f5 6a 3d 68 14 3e 3d 57 37 a9 bd 1d 7e 95 3c
       0.057363395 0.04640618 -0.08262508 0.018248612
000310 83 c3 4e 3d 16 62 fc bb 66 9f 5a bd 71 7b a2 3d
       0.050479423 -0.0077021224 -0.05337467 0.07933701
000320 1b 56 ff bc 0a 6f 42 bd 05 f1 97 bd e8 81 9f 3a
       -0.031168988 -0.047469176 -0.07419018 0.0012169452
000330 77 22 14 3d 80 9e b3 3c 53 53 6b 3c a8 99 87 bd
       0.03616568 0.021926165 0.014363128 -0.066211045
000340 a8 be a1 bd 56 57 c0 3a 89 67 b3 3d 00 eb 57 3d
       -0.07897693 0.0014674466 0.08759982 0.052714348
000350 68 bc 46 bd 06 22 b5 bc 79 b9 f8 bc ce aa 24 bd
       -0.048519522 -0.02211095 -0.030361878 -0.040201955
000360 4a aa 12 3d e9 ed 5d 3d 02 60 8d 3d 85 d9 29 bd
       0.03580693 0.054181967 0.06903078 -0.04146721
000370 ee b6 81 3d 5e bd 70 bd 99 79 46 3d ed 4b 92 3d
       0.06333719 -0.058774345 0.04845581 0.07143388
000380 56 61 99 3a ad 41 45 3c ca e8 84 bd 1b 60 02 bd
       0.0011701982 0.012039584 -0.064897135 -0.031829935
000390 21 6a 9a 3d 90 e4 11 bd f6 bd 8b bc 3f ea 11 bd
       0.07539774 -0.035618365 -0.017058354 -0.035623785
0003a0 63 71 6d 3d d3 6c 27 3d 91 2a bd 3c bd f9 49 bd
       0.057969462 0.040875267 0.023091586 -0.049310435
0003b0 e2 89 8a bd 35 2f aa 3b a2 d6 b3 3c 76 90 27 bd
       -0.0676458 0.005193616 0.02195293 -0.040909253
0003c0 90 9e e0 bc 8e 0f 5b 3d db 86 88 3b 00 68 76 3b
       -0.027419358 0.05348163 0.0041664666 0.003759861
0003d0 30 01 a8 bc d2 8d 9a bd 7a 78 a0 bd 98 29 23 bd
       -0.020508379 -0.07546581 -0.07835479 -0.03983459
0003e0 ce 81 2d bd f0 af d4 3c 4b bb c6 bc 83 89 05 bd
       -0.04236012 0.0259628 -0.02425923 -0.032601845
0003f0 0c ab 1a 3d 2a 95 82 3d 5b 56 73 3d 26 64 81 bd
       0.03776078 0.06376107 0.059408527 -0.0631793

conv2d_1.2.bias f4 [16]
000000 16 60 89 3c 4f 3d 26 bd 8c 8c b8 3d 2b e0 31 bd
       0.01676945 -0.040585812 0.09011182 -0.043426674
000010 c8 68 84 3d 7d 59 87 bd b9 45 05 bd 8e 30 b1 bd
       0.06465298 -0.066088654 -0.032537196 -0.08651839
000020 df 89 53 bc c6 8d 15 3d 98 bd 30 bd 0f 4e a9 bd
       -0.012911289 0.03651216 -0.04314956 -0.082668416
000030 da 66 8c 3d 15 7f 5d 3d 18 6d f8 3b 8b 01 7a bd
       0.06855555 0.054076273 0.0075813644 -0.061036628

conv2d_2.0.weight f4 [32, 16, 3, 3]
000000 07 20 06 bd e5 62 48 bd f6 bd 09 3d 3a be 43 bd
       -0.032745387 -0.04892244 0.033628426 -0.047788836
000010 40 2a 21 bd 83 e7 96 bd 8d 97 23 bd 1f 9a 1c 3d
       -0.039346933 -0.07368376 -0.039939452 0.03823292
000020 d1 14 58 3d b1 05 48 3c 5a d4 4d bb 2a c9 a6 3d
       0.052754227 0.012208388 -0.003140709 0.08143838
000030 a6 be 86 3c 3c fc 92 bc e1 72 f5 bc 60 14 3f bc
       0.01644833 -0.01794254 -0.029962005 -0.011662573
000040 0e dc 1c 3d e4 e4 cc 3c 4e 67 59 3d f3 bf 38 bc
       0.038295798 0.025011487 0.053077035 -0.011276233
000050 e8 83 77 3d 70 27 3c bd 3f 63 51 bd 90 f3 34 bd
       0.06042853 -0.045936048 -0.05112004 -0.04417759
000060 c8 b8 b6 bd f4 5e 87 bd 31 9a b3 bd 40 60 a1 bb
       -0.08921963 -0.06609908 -0.08769644 -0.004924804
000070 00 f2 4d 3a 46 2e b1 bc f8 42 69 bd 0b d8 9a 3d
       0.000785619 -0.02162851 -0.056948632 0.07560738
000080 e6 31 e2 bc d3 a9 22 3d 40 b5 6d 3d b8 60 60 bd
       -0.027611684 0.03971274 0.05803418 -0.05477974
000090 0a 73 60 bc 07 5c 24 3d d3 6e 91 3d 5a 5d b6 bc
       -0.013699302 0.040126827 0.07101216 -0.02226131
0000a0 29 05 4f 3d 24 1d 9b bd de f9 6f bd 79 85 70 3d
       0.05054203 -0.075739175 -0.0585879 0.05872104
0000b0 68 86 99 bc b0 c6 8c 3d 28 90 9e bb 22 41 44 bd
       -0.018740848 0.06873834 -0.004838962 -0.047913678
0000c0 2a d9 95 3d be 15 8d 3d 1b 04 1a 3b a7 15 65 bd
       0.073168114 0.068889126 0.0023500982 -0.055928852
0000d0 9b eb 05 bc bb ec 39 bd 09 b8 7b 3d c7 22 79 3b
       -0.0081738485 -0.04539178 0.061454806 0.0038015114
0000e0 e5 5b a5 3c f0 2e 62 3d 72 16 03 3d af eb 4b bd
       0.02018542 0.055220544 0.032003827 -0.049785312
0000f0 77 2a 83 3d 9a 89 39 3d 0c 46 65 bd d7 96 94 3d
       0.06404584 0.045297243 -0.055975005 0.07255333
000100 eb ea 0a 3d 1a c0 ed bb a5 28 64 bd 04 87 2b bc
       0.03391544 -0.0072555663 -0.055702824 -0.010469202
000110 ce 44 9d bd 12 49 29 3d 36 b8 5e 3d 8d 9c e8 bc
       -0.07679139 0.04132945 0.054374896 -0.028394962
000120 ed a9 7a 3d e2 12 4b bd 09 4c 9b bb 89 5a 59 bd
       0.06119721 -0.049578555 -0.0047392887 -0.053064857
000130 5d 5a ee bb a6 12 fa 3c 22 82 21 3d 2c 76 eb bb
       -0.0072739557 0.03052647 0.039430745 -0.007185718
000140 54 fe 30 bd f8 6b 93 3d a6 cd 8b 3d 47 4c da 3c
       -0.043211296 0.07198328 0.06826334 0.0266477
000150 61 5b 51 bd ff 6e d9 b9 a0 f1 9a bc e5 cf 8c 3d
       -0.051112536 -0.00041472164 -0.018914044 0.0687559
000160 eb 35 b8 3a f6 2d 91 bb dc 5e 1d bb 17 84 c6 3c
       0.0014054155 -0.004430528 -0.002401284 0.024232907
000170 27 d5 bd bc 86 36 8a 3d da 22 dc 3c f7 cb a7 bd
       -0.023172928 0.06748681 0.026872087 -0.081932
000180 59 6c 4b 3b 06 c6 9f bd 6f 4e 98 bd fb ce b0 3c
       0.0031039922 -0.07801442 -0.07436835 0.021583071
000190 72 3b cd 3c 25 7b 7f bb 50 e4 ae 3d 52 ec 1a bd
       0.02505276 -0.0038983312 0.08539641 -0.03782303
0001a0 31 a9 f0 bc 83 50 8e bc 63 d8 51 bb a4 b5 3a bc
       -0.029377552 -0.017372375 -0.0032019846 -0.011395846
0001b0 9a a5 48 3d a0 2a 78 bd 64 59 90 bd 18 5c 74 3b
       0.048986055 -0.060587525 -0.070483 0.0037286337
0001c0 b4 c4 76 3d 47 99 7d 3c 3c fa 21 3d 11 7f 4e 3c
       0.060246184 0.015478439 0.039545283 0.012603537
0001d0 cd 32 83 3d c3 97 3e 3d 71 29 68 3d a3 e8 61 bc
       0.06406174 0.04653145 0.056680147 -0.013788375
0001e0 58 1e b5 bd 1f 05 72 bd 9d c3 0a 3c 20 3a 2f 3d
       -0.08843678 -0.059086915 0.008469489 0.04278004
0001f0 aa 33 44 bd 10 de 59 3d 8f 58 20 bc a3 24 cb bc
       -0.047900833 0.05319029 -0.009786739 -0.024797743
000200 60 3b b0 bc 30 58 10 bd e3 c6 4c 3d 46 0c 99 bc
       -0.021512687 -0.035240352 0.04999436 -0.01868261
000210 81 4f 14 3d e9 0f ad bd 08 f4 54 bd 4a 61 9a 3c
       0.036208633 -0.084503 -0.05199054 0.01884522
000220 b2 ed 98 3d 49 af 3e 3d 56 0d d6 3c 24 24 9c bd
       0.07467212 0.046553884 0.026129406 -0.07624081
000230 9d ee c4 3b a9 97 60 bd 38 20 94 bd e4 44 f0 3b
       0.00600989 -0.054832134 -0.07232708 0.007332431
000240 f3 10 57 bd 84 0d 92 3d 79 12 33 bd f3 6d a0 3c
       -0.0525064 0.07131484 -0.04371879 0.019583678
000250 b7 7c 30 3d 12 78 9e bd bf db f3 3c 29 a6 b7 bc
       0.043087687 -0.07737745 0.029767869 -0.022418099
000260 3f 2f e6 3c 39 98 a2 3d b8 d8 a8 bc 12 a6 b2 bc
       0.0280987 0.079391904 -0.020611152 -0.021807704
000270 0f 6a 87 3d 0f 3b 85 3c 05 93 3d bb ba 7a 81 3d
       0.06612026 0.016263513 -0.0028926742 0.06322236
000280 85 e4 15 bd 5b 7d c2 3b 19 f6 75 3d 12 2e 06 3d
       -0.036594886 0.0059353537 0.06004915 0.03275878
000290 e9 eb 60 bd aa 06 c9 3c 02 8b 7b bd ad e1 3d bd
       -0.05491248 0.02453931 -0.061411865 -0.0463578
0002a0 a1 c7 55 3d 97 1f cf bc 58 cc 42 bd 56 8e c1 3b
       0.052192334 -0.025283618 -0.04755816 0.0059068603
0002b0 d0 d2 a6 3c b6 2d 54 bd c6 2e 66 bd 10 49 a5 bd
       0.020364195 -0.051801406 -0.05619695 -0.08070576
0002c0 cb 63 b0 3c 03 3d 5c bd 80 19 d0 3b 1b af 98 bc
       0.02153196 -0.053769123 0.006350696 -0.018638184
0002d0 30 f8 5c bd cb 5d cb bc 4b 8d 88 bd 5a c0 31 bd
       -0.053947628 -0.024824997 -0.066675745 -0.04339633
0002e0 2f 13 56 bb f1 82 a0 bd 16 ed 9e bd 85 20 78 3d
       -0.0032665243 -0.07837475 -0.07760064 0.060577888
0002f0 16 e5 1c 3b 9e c0 f7 bc 2d 6b f2 3b 44 b6 93 3d
       0.0023940257 -0.030243214 0.0073980303 0.07212499
000300 75 a2 87 bd fc 4b 28 bd e6 e3 6a bd a5 b0 ee ba
       -0.06622783 -0.04108809 -0.057346247 -0.0018210603
000310 7c 44 8b bb 88 eb 87 bd e9 a7 67 3d cb eb 89 bd
       -0.0042501073 -0.06636721 0.056556616 -0.06734427
000320 c5 0e 91 3d d1 b1 63 bd ff 81 5f bc d3 9f 46 3c
       0.07082895 -0.0555895 -0.013641833 0.012123066
000330 9b 10 10 bd d3 3e 9c 3d c9 8d 75 bd f3 3c 71 bb
       -0.035172086 0.0762917 -0.05994967 -0.003681001
000340 41 f9 82 bd 22 ea 96 3c 5f 80 9a 3d 9b 9d 9e 3d
       -0.06395198 0.01842219 0.07544016 0.077449046
000350 b6 33 fd 3b 30 12 21 bd ff d5 a7 3d fb ec 65 3b
       0.0077271117 -0.039323986 0.081951134 0.0035083878
000360 75 d8 83 3d 94 b7 14 bd 04 56 fc bc c6 90 62 bd
       0.0643777 -0.036307886 -0.030802734 -0.055313848
000370 41 76 9a 3d 57 6e ac 3c 0d 03 7d bd fd f0 28 3c
       0.075420864 0.021048708 -0.061770488 0.010311362
000380 8e 37 de bc de fa 4d 3c d0 03 0c 3d fe 54 14 bd
       -0.0271261 0.012572018 0.034183323 -0.036213867
000390 37 d2 f9 3c 71 5e 26 bd d9 59 ea 3c 6d ad b1 bd
       0.030495746 -0.04061741 0.028607296 -0.086756565
0003a0 3e 20 d3 3b 94 bd 9d 3d c7 bd 9a 3d 17 4f e0 3c
       0.0064430526 0.07702175 0.075557284 0.027381463
0003b0 83 b9 81 3d 40 b3 99 3d f8 50 4e 3c f9 3c b3 3c
       0.06334212 0.07504892 0.012592547 0.02187966
0003c0 80 31 1a 3b 2a 61 8a 3d be 72 8d 3d a7 1d 2e bd
       0.002352804 0.06756814 0.06906651 -0.042508747
0003d0 03 55 e4 bb 6d 91 45 bd 00 52 02 3d ef 80 a3 bd
       -0.006968142 -0.048234392 0.031816483 -0.079835765
0003e0 a7 3c e0 3c 45 98 82 bc ca 86 0e 3d d8 3a e3 3c
       0.027372671 -0.015941748 0.034796514 0.02773802
0003f0 ff f0 23 bd f9 34 40 3d b5 2b 1a 3d 00 83 94 bd
       -0.040024754 0.04692552 0.03763934 -0.07251549

conv2d_2.0.bias f4 [32]
000000 52 67 f4 bc 0f 6e 90 3c 0f a8 ff 3c dc 3a 13 bc
       -0.029834423 0.017630605 0.031208066 -0.008986201
000010 31 19 52 bd 73 62 33 bd 2a 39 ae bd 28 fe a8 bb
       -0.051293556 -0.04379506 -0.08506997 -0.005157251
000020 29 37 fa ba 96 f3 9e 3d 47 3f 10 bd 0d f0 7b bd
       -0.0019089925 0.07761304 -0.035216596 -0.061508227
000030 13 8d 73 3d 7d 97 82 3d 6e 69 79 bd 3f 3c 46 3c
       0.05946071 0.0637655 -0.06089156 0.012099325
000040 2f f2 fd 3c 1f c8 7d 3d ea 3d f3 bc 1a 00 5f 3d
       0.030999271 0.06195843 -0.029692609 0.054443456
000050 1f 0b 9f 3d 69 33 25 3d 1d d2 4a 3d a2 34 37 3d
       0.07765793 0.04033223 0.049516786 0.04472793
000060 2d f9 92 bd 35 24 a4 3c 61 54 99 3d da da 96 bd
       -0.07176433 0.020036796 0.07486797 -0.073659614
000070 33 62 9e bd 18 b3 6d bd 1a 3b 00 3d de da 95 3d
       -0.07733574 -0.058032125 0.031306364 0.07317136

conv2d_2.2.weight f4 [32, 32, 3, 3]
000000 a7 c3 a5 ba 7f 2d 98 bc 5b ee 24 3c 6d 9b e7 bc
       -0.001264681 -0.018576382 0.010066594 -0.028272355
000010 9f 41 f4 3c 5b 3e 6a bc 7b 04 de bb 81 27 32 bc
       0.029816447 -0.014297093 -0.0067754365 -0.010873676
000020 06 f0 a2 3c 73 72 28 3d 51 ef 88 3c 68 fd 31 3d
       0.019889843 0.041124772 0.016715677 0.043454558
000030 bd 1b 62 bd 8e 43 5c bd f2 d8 f4 3c 62 3f 28 3d
       -0.055202235 -0.053775363 0.029888604 0.04107607
000040 71 9f 28 3d ed 71 87 bd b3 22 25 3d d0 4e 25 bd
       0.04116768 -0.066135265 0.040316295 -0.040358365
000050 1e 15 12 bb 75 27 d7 3c 8e 7e 5f 3d aa 23 36 3c
       -0.002229042 0.026263932 0.05456405 0.011116901
000060 5f dd c2 bc 9b 71 f7 bc 3a f4 dd 3b b6 9d 85 3d
       -0.023787199 -0.030205538 0.006773499 0.065242216
000070 7e 33 3a 3d 61 6a 4c 3d 89 cf 9f bc f3 1e ce bc
       0.045459263 0.04990614 -0.01950814 -0.025161242
000080 74 b1 a9 3d 21 08 74 3d b7 a8 8e bb 22 93 d7 3c
       0.082857996 0.059578065 -0.0043536085 0.026315276
000090 fa 41 25 3d d7 c9 52 3d 17 db 42 bd c8 b1 40 bc
       0.040346123 0.05146202 -0.04757222 -0.011761136
0000a0 87 24 28 3d 89 ef 84 3d 8f 0f 11 3d 37 28 ae 3c
       0.04105046 0.06491 0.03541523 0.02125941
0000b0 f6 5d df 3c 30 a3 5b 3d 85 7f 3d bd b5 e9 db 3c
       0.027266484 0.053622425 -0.04626419 0.026844839
0000c0 7a cc 2c bd 07 96 b7 3b f8 ff 63 bd c1 52 1c 3d
       -0.04218719 0.0056026014 -0.055664033 0.038164858
0000d0 2e 7a 06 bd cd 43 80 3b 9a 0d 0e bd ff f8 6a 3a
       -0.032831363 0.0039143325 -0.03468094 0.0008963495
0000e0 60 c2 76 bc bf de f6 bc f9 58 fc bc d4 12 47 3d
       -0.015060991 -0.03013551 -0.030804144 0.04860194
0000f0 b8 75 bd 3b f0 aa 78 bc 8d 0d 7b 3d 92 09 3e bc
       0.0057818554 -0.015177473 0.06129222 -0.011598961
000100 c6 c2 1d bd 7b 7e c1 bc aa 41 74 bd 9f 27 79 bd
       -0.03851583 -0.02361988 -0.059632935 -0.0608288
000110 13 0d 5b bd fe fe f3 bc 6c a4 c1 bd f4 c5 b4 bd
       -0.053479265 -0.029784676 -0.09455189 -0.08826819
000120 b7 42 74 3d 69 c7 33 3c 1e f9 ba 3c 8a ff 01 3d
       0.059633937 0.010972836 0.022823866 0.03173784
000130 26 3f 2e bc 2a 75 5a 3d 66 59 28 bd 45 9f a2 bc
       -0.010635173 0.053334393 -0.041100882 -0.019851336
000140 36 e3 83 bd 74 38 79 3c 42 05 55 bd aa f3 d8 3c
       -0.064398214 0.015211213 -0.052006967 0.026483376
000150 6a 16 6d 3b b4 6c 08 bc 83 8d ee bb 4c d4 2f 3d
       0.003617669 -0.008326698 -0.007280053 0.04292707
000160 5a cd a3 3d 9d 8b 1b 3d a1 41 19 3d ed d8 47 bd
       0.07998152 0.037974942 0.037416104 -0.04879086
000170 3e b9 4d bc ca 7a 0f bd e0 c3 32 bd 5a 9c 0c 3c
       -0.012556372 -0.03502921 -0.043643832 0.008582199
000180 00 ff c1 bc 82 9d eb 3b c6 a1 ee bc 17 c6 56 bd
       -0.023681164 0.0071904073 -0.029129874 -0.052435007
000190 9f 77 ea bc 07 66 5e bd a6 54 4a 3c 38 22 2d bd
       -0.028621493 -0.05429652 0.012349283 -0.04226896
0001a0 ef c9 49 3d b2 99 fa 3c 17 6d df bc b4 33 1e bc
       0.049264845 0.030590866 -0.027273698 -0.009655882
0001b0 22 1c 5d bd c1 cc 31 3d 06 c5 d7 bc 94 e4 0b bd
       -0.053981908 0.04340816 -0.026339065 -0.034153536
0001c0 31 0b 85 bc 28 26 f9 3b 3d 4d 48 bd d3 8d 51 bb
       -0.016240688 0.0076034255 -0.048901785 -0.0031975403
0001d0 f9 34 c9 ba 88 33 78 bb 59 63 31 3d 35 37 4d bd
       -0.001535087 -0.0037872512 0.043307636 -0.050101478
0001e0 46 f7 eb bc 97 24 a8 ba 97 29 e8 bb 10 41 ab 3c
       -0.028804433 -0.0012828287 -0.007085036 0.020905048
0001f0 c2 21 1d 3d ac d1 3c bd 14 af 36 3d ef 92 d3 3c
       0.038362272 -0.046098396 0.04460056 0.0258269
000200 7b cb 76 3d 2c 33 72 3d 91 33 71 3c 90 94 9a 3c
       0.060252648 0.059130833 0.014721767 0.018869668
000210 7a fe 03 bc a1 44 2c 3d fd 0e 9a 3d a4 2f 43 3c
       -0.008056277 0.042057637 0.0752239 0.011913214
000220 04 26 34 3d 6a 06 49 3c 7e e0 f9 bb 75 7b 16 bd
       0.043981567 0.012269596 -0.0076256385 -0.03673883
000230 ec f7 9f bd 7b 48 33 bd af b2 99 3c e7 8d 85 3c
       -0.07810959 -0.043770295 0.01876196 0.016303016
000240 69 15 a5 3c 6a 52 be 3d 91 dd bd 3d 62 77 31 bd
       0.02015181 0.09293063 0.09270776 -0.043326743
000250 d1 ad 4e bd be 9f b7 bc b8 62 07 bd 65 40 80 bb
       -0.050458733 -0.022415038 -0.03305313 -0.0039139264
000260 85 59 ad bb f5 30 0d 3d 69 b8 03 bd 81 b3 17 3d
       -0.0052902126 0.034470517 -0.03215829 0.037036423
000270 87 0f 0a 3c a3 00 3f bd 47 8b 48 bd 8e 55 88 3c
       0.008426554 -0.046631467 -0.04896095 0.016642358
000280 1e 1a 4e 3d 08 15 33 bd 72 f7 cc 3c cf c0 1e bd
       0.050317876 -0.04372123 0.025020335 -0.038758095
000290 3b c3 65 3d f2 8b 34 3d 3b c1 32 3c 64 a9 6e 3d
       0.05609439 0.044078775 0.010910328 0.058267012
0002a0 a1 19 49 3d bb b7 82 3d 10 ed fd 3c 82 ed 0e 3d
       0.049096707 0.063827 0.03099683 0.034894474
0002b0 34 ce 86 3d f6 a2 70 3d c1 7f 5d bd 65 c7 f3 bc
       0.06582299 0.05874916 -0.054076914 -0.029758165
0002c0 90 f5 cb 3c 33 5d 96 bd 64 c0 49 ba 96 f8 85 bd
       0.024897367 -0.07341995 -0.000769621 -0.06541555
0002d0 66 7a 70 3d f4 c4 03 bd b9 db 33 3d 55 cd 3a bd
       0.05871048 -0.03217025 0.043910716 -0.045605976
0002e0 d6 48 b0 3c 5e 53 37 3c 56 6f 40 bc 4a 06 9c bc
       0.021519106 0.01118931 -0.011745295 -0.019045968
0002f0 8c 29 2e bb c7 f8 7c bc b0 ff 35 bc 4c 4f c2 3c
       -0.0026575057 -0.0154401725 -0.011108324 0.023719452
000300 3b 24 ce bc ef ef a6 3c b3 ea 26 3d 17 f9 13 bd
       -0.02516376 0.020378081 0.04075117 -0.036126222
000310 48 52 6f 3c bf 28 ac 3c 63 bc 50 bd e3 8f 2a 3d
       0.01460702 0.021015523 -0.05096091 0.041641127
000320 7a 1f 30 bb cf 5b 87 bd 66 f9 fe bc 71 fd 63 39
       -0.002687423 -0.06609308 -0.031124782 0.00021742821
000330 d3 02 18 3d c9 b0 c6 bc 59 74 3d 3d 09 1c 72 3b
       0.03711207 -0.02425422 0.046253536 0.003694298
000340 e8 32 8c bc f8 1c 60 3c 15 8c 3f bd e6 c8 47 3c
       -0.017114118 0.013678782 -0.046764452 0.012193894
000350 19 c2 00 3d 0e 5f 88 bd ab 40 71 bd f5 90 87 3c
       0.031435106 -0.06658755 -0.058899563 0.016548613
000360 eb e3 a7 bb b9 da 6f 3d 33 aa 8a 3d fb c9 26 bd
       -0.0051236055 0.0585582 0.06770744 -0.040719967
000370 3c ca db 3c 81 a4 6c bd 67 76 b2 3c 12 5b 14 bd
       0.026829831 -0.05777407 0.021784974 -0.036219664
000380 bf d8 fb ba cf fd ba 3d 0c f4 28 3d ea c7 c6 3b
       -0.0019214376 0.091304414 0.041248366 0.006066312
000390 f1 b7 78 3c 7c 25 a8 bc 75 72 3c 3d 19 87 94 bd
       0.015180574 -0.020525686 0.046007592 -0.0725233
0003a0 8e a0 02 bd d3 7e 87 bd db d1 bc ba 66 fd 80 3c
       -0.031891398 -0.06615987 -0.0014405804 0.01574583
0003b0 dc f9 a8 bb f3 1e 4e bd 57 58 cd bc bb 39 41 bd
       -0.0051567387 -0.050322484 -0.025066538 -0.047174197
0003c0 05 a5 7a bd 4b 02 ad bc c0 c3 91 bd 6f d2 80 3d
       -0.06119253 -0.021119257 -0.071174145 0.06290137
0003d0 3f 04 8a 3d 94 9a a5 3d 0a e3 4b 3d 6b de d6 3c
       0.06739091 0.08086124 0.04977707 0.026229104
0003e0 5f 8e ba 3c b8 26 2b bc f2 f0 63 3d d8 fc 48 3d
       0.022772966 -0.010446243 0.055649705 0.049069256
0003f0 66 23 5b 3d b6 08 90 ba c7 53 f8 bc 96 c4 2b 3d
       0.053500555 -0.0010988924 -0.030313386 0.041935526

conv2d_2.2.bias f4 [32]
000000 68 54 91 3c 14 b5 c4 3b 4f 82 5e 3d 1d d8 42 3c
       0.017740443 0.0060030315 0.05432349 0.011892346
000010 fb 76 87 3d 2d f2 11 3c d7 fa 32 ba 46 cf 71 3d
       0.066144906 0.008907837 -0.0006827539 0.059035562
000020 84 cd 37 3c 04 7f 07 3b e4 75 a5 3b e0 70 13 3d
       0.011218432 0.0020675072 0.005049454 0.035996318
000030 87 58 8f bc fc dd 34 3d f1 df ee 3c c2 e3 14 bc
       -0.017498268 0.044157013 0.029159518 -0.009087505
000040 91 14 1a bc f8 b2 19 3d 97 51 43 bd 48 2f ec bc
       -0.0094043175 0.037524194 -0.047685232 -0.02883114
000050 95 5f 81 bc d4 02 a1 bb 47 ab ec bc f1 2a 03 bd
       -0.015792647 -0.004913667 -0.028890265 -0.032023374
000060 89 96 b3 3c 1a 26 1f 3c 19 da 51 bd 4f 92 65 3c
       0.021922367 0.009713674 -0.051233385 0.0140119335
000070 4a 05 09 3d fe 51 90 bc 27 ab 7a 3d 0e 10 42 bd
       0.03345231 -0.017617222 0.06119838 -0.047378592

conv2d_3.0.weight f4 [64, 32, 3, 3]
000000 3c 82 93 3d da 6a 2f 3d 12 49 51 bc c3 37 8a bd
       0.072025746 0.04282651 -0.012773769 -0.06748917
000010 8f 16 f9 3b 4e cb d8 bc 4b 2d b9 3c 85 cf f1 3c
       0.007601566 -0.02646413 0.022604605 0.029517898
000020 17 38 16 bd 09 0c 3a 3c 67 f3 36 bc 86 6b 52 bd
       -0.036674585 0.0113554085 -0.01116643 -0.051372074
000030 37 df 97 ba 0a 12 a9 3b 73 df 61 bd 55 08 4a 3d
       -0.0011586909 0.005159621 -0.05514474 0.049324352
000040 42 51 f8 3c 47 61 03 3d 47 d1 2d bd 83 71 2a bd
       0.030312184 0.032075193 -0.04243591 -0.04161216
000050 37 80 0b 3d ed 04 3c 3d 96 2d 18 bd 58 ea 8d 3d
       0.034057822 0.045903135 -0.03715285 0.06929463
000060 5a cf 9a bb b8 2e 1d bd 31 d1 0d bd ab ea 8c bb
       -0.0047244253 -0.038374633 -0.03462333 -0.0043004355
000070 d5 49 29 3d d8 3f 04 bd 2f 06 67 3d dd 7c 97 3d
       0.041330177 -0.03228745 0.05640238 0.07396863
000080 82 25 8e 3d 4c 94 0a 3d 63 c7 73 bc 65 3a 6f bc
       0.06940748 0.033832833 -0.0148790805 -0.014601325
000090 12 c4 4f 3d 44 0a 5e bb b5 13 8b 3c 1e 0f 92 3d
       0.050724097 -0.003388063 0.01697717 0.071317896
0000a0 82 ab 35 bd 49 63 db 38 e3 e8 a5 bc dd db a5 bb
       -0.044353016 0.00010461227 -0.02025265 -0.00506161
0000b0 b1 5b d6 3b 63 10 2a bc 50 52 6c 3d 5e c3 c3 3c
       0.006541692 -0.010379883 0.057695687 0.02389687
0000c0 ae 5f 05 bd a6 a3 f3 3c 91 80 04 bd 3b d2 80 bb
       -0.03256195 0.02974112 -0.032349173 -0.0039313114
0000d0 82 2d 4b 3c 42 52 04 bd 0d a9 15 3d 6a 7a ec bc
       0.012400987 -0.03230501 0.036538173 -0.028866965
0000e0 33 61 3e bd eb ad 7b 3d 97 a8 48 3d 09 8d 40 bc
       -0.046479415 0.061445158 0.048988905 -0.011752375
0000f0 5d 00 15 bd 39 04 79 3d b5 30 e3 3c a8 60 f4 bc
       -0.0363773 0.060795043 0.027733186 -0.029831246
000100 eb 4c 20 bd 57 ff 81 bc 38 6e aa bc 29 6c 92 3c
       -0.039135855 -0.015868826 -0.02080451 0.01787384
000110 6d 36 99 3c ea ea 52 bd 29 76 17 3d 3f a6 16 3d
       0.01870271 -0.051493563 0.03697792 0.03677964
000120 cb b0 35 bd 5b 7d 6a 3d 54 7c 6e bc d1 29 32 3d
       -0.044358056 0.057248455 -0.014556009 0.04349691
000130 89 74 95 3d 39 b7 4b 3d 9e 08 3e 3d 6d 30 2c 3c
       0.07297618 0.04973528 0.046394937 0.0105095925
000140 c7 e5 89 3c 87 43 21 bd e8 5e fd bc b7 35 70 3d
       0.0168332 -0.03937104 -0.030929044 0.058644976
000150 ce 31 2d bd 5a 17 1e 3d 3a 5d b7 bc 92 c2 70 3d
       -0.042283826 0.03859649 -0.022383321 0.058779307
000160 41 51 57 3d 7c f2 a8 bb 77 96 91 bc 53 b5 44 bd
       0.052567724 -0.0051558595 -0.017771943 -0.048024487
000170 97 3e 38 3d 9b 26 40 bc 83 5a 3c 3d ea c1 80 3d
       0.044981565 -0.011727954 0.045984756 0.06286986
000180 06 b1 58 bd 37 56 61 bd 39 da 21 bd 75 d6 73 3c
       -0.052903198 -0.05501386 -0.039514754 0.0148826735
000190 80 e9 7f 3d f2 a1 8e bc 28 56 8f 3c 0f 90 88 3d
       0.062478542 -0.017411206 0.017497137 0.06668102
0001a0 16 40 69 3d 95 17 23 3d 84 6b 90 3d d0 5f db bc
       0.056945883 0.03981741 0.07051757 -0.026779085
0001b0 c1 ee c2 bc 8b a6 27 3d d0 49 ae bc fe 0f ad 3c
       -0.023795487 0.040930312 -0.02127543 0.02112579
0001c0 8c 27 9c 3d 62 21 bf 3d 2f ca 1a bd 7a 6f 76 bd
       0.076247305 0.09332539 -0.037790474 -0.060164906
0001d0 98 fa 80 bd f1 4b 89 3d 9d 1a 68 ba 95 d8 36 bd
       -0.06297797 0.06703938 -0.00088540633 -0.044640142
0001e0 6b bb 04 bd fa 66 1a bd fd 42 84 bc 63 cc 1c bd
       -0.0324053 -0.037695862 -0.016145224 -0.038280856
0001f0 ca df 7a bc 4b 3d 6e 3d d7 17 cf bc 7e 24 39 bc
       -0.0153121445 0.058163922 -0.025279922 -0.011300204
000200 89 d4 1d 3d cd 43 a4 bd 91 40 6c bd 0e 3a ef bc
       0.038532767 -0.080207445 -0.057678763 -0.029202487
000210 c5 af 32 3d 79 c7 b8 3b ee 7a 86 bb 70 0b 1d 3c
       0.04362466 0.0056390134 -0.00410401 0.009585246
000220 fe f1 6d 3d 69 76 2b 3b e1 e4 00 3d f1 e9 91 3c
       0.05809211 0.0026163107 0.031468276 0.017811747
000230 42 05 7a 3d 97 9d 78 3c 5a 04 97 bd 09 d2 0f bd
       0.06104017 0.015174291 -0.07373877 -0.035112415
000240 2c 3c 50 b9 c4 57 b9 bc 32 57 0e bd 10 bb d4 bc
       -0.00019858842 -0.022624858 -0.034751125 -0.025968105
000250 c3 7b 3f bd 71 48 28 3d c4 34 33 bd 39 35 09 3d
       -0.046748888 0.04108471 -0.043751493 0.033498023
000260 cb a9 2f 3d 9e ee ca ba fa 38 85 3d 15 c4 51 3d
       0.042886537 -0.001548249 0.06505008 0.05121239
000270 2b 40 d5 bc d2 3b 4f 3d bc 35 ff 3c 69 cb 59 3d
       -0.026031574 0.05059416 0.031153552 0.053172503
000280 1f 7d 14 bd 65 15 5c 3d 5e 20 21 3d 18 ce 6c 3d
       -0.036252137 0.05373134 0.03933751 0.057813734
000290 98 ab 67 bb c9 10 a4 3d 9a ed 0b 3d 61 70 b0 3d
       -0.003535008 0.08011014 0.03416214 0.086151846
0002a0 c7 6e 4f bc 6e b5 89 3c 13 59 62 bd e6 37 09 bd
       -0.012660689 0.016810145 -0.05526073 -0.033500575
0002b0 28 09 25 3d f4 6f 49 3d b9 e8 e8 3c 31 94 0e 3d
       0.040291935 0.049179032 0.028431283 0.034809295
0002c0 be 95 56 3d f7 6c 32 bd 9a 85 ad 3c f2 82 87 3c
       0.0523889 -0.04356095 0.02118187 0.016541932
0002d0 b6 ad 81 bc 7e bc d4 bc 3a 74 40 bd c7 ae e5 3c
       -0.015829902 -0.025968786 -0.046985842 0.028037442
0002e0 50 45 89 bc eb 64 cf ba 00 ef 1b bd c0 ca 29 bd
       -0.016756684 -0.0015822923 -0.038069725 -0.041453123
0002f0 59 d0 4e 3d 7c 8d 11 3d 09 16 dd 3c 0e 22 38 3d
       0.050491665 0.03553532 0.026988046 0.044954352
000300 17 94 d4 3c 45 09 98 3c fb 38 ed 3c 97 b9 7d bc
       0.025949521 0.018559108 0.028957834 -0.015486143
000310 42 5c eb 3b b8 d1 71 bd c3 70 ba ba 1e ac 6d 3c
       0.007182629 -0.059037894 -0.001422428 0.014506368
000320 11 09 93 3c 2a d0 3b 3d 85 c0 0e 3d f7 01 b6 3b
       0.01794866 0.045852818 0.03485157 0.0055544334
000330 36 23 65 3d 11 ed f0 bc a0 f9 3a 3c 08 96 08 bd
       0.055941783 -0.029409917 0.011412054 -0.033346206
000340 9e d9 12 bd 1b 5e 37 3d dc e2 0e 3d 2c f4 63 3c
       -0.035852067 0.04476748 0.03488432 0.013913196
000350 68 cd c0 bc 06 53 55 3d 37 19 c6 3b 7b 69 43 3d
       -0.023535445 0.05208113 0.0060454863 0.047708016
000360 f1 ed 35 bd e9 af 23 3d 0e 1d 3b bb 72 f8 41 bd
       -0.04441637 0.039962683 -0.0028551253 -0.047356077
000370 df 7f 0f bd fc 10 99 bd 02 8d 2c bc 21 16 1d 3b
       -0.035034057 -0.07473943 -0.010531666 0.0023969489
000380 cb 4c 3d bd a4 67 28 3d 90 92 86 3d b5 56 1f 3d
       -0.046215814 0.041114464 0.06570923 0.03890105
000390 0c 4d 81 bc 3d be af bc 4a d0 04 bd e0 78 0f bd
       -0.01578381 -0.021453017 -0.032425202 -0.035027385
0003a0 9f f9 1a 3d 30 e7 ef 3c f9 c8 fa bb 94 bc 5b 3c
       0.037835713 0.029285043 -0.0076533523 0.01341166
0003b0 f9 34 55 3c 91 dd 97 bb 66 a5 94 bd 53 60 29 3d
       0.013013118 -0.004634567 -0.0725811 0.041351628
0003c0 e0 56 1e bc e2 2d 8b bd 62 38 7f bc 2c 86 ca 3c
       -0.009664267 -0.06795861 -0.015577408 0.024722181
0003d0 33 5c 0a 3d 02 17 a8 bc df 0c 56 bc 10 a2 5b bd
       0.033779334 -0.020518783 -0.013064592 -0.05362135
0003e0 93 40 56 bd 4c c6 36 bd d5 17 2e bd c8 86 00 3d
       -0.052307677 -0.044622704 -0.042503197 0.031378537
0003f0 38 34 33 bd 55 8b 18 bb 07 29 81 bc 19 19 52 3d
       -0.04375097 -0.0023276408 -0.015766634 0.051293466

conv2d_3.0.bias f4 [64]
000000 fc f9 d4 bc 5e ae 60 bd 9a 14 53 3d cb 45 4d 3d
       -0.025998108 -0.05485379 0.05153332 0.050115388
000010 bb 73 6d 3d 92 16 8d 3d 4d 0d 75 bb bc 8b 5a bd
       0.057971697 0.068890706 -0.003739196 -0.053355917
000020 37 80 eb bc d8 43 49 3c 8b 44 99 3d bf d5 48 3b
       -0.028747661 0.012284242 0.07483777 0.003064498
000030 26 12 e4 3c 07 fb 53 3d 20 a5 a4 bb ca fc 1d bd
       0.027840685 0.05175307 -0.0050245672 -0.038571157
000040 f3 bb 05 bd ae 7b 7d bd 2e 3d 22 3d cd a6 05 bd
       -0.032649945 -0.06188553 0.039609127 -0.032629777
000050 db 89 05 bc e4 e3 ed bc 53 72 8b bb 46 d3 8a 3d
       -0.008150543 -0.02903933 -0.004255572 0.067785785
000060 e5 02 8b 3c 26 80 80 bc 10 54 41 3d 8e d6 fa bc
       0.016969154 -0.015686106 0.04719931 -0.030619886
000070 a2 60 e0 3c 50 a3 39 bd e0 84 2d bc c5 87 04 bd
       0.027389828 -0.045321763 -0.010590762 -0.032356042
000080 5d e4 1f 3d db ea ae bb 53 61 c7 3c 2d 90 26 bd
       0.039036144 -0.0053380555 0.0243384 -0.04066484
000090 e2 14 a0 3d a0 41 71 3d 7a 49 4d 3d 18 90 76 bd
       0.07816483 0.058900476 0.0501189 -0.060196012
0000a0 06 c1 69 bd 69 13 33 bd e1 39 12 3d 34 21 6e 3d
       -0.057068847 -0.043719683 0.03569973 0.058137134
0000b0 d6 08 fe 3c 4a a5 52 bd 07 f5 4f 3d 3c f5 43 bd
       0.031010073 -0.051427163 0.050770786 -0.047841296
0000c0 17 ad 75 bd 35 f3 82 bc 64 0b 10 3d c5 f1 07 bd
       -0.059979524 -0.01598511 0.035167113 -0.033189554
0000d0 a3 1b 26 3d 95 4f 06 3d b2 08 09 3d ef 30 53 bd
       0.0405537 0.03279074 0.033455558 -0.05156034
0000e0 75 b0 c2 bb 4a 32 59 bd 5d 06 22 bc 67 bd 3d 3d
       -0.0059414455 -0.053026475 -0.009889212 0.046323206
0000f0 6b 57 9e 3c 4b 83 81 3d 13 0b 85 3d 40 f2 96 bc
       0.019328794 0.0632387 0.06496253 -0.01842606

conv2d_3.2.weight f4 [64, 64, 3, 3]
000000 91 7c d4 3b 3c 0b e3 3c a3 b1 8d 3a 46 07 a8 3b
       0.006484576 0.027715318 0.0010810386 0.00512782
000010 0d 43 2d 3d f3 cb bd bc a0 48 a3 bc ba ad 47 bc
       0.042300273 -0.02316854 -0.019932091 -0.012187416
000020 a4 0b 06 3d 0c 24 29 bd 0d 0b e8 bc d9 d7 a3 bc
       0.032725945 -0.041294143 -0.028325582 -0.020000385
000030 da 4b c2 bb 6f e9 fc bc 5a 85 d9 bc e6 8d 70 3c
       -0.0059294524 -0.030873029 -0.026552845 0.014682269
000040 e5 92 2b 3d 67 e0 72 3c 1e 01 1e 3c 43 b4 13 3d
       0.041888136 0.0148240095 0.009643821 0.036060583
000050 d5 54 ff 3a 96 51 70 3c 84 52 13 3a 89 1b e8 bc
       0.0019480238 0.014667889 0.0005619901 -0.028333442
000060 35 2e a2 3c a9 e1 eb 39 80 d7 e7 bb 0b 61 e8 3c
       0.019797424 0.00044990823 -0.00707525 0.028366586
000070 db 94 89 3c 3a 6d 2e 3c c1 1c e9 bc 8e 86 d2 bb
       0.016794613 0.010646159 -0.028456094 -0.0064247316
000080 6c 29 e9 bc 16 49 80 bc ed 6f 91 bc 67 20 79 3b
       -0.028462134 -0.01565985 -0.017753566 0.0038013698
000090 62 4e 18 bb 1b 35 22 3c 37 39 0f bd 12 97 55 bc
       -0.002324008 0.009900357 -0.034966674 -0.013036506
0000a0 a6 d8 0f bc 13 f8 df 3c 47 23 47 bc 9e 74 e7 3c
       -0.00877968 0.02733997 -0.012154407 0.02825385
0000b0 da a3 19 3c 5d ad 07 3d da 08 21 bd 7d d1 c8 3c
       0.009377444 0.033124316 -0.039315082 0.024513954
0000c0 42 b5 77 bc 86 83 c6 bc 94 bc ec bc a8 a5 b0 3b
       -0.015118899 -0.024232637 -0.028898515 0.0053908415
0000d0 25 79 84 3c 72 12 4b bc 8b 41 b5 3b 33 6d 32 3c
       0.016171047 -0.012394534 0.005531495 0.010890293
0000e0 94 b6 26 bb 03 5c f6 bb 9b d8 c6 3c 4a 72 3e bd
       -0.0025438415 -0.007518293 0.024273207 -0.046495713
0000f0 fb 3c 4d bd cd c4 6c bc a3 e9 3b bd 2b 9d bf 3a
       -0.050106984 -0.014451218 -0.04587711 0.0014618983
000100 6f 2e 20 3d bb 02 f2 bc 86 d0 0c bd 20 90 70 3c
       0.039106783 -0.029542318 -0.03437855 0.0146828
000110 23 85 28 3d e6 2a 0b bd 32 49 07 3d 98 d7 86 bc
       0.041142594 -0.033976458 0.03302879 -0.016460225
000120 2d e5 ee bc ed a1 69 3c 89 b1 fb 3c 8f 69 c2 3b
       -0.029162014 0.0142597975 0.030724304 0.0059329937
000130 64 30 49 bc 91 fd 4c bc 21 bc 68 3b d7 58 f1 bc
       -0.012279604 -0.012511627 0.0035512524 -0.029461307
000140 3e 31 9c 3c ec 9a cc 3c 03 ea 0d 3b 95 a6 4f 3c
       0.01906645 0.024976216 0.0021654374 0.012673994
000150 52 0f fd 3b e9 5c 34 3c 65 01 35 3a c6 97 c3 3b
       0.0077227736 0.01100848 0.000690481 0.0059690205
000160 9d ec 4b bd 95 15 89 bb 39 63 25 3c 9f 93 35 bd
       -0.0497862 -0.004183481 0.010094457 -0.044330236
000170 12 cd 3c 3c 46 bd 39 bd 06 01 11 bd b5 ef 08 bd
       0.011523502 -0.04534652 -0.035401367 -0.033431727
000180 fa 96 30 bc 05 b5 bc 3c 9b ed 52 bb 26 c4 87 3c
       -0.010778183 0.023035536 -0.003218508 0.016573023
000190 2d 44 e0 bc c8 3d ad bc d4 17 15 bd 7b 0c a7 3c
       -0.027376259 -0.021147624 -0.036399677 0.020391693
0001a0 00 9d e4 bc 35 ec 16 bd 71 d7 c5 bc c6 34 17 bd
       -0.027906895 -0.03684636 -0.024150582 -0.036915563
0001b0 5b 13 bc bc 00 de 86 3c 80 11 60 3c c3 69 06 bd
       -0.022958448 0.01646328 0.013676047 -0.032815706
0001c0 09 ba 6d 3c ac 21 42 3c 09 6e 4b bb 28 7d 12 3d
       0.014509686 0.011848848 -0.0031040928 0.03576389
0001d0 c4 9f 24 3d 67 b9 e4 3c 86 84 5f bd 63 df 9a bb
       0.040191427 0.027920438 -0.054569744 -0.004726337
0001e0 f9 e6 58 bd a3 64 37 bd a8 cf 6c 3c b5 45 e7 3b
       -0.052954648 -0.04477371 0.014453806 0.0070578703
0001f0 e7 e7 00 bd 6f 91 aa ba 11 d0 e5 3c be f3 d9 bc
       -0.03147116 -0.0013013313 0.028053315 -0.026605483
000200 67 ab 05 3d b9 28 52 bc 1d 9a 0f 3d 41 5b 49 3c
       0.032634165 -0.012827092 0.035059083 0.012289823
000210 7b fd df 3c e0 8e 3b 3d bf e3 86 bc 58 a0 12 3d
       0.027342549 0.045790553 -0.01646602 0.035797447
000220 6e ba 33 3c f1 8e f9 bb a1 13 ac bc 7d f6 1f 3c
       0.010969741 -0.007615917 -0.021005454 0.009763357
000230 84 b1 a6 3c 38 8e 34 3d 66 56 a1 3c 14 24 eb 3c
       0.020348318 0.044080943 0.019694518 0.028703727
000240 26 09 26 bd 77 65 2d bd 44 72 fd ba f4 bb c9 bc
       -0.04053607 -0.042333093 -0.0019336422 -0.024625756
000250 5d f8 22 3c ef 94 83 bc d0 bc 0e 3d 7e 06 aa bc
       0.00994691 -0.016062228 0.034848034 -0.020755049
000260 5e 82 14 bc 84 5a 1b 3d 85 3c 20 bc 81 57 90 bc
       -0.009064285 0.03792812 -0.009780054 -0.01761985
000270 97 d7 0d 3d 74 1d 42 3d ef 94 88 3c fb a8 9c bc
       0.03462943 0.04739137 0.01667258 -0.019123545
000280 08 2d 66 bc ed a2 cb bc 59 ad 00 3c 71 cc 95 3a
       -0.014048822 -0.024857963 0.007853829 0.0011428726
000290 8b 75 83 ba 04 f2 ac bc b5 1f 2c 3d b1 95 bc bc
       -0.0010029537 -0.021111496 0.042022426 -0.023020597
0002a0 0d ee 1c bc 54 c2 4d 3d 0d 01 3e 3c 78 db 9c 3c
       -0.00957824 0.050234154 0.01159693 0.01914762
0002b0 8f 5e 2d 3d 0a d4 ca 3c 6b 72 4f bc 05 a6 fd ba
       0.042326506 0.024759311 -0.012661557 -0.0019351846
0002c0 34 ac 3b bc 6a a1 57 bd 65 94 b5 bc 23 51 1d bd
       -0.011454631 -0.05264417 -0.022165487 -0.038407456
0002d0 a3 d3 45 3d f1 fb b5 3c 07 1a b4 3c ad 12 ae 3c
       0.048297536 0.022214862 0.021985067 0.02124914
0002e0 e9 42 cd bc e2 5e c1 3b fe 5d a2 bd 19 9a c3 bc
       -0.02505632 0.0059012035 -0.07928084 -0.02387719
0002f0 28 29 59 bb 53 d0 db bc 37 96 2e bc 5b 33 5b 3b
       -0.0033136103 -0.026832735 -0.010655931 0.0033447358
000300 4b b0 ab bc 9e a8 e0 bc 06 55 bd bc 38 f3 f4 bc
       -0.020958086 -0.027424153 -0.023111831 -0.029901132
000310 d2 bf 95 3c 0b 05 d6 bb 4a db 52 3d de ff 62 bc
       0.018279944 -0.006531363 0.05147866 -0.013854949
000320 0d a2 30 3d 1b 8c 93 bc 0c 3a 35 bd 9d 4a 8c 3c
       0.043123294 -0.018011143 -0.04424481 0.017125422
000330 61 9b fd bc 54 4d 23 bd 64 26 12 bd a3 45 16 bd
       -0.03095788 -0.039868668 -0.035681143 -0.036687505
000340 79 0c 8f bc a1 60 9a 3b 26 61 95 ba 1d 30 fd 3b
       -0.017462002 0.004711226 -0.001139675 0.007726683
000350 84 f8 37 3c 06 6a e2 ba a1 f3 4d bc 78 51 33 bd
       0.011228684 -0.0017274029 -0.012570293 -0.043778867
000360 c2 94 7e 3c e9 04 3d bd 19 33 55 bc ce 8e f0 bb
       0.015538396 -0.04614726 -0.013012671 -0.0073412424
000370 58 a9 d7 3c db c6 0d bd 87 8a 4d bc d6 f6 b2 3c
       0.026325867 -0.03461347 -0.0125452345 0.021846216
000380 81 b4 73 3c 86 c5 c3 3c 30 46 1f 3d 38 2e 2c 3d
       0.014874578 0.023897897 0.038885295 0.042036265
000390 c3 63 d4 3c 57 c0 d1 3c f5 d1 75 bc c9 90 25 3d
       0.025926476 0.02560441 -0.015003671 0.04042128
0003a0 13 b2 19 bc dd 73 e7 3c e9 db 1a 3c a6 8a e1 bc
       -0.009380835 0.02825349 0.009451845 -0.027531933
0003b0 cf cc c1 bc b3 b9 7d bd 01 ad 6a bc d4 fc cf bc
       -0.02365723 -0.061944675 -0.014323474 -0.025389113
0003c0 53 9f 30 3c aa e7 8f 3c f4 f7 d5 3c 03 45 91 ba
       0.010780173 0.01756652 0.02611921 -0.0011083189
0003d0 84 2b 15 3d cf a0 ce bb 31 ef 6e bb 1a 12 97 bc
       0.036418453 -0.006305791 -0.0036458487 -0.018441249
0003e0 da dd 1d 3d 42 1e 3a 3b 55 35 6d bb cc a0 58 bc
       0.038541652 0.0028399383 -0.0036195118 -0.013221931
0003f0 97 6a 85 3c 5e 58 11 bc b3 97 ae 3c c4 99 2d bd
       0.016286178 -0.008871166 0.02131257 -0.04238297

conv2d_3.2.bias f4 [64]
000000 98 50 a9 3b c4 e8 8a 3c 4d 09 8d 3c b1 bb 90 3c
       0.005167078 0.016956694 0.017216349 0.017667623
000010 3d 00 42 3d 1e ae d6 bc 85 d0 06 bd bd ad 84 3c
       0.04736351 -0.026206072 -0.032913703 0.016196126
000020 0b 3a 79 bc a5 65 20 3d cd a9 a5 bc c4 40 d6 bb
       -0.015211592 0.039159436 -0.020222569 -0.0065384824
000030 24 62 1a 3d 04 f9 23 bc ae 52 db bc 5d 13 8a 3c
       0.03769125 -0.0100081 -0.026772823 0.016854936
000040 ee 94 14 bd 37 37 ff bc f2 c0 f1 bb 1f 21 6a bd
       -0.036274843 -0.031154258 -0.007377737 -0.057160493
000050 e8 18 0e bc e6 3c 9d 3c 45 c9 14 3d 72 bd e1 3b
       -0.00867293 0.019194078 0.036324758 0.0068890387
000060 b5 2d c4 3b f6 43 cb 3c 95 2d 4e 3c 67 01 a3 bc
       0.005986894 0.02481268 0.01258411 -0.01989813
000070 f6 fb 49 3c cc 64 5f 3b 01 80 e6 bc 2a 08 08 bd
       0.012328139 0.003408718 -0.028137209 -0.03321091
000080 2f 31 f2 ba 63 5e 7d bc f6 a9 f9 3c 6c 91 0c 3d
       -0.0018477793 -0.015464398 0.030476552 0.034318373
000090 bc 68 e4 bc 07 b6 f6 ba 2c e8 91 3c f1 61 06 3c
       -0.027881972 -0.0018822559 0.017810903 0.008202062
0000a0 52 73 2a bd 94 7e 0f bd c9 35 8a 3c 7b 38 13 3d
       -0.041613884 -0.035032824 0.01687135 0.035942536
0000b0 11 76 d1 3b dd 41 f0 bc fd 2a d4 bc 5b 39 cf bc
       0.0063922484 -0.029328281 -0.025899405 -0.025295904
0000c0 0d e7 89 3c f2 b8 8a 3c 49 00 74 bc f9 4c 12 3c
       0.016833806 0.016933892 -0.014892646 0.0089294845
0000d0 e7 f7 25 bd 68 d2 47 3c 3e 5d 17 bd 81 0d 3d bd
       -0.04051962 0.012196161 -0.036954157 -0.046155456
0000e0 d4 19 08 bd 3e da 15 3d f6 93 32 bb d5 f0 c0 3a
       -0.033227757 0.036585085 -0.0027248836 0.0014720211
0000f0 5f 5e 35 bd de f5 b4 bc e0 0f d8 bc e3 37 28 bd
       -0.044279452 -0.022089895 -0.026374757 -0.041068923
