models/model01_fluxandBtTXsteps20.pth (torch, 728018 bytes, 36 tensors)

conv2d_1.0.weight f4 [16, 1, 3, 3]
00000000: 56ba dc3c 8836 01be 967c 82bc d39a 42be
00000010: 4000 6d3d 569b 173d 480a 353e fb25 48be
00000020: 4c13 87be 6b38 753e 034d 5d3e bb22 4fbe
00000030: ce2e 24be 54a2 87be e0bd 3dbd 782c 553e
00000040: 83e7 473e 204d babd 7c51 aabe 22dc 0b3d
00000050: 6654 c8bd 777b 92be 0798 90be 3180 233d
00000060: 2248 a83e 8890 fbbd ca73 ce3d e523 6dbe
00000070: 5d2b 07be 498b 993d 4c9a bfbd dba7 5bbe
00000080: 7314 f13b df3c 78ba f5e2 22be 7a41 f13d
00000090: 3a7d a43e 1dee 3f3e 3e2f 063e 1f2a 81be
000000a0: 2740 9a3e 3cd5 103d 6f3d 9e3e 0966 3a3e
000000b0: dfd4 51be 79a6 0f3e 8e72 a9be 823f e3bb
000000c0: a0d5 2d3e 4f73 2a3d 970c 7dbe 0d12 113e
000000d0: 9bff a13e 15bf a5be cdb0 533d b677 183e
000000e0: 8d57 5c3e 21d5 a5be 3273 823d 3921 9ebc
000000f0: bcd5 c0bd e2ab 65be 7893 79be 8b98 703d
00000100: a0cb 463d 9f62 a2be 883a 43be 8008 55be
00000110: 7844 603e d64c 12bc a667 4b3e a0ae a3bd
00000120: c054 ebbd d0b9 fb3d 3e8c 40be 9e9f 223e
00000130: aba9 97bd 33e5 5e3e ea93 95be 162b 97bd
00000140: 00db 44bd eb95 a4be 2014 21bd 6bde e33d
00000150: e528 1a3e a0bd 93be ac45 653e 5fb5 dabd
00000160: 5224 173e 004e 99be 14fc a4be b371 853e
00000170: a0d3 af3e 97b7 983e ba7e 4dbc 2024 8e3e
00000180: 75c5 603d 3dd1 0bbe 006e 40be 1223 983d
00000190: c63a 17be aa88 973e 3165 2abb 454b 2fbe
000001a0: bcc1 8f3e fdbe 4cbd 54fc 763e 52c8 62be
000001b0: 3400 a4be 3089 6ebe f53a 873e 8e05 933e
000001c0: b3bf a13e 2c9e 2a3e d73d adbe 5277 87be
000001d0: 1835 a03e e937 acbe 2c43 453e b1b0 babd
000001e0: 9334 893d 29aa a13e 7d53 273e ca5e 7ebd
000001f0: 60f7 903e b5f7 9c3e a061 94bd 3018 b03d
00000200: 33d4 22be 0235 82be bcc0 85be bb92 45be
00000210: 4bdf 123e ce2f 7abe ef18 82be 5d8a 1d3d
00000220: 6fcc 88be 7086 273d d58c 0bbe 1d19 973e
00000230: 3b77 b4bd 3c8c 4f3d a2f8 9dbe e5fe 79bd
0.02694432 -0.12618458 -0.015928548 -0.19004373 0.057861567 0.037013374 0.17679703 -0.19545738
-0.2638191 0.23947303 0.21611409 -0.20228092 -0.1603348 -0.26491034 -0.046323657 0.20817745
0.19521908 -0.09096742 -0.33265293 0.034145482 -0.09781723 -0.2860982 -0.28240988 0.039917175
0.32867533 -0.122834265 0.10080679 -0.23158224 -0.13200136 0.0749727 -0.09355602 -0.2145075
0.007357174 -0.000946952 -0.1590689 0.11780067 0.3212679 0.18743177 0.13103959 -0.25227448
0.3012707 0.035359606 0.30906245 0.18202986 -0.2049136 0.14028348 -0.3309521 -0.006935061
0.16976023 0.041613873 -0.24711834 0.14167042 0.31640324 -0.32372347 0.051682282 0.14889416
0.21517773 -0.32389167 0.06369628 -0.019302951 -0.094157666 -0.2242885 -0.24372661 0.058739226
0.048534036 -0.31715867 -0.19065297 -0.20804024 0.21901119 -0.008929452 0.19863757 -0.079922915
-0.11490774 0.122913 -0.18803498 0.15881202 -0.074054085 0.2176712 -0.29214412 -0.07381265
-0.048060417 -0.32145628 -0.039325833 0.11126407 0.15054663 -0.2885561 0.22389859 -0.10679125
0.14759949 -0.29942322 -0.3222357 0.26063308 0.34341145 0.29827568 -0.012542421 0.27761936
0.05487581 -0.13654037 -0.18791962 0.07428564 -0.14768514 0.29596454 -0.0026000256 -0.17118557
0.28077495 -0.049986828 0.24119693 -0.22146729 -0.32031405 -0.2329452 0.26412168 0.28715175
0.31591567 0.166619 -0.33836243 -0.26458222 0.31290507 -0.33636406 0.19263905 -0.091157325
0.06699481 0.31575134 0.16340442 -0.062102117 0.28313732 0.30657735 -0.07245183 0.085983634
-0.1590126 -0.25431067 -0.26123607 -0.19294254 0.14342992 -0.24432299 -0.25409648 0.03846203
-0.2671847 0.040899694 -0.13627942 0.29511347 -0.08811804 0.050670847 -0.30853754 -0.061034102

conv2d_1.0.bias f4 [16]
00000000: 60a3 60be 7f42 8bbe 6c2c 583e 1dac 1c3d
00000010: 3674 0c3e cb1b 0dbe ce5e 8d3d cfd0 98be
00000020: b0da 2dbe abd3 d53d 4570 8dbe 82bb 813d
00000030: b125 9a3e 4951 423e 2e3c 9fbe 1055 a33d
-0.21937323 -0.2719917 0.21110696 0.038250078 0.13716206 -0.13780133 0.06902848 -0.29846808
-0.16977954 0.10440763 -0.27624717 0.063345924 0.3010688 0.1897632 -0.311006 0.07975209

conv2d_1.2.weight f4 [16, 16, 3, 3]
00000000: b8d2 713d ab36 d43a 8f62 983d b07b 73bd
00000010: d676 263b 5bc7 f53c ab09 943d 1bd3 1abd
00000020: 50bf 9bbc 5043 043d a065 0d3c 2603 9dbc
00000030: 8802 553d eb25 93bd ac1d 803d 00d2 57ba
00000040: 169e 5c3c 70e8 b83c 031a 87bc dbf7 24bd
00000050: abd5 41bd f82d 98bd 31cc 873d 93e3 e13c
00000060: cbbb 6dbc e8a2 9dbd 54e6 87bb e03c 623c
00000070: cdb0 933d 938e 843d 4e69 96bd 532a 27bd
00000080: 0a19 a2bd c6f9 5a3d 53ec 5b3d 7e6e 0a3d
00000090: a4e9 17bd c759 dc3c 980d 64bc d0f4 b1bc
000000a0: 51df 94bd 67aa f63c 9800 b5bc 41b2 88bd
000000b0: da73 643d b0d0 3d3d 258c 5bbd 9b1d d73c
000000c0: 7630 5e3d df15 b13d c67b ae3c 66cb 07bd
000000d0: 8b7d df3c 237c 4f3d 08c1 a1bd 3fb4 113b
000000e0: cafb 973d a758 81bc eba8 323d cc48 c13c
000000f0: 1a55 ec3c c48a 9c3d 8762 86bd abfc b4bc
00000100: 4ba5 4d3d a6c1 e33c 04d6 85bd fa4a aabd
00000110: 4b74 93bd 93f0 1cbd 6bcb 15bd eb26 56bc
00000120: fb0d 89bd ebb0 2c3c 6bb1 cdbc 8a21 843d
00000130: f086 d93c b653 9a3c 8641 1d3d ea0e 823d
00000140: 80d4 f5bb 9806 bc3c c117 cf3c 6064 9abd
00000150: 6b1c 82bd 8569 473d b34e 9bbd f0ff f33c
00000160: 24e1 173d 3d04 c8bc e86c 923d 0885 4a3d
00000170: ff18 8bbd 3927 09bc 82e2 45bd 5071 8d3c
00000180: d358 993d 5ab1 a73b 059d d13a b38f a5bd
00000190: 1429 acbb 75f7 feba 7b9a 393d 1eaa 503d
000001a0: 24cd 8dbc 2a21 663d a113 293c 0d68 e1ba
000001b0: de8a 0f3d cd0c b1bb f041 f5bc 804f 9d3d
000001c0: c5fc 423d d565 13bd bfe9 3e3d e8d5 93bc
000001d0: 7cac 58bd 866d 8e3c 94c8 91bd 75ae d53c
000001e0: ab7f 143d bc5e 25bc d6d3 5b3d 05cf 373d
000001f0: 05c1 2b3d 32db 99bd b32b 3f3d b635 0e3c
00000200: c8eb 3e3d ae80 0a3d b05e f93c e343 9f3d
00000210: 6f56 9b3d 308c 4c3d 5c79 86bd a870 2abd
00000220: e956 26bc d950 26bc b5c4 87bc 021b 973c
00000230: 3121 31bd ebf0 7dbd 81cf 543d 032f e0bc
00000240: 2e51 413d 8b89 243c bf44 96bd 3683 89bc
00000250: a3c8 42bd 8b58 263d d65c ff3c 40e9 653d
00000260: 7797 8ebd bb08 9e3c 905b a93c 2611 013d
00000270: abba 3bb9 56a5 b43b 1baa 203d e0da 613d
00000280: db46 393d 1a09 8d3d ced2 43bd 0560 d439
00000290: 1346 163d b92a 8fbd 8be5 f23c e72e 443c
000002a0: ec7a 80bc 9806 e03c e336 8b3d 1cb9 893d
000002b0: 2872 ecbc 9c08 88bc 056c 1ebb f1c5 29bd
000002c0: f016 4bbc 8e85 033d 12ba 6bbd 1842 ea3b
000002d0: 397b 28bd f0fe 69bd dfef a2bc 632a 9ebd
000002e0: 8adc 803d 9e63 adbd 092b 5bbd 8c32 8e3d
000002f0: 06dd 653d d74b 5fbd ac0d 203d 8082 ad3c
00000300: 68b4 a33d 2361 b4bd 26ce cebc 76df 30bd
00000310: 1f82 36bd 14b5 573d 00a6 98bd ce4a 5fbd
00000320: 470a 703d e3cd b4bc 5634 253d c11b 5bbd
00000330: 215b 1e3d 20fc a5bd e4b6 973c a64d a9bc
00000340: d8a1 3dbd 0670 5abd c339 0e3d 46d4 5c3d
00000350: 40a5 433c 736b 53bd bbce 98bc d63f c63c
00000360: f39f 48bd c6aa 62bd 2bdd 5e3d 2080 fc3c
00000370: 4b35 84bd 8240 91bd 2edc 6cbd 9b2a 51bd
00000380: 4b88 683c 1a65 94bc 2485 19bd f2b1 9c3d
00000390: 05a6 c93c ee12 45bc 7478 433d d163 693d
000003a0: 0381 9fbd 612a fd3c 3601 52bc 6e93 4dbd
000003b0: f89a 693d 70ed fa3b f77f 8c3d 5748 53bd
000003c0: 689b adbb a569 80bd 564d 9abc aff7 4abd
000003d0: 6f5b 5e3d 96c6 6e3d 4b28 86bd 0ed3 823d
000003e0: 8b41 97bd 1f8c 233d 2fcc 43bd b000 76bc
000003f0: fc58 053d 7adf fbbc c603 3fbd 7fa7 1a3d
0.059038848 0.0016190609 0.074406736 -0.05944413 0.0025400422 0.030002287 0.072284065 -0.037798982
-0.019012123 0.032290757 0.008630186 -0.01916654 0.052004367 -0.07184967 0.062556595 -0.00082328916
0.013465425 0.022571772 -0.016491896 -0.040275436 -0.04732291 -0.07430643 0.06630743 0.027574336
-0.014510105 -0.076970875 -0.0041473303 0.013808459 0.072114564 0.064725064 -0.07344304 -0.040811848
-0.07914932 0.05346086 0.053692173 0.03379678 -0.03708805 0.026898278 -0.013919257 -0.021723181
-0.07269157 0.030110551 -0.02209501 -0.06674624 0.055774547 0.046341598 -0.05360045 0.026259234
0.054245435 0.0864675 0.021299254 -0.03315296 0.027281543 0.050655495 -0.07898146 0.002223268
0.07421072 -0.015789343 0.043618124 0.023594283 0.028849173 0.07643655 -0.06561761 -0.022093138
0.050206464 0.0278023 -0.06534961 -0.08315082 -0.071999155 -0.038315367 -0.036570948 -0.013070802
-0.0669212 0.010540227 -0.025109014 0.064517096 0.026553601 0.018838745 0.038392566 0.06350501
-0.0075021386 0.022952363 0.025279881 -0.07538676 -0.063530765 0.048684616 -0.0758337 0.029785126
0.037079945 -0.024416083 0.071496785 0.049443275 -0.06791877 -0.008371168 -0.048311718 0.017265946
0.07487645 0.0051175775 0.001599223 -0.08084049 -0.0052539203 -0.001945241 0.04531334 0.050943486
-0.017309733 0.05618397 0.010319621 -0.0017197147 0.035044543 -0.0054031373 -0.029938668 0.07681179
0.04760434 -0.035985786 0.046609636 -0.018046334 -0.05289887 0.01738621 -0.07118335 0.026084164
0.036254566 -0.010093387 0.05366882 0.044875164 0.041932125 -0.07512511 0.046672534 0.008679798
0.046611577 0.033814125 0.030440658 0.0777662 0.07584845 0.04993838 -0.06566116 -0.041611344
-0.010152557 -0.0101511115 -0.01657329 0.018445496 -0.043244544 -0.061997335 0.051955704 -0.027366167
0.04719656 0.010042558 -0.07337331 -0.016786199 -0.047554623 0.040611785 0.031172197 0.056130648
-0.069624834 0.019291272 0.020673543 0.031510495 -0.00017903249 0.0055128736 0.039224725 0.055140376
0.04523359 0.068865016 -0.04780846 0.0004050733 0.03668792 -0.069905706 0.02965047 0.011974073
-0.015683614 0.027346894 0.06797578 0.0672476 -0.028863028 -0.016605668 -0.0024173271 -0.041448537
-0.012395605 0.03210979 -0.057550497 0.0071489923 -0.04113314 -0.057127893 -0.01988977 -0.077229284
0.062920645 -0.08466266 -0.05350784 0.06943235 0.056118988 -0.054515686 0.03907554 0.021180391
0.07993394 -0.0880759 -0.025244784 -0.04318186 -0.044557687 0.052662924 -0.07453537 -0.0545147
0.05860355 -0.02207083 0.040333115 -0.053493265 0.038661126 -0.0810473 0.018519826 -0.020666908
-0.046296924 -0.05332949 0.034723055 0.053913377 0.011941254 -0.051616143 -0.018653264 0.024200361
-0.048980664 -0.055338643 0.05441014 0.030822814 -0.06455477 -0.07092382 -0.057827167 -0.051066022
0.014192651 -0.018114615 -0.03748049 0.07651128 0.024615297 -0.012028439 0.047722295 0.056979958
-0.07788279 0.030903997 -0.0128176715 -0.050189428 0.057032555 0.0076576993 0.06860345 -0.05158266
-0.005298067 -0.0627015 -0.018835705 -0.049552616 0.054286417 0.058294855 -0.06550654 0.06387912
-0.07385548 0.03992855 -0.047802147 -0.015014812 0.032555565 -0.03074621 -0.046634458 0.037757393

conv2d_1.2.bias f4 [16]
00000000: 109d 8cbd 2361 10bd 7231 ac3b e1f0 993d
00000010: c291 31bd 73d0 a4bd d261 783d d889 8dbd
00000020: 20fd 50bd 782c 56bb d5aa a13d 075f 3b3d
00000030: 7114 b43b b38a 0bbd 9e4d a03d 8333 debc
-0.06865895 -0.035248887 0.005254918 0.07516647 -0.043351896 -0.08047571 0.060640164 -0.06911057
-0.05102265 -0.0032680314 0.07893912 0.045744922 0.005495601 -0.03406782 0.07827304 -0.027124172

conv2d_2.0.weight f4 [32, 16, 3, 3]
00000000: 9de0 7ebd 4abd d13c 88a4 d93b 21dd e83c
00000010: 852c 133d 8af5 87bc eb0d 223d f86a 0d3d
00000020: e2c8 fc3c c40a 00bd c027 f93c fa9c 933c
00000030: 6d9a 243c 9970 73bd 5e11 963c 88f2 6c3c
00000040: 0e5d 86bc 1e43 7c3d a56e c23c ae21 883d
00000050: f1b7 0cbd 1bdd 0cbd c0fb 81bd abc0 153c
00000060: abe7 34bd bbd3 983d 13e7 54bd 95c9 40bd
00000070: 0543 3c3d b027 62bd 2a7e 3cbd ddd7 9dbc
00000080: 20ef 903d 5275 90bc 7fa4 d7bc 3e3f 49bd
00000090: 3735 57bd 7dd2 5a3d c6c9 183c 7a63 833d
000000a0: e63f d5bb 269d 70bc 3320 0fbd acf8 543d
000000b0: a3d6 3b3d 5685 0d3b a2ea 91bd bb95 133d
000000c0: c3c9 993d 6bb2 00bd b3d8 8a3d 927d 97bd
000000d0: 909b bfbc c0c9 3a3d 2e0a 7c3d b9bd 36bc
000000e0: 6b62 a33d 900e 55bd fe6c 923d 1583 1b3c
000000f0: 8b82 a03c 882e e53c 8459 463d 53d5 a1bd
00000100: 5004 1f3d 2b66 1a3c 56f8 2c3d f086 4a3d
00000110: 3312 7dbd 20cf 5ebd f68f 60bd 3bff 543d
00000120: a055 4b3d af93 84bd 5649 8f3d b070 bcbc
00000130: 1806 35bd 5e85 993d 7ef0 38bd f382 673d
00000140: 5667 55ba 58b5 b8bc 98c8 8fbd 95f6 9abd
00000150: b56e 0dbd 87d9 51bc 167a 873c a17f 133d
00000160: a7d0 493c dcb1 653d 2ad3 353d 0e92 be3a
00000170: d02d 663d c4ae 0c3d 106f 4e3d 473f 19bd
00000180: 9148 663b 8767 9f3d 5526 a23b fece 9abd
00000190: 9d07 353d a5b0 1f3d 0b7a 7f3d cb97 643b
000001a0: 1a38 ffbc 7819 95bc dc10 cabc 7da3 943c
000001b0: 1532 b03b 79ec 8d3d fb67 a2bc 7cb2 fbbc
000001c0: b7d8 27bd 6541 893d 7019 49bb e8e1 a4bb
000001d0: 3d20 313d 0db9 68bd e807 8abd 77f9 223d
000001e0: 86fd 51bd 413f 833d b78f 7dbd 2d4b 72bd
000001f0: 409c 1b3d 1553 1abd 1859 99bd 4dbd e7bc
00000200: f121 6e3c 144c 333c 6281 273d b47e 013d
00000210: 6af5 b13c ebf5 80bc 38dc 5f3b 1333 67bd
00000220: 5968 9fbd 9ee7 823d 3c5f 9e3d 4f9c 18bb
00000230: 7c83 a23c e406 05bd 09c1 77bd 0f1b a0bd
00000240: 78fe 41bd f16f 0b3d dc65 47bc 7699 46bc
00000250: a2f8 af3d 69aa 8abd 7c9f dfbc ab08 bebd
00000260: 6339 653d 7c3c 97bd 94ff b53c e477 60bd
00000270: 3e01 26bd 90c5 bfbc 0923 663c adca 12bd
00000280: dffa 8abd 9d66 8b3d b789 f33c b663 a4bd
00000290: aaf8 293d 0502 d83c 8e76 3b3d efbc 3b3d
000002a0: ec1d 63bd 87e8 373d b115 93bd ca9a 6bbd
000002b0: fb5a d5bb 4448 3a3d 5445 20bc 6258 203d
000002c0: a3aa 6f3d 8b4f b63c 8836 5ebd 29ff bfbc
000002d0: 8f12 363d 5734 183c a4a7 fa3b 0abf 2c3c
000002e0: 1270 883d 22a3 72bd b4e9 89bd 2171 c43c
000002f0: b1bb f4bb cbc3 30bd f8d4 0e3d 33d6 353d
00000300: a070 233c abef 18bc 1308 30bd 4078 413d
00000310: 4b03 16bd 56e8 843c 2caf 783d 5469 08bc
00000320: 6d92 3f3d 7169 323d 16cf af3c dc8b 30bd
00000330: e648 6ebd cb2e c1bc 8c91 353c 9622 5bbc
00000340: 20f3 4abc 5b6a 90bc 236e 7d3d 8069 053c
00000350: 38da 483d 7b45 99bd 66f2 9f3c 9b21 463d
00000360: bb3f 81bd 6e40 9cbd 1b9b 093d 168c 683d
00000370: 7b32 8c3d 561c 79bc bbb4 e43c 6843 77bd
00000380: c82a 88bd f3f4 883c 91b9 30bd 8c17 3b3d
00000390: 8b6e 583b f1b3 ff3c 549b 863d 9fe7 86bc
000003a0: 083b a53c e209 9bbd 716d f3ba 5507 e23b
000003b0: 65c3 803d 6816 3e3d a3d2 6dbc 0d96 57bd
000003c0: f6ce f6bc 9759 60bd a0e8 7b3c 6620 0fbd
000003d0: 5344 953d 7752 453d d7c3 81bb 725f 07bd
000003e0: 8694 75bc ce4e 4dba 85ee 513b b75c f1bc
000003f0: b44a 51bd 6719 a93b b253 85bd cfce 1c3d
-0.062225927 0.025602955 0.006641928 0.028425755 0.03593113 -0.016596574 0.039564054 0.03452584
0.030857507 -0.031260267 0.030414462 0.018019188 0.010046584 -0.059433553 0.018318828 0.014462121
-0.016401794 0.061587445 0.0237344 0.06647049 -0.034355108 -0.03439055 -0.063468456 0.009140174
-0.04416625 0.074622594 -0.051978182 -0.047067244 0.045962352 -0.05521363 -0.046018757 -0.01926797
0.070768595 -0.017634068 -0.026323555 -0.049132578 -0.052540984 0.053423394 0.00932545 0.06415458
-0.0065078614 -0.014685905 -0.034942817 0.051994964 0.04585899 0.0021594367 -0.07124831 0.036031466
0.07509186 -0.031420153 0.06779613 -0.073969975 -0.023389608 0.04560256 0.061533146 -0.011153632
0.07977756 -0.05201584 0.07149695 0.009491702 0.019593498 0.02797629 0.048425213 -0.079020165
0.038822472 0.009423773 0.04222902 0.049445093 -0.061784934 -0.05439675 -0.05482479 0.05200122
0.049642205 -0.06473481 0.069964096 -0.023002952 -0.044195265 0.07496141 -0.045151226 0.056521367
-0.00081407034 -0.022547409 -0.07020682 -0.07566563 -0.034529407 -0.01280821 0.016537707 0.03601039
0.012317813 0.056077823 0.044390835 0.0014539377 0.056196034 0.034346357 0.050398886 -0.03741386
0.0035138468 0.07783418 0.004948417 -0.07559012 0.044196714 0.03898682 0.06237225 0.0034880515
-0.031154681 -0.018200621 -0.024666242 0.018144364 0.005377064 0.06929869 -0.019824972 -0.030724756
-0.04097816 0.06701926 -0.0030685328 -0.005031813 0.043243635 -0.056817103 -0.06739789 0.03978869
-0.05126717 0.06408549 -0.061904635 -0.059153724 0.03799081 -0.03767689 -0.074876964 -0.028288508
0.014534459 0.010943431 0.040894873 0.031614974 0.021723468 -0.015742263 0.003415836 -0.056445193
-0.077835746 0.06391834 0.07733008 -0.0023286527 0.019838087 -0.032477275 -0.060486827 -0.07817661
-0.04736182 0.034042303 -0.012170281 -0.012121549 0.08592345 -0.067707844 -0.027297728 -0.09278997
0.05596293 -0.07384583 0.022216596 -0.054801837 -0.04052853 -0.023409635 0.014046439 -0.035837818
-0.06786131 0.06806681 0.029728753 -0.08026831 0.04149691 0.02636815 0.04576736 0.045834478
-0.055448458 0.04489949 -0.07181872 -0.057520665 -0.00651109 0.045479074 -0.009782154 0.03914679
0.05851234 0.022254726 -0.054251224 -0.0234371 0.044451293 0.009289823 0.007649379 0.010543594
0.06662001 -0.059237607 -0.067340285 0.023979725 -0.0074686636 -0.043155473 0.03487107 0.04439373
0.009975582 -0.009334485 -0.04297645 0.04723382 -0.036624234 0.016224068 0.060713932 -0.008325893
0.046770502 0.043557588 0.021461051 -0.04310213 -0.05817499 -0.023581883 0.011082064 -0.013374945
-0.012387067 -0.01762884 0.061872613 0.008142829 0.049036235 -0.074839555 0.019524764 0.048371892
-0.06310984 -0.076294765 0.033595186 0.05677422 0.06845566 -0.01520451 0.02791821 -0.060367018
-0.06648785 0.016718363 -0.04314572 0.045676753 0.0033024873 0.031213732 0.06572595 -0.016467867
0.02016975 -0.07570244 -0.0018572045 0.0068978467 0.062872685 0.046408087 -0.014515552 -0.052633334
-0.030127984 -0.05477294 0.015375286 -0.034943007 0.072884224 0.048174348 -0.0039601135 -0.033050008
-0.014989024 -0.0007831872 0.0032033038 -0.029463155 -0.051096633 0.005160499 -0.06510104 0.038283166

conv2d_2.0.bias f4 [32]
00000000: 6694 103d fdc9 cebc 6f88 023b 234a 9abd
00000010: d37c 81bd 63e3 0fbb 9913 923d 55c6 163c
00000020: 5915 a53d f0fa 31bd 8147 133d 11e0 963d
00000030: 164c 8a3d bb95 533c c8bf 67bd 50f8 893c
00000040: 6496 7f3d e65a 873c 571c 363d 6682 a7bd
00000050: 3ae2 82bc 9415 6e3c 2ecf 593d fbef 0a3d
00000060: 4b6c 24bd 1228 a23c 9ce2 19bd 18ed 27bd
00000070: 1021 58bd a7e1 57bd b8ae e4bc b6ba 1bbd
0.035297774 -0.0252428 0.0019917747 -0.07533672 -0.063226365 -0.0021955601 0.07132644 0.0092025595
0.08060712 -0.043452203 0.035956863 0.07366956 0.067527935 0.0129141165 -0.05657938 0.016842037
0.062399283 0.016522836 0.04446062 -0.081791684 -0.015977014 0.014531512 0.053176098 0.03392027
-0.04014234 0.019794498 -0.037569627 -0.040997595 -0.052765906 -0.052705433 -0.027915344 -0.03801986

conv2d_2.2.weight f4 [32, 32, 3, 3]
00000000: 8fce e6bc 2de3 01bd 780e 26bd 23c8 40bd
00000010: 6320 07bd 38a1 433d 3fbe b9bc 1ef4 11bd
00000020: 070e be3c 3aa9 0a3d eff4 60bd 0ce5 063d
00000030: bfee 6dbd b933 44bd 1d0b 13bd 7a86 353d
00000040: 3666 c3bb 4147 5b3d c83e d63c 7039 d53c
00000050: 17d2 053d f3e1 cf3b 88d3 36bd 5b82 1abd
00000060: 8c48 e4bc b1ee ad3c cb0b 54bb cb1a 45bd
00000070: e774 e2bc 249e 4c3c 08fc 37bd d1d1 f2bb
00000080: 15af eabc 6229 cabc e70f e9bb 5d20 2dbc
00000090: 8d7c ff3b d45e c4bc 4490 1dbd c167 bd3c
000000a0: df00 afbb 1e0b 9e3c 207c c1bc 2251 4a3d
000000b0: b376 e93c 11f8 4cbd 0f4b 5fbd 67ba 5a3d
000000c0: 18f3 673d 4a12 4e3d b8c4 c13b 4a30 433d
000000d0: 263c 5bbd 640c c4bc 1484 903c 5985 3dbd
000000e0: bb89 41bd ea25 f13b 81db 51bd 2eda c33c
000000f0: 38a6 ed3c a4e6 a4bb a7e8 8abd 81ef 67bc
00000100: 5749 1cbc 1fb6 6b3d 4a06 4ebd 7463 6a3c
00000110: d4fb 22bd 6e6e 463d 65ce 563d 8653 c33c
00000120: 59da 31bd ea99 54bd 6dd1 c23b 9ce8 84bd
00000130: 0014 403d 566c 49bd 1157 8c3b 0ca8 58bd
00000140: 2732 57bd b981 d7bc fc14 153d 50f0 4a3d
00000150: 8209 87ba 95b2 3c3d 22d0 623c 62a5 c73c
00000160: 7ed2 2cbd 4594 543d 2239 7cbd 4f12 973c
00000170: 8243 3cbd 174f 743c 2162 b13c 81da 78bd
00000180: 5ec6 243d 6d5c 4b3c 084d 443d 1391 5bbd
00000190: 757f 55bd 8c74 1bbd af05 f7bc 8ca6 833a
000001a0: 4698 90bb f6ba 82bd e465 04bd 4b7a 77bc
000001b0: c829 44bc 690e 3dbd b603 10bd e8f7 763b
000001c0: 0fb8 1bbd 746a 33bd c333 dfbb fe08 89bd
000001d0: f5f1 aa3b 3824 e63c d675 05bb 7105 36bc
000001e0: d791 223d 443a 23bd 6aba cd3b 3041 04bd
000001f0: 2e9b 38bd c4a9 44bd 0778 cfbb 36fa 5e3d
00000200: a214 6ebd 6714 573b 753c 18bc f999 7abc
00000210: 77af 5b3d d24d c03c 8d1d 58bd d15b ceb9
00000220: 3041 3b3d 13a5 fbbc 4cb7 14bd bd8f 89bd
00000230: b113 fe3b 41ba bdbb ab53 cbbc be96 a3bc
00000240: 4dce e33c 5b53 d1bc afba 7dbd c3d2 943c
00000250: 95b2 d73c 8799 51bd 6cf2 a7bc c7fa 43bd
00000260: ab19 1cbd 0ba4 6abd c04b 113d 1030 0f3c
00000270: 8051 293d fe05 873b b421 14bd efb5 2e3d
00000280: 1785 77bd b8ac 70bc 2b4e 68bd abd7 7ebc
00000290: 658f 0abd f6f3 b13c fb6d 0f3c 55db 973c
000002a0: c19f f6bc c223 2d3d 867e 763b 5c4f ed3c
000002b0: 1dad 1c3d 4127 f13c b7a0 5cbd 80c0 5abc
000002c0: 2f28 05bd e68d 50bd 384e 643d 08f0 a6bc
000002d0: f785 393d 9a90 4cbd 7de7 08bd 41bf b4bc
000002e0: bee3 d53c e7b2 613c 1bdc f5bc 163c 5d3b
000002f0: 7029 9bbc 6582 eb3c dae5 02bd 11bc 0abd
00000300: 144f 863b 5f00 66bd e505 aabc 0bde 5dbd
00000310: 6940 24bd 19be 91bb 92ef 17bc 1261 89bc
00000320: a53f 82bc c7d3 543c d96f f43c 3d99 ba3c
00000330: d5b9 5bbd a97c 7a3c 668d 203b a2d3 50bd
00000340: 937f 1e3d 37bf e5bc bdce 64bd d23b 89bd
00000350: 3b7b 80bc b3f1 38bd f713 18bd 1f24 04bd
00000360: b1d3 bdbc 88ad b33a 6216 573d dfa7 87bc
00000370: 2c72 a9bc 8f1b 1fbd ed04 fcbc fd0b 5dbb
00000380: b2a9 223c e7bb 823c 996c 39bd 3516 c13b
00000390: 6f11 453d 74c4 143d b0cf 323d 49e7 af3c
000003a0: 026c 023d 0fff 3abd aab5 34bd 3665 29bd
000003b0: fdaa 1a3d fdfa b23c e95c 2e3d a5cf 863b
000003c0: 9e8c 70bd c157 92bc 95f1 393d b442 b43c
000003d0: 1727 573d 651f 493d 13c8 edbb 9946 ca3c
000003e0: 48fd 3d3c 9da8 df3c 0f11 54bd d675 91bc
000003f0: 9d6f 71bc d331 b6bb 7c0c ce3c 2990 423d
-0.028174667 -0.031710792 -0.040541142 -0.047065865 -0.03298987 0.047761172 -0.022673724 -0.0356332
0.023200048 0.033852793 -0.054921087 0.03293328 -0.058089014 -0.04790089 -0.03589927 0.0443177
-0.005963112 0.05353475 0.026152983 0.026028365 0.03267106 0.006344074 -0.044635326 -0.037721973
-0.027866624 0.021231981 -0.0032355662 -0.048121255 -0.027643634 0.012488876 -0.04491809 -0.007410266
-0.028647939 -0.024677936 -0.0071124914 -0.010566798 0.00779683 -0.023970999 -0.03846766 0.023120763
-0.00534068 0.01929241 -0.023618758 0.04939378 0.028498983 -0.050041262 -0.05451494 0.053400423
0.056628317 0.05031041 0.0059133433 0.047653474 -0.05352416 -0.02393169 0.017641105 -0.04626975
-0.04725049 0.007359256 -0.051234726 0.023907747 0.029009923 -0.0050323773 -0.06782656 -0.014156223
-0.00953897 0.05754673 -0.050298966 0.014305938 -0.039790943 0.048445158 0.052442927 0.023843538
-0.043421123 -0.051904596 0.0059453757 -0.06489679 0.046894073 -0.049175583 0.00428284 -0.052894637
-0.052538063 -0.026306974 0.036396965 0.049545586 -0.0010302516 0.046068747 0.013843568 0.024370853
-0.04219293 0.051899213 -0.061577924 0.018441347 -0.045962818 0.014911435 0.021653237 -0.060755257
0.04022824 0.012412173 0.047925025 -0.05360515 -0.052123506 -0.037952945 -0.030154077 0.0010044142
-0.0044126837 -0.06383316 -0.032323733 -0.0151048405 -0.011972852 -0.04615632 -0.03515979 0.0037684385
-0.03801733 -0.043802693 -0.0068115904 -0.06691168 0.005216832 0.028093442 -0.0020364425 -0.011109696
0.039689865 -0.03985049 0.006278326 -0.03228873 -0.045069866 -0.048013464 -0.006331447 0.05443784
-0.058125146 0.0032818557 -0.009291758 -0.015295499 0.053634133 0.023474608 -0.052762557 -0.0003935979
0.045716465 -0.030718362 -0.036307618 -0.06716869 0.0077538122 -0.0057900255 -0.02482017 -0.01996934
0.027808333 -0.025552442 -0.061945613 0.018166905 0.026330272 -0.051171806 -0.020501338 -0.04784658
-0.038110416 -0.05728535 0.03547263 0.008739486 0.04133749 0.0041205874 -0.036164954 0.042653974
-0.06042966 -0.014689617 -0.05671517 -0.015554349 -0.033828158 0.021722775 0.008754249 0.018537203
-0.030105473 0.04227043 0.0037612035 0.028968506 0.03825103 0.029437663 -0.053864207 -0.01335156
-0.032509025 -0.050916575 0.055738658 -0.020378128 0.045293774 -0.04994259 -0.03342389 -0.022063853
0.026109572 0.013775564 -0.030012181 0.0033757738 -0.018940657 0.0287487 -0.031957485 -0.03387076
0.0040987823 -0.056152698 -0.020754764 -0.054166835 -0.04010049 -0.0044477102 -0.009273427 -0.01676992
-0.015899489 0.012989945 0.02983849 0.022778148 -0.05364402 0.01528851 0.0024498343 -0.05098308
0.038695883 -0.02804528 -0.055861223 -0.06700863 -0.01568376 -0.045152377 -0.037128415 -0.03226101
-0.023172231 0.0013708333 0.05251158 -0.01655954 -0.020684324 -0.03884464 -0.030764068 -0.003372907
0.009928154 0.01595874 -0.045269582 0.00589254 0.04811233 0.036320165 0.043655097 0.02147259
0.031841286 -0.0456534 -0.04411856 -0.041356288 0.037760723 0.021848196 0.042569075 0.0041141086
-0.058727853 -0.01786411 0.045396406 0.022004463 0.052527513 0.049102206 -0.0072565167 0.024691867
0.0115960315 0.02730208 -0.05177408 -0.017756384 -0.014736083 -0.0055601387 0.025152437 0.047500763

conv2d_2.2.bias f4 [32]
00000000: 4762 213d 06cd 173d 3d1c 45bb f7f0 d03b
00000010: ffc0 d63c 8b2d e93c 2a19 63bd 9e6a 223d
00000020: f1a5 16bd a3f6 1ebd 061c 26bc d4c9 65bd
00000030: 283b 933c cae2 cabc 0af7 d2bc f731 37bd
00000040: 6a32 b7bc 930f f33c 4142 9cbc 16d2 2a3d
00000050: 33ae 49bd f75a a0bc 945c a9bc f7b4 e6bc
00000060: da30 bebc afa6 b6bb bed1 5e3d d22f 23bd
00000070: ab05 23bd b920 833c f70a fb3c 6f21 ec3b
0.039400365 0.03706076 -0.0030076646 0.0063763815 0.026215075 0.0284641 -0.05544392 0.03965246
-0.036779348 -0.03880943 -0.010138517 -0.05610068 0.017972544 -0.024766345 -0.025752563 -0.044725385
-0.022362906 0.029670512 -0.019074561 0.04170426 -0.049238395 -0.019574625 -0.020674028 -0.028162463
-0.023216654 -0.0055740695 0.054399244 -0.039840527 -0.039800327 0.016006814 0.030644877 0.007206134

conv2d_3.0.weight f4 [64, 32, 3, 3]
00000000: 7e69 cabb 1208 6bbd ca26 403d dcde 6abd
00000010: e276 ecbb b567 61bd 3df9 babb bfa9 363d
00000020: 703c 593d 8866 083d 43f0 b2bc a3b6 a5bb
00000030: e64b cbbc 9ef4 283d 30a7 05bc 666f 533d
00000040: 9925 59bd 0cfa 033d d582 243d 7df7 99bb
00000050: 1393 39bd f893 1d3c 5004 b3bc 9859 1b3d
00000060: c74f cc3c 6b36 0fbd a4fd 3dbd 06c2 913a
00000070: 1dbc aabc 51ed 8fbc e683 b2bc 3f32 91ba
00000080: 7d73 40bd 6825 bebc 4ace 37bd f034 6cbd
00000090: baa8 773b f5ea 433d d000 af3b b434 5cbd
000000a0: c34f 493d 84c6 c83c 8823 83bc bc43 193d
000000b0: 5a21 4abd b14f 3cbd 34c9 6a3d 0921 4a3d
000000c0: 93b7 8ebc e510 eb3c 77bf bd3c 068c b63c
000000d0: 69df 163d 192a d53c a94a 51bb c4cf 173b
000000e0: 6e43 ccbb 4176 e7bc 36fe 0abd 1794 643d
000000f0: c0a0 8c3c 8a5f 3fbd 2d26 e9ba 4ffb 263d
00000100: fd3b 2e3d 71ff b4bc b18b 553c 4fbf e1bc
00000110: 949e 21bd 7c78 2d3d 6a7b 163b 1ff4 3f3c
00000120: 80f5 403d 3cd4 983c 36e9 3bbd ce10 443d
00000130: 9ce7 523c f4dd 5d3d ef84 6ebd 9595 35bc
00000140: e220 8dbc 115b 28bd 6f03 5c3d cf07 51bd
00000150: 9ba3 38bd f2ce 693d 04fb 77bc d8df 05bd
00000160: 9ae3 55bd ab49 64bc a4e0 f4bc 07c9 1b3c
00000170: 458b 00bd 245a 11bc 8b7e d0bc 1f20 01bc
00000180: 0a7d 50bd 9879 433c 339c 053c 0039 94bb
00000190: 232f 0a3d 905b bf3c 61f7 eabc e535 8fbc
000001a0: c48a 0dbd 5b27 27bd 5fae 90bc 03f1 43bd
000001b0: 1eae 323c 1833 b73b c50e 5fbd e7bc bdbc
000001c0: 5682 c0bb 7f61 b0bc acea 01bd e27f bcbc
000001d0: 2174 2fbb d56d 24bb c197 5abd 5c8d 223d
000001e0: 157a e63c e3c1 583d 70a4 313d f2e4 00bd
000001f0: 44b5 2bbc 68bf 123d 2a6d 0dbd d757 5c3d
00000200: e2ca 51bc 970c 25bd 216e 52bd 9e5f 48bd
00000210: 7458 1bbd 8298 66bd e300 ee3c 4513 013d
00000220: e22a 203b 6c57 94bc 7461 ccbc 63eb 63bc
00000230: 7fee 63bd bb6b 663c e5c4 06bd 6d3b 43bd
00000240: 26c3 58bd 3acd a23b 9fb5 1b3d 2c41 993c
00000250: bdf8 263d 4ca2 d93b a8c0 d03b 38d3 51bc
00000260: c7b0 2abd e06d 1cbc 76d7 61bd 5564 67bd
00000270: 22be 10bd 396c fdbc e6ce 39bc a7b7 823c
00000280: 7141 293c 08dd 933c 01c4 02bd 4fd1 e8bc
00000290: b60c 65bd 3809 f9ba 783d f83c 766e 183d
000002a0: e0cc 15bc cb0c 38bd fb92 683b 9feb 43bd
000002b0: e026 debc e13c 3cbd b47b 1ebd 90b6 553d
000002c0: 2350 dd3c 0c63 b13c db07 05bc 453c e73c
000002d0: 03eb c43c 33fa cb3c 3474 5f3c 20f8 28bd
000002e0: aaf6 47bd 6b9b 52bc bb48 f4bc 9785 6fbb
000002f0: 72e6 863c 0ade 16bd b95d 2fbd 22bc 72bc
00000300: a9f5 92bc 2e0c 29bd 16a9 343c 9064 9bbc
00000310: 41f7 51bd d52d 4bba 917d a5bc 5edb 333d
00000320: e58b 46bd 8b75 2ebc e77c 35bd db31 523c
00000330: 2a7f 1d3d 5969 cbbc d911 083b 0869 acbc
00000340: 7013 e8bc 92b9 2abd 440f 56bd 7193 6abd
00000350: b24c 8c3c b229 9c3a 0597 f73c d645 fe3c
00000360: 29e5 263d 81e2 9ebc 465b a6bb 2b89 4b3c
00000370: a3a4 5dbd c3cf d33c f980 3cbb 6a21 3abd
00000380: c013 c0bc c7ee 06bd d4f3 dcbc 4a06 a63c
00000390: 9aab 393d e9b4 90bb 7474 013d afd0 d0bb
000003a0: 8167 043d c8e7 333d 9696 ed3c 8356 893c
000003b0: 8e9b 64bd 0147 0abd 985f caba 564a 6d3c
000003c0: df25 03bc 6e5a 31bd 570d 9cbc 60e3 13bd
000003d0: ccc9 6fbc 4729 6d3d 6111 643d 5f59 3abc
000003e0: 8ebb 893c a507 03bc 08e2 693c c576 453c
000003f0: 5595 49bd bc45 a53b dd74 533d 596f 47bd
-0.0061771264 -0.057380743 0.046911992 -0.05734144 -0.0072163204 -0.055030543 -0.005705981 0.044595476
0.053036153 0.033300906 -0.021843081 -0.0050571724 -0.024816465 0.04124891 -0.008157536 0.05161991
-0.05301437 0.032220885 0.040163834 -0.0046986924 -0.045306277 0.009617798 -0.021852642 0.03792724
0.024940385 -0.034964006 -0.04638447 0.0011120446 -0.020841653 -0.017569216 -0.02179141 -0.0011077597
-0.04698514 -0.023211196 -0.044874467 -0.057667673 0.0037789778 0.047831494 0.005340673 -0.0537612
0.049148332 0.024508722 -0.016008154 0.037418112 -0.049348213 -0.045974437 0.05732079 0.04934791
-0.01742152 0.02869458 0.023162587 0.022283565 0.036834154 0.02602105 -0.003193537 0.002316461
-0.006233624 -0.02825463 -0.03393384 0.055805292 0.017166495 -0.046721973 -0.0017787867 0.04076701
0.042537678 -0.02209446 0.013033793 -0.027557043 -0.039457873 0.04235123 0.0022961744 0.011715918
0.047109127 0.018655889 -0.045876704 0.04786759 0.012872603 0.05416675 -0.058232244 -0.011083026
-0.017227594 -0.041102473 0.053714212 -0.051032837 -0.0450779 0.057082124 -0.01513553 -0.032684177
-0.05221901 -0.013933579 -0.029892273 0.009508378 -0.031382818 -0.008871589 -0.025450965 -0.007881193
-0.050900497 0.011930846 0.008154917 -0.0045233965 0.03373636 0.02335909 -0.028682413 -0.017481754
-0.034556165 -0.040809017 -0.017661272 -0.04783727 0.010905771 0.0055908076 -0.054457445 -0.023161365
-0.0058749123 -0.021530865 -0.03171794 -0.023010198 -0.00267721 -0.002508988 -0.05336738 0.039685592
0.028134385 0.05291928 0.04336971 -0.03146834 -0.010480229 0.03582707 -0.034527935 0.053794708
-0.012804719 -0.04029521 -0.05137456 -0.048919313 -0.037926152 -0.056297787 0.029053157 0.031512517
0.0024439623 -0.018108092 -0.024948813 -0.013911101 -0.05564737 0.014063771 -0.032902617 -0.047664095
-0.052920483 0.0049683126 0.038015004 0.018707834 0.04076456 0.0066416617 0.0063706227 -0.012806706
-0.041672494 -0.009547681 -0.05513712 -0.05649217 -0.035337575 -0.030935394 -0.011340832 0.015956713
0.010330544 0.018049732 -0.031925205 -0.028420119 -0.055920325 -0.001899994 0.030302748 0.03721472
-0.009143084 -0.044934075 0.0035487998 -0.047832128 -0.027118146 -0.045956496 -0.03869219 0.05217606
0.027015751 0.021653675 -0.008119549 0.028226981 0.024037844 0.024899578 0.013638545 -0.041252255
-0.04881922 -0.012854437 -0.029819837 -0.0036548132 0.016467307 -0.036832847 -0.04281399 -0.014815362
-0.017939406 -0.04127138 0.011026641 -0.01896885 -0.05126119 -0.0007750665 -0.020201476 0.043910377
-0.048473258 -0.010648142 -0.04430857 0.012829269 0.03845135 -0.024830507 0.002076259 -0.021046177
-0.028329581 -0.04168088 -0.052260652 -0.057269517 0.017126415 0.0011914282 0.030223379 0.03103916
0.040745888 -0.019395115 -0.0050767986 0.01242284 -0.054112088 0.025855904 -0.0028763397 -0.045442022
-0.023446918 -0.03294256 -0.026971735 0.02026667 0.045329668 -0.0044160974 0.0316052 -0.0063725333
0.03232527 0.043922216 0.029002469 0.016764885 -0.05581241 -0.03375912 -0.0015439866 0.014483055
-0.008004635 -0.04329913 -0.01904933 -0.036105514 -0.0146355145 0.057900693 0.055680636 -0.011373847
0.016813066 -0.007997428 0.014275081 0.012052243 -0.04921468 0.0050437134 0.05162512 -0.048690174

conv2d_3.0.bias f4 [64]
00000000: 9160 75bc ba78 c63c 102a 37bd 32fd 23bd
00000010: d2a6 f4b9 6667 033d e417 21bd edf5 da3c
00000020: 6a44 4ebd 9bc5 ee3c b536 13bd 8a45 1cbd
00000030: 07a0 46bd ae2e 97bc fe5c b6bb fe69 78bc
00000040: 9d3c 17bc 8b96 343d aa1c 1a3d c096 4e3c
00000050: 692e be3c 6a18 093d 6664 75bc a506 45bd
00000060: c7cf 3a3d 74cb 353d 42df 29bd 65c8 e23a
00000070: 2e1f 313d e224 313d f59c f0bc 35dd 54bd
00000080: 48d1 a6bc 93b4 e8bc 1cf8 39bd c752 283d
00000090: 9baf 2abc c50b 283d 039a 563d bc82 f3b9
000000a0: 6d7c 1fbd 95cc 1a3d 51ac 44bd 3dea 5c3a
000000b0: 37a6 023d d8d2 463d 8283 a03c 62c8 3bbc
000000c0: 2826 4d3d d975 06bd 6c5d ce3c e3c1 e03c
000000d0: ebf4 443d 1a41 dbbc 5d07 bbbc 267f 17bd
000000e0: 4c5d 60bd 41c4 1f3d 6b45 dc3c 56ea 9abc
000000f0: 2fa4 143d 7025 1f3d bab8 d4ba d851 1abd
-0.0149766365 0.024227489 -0.04471785 -0.040036388 -0.00046663597 0.03208103 -0.039329425 0.026728595
-0.050358213 0.02914696 -0.035940845 -0.038152255 -0.048492458 -0.018454876 -0.0055652848 -0.015161989
-0.00923076 0.04408888 0.037624992 0.012609184 0.02321549 0.03347055 -0.01497755 -0.04810204
0.04560831 0.04438348 -0.04147268 0.0017302154 0.043242626 0.043248065 -0.029371718 -0.051968772
-0.020363465 -0.028406417 -0.04540263 0.041094568 -0.010417844 0.04102685 0.05239297 -0.00046445976
-0.03893702 0.03779276 -0.048015896 0.0008427238 0.031896796 0.04854092 0.019593958 -0.011461349
0.050085217 -0.032827232 0.025191031 0.027436202 0.048085134 -0.026764441 -0.02283066 -0.036986493
-0.054776475 0.03900552 0.02688857 -0.018910568 0.03628939 0.038854063 -0.0016229369 -0.03767571

conv2d_3.2.weight f4 [64, 64, 3, 3]
00000000: 3866 0d3d 9b86 753c a6e6 1cbd 8eae 1bbd
00000010: e6be db3c 03b9 07bd 7a45 1cbd ef88 093d
00000020: 2ad6 1b3d 9404 01bc 1305 cebc 7f41 eabc
00000030: ff75 253c d956 143d e611 1d3c a2a5 0a3d
00000040: 608b 32bd 62c0 37bd 8039 103b cb10 b63c
00000050: 10fe f6bc 3b1c d93c ab5b b13c bba0 d03c
00000060: a6f7 1cbd 8b39 943c fee2 08bd eb18 803b
00000070: 5043 da3c 807d 45bc cee8 033d 56c5 4439
00000080: 7096 8abc af04 0bbd 1b73 8d3c a8dc a5bc
00000090: 88e9 f43b 6670 82bb 4290 80bc 61de 7e3c
000000a0: 5a4f d7bc 5fd5 47bb aeb9 91bc a8c0 ebbc
000000b0: 727b 0abc f9fb 5bbc 6ece ccbb 7625 bebb
000000c0: 58aa f63c cb26 9bbc 764f 16bc 37cb 4c3c
000000d0: 5c7b 953c 2b46 18bd d6cd 34bc 03a0 89bc
000000e0: 5617 b5bc 5b05 0dbd e6a2 66bc e05c 6b3c
000000f0: b86e 03bd 7b12 ff3c 927a 0d3d 2732 1dbd
00000100: 5a37 af3a 0886 09bd c074 a53c 3130 823b
00000110: bea3 ce39 a995 0bbd 6177 3bbc 4e82 a6bc
00000120: 1360 8bbc 22d4 1a3d 736a bc3c b69e e93b
00000130: 3602 4c3c 7052 73bc 1a36 1ebd 2b58 9bba
00000140: ff75 14bd c764 08bc 957c 273d 80d7 34bb
00000150: 3e1b a13c cd82 44bb e8d1 95bb aff1 3bbd
00000160: 0043 f9ba 28d3 133d c66b 973c 964d 80bc
00000170: b000 28bd b84e 9b3c 9365 0abd 7b97 093d
00000180: 93fd 00bd 4bc4 1a3d 6650 2abc d02c 13bc
00000190: f0a5 e2bc cb56 c9bc 1611 60bb 3c94 053d
000001a0: 00ae 28bd 3356 f3bc 8e90 0abd 2078 3fbc
000001b0: bef8 acbc e3af f13c 6cff 16bd 3019 2d3c
000001c0: eb6f e93c 80d4 213d 6065 c03b eb6c cc3b
000001d0: 3207 093d ce61 043d 5e0d 8b3c 42a9 16bd
000001e0: c638 4f3c 90bf 18bc 42cb 1e3d d3b4 b43c
000001f0: 8640 e5bc 964e 04bc 40bb 5abb 6bd2 ba3b
00000200: 0bd1 903c db3f e73c 835c cd3c 80fb ae3a
00000210: 561d 58ba 28b9 273d 5e31 06bd 78ce 3b3d
00000220: fe71 233d 6a17 003d e651 933c 3386 7abc
00000230: 848b b5bc df68 a93c 4120 2ebd 9339 a63a
00000240: e0f1 44bc 49f6 db3a 8b93 7cbb 985e a63c
00000250: dfa8 173c 4fae b5bc 873c 72bc cf89 2dbd
00000260: c093 0fbd 00a0 e63c db71 103c bc40 133d
00000270: 333f 2fbd f419 4e3c c250 ddbb 6e87 55bc
00000280: a417 7b3c e954 2cbc b237 a33c 1c3f 973c
00000290: b46e bf3c f650 9c3c d234 c3bc 2512 463b
000002a0: 7f7c 1abc 4832 af3c 805a a6bc acb6 b03c
000002b0: 088f 96bc f7be 7cbc 2c11 a13b a4e2 333c
000002c0: 91ad a3bb 4a40 383d 7d4c 0bbc e556 bdbc
000002d0: 8caa 3c3c 9223 0bbd 2e07 37bd 9803 863c
000002e0: d756 a1bb 81b0 163c f0be 323c 1db3 b03a
000002f0: 4c96 bd3c 9b75 143c ae8f 85bc 18d9 043d
00000300: 3885 c83a eade 82bc 8845 ddbc 8a88 e53c
00000310: c739 37bd 0bab 083d deb9 0ebd 68a8 c7bc
00000320: 5bfb a4bc 8c62 b53c 0615 693c a60c a0bc
00000330: 7b85 c6bc 6307 93bc d8d1 893c 364a 2e3c
00000340: 4bf7 c13b 7862 8dbc cb09 773c 2016 ed3c
00000350: 032a d9bc 7318 f23c 10d0 edbc cb51 c93b
00000360: 01c4 0bbd 5245 83bc ccd0 c8bc bbed 9c3c
00000370: d39c 813b fa0c 603c 3e98 683c e26c 37bd
00000380: fedd 063d 5967 123d 2039 923b c8dd c73c
00000390: dbfb ed3b 368a 96bc 7bdd 65bc 83f6 453c
000003a0: df39 f638 589f bb3c f8d1 113d 407d 29bb
000003b0: b27a 20bd 2b40 babc cc68 0d3d 004a 8f3c
000003c0: b05e 7cbc 161f ef3c 38c7 c1bc faf4 d03c
000003d0: cd42 a03c ee38 edbc a014 fb3c c6ca 30bd
000003e0: 5662 4cbc 30c5 99bc 7600 143c 1b24 4dbc
000003f0: b822 cc3c 5508 ec3c ef9d 19bb 9837 24bd
0.03452131 0.014985706 -0.0383059 -0.038008265 0.026824426 -0.033135425 -0.038152196 0.033577856
0.03804604 -0.007874627 -0.025148904 -0.028595684 0.010098933 0.036215637 0.009586787 0.033849366
-0.04358995 -0.044861205 0.002200693 0.022224804 -0.030150443 0.02650272 0.021650156 0.025467267
-0.038322113 0.018093845 -0.0334196 0.0039092205 0.026643425 -0.012053847 0.03220444 0.0001876553
-0.016917437 -0.033940013 0.0172668 -0.020246819 0.007474128 -0.003980684 -0.015693787 0.015555949
-0.026282955 -0.003049217 -0.017788734 -0.02877839 -0.008452283 -0.013426774 -0.0062501943 -0.0058028055
0.030110523 -0.018939396 -0.009174218 0.012499622 0.018247299 -0.037176292 -0.011035403 -0.016799932
-0.022105854 -0.034428935 -0.014076924 0.014365405 -0.03208801 0.031136742 0.03454072 -0.038377907
0.0013367936 -0.033575088 0.020197272 0.00397303 0.0003941338 -0.034078274 -0.011442036 -0.020325806
-0.017013585 0.037799962 0.022999978 0.0071295155 0.012451699 -0.014851198 -0.038625814 -0.0011851838
-0.036245342 -0.008324808 0.040890295 -0.0027594268 0.01966631 -0.002998519 -0.004572142 -0.045884784
-0.001901716 0.036090046 0.018484008 -0.015661996 -0.04101628 0.018958434 -0.033788275 0.03359173
-0.031491827 0.037784856 -0.010395145 -0.008982852 -0.027667016 -0.024577519 -0.0034189872 0.03261207
-0.041181564 -0.029704189 -0.033829264 -0.011686355 -0.021114703 0.029502815 -0.036864683 0.010565087
0.02849575 0.039509296 0.00587146 0.00623857 0.033454128 0.032319836 0.016974147 -0.03678251
0.012647813 -0.009323016 0.03876806 0.02205888 -0.027984869 -0.008075377 -0.003337577 0.0057013533
0.017677804 0.02822869 0.025068527 0.0013350099 -0.00082441175 0.040948063 -0.032761924 0.0458512
0.039903633 0.03127233 0.017983388 -0.015290785 -0.022161253 0.02067989 -0.04251123 0.0012681953
-0.012020558 0.0016781773 -0.003854009 0.020308778 0.009256571 -0.022177843 -0.014784939 -0.042367753
-0.035053015 0.028152466 0.008816208 0.035950407 -0.04278488 0.01257943 -0.006754012 -0.013032777
0.015325461 -0.010518291 0.019924019 0.01846271 0.023368217 0.019081574 -0.023828898 0.0030223217
-0.009429096 0.02138628 -0.020306826 0.02157148 -0.01837875 -0.015426389 0.004915377 0.010979328
-0.004995056 0.044983186 -0.008502123 -0.023112724 0.011515271 -0.03396947 -0.04468458 0.016359136
-0.004923682 0.009197355 0.010909781 0.0013481114 0.023142956 0.009061242 -0.016303863 0.0324336
0.0015298491 -0.015975434 -0.027010694 0.028019208 -0.044732835 0.033366244 -0.034845226 -0.024372295
-0.020139387 0.022141717 0.014226204 -0.019537281 -0.02423357 -0.017947858 0.016823694 0.01063781
0.005919372 -0.017258868 0.015078018 0.028941214 -0.02650929 0.029552674 -0.029029876 0.0061437837
-0.03412247 -0.016024265 -0.024513625 0.019156327 0.0039554625 0.013674969 0.014196454 -0.044781573
0.032926552 0.03574309 0.0044623762 0.024397746 0.0072626895 -0.018376451 -0.014029856 0.012082699
0.000117409734 0.02290313 0.035600632 -0.0025862008 -0.03917951 -0.022735676 0.03452377 0.01749134
-0.015403435 0.029189628 -0.023654565 0.025507439 0.019563103 -0.02895781 0.030649483 -0.04316213
-0.012474617 -0.018770784 0.009033313 -0.012520815 0.024918899 0.028812567 -0.0023440083 -0.04009208

conv2d_3.2.bias f4 [64]
00000000: a65b 3a3a 7633 c23c e7fa 5bbb 5215 bf3c
00000010: 1e51 973c fa2a 47bc 3a53 b23c ffa1 3c3c
00000020: 02f2 c73c b68e a1bc 7aab ae3b 22a5 94bc
00000030: adce 2b3c f672 f8bc 2ee7 febc 8c91 e43c
00000040: f396 81bc 637b 933c 0391 c3bc e57a 1ebc
00000050: 2051 c93b c4c7 403c d8cf 533c 2afe 90bc
00000060: f7af 8fbc 5c31 62bc 2073 d7bb 4df8 ff3c
00000070: 01dd 933c 4388 5bbc 4e6f 80bc 1de2 07bc
00000080: c755 b83b b870 b73c 9f0f 8b3c 93f6 d6ba
00000090: 7b32 f8bc 5ed0 3cbc e66a ce3b 52a4 e93c
000000a0: 48d7 0abd e7a3 acbc cd90 e638 3ea4 5c3b
000000b0: e87c 123b f2ba b53c f4a8 06bc 8df1 5c3c
000000c0: 64fe 8b3c 9e0b 0dbd 5dd7 dabb 3c8c d43c
000000d0: 5647 1dbd 4df8 c33c 1109 e63b b754 12bd
000000e0: 298f c03c e933 ff3c 5437 573c bf1a d9ba
000000f0: c6da 72bc 5487 b33c 56b8 11bc 367b dcbc
0.00071089936 0.02370618 -0.0033566297 0.023325596 0.018471297 -0.0121562425 0.021768201 0.011513232
0.02440739 -0.01972137 0.0053305 -0.018145148 0.010486287 -0.030328255 -0.031116094 0.027901433
-0.015819049 0.018003171 -0.023872858 -0.009672855 0.006143704 0.011766378 0.012927972 -0.01769932
-0.017539961 -0.0138057135 -0.0065750033 0.031246329 0.018049719 -0.013399187 -0.015678074 -0.008293656
0.00562546 0.022392616 0.016975222 -0.0016400389 -0.030297508 -0.011524288 0.0062993644 0.028520737
-0.033896714 -0.021074248 0.00010994226 0.0033667232 0.0022352282 0.022183869 -0.0082189925 0.013485325
0.017089076 -0.034434907 -0.0066785053 0.025945775 -0.03839811 0.02392211 0.007020124 -0.03572532
0.023505764 0.031152682 0.01313575 -0.0016563757 -0.014822667 0.021915115 -0.008894047 -0.02691422

conv1d_1.0.weight f4 [16, 3, 3]
00000000: 6024 ac3e 5e91 05be 6120 bd3d 5331 94be
00000010: 80b8 d4bd 2f45 10be 72f2 f5bd dfb4 203e
00000020: b129 94be 228a 90be d573 1a3e 5bbb 57be
00000030: ab76 21bc 7bee 743e 8a31 e0bd 1432 183e
00000040: 2829 c63d d399 833e b574 f83d 9521 333e
00000050: 886d a7be 3a8a 7fbe e6a6 50be b7c7 343e
00000060: 756c 1c3e 320f 583d 156b b03e 4c23 19be
00000070: 1138 b33c 9bd3 95bd 79e5 963d ece6 a63e
00000080: 591c 913e d4cb 963e 76d0 363e 77ba c03d
00000090: ec71 a73d 177e 2a3d 6914 513d e742 383e
000000a0: 6740 403e b233 1d3d b116 38be 303f c13c
000000b0: d9ef a63e 5eb1 083e 1996 54bc c054 503e
000000c0: 60ea 2cbe 1ad8 df3c a428 943e a3a1 6e3e
000000d0: 6a04 27be b017 80bc d335 1abc c9cc 8f3e
000000e0: 6507 8e3e 6a5f 093e d38a b5bd 2826 88be
000000f0: 1186 91be 853c 8d3e f289 86be 8fb0 92be
00000100: d8e8 82bd 7ff3 533e 1426 813e 69e3 c23d
00000110: 7d78 843c 15be b4be aafd f13d c5c3 13be
00000120: d5c2 12be cace 113e f471 a53c 76e3 4f3e
00000130: a1aa 403d a41f 7a3e 924b a5bd 813c 363e
00000140: fecf 0f3e ddfc fdbd c3b6 bd3e 05ef 8e3e
00000150: f82d 8f3e 6e09 a3be 10b3 32be 427d df3d
00000160: 05e9 713e c83d a33e ec81 803d f0de 2fbc
00000170: 8c30 8fbd 11aa 853d 39e6 373c a3fc c23c
00000180: 0110 55be 1d54 94be 1e71 a6be 7107 ccbe
00000190: e90b 31be 1f64 433e fa94 2a3e 6b95 33be
000001a0: ef57 8dbe b350 28be 7d56 a13d 8888 9e3e
000001b0: db4e 02be e215 2a3e b78b 94bd edf7 4cbd
000001c0: b406 fc3d a7cf ad3e 1bad c0bc 6743 85bd
000001d0: c6b4 89bd 2764 473e dfa9 ba3e 1409 9e3e
000001e0: ba40 61be f76a 16be ff1f 1f3d 5c0c b53d
000001f0: 9404 f2bc 252d a23d 7be8 01be 156c 8bbc
00000200: 1bf7 653e 3c8a ae3e 28ff 9ebe 9018 f1bd
00000210: 5125 93be 46ac 7bbd 1d15 15be 3b87 7bbe
00000220: 3381 493e 2dfc 46be d8d8 8bbe 9627 ac3e
00000230: 1f51 0d3e 7fc9 8fbc e74e 17be f77e 67bd
0.33621502 -0.13043734 0.092346914 -0.2894388 -0.10386753 -0.14088891 -0.120091334 0.15693997
-0.28938058 -0.28230387 0.15083249 -0.21067564 -0.009854953 0.23919098 -0.10946949 0.14862853
0.09675819 0.25703296 0.12131635 0.1749328 -0.32700753 -0.24955073 -0.20376167 0.1765431
0.15275748 0.052748866 0.34456697 -0.14954871 0.02187732 -0.07315751 0.07367987 0.32598054
0.2834194 0.29452384 0.17852959 0.09410565 0.08176026 0.041624155 0.051044855 0.17994271
0.18774568 0.03837938 -0.17977406 0.0235897 0.32604864 0.1334891 -0.012975239 0.2034483
-0.16886282 0.027324725 0.28937256 0.23303847 -0.16310278 -0.015636295 -0.009412247 0.28085926
0.27740017 0.13415304 -0.08864369 -0.2659161 -0.28422597 0.27585235 -0.2627712 -0.2865033
-0.06392068 0.20698355 0.25224364 0.09516031 0.016170735 -0.3530127 0.11815961 -0.14430149
-0.14332135 0.1423904 0.020195939 0.20301613 0.047037724 0.24426132 -0.080710545 0.17796518
0.14044186 -0.124017455 0.370535 0.27916732 0.2796476 -0.31843132 -0.1745112 0.10912563
0.23624046 0.31883073 0.06274781 -0.010734305 -0.069916815 0.06526578 0.011224323 0.023802107
-0.20806886 -0.28970423 -0.32508177 -0.39849427 -0.172897 0.19081162 0.16658393 -0.17537467
-0.2760615 -0.16437034 0.078778245 0.3096354 -0.12725393 0.1660991 -0.07253211 -0.050041128
0.12305966 0.3394749 -0.023520043 -0.065069966 -0.06723933 0.19471799 0.36457726 0.308663
-0.21997347 -0.14689241 0.038848873 0.08840248 -0.029543199 0.07918767 -0.1268634 -0.017019311
0.22457545 0.3408984 -0.31054044 -0.11772263 -0.28739408 -0.06144359 -0.14558835 -0.24563305
0.19678192 -0.19432135 -0.27313876 0.33623952 0.13800476 -0.017552136 -0.14776193 -0.056517567

conv1d_1.0.bias f4 [16]
00000000: 3c0a e93d f92f 13be e73d a8be 4ba0 75bd
00000010: 42ae 843d 17e1 73be 4e65 903b 7655 763e
00000020: 4493 773c 3e3b 5ebe 41ab 8b3d 2254 5a3d
00000030: f9f3 893e 9461 0e3d 3ceb 663e 9fed 9dbe
0.11378905 -0.14373769 -0.32859728 -0.05996732 0.064785495 -0.23816334 0.0044066077 0.24056038
0.015110794 -0.21702287 0.068197735 0.05330289 0.2694395 0.034761027 0.22550672 -0.30845353

conv1d_1.1.weight f4 [16]
00000000: b7fb 813f c1f5 823f e14a 7b3f 9cc3 823f
00000010: 2b02 813f 97df 833f 28cf 883f 76fb 7c3f
00000020: 520f 793f d90b 803f f288 7f3f 0051 7e3f
00000030: 25eb 7e3f afe3 883f 6497 843f 8a92 803f
1.0154942 1.0231248 0.9816113 1.0215945 1.0078787 1.0302609 1.0688219 0.988212
0.97289 1.0003616 0.99818337 0.99342346 0.9957755 1.0694484 1.0358701 1.004472

conv1d_1.1.bias f4 [16]
00000000: d9c2 c63b 1940 053c 3a61 8abc 5b5c d2bb
00000010: bd15 b839 be3a b23a e394 51bc 85df 0fbb
00000020: 4d22 83bc a93d 2bbc 18c0 adbb 4371 b7bb
00000030: a564 80bb 6f9e a73b eb3b 813c 8dd0 39bc
0.006065708 0.008132958 -0.016892064 -0.006419701 0.0003511141 0.0013597829 -0.012791845 -0.0021953296
-0.016007567 -0.010451713 -0.0053024404 -0.0055982186 -0.0039182478 0.0051153223 0.015775641 -0.011341226

conv1d_1.1.running_mean f4 [16]
00000000: d598 d8bd 2ccb 033e 163b 1dbd eba9 d43e
00000010: 64f0 893e 7a69 25be c220 e0bd 4b24 ec3d
00000020: 141e 9f3e 437a 623e defe 9abe b13a c43d
00000030: 787b 8c3e ec8c 2a3e 774f 51bd 9bc2 c7be
-0.105760254 0.12870473 -0.038386427 0.41535887 0.26941216 -0.16153517 -0.10943748 0.1153036
0.31077635 0.22116952 -0.30272573 0.09581507 0.2743795 0.1665532 -0.051101174 -0.3901566

conv1d_1.1.running_var f4 [16]
00000000: bedc 6e3c ff94 cb3c 1148 543d b8c7 113d
00000010: cad4 843c 678b 013c e9f5 453c c261 0b3d
00000020: d599 d73c 17fc 643d ff3a 863d 13e1 e13c
00000030: 1cdf e53c 9a73 7e3c b2fd b03c f501 4b3c
0.014578996 0.02485132 0.05182654 0.035590857 0.016214747 0.007906771 0.012082555 0.034028776
0.02631847 0.055904474 0.06554221 0.027573144 0.028060488 0.015530491 0.021605346 0.012390603
