models/model07_logflux_lr001_nofs.pth (torch, 622626 bytes, 16 tensors)

conv2d_1.0.weight f4 [16, 1, 3, 3]
00000000: e4fa 8b3e 1a71 983e 1aa4 78bd 43f9 a73e
00000010: b344 58bd f382 b73d f6a3 12be d94c 5c3e
00000020: 4cb4 a23e 5d67 85be c8b2 8e3e 8c9d 2f3d
00000030: 1552 793e 2195 043d eabb 1c3e 4d83 7cbd
00000040: 0b91 803e 45a1 3b3d d7a6 f0bd 63e0 043e
00000050: cc9e f9bd 605a f8bb 7484 c8bd f723 803e
00000060: b76f 6bbe d5d2 03be aa9d 72bd 8b94 6abe
00000070: 62f5 a93b c148 b8be 1143 8c3e 0b06 a6be
00000080: 84c3 663e 561c 843c d1cb 12be e825 2d3e
00000090: f00d 443c 5bb1 7c3e 3505 7f3b e9c6 08be
000000a0: ad56 4e3d 3d18 00be 685a dd3d 0d8c 853e
000000b0: 9e28 223e 3661 f5bd 1eec 6d3e 3886 bc3d
000000c0: dc35 463e 0840 44be 8c36 9bbe 6ba5 c5bd
000000d0: dccc 9bbe 3705 9f3e 7eb3 6e3d b88c cd3d
000000e0: 77e1 953d 8717 50bd 41e3 6b3e cda3 8cbe
000000f0: baa9 2ebc 7b11 89be f1d6 863d cac5 05be
00000100: ec02 c93d c3dc b9bd f758 883e cd07 4bbe
00000110: fca8 4abe b2cd 5dbe cb99 923e 170d d03d
00000120: 1906 c23e 8c45 68be 1ce6 8abe b32b 69be
00000130: 8592 49be 2476 2c3e a90a 1e3e 1aef a03e
00000140: afaf 0fbe 6305 86be 0c40 4d3e d9b4 d0bd
00000150: da8e 653e cae3 98bd a0c7 663e cdcd 8abe
00000160: d5b8 0bbe dcee 103e a419 4f3d d398 dabd
00000170: ce3e 393e 46c4 4b3e 8651 87be 0a6a 4cbe
00000180: dd28 913e 9a77 07be 4ddb 0ebe db22 a5be
00000190: b078 43be 5b88 aa3d f636 34bd e3c4 77be
000001a0: d61a 003c 9328 69be 04cb 90be a3f5 3bbe
000001b0: 52b9 83be 7840 33be a517 be3e 0aa7 c03d
000001c0: 4edc 093e 6143 90be c891 40be bbed 9ebd
000001d0: 96f2 b03d cc9c 87be d5d2 cfbd 390a 38be
000001e0: ba08 243d a451 bebd 12eb d53c c549 65be
000001f0: 7075 3cbe a0c1 44be 49b8 03be cd29 8fbe
00000200: 4bc5 8c3e 3730 90bd be1b 933e 90c9 cb3d
00000210: 6348 8fbe 99eb 6a3e 05b3 c4bd 8fa9 c4bd
00000220: 06e8 8cbe 212f 9bbe 61f5 0a3e f18c 37bd
00000230: fa73 3f3e 1418 a1be 6c47 953e fe71 8cbe
0.27339852 0.2977379 -0.060703374 0.3280736 -0.05279989 0.089605235 -0.14320359 0.2151369
0.3177818 -0.26055422 0.27870774 0.042874858 0.24347718 0.032368783 0.15306059 -0.061648656
0.2511066 0.045808095 -0.11750572 0.12976222 -0.12188491 -0.007579133 -0.097908884 0.2502744
-0.22991835 -0.12873395 -0.05923239 -0.22908227 0.0051867226 -0.35993007 0.27394918 -0.32426485
0.22535521 0.016126793 -0.14335562 0.16908991 0.011966214 0.2467703 0.0038913016 -0.13357128
0.05037563 -0.12509246 0.10808259 0.26083413 0.15835807 -0.11981432 0.23234603 0.09205288
0.19356483 -0.19165051 -0.30315053 -0.096506916 -0.30429733 0.31058666 0.058276646 0.100366056
0.07318395 -0.050803687 0.23035909 -0.2746872 -0.010660583 -0.2677115 0.065839656 -0.13063732
0.098150104 -0.0907531 0.26630375 -0.19827195 -0.19791025 -0.21660498 0.2863296 0.10158747
0.37895277 -0.2268278 -0.27128685 -0.22770576 -0.19684799 0.16841942 0.15433754 0.3143242
-0.14031862 -0.26175985 0.20043963 -0.10190744 0.22417775 -0.07465322 0.22537088 -0.2711014
-0.13644727 0.14153618 0.050561562 -0.1067368 0.18090364 0.19899091 -0.26429385 -0.19962326
0.2835149 -0.13229218 -0.13950844 -0.32253155 -0.19089007 0.08326789 -0.043997727 -0.241962
0.007818898 -0.22769384 -0.2827989 -0.18355422 -0.25727326 -0.17505062 0.37127414 0.0940686
0.13462946 -0.28176406 -0.18805611 -0.07760187 0.086400196 -0.26486814 -0.10147635 -0.1797265
0.040047385 -0.092929155 0.026113067 -0.22391422 -0.18404174 -0.19214487 -0.12863268 -0.2796158
0.27494273 -0.07040446 0.28732103 0.09950554 -0.27984914 0.22941436 -0.09604458 -0.09602653
-0.2752077 -0.30309394 0.13570167 -0.044812147 0.18696585 -0.31463683 0.29156053 -0.2743072

conv2d_1.0.bias f4 [16]
00000000: 1d9a abbd 36ff eb3c e4d8 593e deb9 8c3e
00000010: 6891 7f3e be7c 67be dcab 973d 5a50 1ebe
00000020: 65da 603c 1c85 60be 1c83 9c3e 9385 7abe
00000030: 80a1 653e 96dd 0c3e 8f4b 9d3d 5279 04be
-0.08379004 0.028808217 0.21274143 0.27485555 0.24957812 -0.22606179 0.074058264 -0.15460339
0.013723944 -0.21925777 0.3056878 -0.24465017 0.22424889 0.13756403 0.07680427 -0.12936905

conv2d_1.2.weight f4 [16, 16, 3, 3]
00000000: b8ac b93d b2cc d73c f894 0f3c b513 87bd
00000010: 6e73 f83c 637d 46bc b3db 07bd fbe4 9f3d
00000020: 7dd6 873c 41ef 22bd 562b 17bd 2147 a8bb
00000030: 5f52 623d c6f2 9cbc c542 33bd 4553 dbbc
00000040: e7fc 57bd f772 c83c f1d4 a13d e9ae 9ebd
00000050: 766f 7d3c 4229 893d 155e a73c 7c21 5cbb
00000060: 1ebe 9e3d 9525 a63d fdc2 873d b5ec 973b
00000070: f5df 47bc 37ac c33c 9e73 b23c 2060 43bc
00000080: 0dd4 bf3d 1613 ce3d e4c1 b83c f960 4d3c
00000090: 8686 933c 1cde 0f3c b582 f53c a377 cc3c
000000a0: 7c51 93bd 5347 00bd 1142 943d 3925 1a3d
000000b0: 6e92 acbb 0873 8b3b 15be 63bc 8a09 0bbd
000000c0: 69ed 8fbc 5910 0e3d 2712 be3d d762 9b3d
000000d0: 8a30 75bd 153e 52bd 76cf 713c 4f73 b13d
000000e0: 4a9d 1c3d acee a0bc ac5f 4f3d 616e e5bc
000000f0: 7cb1 15bd cf74 933d 90d0 16bd 8825 2ebc
00000100: 920d 69bd 2070 803d 3963 9b3d 9479 e23c
00000110: 72b0 29bd fac4 c6bd 75c2 37bd cf65 9b3d
00000120: a32d 203d 3515 e43d 15b5 2f3d 894e 693d
00000130: 9cdb 573c 33d8 82bd 413d 8bbd f0a8 86bd
00000140: 7be7 9b3d 99e1 513c aeec 0b3d 25f7 adbc
00000150: 2218 28bc 5ed7 47bd 2010 973c 3330 5f3d
00000160: 9e39 1a3d 54d0 9e3d 8af8 04bc 2fa2 2abd
00000170: 7d3a 0f3c c0bc eebc 54a4 49bc 3850 83bd
00000180: 5c4f 7a3d 72d7 4fbd 8fc9 643d 46e4 1a3d
00000190: 16dc 733d 04e9 82bd 607c 753d ab5d 21bd
000001a0: 0b51 fd3c 8c46 a03d 368e 40bc abf0 28ba
000001b0: d4d9 383c c624 34bd faee 9f3d b8b4 74bd
000001c0: e95e c03d d6e6 c33d 0ad5 063e a75a 853c
000001d0: 8393 27bd 3958 803d 95c0 e43d 186b 6dbd
000001e0: 38aa 993c fb93 44bc 6f6f 293d 9eaa 72bc
000001f0: a439 d3bb 4da8 f4ba a108 9cbd a237 a83d
00000200: a16e 8b3d 6965 a3bb eb61 d53b 5d9a 09bd
00000210: 15c6 7bbd aaec 95bd a25d 173d 66fb a1bd
00000220: d893 6a3c 0a71 e8bc 59f1 c43d 6d87 eb3c
00000230: a096 c83d 7f81 343d fec5 773d 31e8 b03c
00000240: dc49 59bd 16d8 9d3d c59c 24bd 3846 353d
00000250: 901d 05bc a71a cdbb 2dfc c53d b0e1 853d
00000260: b8ae afbd 4a3f 213d 7886 b23d 6926 773c
00000270: 7896 8f3d 6d5e c23d 5303 d9bc b744 f83c
00000280: 668d 29bd 19ad fdbc f2b0 6a3d c3c5 0b3d
00000290: 39f7 73bd d8aa 86bd ac79 95bd ab9f bfbd
000002a0: 0a8b a0bc 1004 193d 4406 2e3d ee45 0e3b
000002b0: 7492 04be b3e9 88bd ad6a 97ba 4844 17be
000002c0: 64c2 c0bc d489 a4bc e38b 00be e7d6 b8bc
000002d0: b896 21bc e894 bcbc 6f16 49bd b8a4 92bd
000002e0: de81 83bd bdc9 6ebd d949 a23d 3b08 22bd
000002f0: a702 8fbd 7679 a53c 6626 bc3c 1605 3b3d
00000300: fa80 823d 6814 3e3d 5737 a9bd 3f2f 1c3c
00000310: 83c3 4e3d 1662 fcbb 4477 99bd a167 753d
00000320: 83af 1bbd 2430 8dbd 9e74 9abd 08e4 25bc
00000330: 805a 143d e399 053d a244 b33b bf37 9abd
00000340: 59d7 b7bd 5657 c03a 3050 8d3d 066c 253d
00000350: 68bc 46bd 1ee9 2cbc 3ef2 56bd ceaa 24bd
00000360: 700c cc3c 50b2 9e3d 21fd 7e3d 12da c0bd
00000370: 209e a13d 615f 86bd afe4 263c 1272 853d
00000380: 5661 993a 2a46 9b3d b36a 91bd 1b60 02bd
00000390: 6131 6a3d 2bbb 94bc f6bd 8bbc 29f7 5f3b
000003a0: 7e48 6b3d d36c 273d 802d f73a 1f43 78bd
000003b0: 878c 98bd 33de 42bc 1399 1c3c 176a 52bd
000003c0: 0ab5 2abd cfbb 203d f0f2 cfbb 0068 763b
000003d0: 3001 a8bc d28d 9abd 7a78 a0bd 9829 23bd
000003e0: ce81 2dbd f0af d43c 4bbb c6bc 8389 05bd
000003f0: f2d4 0a3d c48d a43d e951 573d f71e a2bd
0.090661466 0.026342724 0.008763544 -0.06595556 0.030328479 -0.012114855 -0.033168506 0.078073464
0.016581768 -0.03977895 -0.036906563 -0.0051354324 0.055254336 -0.019158732 -0.04376485 -0.026773104
-0.05273142 0.024468882 0.079019435 -0.07748205 0.015468469 0.066973224 0.020430604 -0.0033589294
0.07751106 0.08112637 0.06628988 0.004636372 -0.012199392 0.02388583 0.021783646 -0.011924773
0.09366617 0.10062234 0.022553392 0.012535327 0.018008482 0.008780982 0.029969553 0.024959391
-0.07193276 -0.03131802 0.07239164 0.037633155 -0.005266479 0.004255656 -0.0139003 -0.033944644
-0.01756926 0.03468356 0.09280806 0.075872116 -0.059860744 -0.051328737 0.014758935 0.086645715
0.03823594 -0.019645058 0.05062835 -0.028006734 -0.036546215 0.07200014 -0.036819994 -0.010629065
-0.056897707 0.06271386 0.075872846 0.027645864 -0.041428037 -0.09705539 -0.044863183 0.07587778
0.039106023 0.111368574 0.042897303 0.056959663 0.013174918 -0.06388893 -0.06798793 -0.06575191
0.07612511 0.012810134 0.034161262 -0.021236012 -0.01025966 -0.048789375 0.018440306 0.054489326
0.037652604 0.07754579 -0.008115897 -0.041658577 0.008741972 -0.029142737 -0.012307245 -0.06411785
0.06111084 -0.050742574 0.055856284 0.037815355 0.059536062 -0.063921005 0.059933066 -0.03939597
0.030922433 0.07825956 -0.011752656 -0.0006444554 0.011282403 -0.043980382 0.07809253 -0.05974266
0.09393103 0.09565513 0.13167205 0.016278578 -0.040912163 0.06266827 0.111695446 -0.05796346
0.018757924 -0.011998172 0.041366037 -0.014811186 -0.0064460803 -0.001866588 -0.07618833 0.08213736
0.0680821 -0.0049864543 0.006511917 -0.033594478 -0.061468203 -0.07320531 0.03695453 -0.079092786
0.014317475 -0.028374214 0.09616346 0.0287511 0.097943544 0.04406881 0.060491554 0.021595092
-0.053048953 0.07707231 -0.04018857 0.04425642 -0.008124724 -0.0062592807 0.09667239 0.06537187
-0.08578247 0.039366998 0.08717054 0.015084841 0.070111215 0.094906665 -0.026490843 0.030306203
-0.041394614 -0.030966328 0.057297654 0.034124147 -0.05956194 -0.065755546 -0.07298598 -0.09356626
-0.019597549 0.03735739 0.042486444 0.0021709162 -0.12946492 -0.066851996 -0.0011552178 -0.14772141
-0.023530193 -0.020085253 -0.12553363 -0.02256341 -0.009862594 -0.023020223 -0.04909366 -0.07160324
-0.064212546 -0.05829786 0.079242416 -0.03955863 -0.06982928 0.020199519 0.022967529 0.045659147
0.063722566 0.04640618 -0.08262508 0.009532749 0.050479423 -0.0077021224 -0.07493451 0.05991328
-0.038009178 -0.06893948 -0.07541774 -0.010125168 0.03621912 0.03261746 0.005470828 -0.07530164
-0.08976621 0.0014674466 0.0690006 0.040386222 -0.048519522 -0.010553626 -0.052477114 -0.040201955
0.024908274 0.07748854 0.06225312 -0.094165936 0.07891488 -0.06561161 0.010186358 0.06515898
0.0011701982 0.07581742 -0.071004294 -0.031829935 0.057175998 -0.018155655 -0.017058354 0.0034174419
0.05744218 0.040875267 0.0018858165 -0.060610887 -0.074486785 -0.011893797 0.00955798 -0.051370706
-0.04167656 0.03924161 -0.006346099 0.003759861 -0.020508379 -0.07546581 -0.07835479 -0.03983459
-0.04236012 0.0259628 -0.02425923 -0.032601845 0.033894487 0.08034852 0.05256835 -0.07916062

conv2d_1.2.bias f4 [16]
00000000: 96c8 a23c fa83 60bd c0ae c03d 2be0 31bd
00000010: 2d7e 873d 970b 8dbd 5d1b 28bd 9f2e bfbd
00000020: a75e 70bb 5a4e f73c 908e 59bd 40c4 b2bd
00000030: 244f 933d dbbf 813d 8c4b 7bbc fb0a 82bd
0.019871037 -0.054813363 0.09408331 -0.043426674 0.06615863 -0.06886976 -0.04104172 -0.09335064
-0.003667751 0.030188728 -0.053114474 -0.08728838 0.07192829 0.06335422 -0.015337836 -0.063497506

conv2d_2.0.weight f4 [32, 16, 3, 3]
00000000: 37fe abbc cb20 26bd 7c9c 353d e7aa 16bd
00000010: 2bad d3bc 59cb 63bd b1c8 0cbd fd2d 1d3d
00000020: 351e 6a3d 8e2a b63b c25d 3f3c b90b bf3d
00000030: 9653 2c3c 3a9f f13c be3c 16bc 0a9d 92bc
00000040: 317e a53d 4cf9 c33c 6305 663d 557f 01bc
00000050: 4882 823d 0e6c 9bbd aa30 a2bd 1751 94bd
00000060: 7aa9 d8bd 2863 a7bd 5f95 d0bd 4060 a1bb
00000070: 00f2 4d3a 462e b1bc f842 69bd 0bd8 9a3d
00000080: e631 e2bc d3a9 223d 40b5 6d3d b860 60bd
00000090: fe30 fabb 9f4e 4c3d edb8 a33d 892c 0bbd
000000a0: 3223 223d 6f8a abbd 803e 5fbd 6ba9 7a3d
000000b0: 61bb 80bc b230 a23d 07a6 cb3b b120 12bd
000000c0: 326d ad3d 0188 a13d 6962 543c 1a3e 3ebd
000000d0: f241 d23a e289 10bd 2c4f 743d 0a09 4f3b
000000e0: d268 a43c e288 893d 7b26 2c3d f9d6 17bd
000000f0: f411 9a3d 41f4 673d 62de 35bd 67ea 923d
00000100: 34b2 023d e223 04bc 9ff0 2dbd 6c19 123b
00000110: e387 82bd 3e2f 3e3d 29cc 6d3d fc8a d3bc
00000120: 8009 883d 5eac 44bd e9ed 5fbb 2708 8cbd
00000130: 68e1 1cbc 0864 aa3c 372c e63c 7299 0abc
00000140: 3744 47bd 4f8b de3d 338c dc3d 6b2d 843d
00000150: 3b04 5abd 95f1 833c 8be2 04bc fddc 913d
00000160: 7d73 923c 4ca4 663b f71c 723b 78f2 193d
00000170: 14d8 10bc fe2b 773d 6413 ca3c 9123 a7bd
00000180: f9b9 d33b c9de 8dbd 4fb6 8cbd 038e a93c
00000190: b684 c23c 5c7d 5abb 4e7d c63d 85dd dabc
000001a0: 7aa6 8fbc ebfc 48bb 5a1b 363c 50ae 163b
000001b0: e5c0 883d 8eca 33bd 802b 60bd 8a80 e23a
000001c0: 03d6 683d cfa1 4f3c f9c3 873d 2a0a 163d
000001d0: 57cc b73d 1d01 623d 2d82 853d 3fea b3bb
000001e0: e8e9 c4bd 3bf3 86bd fad2 af3a 4f0f 013d
000001f0: 0683 71bd 1bd0 2d3d 8d66 183c 15c8 29bc
00000200: ecdd a9bb cdc8 93bc 7237 943d f3f2 873b
00000210: 6b46 6b3d 8a66 95bd 15e5 1dbd a13b b63b
00000220: 7847 763d c962 1c3d 883d ca3c b7e9 97bd
00000230: 9393 f03b e400 5dbd fbb0 8bbd ab2e 473c
00000240: 0e16 70bd 24e5 8e3d 413f 4cbd 1861 ba3c
00000250: b8e6 333d 2044 94bd e9f9 1d3d 9ef6 80bc
00000260: 6bff 2b3d 225d ab3d e7ad e5bc 0ce2 cdbc
00000270: 56aa 983d 7062 993c 9edc 473a 5754 8c3d
00000280: b349 d3bc 9f86 a1b8 b291 7c3d 382d 193d
00000290: ee8d 50bd 9d91 ca3c 8bf6 70bd 5903 33bd
000002a0: 7ce1 4f3d e94a ccbc de6a 41bd 568e c13b
000002b0: d0d2 a63c b62d 54bd c62e 66bd 1049 a5bd
000002c0: cb63 b03c 033d 5cbd 8019 d03b 1baf 98bc
000002d0: 68b8 53bd c35e 9abc 8c96 8dbd 83d8 3fbd
000002e0: ec29 74bb 73f9 92bd be0b 98bd 2c30 643d
000002f0: 8ac4 c73b b5bb ecbc 4e7c 1b3c b259 873d
00000300: 9c9e 83bd 5aa8 1abd 3c53 5abd 57e7 b03a
00000310: 6f0e f13a f498 7abd 6ab7 423d 9c6b 9dbd
00000320: 4abe 803d 582b 81bd 8d7b b8bc 0ac0 303b
00000330: 6139 2abd aece 8e3d 0dd3 86bd 9e05 60bc
00000340: 438d 8fbd 35c4 5b3c 8fe8 8e3d 7271 9a3d
00000350: fded e23b 4587 23bd a99c a93d 83c9 ae3b
00000360: 0c0d 563d 4452 08bd e74d 08bd 756c 86bd
00000370: 5b63 9b3d 1358 a93c d5df a3bd 121b 1b3c
00000380: c16d e9bc f03c 053c 72c5 023d 54f9 1bbd
00000390: 6b02 e03c 8dd5 28bd cc62 e33c e4be a8bd
000003a0: 4e76 783c 1393 ac3d fffc b73d 7659 033d
000003b0: ac89 873d c31e 9f3d fb7d 383c f49c a03c
000003c0: 80f7 86bb cf1d 633d 828a 653d ea9c 58bd
000003d0: b816 77bc 88de 62bd 65dd c13c b098 afbd
000003e0: 118e b83c ba34 bbbc c0d1 fb3c 9e14 c83c
000003f0: be97 f1bc 6a22 643d 4f04 3e3d 1df6 96bd
-0.020995243 -0.040558618 0.04433869 -0.03678408 -0.025839409 -0.05561385 -0.03437108 0.038373936
0.057157714 0.005559272 0.011680068 0.09328408 0.010517975 0.02949487 -0.0091697555 -0.017897148
0.0808071 0.023922585 0.05615748 -0.0079038935 0.063725054 -0.07588969 -0.07919438 -0.07242029
-0.105792 -0.081732094 -0.1018474 -0.004924804 0.000785619 -0.02162851 -0.056948632 0.07560738
-0.027611684 0.03971274 0.05803418 -0.05477974 -0.007635235 0.049879666 0.07994256 -0.03397802
0.039584346 -0.083760135 -0.054502964 0.061196726 -0.01571435 0.07919444 0.0062148604 -0.03567571
0.08468093 0.07887269 0.012962916 -0.046445943 0.0016041382 -0.035287745 0.059645817 0.003159108
0.020069513 0.067155614 0.042028885 -0.03707025 0.075229555 0.056629423 -0.044401534 0.07173615
0.03190823 -0.008065196 -0.042465802 0.0022292985 -0.063735746 0.046431772 0.05805603 -0.025823109
0.06642437 -0.048015945 -0.0034168905 -0.068374924 -0.009575225 0.020799652 0.028097255 -0.008459436
-0.04864904 0.10866415 0.107689284 0.06453975 -0.05322669 0.016106406 -0.008110653 0.07122228
0.017877335 0.0035193143 0.0036943534 0.03758475 -0.00884058 0.06034469 0.02466745 -0.08161081
0.0064613787 -0.069272585 -0.0687071 0.0206976 0.023744922 -0.003333888 0.09691869 -0.026716957
-0.017535437 -0.003066833 0.01111492 0.0022992082 0.06677417 -0.043894343 -0.054728985 0.0017280739
0.056844722 0.0126728555 0.06629176 0.036630787 0.089745216 0.055176843 0.0651897 -0.005490571
-0.096149266 -0.06589361 0.0013414316 0.03150874 -0.058962844 0.042434793 0.009301794 -0.010362645
-0.005183926 -0.018040085 0.07237138 0.004148835 0.057440203 -0.072949484 -0.038548548 0.0055613075
0.06012675 0.038180146 0.024687544 -0.074176244 0.007341811 -0.053955927 -0.06820866 0.012157123
-0.058614783 0.06977299 -0.04986501 0.022751376 0.043921202 -0.07239556 0.03856841 -0.015742596
0.041991632 0.08367373 -0.028037025 -0.025132202 0.07454364 0.018723696 0.0007624122 0.06852024
-0.025791978 -7.7021534e-05 0.061662383 0.03739664 -0.050916605 0.024727637 -0.05882887 -0.043704364
0.050752148 -0.024938064 -0.047221057 0.0059068603 0.020364195 -0.051801406 -0.05619695 -0.08070576
0.02153196 -0.053769123 0.006350696 -0.018638184 -0.051689535 -0.018844014 -0.0691348 -0.04683734
-0.0037256433 -0.07176485 -0.07424115 0.055710003 0.0060964273 -0.0288981 0.009490086 0.06608905
-0.06426737 -0.03775821 -0.053302035 0.0013496679 0.0018391142 -0.061181024 0.0475382 -0.076865405
0.06286295 -0.06307095 -0.022519851 0.0026969933 -0.041558627 0.06973015 -0.065832235 -0.013673214
-0.070093654 0.013413479 0.06977951 0.07541169 0.006925343 -0.039923925 0.08281834 0.0053340807
0.052258536 -0.03328158 -0.03327742 -0.06563655 0.0758731 0.02067188 -0.08001677 0.009466903
-0.028494718 0.008132204 0.03192658 -0.038079575 0.027344903 -0.041219283 0.027757071 -0.082395345
0.015164925 0.0842649 0.08983802 0.03206774 0.06618056 0.07769539 0.011260505 0.019606091
-0.00411886 0.05544835 0.056040294 -0.05288402 -0.0150811 -0.055388004 0.02366514 -0.08574045
0.02252868 -0.02285229 0.030739665 0.024423894 -0.029491302 0.055696882 0.046390828 -0.07371161

conv2d_2.0.bias f4 [32]
00000000: c44a 15bd ef21 6c3c 0bef cb3c 7843 073b
00000010: a500 8bbd 7362 33bd 01dc 9cbd 42f5 16bb
00000020: 0526 7bbc 30c0 9e3d c99e e6bc 72f8 b6bd
00000030: b013 8d3d 3949 823d 91fa 8abd 84b4 483c
00000040: 09eb f73c 2970 6c3d 4922 06bd 00d3 313d
00000050: 298d b93d e3c9 2f3d c89a 533d 141d 343d
00000060: 2e8f 33bd d5cc 223d 84f7 703d f72a 96bd
00000070: 3b6e 9dbd 82a0 27bd f447 193d af86 8c3d
-0.036448255 0.014412387 0.024894258 0.002063958 -0.06787232 -0.04379506 -0.0765915 -0.0023034369
-0.015328889 0.077515006 -0.028151887 -0.08934106 0.06888521 0.06361622 -0.06786073 0.0122500695
0.03026344 0.05772415 -0.03274754 0.043414116 0.09060127 0.042917144 0.051661283 0.043973044
-0.04383772 0.039746124 0.0588298 -0.07332414 -0.076870404 -0.040924557 0.037422135 0.06861626

conv2d_2.2.weight f4 [32, 32, 3, 3]
00000000: 255f 5d3c 308e dbbb 57ea ae3c 08bd 99bb
00000010: decc 583d 6c34 e73b 82ae 813c 3c42 6e3c
00000020: e46f 2e3d 21d9 1c3d acc6 1f3c 5eee 203d
00000030: 5a0e 7bbd 6310 5cbd 48cd fa3c 131a 233d
00000040: 385f 303d c560 7abd 49d7 903c f0cd 48bd
00000050: d59d d0bb a432 c23c 0960 813d c6f4 d63c
00000060: 7557 36bc dda9 58bc 7ffe c43c b3b7 773d
00000070: ecff 253d f193 343d d70d 1abc 7230 7cbc
00000080: 17a8 bb3d 7d2f 963d 8b1e 073c a2ba 173d
00000090: 9bfd 243d aa43 593d b134 42bd 44c2 57bc
000000a0: 2256 923c 9b0e 5d3d fb9b b43c 43ea 2b3b
000000b0: 3a3c 803c 30a3 5b3d 857f 3dbd b5e9 db3c
000000c0: 7acc 2cbd 0796 b73b f8ff 63bd c152 1c3d
000000d0: 2e7a 06bd cd43 803b a5ad e5bc ce5f a93b
000000e0: e76c 04bd e298 05bd 9e54 76bc 8e13 293d
000000f0: 043a aabc 654f 0cbd 3c04 1d3d 4de6 b3bc
00000100: d713 46bd 5dd3 2bbd 54ad 8bbd 06b5 8ebd
00000110: faeb 84bd d404 3ebd b3da e0bd a456 dabd
00000120: 3269 653d dc31 5fba 65fe 803c a631 e03c
00000130: d9e8 38bc 8f21 233d 2453 8abc 2492 333c
00000140: 3af5 1abd 9bf4 2c3c de53 57bd 191d c03c
00000150: 8021 563c 1417 103b bc46 903a 135f 833d
00000160: 5141 d03d b6aa 683d 1cd9 0e3d 5909 58bd
00000170: ee1d 86bc 33aa 18bd 7e46 3ebd 88cb dd3b
00000180: c976 14bd 563a 9bbb 255a 24bd 7514 5cbd
00000190: 156d f8bc ddfe 67bd ce16 513c 2b32 35bd
000001a0: 7588 393d 3976 cd3c 416c 07bd 9cf3 89bc
000001b0: dd26 e1bc 13ee 893d 928a a3bb 7c61 09bd
000001c0: 82b7 72bc dfb4 d33b fd3a 9bbd e86b e9bc
000001d0: cb6f cebc 8ef8 7fbc 3df7 223d 72a6 6abd
000001e0: be3d d4bc 6e1d d93a 2ba7 cdb9 1041 ab3c
000001f0: 5e36 1e3d 3dd7 3ebd c847 2b3d b058 d93c
00000200: ba58 7f3d 5c57 a43d 1f6c 1a3d 7dc1 313d
00000210: 212f 223c 5670 823d 0702 c73d 1079 9b3c
00000220: 7e18 363d ebf9 c23c 773b 47bc 1330 2fbd
00000230: c8d3 a8bd 18f0 8dbd f13c 8f39 a212 58bc
00000240: 3b56 3a3d 7c97 e93d 924b e93d 5512 b9bc
00000250: 326c 00bd 7c43 a7bb 3441 01bd a216 3bbb
00000260: 1906 60bb c779 083d b5c8 0abd 2acd 093d
00000270: 0b62 e73b 56ed 42bd 369b 50bd e62a 923c
00000280: 9de1 573d 0fe1 29bd 8562 073d 40d3 f7bc
00000290: 736d 823d c8f7 833d 8309 f93c 817d 9c3d
000002a0: 4c8d 863d f66c a33d f934 3a3d 8b3f 923c
000002b0: 109a 7d3d 34dd 263d ee9f 89bd e648 eabc
000002c0: 18d1 8c3c d6cf 77bd 76c6 d13c 2242 2bbd
000002d0: 61b3 863d 3cf5 dabc e8c7 413d adee 57bd
000002e0: c874 5f3c 43e5 513a 9844 f1bc 4d9b 13bd
000002f0: ddd8 b4bc 942f 4bbc 3091 06bc 63fb d83c
00000300: 3cee 4bbc 3702 073d 4189 593d eb58 dcbc
00000310: 2343 b73c 7eca e43c 3401 0bbd 9350 683d
00000320: de85 2e3c 46bc 83bd c940 eebc 0644 cdba
00000330: 8ae2 983c a752 2cbd 749a de3c d615 483d
00000340: e8d1 ce3c 2094 5c3d 34b9 2fbd a59c 883c
00000350: 099a 123d 97ed bfbd ccce a2bd 3bdf fbba
00000360: b86d 1eba 02a4 833d 4f2f 6e3d 8c18 90bd
00000370: 2c7f c73a 5067 babd 8c42 35bd 4bfa cabd
00000380: 56c5 85bd 6a97 9d3d 90c4 aa3c ab66 3fbc
00000390: 4636 10bc e832 44bd 9643 af3c 711c 02be
000003a0: 9afa b6bd f2a0 f0bd 8ca3 10bc f443 223c
000003b0: de3d e9bb 903e 1fbd 0be8 2abc 5504 f5bc
000003c0: d402 03bd 9dcd 2f3c 8e69 13bd 3852 6a3d
000003d0: 37b5 6b3d 9fa1 933d 979a 383d 4c62 9b3c
000003e0: e159 503c df36 edbc 45aa 103d fdda e73c
000003f0: a52e 593d 38cd e6ba 5c6d fbbc 86d5 513d
0.013511454 -0.0067002997 0.021351976 -0.0046917237 0.05292975 0.0070558097 0.015830282 0.014542159
0.042587176 0.038293008 0.009751957 0.039289825 -0.061292984 -0.053726565 0.030615464 0.03981979
0.043059558 -0.061127443 0.017680781 -0.049024522 -0.0063664713 0.023705788 0.063171454 0.026239764
-0.01112925 -0.013224092 0.024047134 0.060477924 0.04052727 0.0440864 -0.009402714 -0.01539241
0.0916292 0.073332764 0.008247028 0.03704322 0.04028092 0.053043045 -0.04741353 -0.013168875
0.017863337 0.053969007 0.022047034 0.002623216 0.015653718 0.053622425 -0.04626419 0.026844839
-0.04218719 0.0056026014 -0.055664033 0.038164858 -0.032831363 0.0039143325 -0.028036902 0.0051688915
-0.03233042 -0.032616504 -0.015034823 0.041278414 -0.020779617 -0.034255404 0.038334116 -0.021960402
-0.048358764 -0.04194962 -0.06820169 -0.06968121 -0.064903215 -0.046391323 -0.109792136 -0.10661057
0.056008525 -0.00085142045 0.015746305 0.027367424 -0.011285984 0.039826926 -0.016885348 0.010960136
-0.037831523 0.010556365 -0.052570216 0.023451375 0.01306951 0.0021986412 0.0011007409 0.06414618
0.10168708 0.056803428 0.03487502 -0.05274329 -0.016371693 -0.03727169 -0.046453945 0.0067686476
-0.036246095 -0.004737179 -0.04012503 -0.053730447 -0.030325452 -0.05663954 0.012761785 -0.044237297
0.04529615 0.025080787 -0.033062223 -0.016839795 -0.027484352 0.06734862 -0.004990884 -0.033540234
-0.0148142595 0.0064607705 -0.075796105 -0.028493837 -0.025199791 -0.015623225 0.039786566 -0.05728764
-0.025908347 0.0016564557 -0.00039225197 0.020905048 0.038626067 -0.046591986 0.041816503 0.026531547
0.062340476 0.08024475 0.03770077 0.043397415 0.009898932 0.06369083 0.097171836 0.018978626
0.04445695 0.02380081 -0.012160174 -0.042770457 -0.08243519 -0.0693056 0.0002732049 -0.013188036
0.045492392 0.114058465 0.11391367 -0.02259175 -0.031353183 -0.0051044803 -0.031556323 -0.0028547426
-0.0034183322 0.03331926 -0.033882815 0.033642925 0.007061248 -0.047589622 -0.05092927 0.017842721
0.052705396 -0.0414744 0.03305294 -0.030252099 0.06368532 0.06443745 0.030400043 0.076411255
0.06569919 0.07979767 0.045460675 0.017852565 0.061914504 0.0407383 -0.06719957 -0.028599214
0.017189547 -0.060500942 0.025607329 -0.041811116 0.065771826 -0.026728265 0.047309786 -0.052717853
0.013638683 0.000800688 -0.029451653 -0.03603678 -0.022076065 -0.01240148 -0.008213326 0.026487058
-0.012446936 0.032961097 0.05310941 -0.026897868 0.02237088 0.027928587 -0.033936694 0.056717467
0.010652034 -0.06432395 -0.029083626 -0.0015660531 0.01866271 -0.04207101 0.027173258 0.04884895
0.025246575 0.0538522 -0.042901233 0.016676256 0.03579143 -0.093714885 -0.079495996 -0.0019216308
-0.0006043571 0.064277664 0.058150586 -0.07035932 0.0015220395 -0.091017365 -0.044252917 -0.09911021
-0.065317795 0.076948956 0.020845681 -0.011682193 -0.008802002 -0.04790011 0.021394532 -0.12706162
-0.08934517 -0.11749448 -0.008828055 0.009903897 -0.007117971 -0.038878024 -0.0104313 -0.029909292
-0.03198512 0.010730174 -0.035989337 0.057207316 0.057545867 0.07208561 0.045069303 0.01896777
0.012716741 -0.028956829 0.03531863 0.028302664 0.053023 -0.0017608767 -0.030691795 0.051229022

conv2d_2.2.bias f4 [32]
00000000: 6035 383c 1f55 08bb 6722 bc3c 99c9 6a3c
00000010: bae3 6a3d 4d3a c83b 8db6 333c 7103 873d
00000020: a507 d1bb 6c9c cbbb dc7e 8dbc 9e56 c13c
00000030: 9ea2 d9bc 74e1 023d e64c be3c 1bfc e3bb
00000040: d838 c93b 6281 5b3d 429d 87bd 77c8 0dbd
00000050: 9e51 4c3c a8fa abbc e36c 22bd 6c6f 14bc
00000060: f9fd cd3c 929b ccbc 0136 89bd f0a4 a63c
00000070: 27df 233d e53d 94bc 2a96 883d ca68 48bd
0.011243194 -0.002080269 0.022965623 0.014330291 0.057346083 0.0061104656 0.0109688165 0.06592453
-0.006379085 -0.0062137153 -0.017272405 0.023600873 -0.0265668 0.03195329 0.023230027 -0.0069575435
0.0061408095 0.053590186 -0.066217914 -0.034615006 0.012470631 -0.020993546 -0.039654624 -0.009059768
0.025145518 -0.024976525 -0.066997536 0.02034232 0.040007737 -0.01809592 0.066692665 -0.04892806

conv2d_3.0.weight f4 [64, 32, 3, 3]
00000000: 6105 2c3d 2543 123c 1f91 4abd a7b6 99bd
00000010: 9950 be3a f860 0ebd da1f 013d c0d6 163d
00000020: 059d f1bc 713d 39ba e94e 93bc 1593 7abd
00000030: 608e e03b cbdd 743c 9803 27bd 92f5 523d
00000040: 39c0 133d 0a6d 213d b889 07bc 7a8f 1abc
00000050: edb4 8c3d f421 923d cc2e 52bc 9663 bd3d
00000060: 4ef8 333b 0d35 05bd 4988 e6bc 89a8 e73b
00000070: d8bd 4c3d f54a b1bc 1dc6 623d ef72 903d
00000080: c769 893d cb9e 0d3d d409 88bc 4a2d 7dbc
00000090: 2443 833d 669f 0b3c b4ba f83c 0f5e 9f3d
000000a0: 84ad 1ebd f941 e53b d4cc c4bc 9256 1bbc
000000b0: f93f 9c3b 7820 51bc 154c 6a3d 5ec3 c33c
000000c0: dda4 17bd 03df 693d 43fb 85bc 2005 0b3c
000000d0: 323e b43b 1167 31bd 3ef8 463d e0bf 9bbc
000000e0: d278 11bd 1bf5 773d f644 3e3d c661 5ebc
000000f0: 0624 16bd 53da 703d a225 d73c 57df 82bc
00000100: ec2f dfbc 5c0c 24bb f833 88bc 1465 a83c
00000110: 6443 b63c 1acb 54bd e610 113d 6b30 113d
00000120: 20b7 5abd ed64 5d3d 53c7 89bc 93e0 e33c
00000130: 3159 7e3d db5b 213d 9f0f 223d aedd 013c
00000140: cd36 713c 0615 d1bc d04d 9dbc 7613 913d
00000150: dc99 0ebd ff9d 383d fdce 7ebc 34e4 883d
00000160: d817 753d 3d96 353b 4393 be39 cad9 07bd
00000170: dcac 863d dc4d c9bc 5937 fa3c 9091 393d
00000180: e289 36bd 4454 3cbd c8f9 12bd 73ed 10bc
00000190: e70b 163d 24e9 92bc af5b c7bc 499c 203d
000001a0: 7892 413d aa61 fe3c aa91 503d f7a0 59bd
000001b0: 0e2b 863b dda4 8b3d fb82 293c 59cb 2d3c
000001c0: c914 833d 771c ac3d 5c26 0dbd 6875 afbd
000001d0: 86ac 85bd 9fe1 5d3d 5448 76bc 385e 66bd
000001e0: 5a32 7abd ed63 84bd d7fe 21bd da60 bebc
000001f0: 8c04 e4ba 884e 943d 759a e4bc b86e 4fbc
00000200: 1e83 073d 438b 61bd 5684 fdbc f60e a4bb
00000210: a1cb 3d3d 9d47 063c 238f a6b9 d821 f3bc
00000220: e2d5 933c 147c cfbc 3ee3 fa3b 6dbe f9bb
00000230: b06c b43c 10bd 703d e51a 36bd 5e0c 88bb
00000240: 6278 f9bc a4c7 64bd 6a71 8bbd 1b5e 78bd
00000250: 30ea a7bd 1928 1d3c 03bb 15bd e364 1e3d
00000260: 9b1e 533d 75bb 473c e309 9c3d b8ba 833d
00000270: 52fe c8bc 5fc9 4d3d 027d 023d 2e03 5b3d
00000280: 3f10 1abd e88b 573d 9d9f 9d3b 469b c03c
00000290: 5d36 2ebd 3904 853c 8e59 d1bc db5f 073d
000002a0: a928 3fbc dc50 913c 63b6 69bd b2f2 adbc
000002b0: fae2 953d 8190 b03d 7ba5 8d3c 3802 4d3d
000002c0: 95af 803d a15e f8bc 682d 8a3c 92a0 b03c
000002d0: 3102 64bd 8bc8 8fbd 6ae3 bbbd 0acf 233c
000002e0: 0fba 0fbd 5d1c a2bc c45a 13bd 4c1d 24bd
000002f0: 46f1 543d 1e0d 2a3d bf87 023d 0902 413d
00000300: 125d 423d b991 0e3d 0b24 1a3d b90b f8bb
00000310: ac73 7b3c 6a72 4fbd 8d05 adbc 4366 b4bb
00000320: 2b46 3cbb 4d0b 6e3d e7ee 443d 7101 983c
00000330: eff2 893d d9e2 adbc c61b 9f3c fb29 e2bc
00000340: da4a 06bd 504c 483d f1d4 ff3c e0db 163c
00000350: 676c d1bc 5bb9 4c3d 565b 3a3b a412 413d
00000360: 4fa3 b1bd e51e b3ba ca57 42bd a954 9abd
00000370: 61e3 7cbd 6e75 d0bd 417f d9ba c61b 153c
00000380: 4204 21bd 9818 513c 4258 f03d 5dd4 b93d
00000390: 9043 e7bc ed89 c13c 4e77 bc3c 96ea fcbc
000003a0: f175 013d c289 df3c a9ef 3dbd 4be8 74bc
000003b0: df84 3cbc 994c e2bc e040 b3bd b74f aa3c
000003c0: c573 37bc e800 2fbd b134 a73b e48d 39bc
000003d0: a724 e7ba 727e 6cbd c51e 33bd d42f abbd
000003e0: e70a aabd ec01 3ebd 368d 3abd c267 ec3c
000003f0: 6e20 f6bc f23a 1d3c d6f6 0dbb def9 5c3d
0.041997317 0.008927141 -0.049454805 -0.07505541 0.001451987 -0.034760445 0.031524517 0.036825895
-0.029493818 -0.00070663454 -0.017981963 -0.061175425 0.00685291 0.014945458 -0.04077491 0.051503725
0.03607199 0.03941063 -0.008272581 -0.009433622 0.06870446 0.07135382 -0.01282854 0.0924751
0.0027461234 -0.032521296 -0.028141158 0.0070696515 0.049985737 -0.021642188 0.055364717 0.07053172
0.067096286 0.034575265 -0.016606249 -0.015452692 0.064092904 0.00852189 0.030362464 0.07781612
-0.038739696 0.00699639 -0.02402345 -0.009481089 0.0047683683 -0.012764089 0.057201464 0.02389687
-0.03702246 0.057097446 -0.016355162 0.008485109 0.0055005783 -0.043311182 0.048576586 -0.019012392
-0.035515614 0.060536485 0.046452485 -0.013573116 -0.03665545 0.05880196 0.026263062 -0.015975637
-0.02724453 -0.002503178 -0.016626343 0.02055601 0.022248931 -0.051951505 0.035416506 0.035446566
-0.053397298 0.05405133 -0.016818678 0.027817046 0.06209678 0.03939424 0.03956568 0.007926388
0.014722538 -0.02552272 -0.019202143 0.0708379 -0.0348147 0.04507255 -0.01555228 0.06684151
0.059837192 0.0027707957 0.00036349343 -0.033166684 0.06575939 -0.024573259 0.03054397 0.045304835
-0.04456509 -0.0459788 -0.03588274 -0.008845675 0.036632445 -0.017933436 -0.02433571 0.039211545
0.047258824 0.03105243 0.050920166 -0.053132024 0.004094488 0.068185546 0.01034617 0.010607564
0.06400449 0.08403867 -0.03446041 -0.08567315 -0.06527047 0.054170247 -0.015031893 -0.056242198
-0.061083175 -0.06464372 -0.039549675 -0.023239542 -0.0017396375 0.07241541 -0.027905682 -0.012660675
0.033084027 -0.05506445 -0.030946892 -0.0050066663 0.046336774 0.008195785 -0.00031768632 -0.029679224
0.018046323 -0.02532772 0.007656484 -0.0076215775 0.022024482 0.058774054 -0.044459242 -0.004151865
-0.03045291 -0.055854455 -0.068087414 -0.06063662 -0.081989646 0.00959208 -0.0365553 0.03867043
0.05154286 0.012190689 0.07619073 0.06432098 -0.024535332 0.05024087 0.031857498 0.05346983
-0.03761315 0.05262366 0.004810287 0.02351154 -0.042532314 0.016237365 -0.025555398 0.0330504
-0.011667409 0.017738752 -0.057058703 -0.02123389 0.07318683 0.08621312 0.017290821 0.050050944
0.062834896 -0.03031856 0.016867355 0.02156094 -0.055666152 -0.070206724 -0.09174235 0.009998092
-0.03508955 -0.019788915 -0.035975233 -0.040067002 0.05198791 0.041516416 0.03186774 0.04712108
0.04745204 0.03480694 0.03763203 -0.007569757 0.015347403 -0.050646223 -0.02112081 -0.0055053546
-0.0028728347 0.058116246 0.048079398 0.018555375 0.06735789 -0.021226333 0.019422423 -0.027607908
-0.032786228 0.048900902 0.031229468 0.009207696 -0.025564386 0.049981456 0.0028435788 0.047136918
-0.08673727 -0.0013665823 -0.047447003 -0.07535679 -0.061740283 -0.10178648 -0.0016593711 0.00910086
-0.0393107 0.012762211 0.11735584 0.09073708 -0.028230458 0.023625338 0.023006108 -0.030873578
0.03160662 0.027287368 -0.046371136 -0.014947961 -0.011506288 -0.027624415 -0.08752608 0.020789964
-0.011197035 -0.042725474 0.005102717 -0.011325333 -0.0017634825 -0.057737775 -0.043730516 -0.08358732
-0.08302861 -0.04638855 -0.045544825 0.02885807 -0.03004476 0.009596573 -0.0021662018 0.05394923

conv2d_3.0.bias f4 [64]
00000000: 6e6f 29bd a023 81bd 0fa4 733d fc32 503d
00000010: 7eec 9a3d 31b8 983d 306f 8dbb f4ab 66bd
00000020: f4dc 06bd b79a 0bbc 254f 633d ea0f 5e3a
00000030: 4abd 0d3b b95d 803d da1d 0abc 6e26 3bbd
00000040: 28ad 0cbc fa7c 57bd f552 a03d a7ca 24bd
00000050: fed5 f8bb e800 35bd f7ef 19bd ca05 fe3c
00000060: a4ce fc3c 2764 45bd bdec d63c 32e4 23bd
00000070: 6df7 bb3b 3bae 62bd 9b3c 39bc c5ad 1bbd
00000080: 8787 f53c 892a a8bc d03a bcbc c8ca 3abd
00000090: 1aba c63d f74d 973d 71d9 fd3c 25ed f5bc
000000a0: de10 91bd 61ef 2ebd 9c9e d73c adb0 b83c
000000b0: 0383 d83c f141 54bd 86aa 9a3c 22b9 5fbd
000000c0: 3cdc 7dbd 6cef fdbc 4ceb f53c 5a12 48bd
000000d0: da64 253d 4c42 a43c 39f8 053d 906f 83bd
000000e0: 63ef 36bd ccd5 80bd 235f 673c 506e 313d
000000f0: 8631 7a3d 1988 b13d 5242 a63d b5e7 febc
-0.041366033 -0.06305623 0.05948263 0.050829872 0.075646386 0.07457007 -0.004316233 -0.05631633
-0.03292556 -0.008520774 0.0554954 0.00084709993 0.0021627718 0.06267876 -0.008429969 -0.045690946
-0.008586206 -0.05260942 0.07828323 -0.040232327 -0.007593869 -0.044190317 -0.037582364 0.03100862
0.030860253 -0.048191216 0.026235932 -0.040012546 0.0057362826 -0.05534194 -0.011305953 -0.038007516
0.029971851 -0.020528095 -0.022977263 -0.045603544 0.09703465 0.073879175 0.030987473 -0.030020306
-0.07083295 -0.04270876 0.026320748 0.022545183 0.026429659 -0.0518207 0.01888014 -0.054619916
-0.06197761 -0.030997954 0.030019425 -0.048845626 0.040379383 0.020051144 0.032707427 -0.06417763
-0.04466189 -0.062907785 0.014121803 0.043318093 0.061082385 0.08668537 0.08118118 -0.031116346

conv2d_3.2.weight f4 [64, 64, 3, 3]
00000000: 9612 a23b 98cb d93c ab6e 18b9 9621 b3bb
00000010: 8e40 043d 32f8 03bd ce8b 91bc 3be1 09bc
00000020: 0ada 233d 2c22 1cbd 2681 d9bc 58ba 95bc
00000030: bb92 53bc 3ecf 18bd e273 00bd f600 ca3b
00000040: f444 063d 009e ed3b 21de 7cbb 701b b93c
00000050: 9137 39bc f8d9 0d3c b5db 93bb 349b 0abd
00000060: e614 413c 380b f3bb 5ce6 7cbc 947a ba3c
00000070: 87d8 443c 8059 cd3b 2589 16bd 8f05 6fbc
00000080: 75c0 15bd f8a1 c3bc 4bc1 d5bc e599 85bb
00000090: 3705 6dbc 0796 e1ba 82a9 3abd 329b ccbc
000000a0: 3218 a3bc 2e8c 873c 5c96 00bd 3d4d 163c
000000b0: e595 3bbc 4fcf d43c 915d 40bd 2e25 8c3c
000000c0: 1e52 ebbc 96b8 1bbd 8a0e 2ebd 960f 80bc
000000d0: 2ab4 88bb 42f9 06bd 750d c0bc ce21 7dbc
000000e0: 3da7 cfbc a645 82bc 50ef 903c 3e83 4cbd
000000f0: dc5d 17bd 1a10 89b9 7620 04bd 2b9d bf3a
00000100: 6f2e 203d bb02 f2bc cc19 23bd 2090 703c
00000110: 0e37 293d e62a 0bbd 3249 073d 60f0 36bc
00000120: d057 8dbc 9a08 993c 1366 243d e042 f13b
00000130: 6cd1 a6bc 8619 75bc 7ba2 37bc c73f ffbc
00000140: 9b63 0e3c 769f d63b bfba 71bc 6753 d2ba
00000150: 58e2 9e39 2ce1 7e3b 3aca 95bb 43de 5f3c
00000160: d368 2cbd 88b1 0b3b 4bb0 ee3b ffa6 34bd
00000170: da57 3d3c 97e3 36bd 9a6e 07bd 28df ffbc
00000180: 51a7 c2bc 59eb 203c 0c50 8abc 26c4 873c
00000190: ced9 c6bc c83d adbc d417 15bd ac1a e93c
000001a0: 009d e4bc b8f0 24bd 5123 e3bc 17c3 1fbd
000001b0: e8c4 e0bc 0d66 2a3c 86c6 313c 5959 36bd
000001c0: 6182 9e3b 2bda 423b eb89 22bc b978 d33c
000001d0: 65a0 063d 389e d13c 0d28 43bd 00f9 093c
000001e0: d8aa 54bd a28c 1fbd f4ac ce3c e004 7bbc
000001f0: 4249 51bd 0457 c3bc 1758 983c 4773 c7bc
00000200: e511 cd3c 6e8f efbc f827 803c 85a0 c5bb
00000210: 1d32 883c a05e 1c3d a38b c3bc cb91 fa3c
00000220: 4bd5 db3b abff 27bc d3b6 eebc c0a4 373b
00000230: ee9d 8e3c 2a85 0a3d 9b67 463c 966c bb3c
00000240: 25f1 fabc a2cb 06bd 3c2c 94bb 2777 36bd
00000250: c1b7 3abc fe39 11bd 38ba 493c 24eb 35bd
00000260: f882 d2bc 6d0f 073d 085e d9bc fe58 ecbc
00000270: 8774 cc3c d1f4 043d 8cb6 643c 6fb0 d4bc
00000280: 7880 97bc ae64 a0bc 1496 80bb a190 38bc
00000290: 7ff9 5fbc 07f4 06bd 0738 e43c 525a 10bd
000002a0: 1e34 edbc 42a4 ed3c 8626 09bc 587a 72bb
000002b0: 43bb 743c e639 cb3b dcd0 f9bb 55c4 2c3c
000002c0: 1f77 053c 0099 18bd 778e 6b3c 5f57 37bc
000002d0: 0e78 193d 328f 3c3c 02e5 323c dbf8 063d
000002e0: 7fc5 41bc d95c 943c 335a 43bd bfe7 e83b
000002f0: 29dd cb3c e65b a3bc 4b31 e0bb 6b2e e93b
00000300: 7610 94bc 0617 f3bc d330 b3bc 0b44 0fbd
00000310: bbe2 4b3c 801c 45bc 43e7 403d 84af 74bc
00000320: 6e36 2a3d bec1 edbb e486 04bd 2dcc d93c
00000330: 4db8 22bc 930b f9bc 7588 8bbc 59b5 0dbd
00000340: a855 8dbc d0ad da3b 5da3 0bbb 0b05 ef3b
00000350: da8f 3c3c 5a3f 4dbb 5963 65bc f91d 40bd
00000360: ff7a 1e3c eb40 4bbd f537 7fbc 7d47 97bc
00000370: c93d 993c 30c4 35bd 727f f3bc 9078 a73b
00000380: 2dd7 d4ba 8b51 f43b 98dd b73c 889a de3c
00000390: d733 003d 80d3 153d abd6 60ba 3131 053d
000003a0: 001e 19bc fc37 173d cc57 503c e2bb d2bc
000003b0: 5aae b5bc d01e 4fbd 26c9 d6bb a18a a2bc
000003c0: 928b 203b 11a8 3e3c f262 973c e6d4 bdbc
000003d0: e022 933c 96fd 72bc 8b58 bfbb 3b9d a7bc
000003e0: 7749 163d 0090 74b9 4bcd eabb 43ee 84bc
000003f0: 172c ad3c 0fd3 1ebc c2ce b53c c2b6 0abd
0.0049460633 0.026586339 -0.00014537077 -0.0054666502 0.032288127 -0.03221912 -0.01776686 -0.008415516
0.04000286 -0.038118526 -0.02655084 -0.018277332 -0.012913401 -0.037307017 -0.031360514 0.0061646653
0.032780603 0.007251501 -0.0038584548 0.022596091 -0.011304752 0.008657925 -0.004512275 -0.03383942
0.011784768 -0.007417109 -0.015435781 0.022763528 0.012014515 0.0062667727 -0.036751885 -0.014588728
-0.036560494 -0.023880944 -0.026093146 -0.0040771835 -0.014466575 -0.0017210849 -0.04557181 -0.024976347
-0.019908998 0.016546335 -0.031393394 0.0091736885 -0.011449312 0.025977759 -0.046964232 0.017107572
-0.02872568 -0.03801783 -0.042494334 -0.015632432 -0.004171868 -0.032952555 -0.023443917 -0.015449954
-0.0253483 -0.015902352 0.017692238 -0.04992985 -0.036954746 -0.00026142673 -0.03225752 0.0014618983
0.039106783 -0.029542318 -0.039819524 0.0146828 0.04131227 -0.033976458 0.03302879 -0.011165708
-0.017253786 0.01868086 0.040136408 0.0073627084 -0.020363532 -0.014959699 -0.011208172 -0.031158341
0.00869074 0.006549771 -0.014753996 -0.0016046584 0.00030304748 0.0038891537 -0.0045712264 0.013663831
-0.042092156 0.0021315534 0.0072841994 -0.044104572 0.01155659 -0.04465064 -0.033064462 -0.031234339
-0.023761423 0.009821736 -0.016883872 0.016573023 -0.02427378 -0.021147624 -0.036399677 0.028455101
-0.027906895 -0.04026863 -0.027726801 -0.03900441 -0.027437642 0.010400307 0.010850554 -0.044518802
0.0048373197 0.002973209 -0.0099205775 0.025814401 0.032867808 0.02558814 -0.047645617 0.008421183
-0.05192074 -0.038952477 0.025228955 -0.0153209865 -0.051095255 -0.023845203 0.018596692 -0.02434696
0.025032947 -0.029243197 0.015644059 -0.0060310983 0.016625458 0.03817618 -0.023870295 0.030587098
0.006708776 -0.010253827 -0.029139912 0.0028021783 0.017409291 0.0338184 0.012109662 0.022878926
-0.030632565 -0.032909043 -0.0045218747 -0.044547226 -0.011396349 -0.035455696 0.012312464 -0.0444137
-0.025697216 0.032973696 -0.026534095 -0.028851029 0.024957908 0.032460038 0.013959538 -0.025963036
-0.018493876 -0.019579258 -0.0039241407 -0.011264951 -0.013670324 -0.032947566 0.027858747 -0.035242386
-0.028955515 0.029008988 -0.008371001 -0.0036999192 0.014937225 0.0062019704 -0.007623775 0.010544856
0.008146076 -0.037255287 0.014377228 -0.0111902645 0.03746801 0.01150875 0.0109188575 0.03295217
-0.011826872 0.01811068 -0.047693443 0.0071077044 0.02488573 -0.019941282 -0.0068418137 0.007116129
-0.018074255 -0.029674064 -0.021873867 -0.034977 0.0124441935 -0.012030721 0.04709555 -0.014934424
0.041555814 -0.007255762 -0.032355204 0.026586616 -0.009931636 -0.030401027 -0.017032841 -0.034596775
-0.017252758 0.006673552 -0.002130709 0.0072943023 0.011508906 -0.0031318278 -0.014000737 -0.046903584
0.009672879 -0.049622457 -0.015577306 -0.018466705 0.01870622 -0.044376552 -0.029723857 0.0051108077
-0.0016238444 0.0074560097 0.022444531 0.027173296 0.03129944 0.036578655 -0.000857691 0.032517616
-0.009345531 0.036918625 0.012716245 -0.025724355 -0.022177864 -0.050566494 -0.0065547405 -0.019841494
0.0024497253 0.01163675 0.018479798 -0.023172807 0.017960966 -0.014830967 -0.0058394126 -0.020460716
0.036691155 -0.00023323298 -0.007165586 -0.016226893 0.021139188 -0.009693875 0.022193316 -0.033865698

conv2d_3.2.bias f4 [64]
00000000: 638f 853b 5013 443c 57ae 58bc 1adc 4bba
00000010: 30e7 a83c bc08 44bd 4821 e13c e1ad de3a
00000020: 767b 8bbc e933 d93c 1877 c3bc e131 5bba
00000030: 78e5 2f3d 7b25 5ebc c23a 4ebd 9c16 413d
00000040: 9533 07bd 2aad 29bd a8ae 9fbc c8b6 3abd
00000050: ff46 21bc f772 523c 003a 3e3c 4fbc 7abc
00000060: 45cf 453c 04c8 863c 2f2d da3b 3bc2 ebbc
00000070: 937f 78bb d6f7 ef3b 0227 1cbd 1c3b eebc
00000080: 5b1d 0fbd ad1a 40bd 7c4b c83c 066c 92bc
00000090: a0e9 2cbd 44c5 063d 53af a53b 0151 e9bb
000000a0: b20d 4cbd dd4f 1bbd aeb5 d73b 838a cb3c
000000b0: e555 00bb 396f eabc 1c84 a2bc 7aa1 e4bc
000000c0: eac0 633b 8cb8 62bb 95fe d0bc c557 68bb
000000d0: fd0b 36bd 7e51 8b3c ba28 97bc 450e 01bd
000000e0: 97d3 3b3c 6fdd 2f3d 0e67 c5bb 685a 13bc
000000f0: 804c 7cb6 ce9b 0bbd 7b7f b6bc f4c6 8c3a
0.004075931 0.011967495 -0.01322516 -0.0007776633 0.020618051 -0.047859892 0.02748169 0.0016989076
-0.017026644 0.02651401 -0.0238605 -0.00083616195 0.042943448 -0.013558741 -0.050349005 0.047140703
-0.033008177 -0.041424908 -0.019492462 -0.04558447 -0.009843587 0.012844793 0.011610508 -0.015303685
0.012073343 0.016452797 0.0066582183 -0.02877914 -0.0037917837 0.0073232455 -0.03812314 -0.02908092
-0.034940105 -0.04690044 0.024450056 -0.017873775 -0.04221499 0.03290297 0.0050563007 -0.007120252
-0.04981775 -0.03791796 0.006582937 0.024846321 -0.0019582447 -0.028617488 -0.019838385 -0.02790903
0.0034752437 -0.0034594862 -0.02551202 -0.0035452705 -0.044445027 0.017006632 -0.018452037 -0.03150775
0.011464021 0.042935785 -0.006024248 -0.0089937225 -3.7595455e-06 -0.034084134 -0.022277584 0.0010740445

fc1.weight f4 [64, 1280]
00000000: 716f b3bc f34a 9f3c 80a4 6dbc b38e 93bc
00000010: 6f9f 61bc d495 c43c f443 723c 6a89 9fbc
00000020: 9ccd cc3b c7d9 543c 5c51 993c 8f7f 863c
00000030: 39ed d6bb cff5 ff3b 61c0 83bc 366f 953c
00000040: da03 8d3c 536f e63b b54e 8dbc f7c3 d13a
00000050: d4d7 f23b 982d 01bd 8f35 1cbb fec8 5e3b
00000060: c935 8fbc b738 ad3c 7ae8 c2bc d63c 733c
00000070: caff dbba a1a6 27bc 90d0 3dbc 3481 063c
00000080: ad47 7abc 1a02 c13a d3a7 103b 94e6 3fbc
00000090: d655 123c 1579 4f3c dff2 0a3c bf2d 93bc
000000a0: 917c 053c fdc8 25bc 87ff 7dbc 0cc2 9ebc
000000b0: 0084 813a 6232 84bc aecc e4bb 9aa4 ac3c
000000c0: 90c5 923c 08c1 24bc a800 9ebc 3b48 a9bc
000000d0: eed1 5d3c e578 1abb 3ac3 653c e68d 8a3c
000000e0: a679 f03c 5015 e9bb f895 933c 2b7a 983c
000000f0: ce8b 4fbc 50ab 803b ce7d b73a 96b3 2f3c
00000100: d26e da3c 27e4 55ba e3ad d53c 85bc 84bc
00000110: 2993 053c f36b d1bb 5270 c3bc e0a7 a2bc
00000120: e835 8b3c ae70 fe3a 22a3 0abc 8e3a b8ba
00000130: 1add 283c ca28 7abc 7b38 ad3c 11f6 2c3a
00000140: 33fa 3bbc e227 cf3c 0baf 6f3c 0c50 ce3a
00000150: 98b5 a63c f7f3 6c3c e96b 363c c930 1b3b
00000160: 5c1e a13c 24fb a5bc f828 07bc 2e6d b3bc
00000170: f5ed 88bc c34b adbc b1a7 aebc 65d7 85bc
00000180: b3fd 523b 9dc7 43bb 6311 9ebc c484 dd3c
00000190: 7e4d 213d 7f73 0fbb b651 ec3b f457 f6bc
000001a0: 47f5 f93a 2919 c13c 8362 ebbc d374 6abc
000001b0: cc31 1bbb 9d67 1cbd eb68 973c 2f05 6abc
000001c0: 2286 7abc 9eb0 cdbb 9679 dabc 711e a3bc
000001d0: 8a4c b4bb 0a10 603c 0439 d73b 1c6f 84ba
000001e0: 2a7a f93a fa07 fb3c 29a9 c5bb 1276 a43c
000001f0: ca63 963c 708d 193d b432 9a3b ebcf 0e3c
00000200: b1ee 393d 72bc 413d 7464 aa3c 4013 b5bb
00000210: f7e0 633b 73fe 4a3c 5565 2c3d 013d 0f3d
00000220: 0afc f13c 72ee 49bb dbca 60bb 1cd2 b23c
00000230: 3a80 59bc 0ecc 393c 7be7 ccbc ebb3 19bc
00000240: 4366 503b 3ec9 02bd b2c6 023c a87e 643c
00000250: e2c2 ac3c b066 263b 6501 cdbc b7c1 a6bc
00000260: 5ebd 203c 28d3 803c adf7 44bb cefa 53bc
00000270: 0722 9e3c a1d8 bdbc 3d03 17bc 2780 cbba
00000280: ac8a 86bc b619 86bc 646b 98bc b12d 59bc
00000290: 103c d6bb aae7 a5bc 9d55 7fbb e503 833c
000002a0: f20c 383b 529c b63a bcd8 64bb c5ee 02bd
000002b0: 8c55 c73b 11ff b43b 842d cabb 3a16 8cbc
000002c0: 6a11 f6bc 2c60 9bbc fda0 bdbc c49d 813c
000002d0: 010a 36bc 85ff f1bb 568f c53c 031a 7fbc
000002e0: 59ac e43b 48f5 b0bc a61d d2bc f9f0 753c
000002f0: 8201 8b3c d1a5 093c c44d e5bc 3254 3dbc
00000300: 30b4 f4bc c106 acbc 53b5 e6bc 3ead a03c
00000310: 8fe4 9fbc 944f a23c 8619 4c3b bde7 d8bc
00000320: 3c6f 513c c939 9bbc 7d7f d1bc 7fbf 8dbb
00000330: 0733 773c dbdc 413c 211e 37bc 55e6 293c
00000340: 092a 363b d7f8 a5bc 1eaf 60bc 1e89 843c
00000350: a2e6 a9bc 4bd6 533c a691 96bc f064 afbc
00000360: 4160 f0bb 9210 063b 61ba 1bbc ee70 063c
00000370: 0595 6f3c 9aa7 a6bc e6c7 e6bc 3427 9dbc
00000380: 8a5e 06bd 3012 27bd c028 f6bb a558 7ebd
00000390: 3959 00bd 344c 11bd e4e7 3cbc ecac b4bc
000003a0: f4f5 f23c 1dc9 253c f295 493a da31 4f3d
000003b0: b530 963c f8cd 143d 9943 a13c 9f6e f33c
000003c0: fd6c d4bc 3f02 4f3c d755 0aba 6a82 413c
000003d0: 2321 683d 0e88 d3bc a429 993b 80cf c6bc
000003e0: 81bf f3bb bd3f 17bc bde0 a1bc bf42 d9bb
000003f0: e357 ebba 1873 0dbc 7ebb 073d fc52 14bc
-0.021903725 0.019444918 -0.014504552 -0.01801238 -0.013770922 0.023997225 0.014786709 -0.019474704
0.0062500965 0.012991375 0.018715553 0.016418247 -0.006559041 0.007811285 -0.016082944 0.018241506
0.01721375 0.007032314 -0.017249444 0.0016003837 0.0074109826 -0.031537622 -0.0023835634 0.0033994312
-0.017481701 0.021145208 -0.023792494 0.014846047 -0.0016784605 -0.0102325985 -0.01158537 0.008209515
-0.015275878 0.0014725358 0.0022072687 -0.011712689 0.008931598 0.012663146 0.008480757 -0.01796615
0.008147375 -0.01011872 -0.015502817 -0.019379638 0.0009881258 -0.016137306 -0.0069824075 0.021074582
0.01791647 -0.010055788 -0.019287422 -0.020664325 0.013538821 -0.0023570594 0.014023596 0.016913366
0.029354881 -0.0071131364 0.018015847 0.018612942 -0.012667609 0.003926672 0.0013999285 0.010723969
0.026664171 -0.00081593025 0.026083892 -0.016203174 0.0081527615 -0.0063910424 -0.02385727 -0.01985544
0.016993478 0.0019412243 -0.008461745 -0.0014055537 0.010306621 -0.015268514 0.021145096 0.0006597946
-0.011473226 0.025287572 0.014629136 0.0015740409 0.020350263 0.014462463 0.011134126 0.0023680201
0.019667797 -0.020261355 -0.008249514 -0.021902647 -0.01671503 -0.02115429 -0.021320196 -0.01633806
0.0032194674 -0.0029873617 -0.0192954 0.027040847 0.039380543 -0.002188891 0.007211889 -0.030071236
0.0019070291 0.023571568 -0.028733497 -0.01431008 -0.0023680804 -0.03818475 0.018482646 -0.014283462
-0.015290769 -0.006277158 -0.026669305 -0.019911977 -0.005502288 0.013675699 0.006568076 -0.0010103914
0.00190336 0.030643452 -0.0060321284 0.020075832 0.01835813 0.0374884 0.0047057513 0.008716564
0.04539365 0.047298856 0.020799853 -0.0055259764 0.003477154 0.012389767 0.042088825 0.034970287
0.029539127 -0.003081229 -0.0034300599 0.021828704 -0.0132752005 0.011340154 -0.025012722 -0.009381275
0.0031799234 -0.0319302 0.007981943 0.013946213 0.021089021 0.0025390796 -0.025025079 -0.020356042
0.009810774 0.015725687 -0.0030054853 -0.0129382145 0.019303335 -0.023174586 -0.009217081 -0.0015525863
-0.016423546 -0.016369682 -0.018605895 -0.013255523 -0.0065379217 -0.020252068 -0.0038960942 0.015993068
0.0028083888 0.0013932085 -0.0034919223 -0.03196599 0.006083196 0.0055235703 -0.0061699767 -0.017100442
-0.0300376 -0.018966757 -0.023148054 0.015822299 -0.011110784 -0.0073851966 0.0241162 -0.0155701665
0.0069785533 -0.021601334 -0.025648903 0.015011066 0.016968492 0.00840135 -0.027991183 -0.011555718
-0.029871076 -0.020999314 -0.028162634 0.019613858 -0.019518165 0.019813336 0.0031143143 -0.026477689
0.012782868 -0.018948453 -0.025573486 -0.0043258066 0.015087849 0.011832441 -0.011176617 0.010369857
0.002779605 -0.020260258 -0.013713626 0.016178664 -0.020739857 0.012929509 -0.018379997 -0.021410435
-0.007335693 0.0020456654 -0.009504885 0.0082056355 0.014622931 -0.02034359 -0.02817149 -0.019183733
-0.032805003 -0.04078883 -0.007512182 -0.062096257 -0.03133509 -0.035473064 -0.011529896 -0.022055112
0.029658295 0.01011875 0.0007689885 0.05058465 0.018333772 0.03632924 0.019685553 0.029715834
-0.025930876 0.012634813 -0.00052770734 0.011810878 0.056672227 -0.025821712 0.0046741534 -0.024268866
-0.0074386005 -0.009231505 -0.019760484 -0.006630271 -0.001795527 -0.0086333975 0.03313779 -0.009052988

fc1.bias f4 [64]
00000000: e34d 193d e52b 9b3c 0fdb b53b 9a27 04bd
00000010: 94b1 65bc 4af9 263d 1d02 333d 924e fbbc
00000020: 965d 953c cab7 bfbc 3e3a 6839 4a07 7cbc
00000030: 2abc ea3c 8bfa bf3b 352f 02bc e003 183c
00000040: 99ba bebc 24a7 c33b 7525 fcbc c747 163d
00000050: b49f 423d 6bce 2e3d 30c9 02bd 104a eb3c
00000060: ffe8 023d 32af 18ba d00e bd3c 9405 ba3c
00000070: 401a 67bb 09e5 b3bb b2db e7bc 787d 0a3c
00000080: b87c 543d 5c13 033b d6e7 efbc 1135 083c
00000090: 56b0 b03c b27b ad3a 3ddc 09bd e9c9 aabc
000000a0: 9cd6 b73c e53a 123c 6ebd 53bd f1f8 65bc
000000b0: 50c5 b7bc ebf7 153c 3085 a33c 50f4 85bb
000000c0: 4e43 d3bc cec8 353c 3e9d e93b e235 343d
000000d0: 0756 33bc 701e 01bd 30c3 fbbc a750 763d
000000e0: d1dc b5bb bfd4 26bc 44f5 c6bb 6b0b 363c
000000f0: 2dad b3bc 4582 e4bb ac0d 3abd 5916 32bc
0.037427794 0.018941829 0.0055497955 -0.03226433 -0.014019389 0.040765084 0.043703187 -0.030677114
0.018233102 -0.023403067 0.00022146941 -0.015382597 0.028654177 0.0058587245 -0.007945825 0.009278268
-0.023282336 0.0059708524 -0.03077958 0.036689546 0.047515586 0.042677324 -0.03193015 0.02872184
0.031960484 -0.0005824446 0.023078352 0.022707738 -0.003526345 -0.0054899496 -0.028303001 0.008452766
0.051876754 0.0020000553 -0.029285353 0.008313433 0.021568459 0.0013235717 -0.0336573 -0.020848231
0.0224412 0.008925174 -0.051694326 -0.014036403 -0.022432953 0.0091533465 0.01996097 -0.004087962
-0.02578893 0.011095239 0.0071293404 0.0439967 -0.0109458035 -0.031523168 -0.030732721 0.06013551
-0.005550005 -0.010182559 -0.0060717184 0.011111121 -0.021933163 -0.006973537 -0.045423195 -0.010869586
