models/model01_fluxsteps20.pth (torch, 622614 bytes, 16 tensors)

conv2d_1.0.weight f4 [16, 1, 3, 3]
0	0x3ce8fb3f	0.028440116
1	0xbeb67b6a	-0.35641032
2	0xbdbaf5fa	-0.091289476
3	0xbdd8dedf	-0.10589384
4	0xbe35d508	-0.17757046
5	0x3e0c3d1f	0.13695191
6	0x3e56824b	0.2094814
7	0xbe00ce9a	-0.12578812
8	0x3ed193d9	0.4093311
9	0xbd6de6d9	-0.05808148
10	0xbebb5851	-0.36590818
11	0xbe557198	-0.20844114
12	0xbe2fb5b3	-0.17159157
13	0xbefaeb92	-0.4900785
14	0xbeabcf7c	-0.33556736
15	0xbf0dac62	-0.5534116
16	0xbe0f151a	-0.13972893
17	0xbf08f199	-0.5349365
18	0xbe60ee6c	-0.2196595
19	0xbe7e228c	-0.24817866
20	0x3db6fc96	0.08934896
21	0x3bb835ea	0.0056216614
22	0x3eaae898	0.3338058
23	0x3ed8e0b6	0.4235894
24	0x3e87889a	0.26471406
25	0x3e3d3172	0.18475893
26	0x3e458ff9	0.19293202
27	0x3ecf0b7c	0.4043845
28	0xbd820e57	-0.06350391
29	0x3efcee29	0.49400452
30	0x3d007e27	0.03137031
31	0x3c9d75f5	0.019221285
32	0x3e4d6910	0.2005961
33	0x3e220788	0.15823185
34	0x3ed1997e	0.40937418
35	0xbc1f2b8e	-0.009714974
36	0x3edd25eb	0.43192992
37	0x3ee311be	0.44349474
38	0x3f0b429f	0.5439853
39	0xbda293a1	-0.07938314
40	0x3e8811a9	0.26575974
41	0x3f0b777d	0.544792
42	0x3ea557a4	0.32293427
43	0x3d096fa6	0.033553742
44	0x3ebf8780	0.37408066
45	0x3e8dbc4c	0.27682722
46	0x3ecb797c	0.39741123
47	0x3ec2cf72	0.38048893
48	0xbe32f262	-0.17475274
49	0xbde1f330	-0.110327125
50	0x3ecd42cf	0.40090033
51	0x3ed0e362	0.4079848
52	0x3ecb84ce	0.3974976
53	0x3e94c25f	0.29054543
54	0x3e564ef8	0.20928562
55	0xbe9dbe8a	-0.30809432
56	0xbe88ab37	-0.26693127
57	0x3ea35f18	0.31908488
58	0xbe9c1558	-0.30485034
59	0x3d1ffe60	0.03906095
60	0xbe981d42	-0.29709822
61	0x3dfa1b90	0.122122884
62	0xbdcc9526	-0.09989385
63	0xbe9c16b9	-0.30486086
64	0xbf0f6dd6	-0.5602697
65	0xbed89913	-0.42304286
66	0xbef226a9	-0.4729512
67	0x3d147741	0.036246542
68	0xbeb21b49	-0.34786442
69	0x3d86d829	0.06584198
70	0x3e894e94	0.26817763
71	0xbe3ff70e	-0.18746588
72	0x3efea3df	0.497344
73	0x3ee11c57	0.43966934
74	0xbd22df17	-0.039763536
75	0x3ebba89e	0.36652082
76	0x3e7f0a43	0.24906258
77	0x3eeceb69	0.46273354
78	0x3ea5c6d9	0.3237827
79	0xbd8a231a	-0.06744976
80	0x3e957d67	0.29197237
81	0xbea1c415	-0.3159491
82	0xbe9e5465	-0.30923763
83	0xbe844af4	-0.25838435
84	0xbdc4a73c	-0.0960221
85	0xbd518eeb	-0.051161688
86	0x3e866b1e	0.262536
87	0xbe68df82	-0.22741511
88	0x3e406b03	0.18790822
89	0x3e3f449e	0.18678519
90	0xbd10a1eb	-0.035310667
91	0x3c09ee55	0.008418639
92	0xbe035d62	-0.12828591
93	0x3e8e09c2	0.2774182
94	0xbe4978e6	-0.19675025
95	0x3c190b78	0.009341113
96	0x3e87d51a	0.2652977
97	0x3e0c6cba	0.13713351
98	0x3d5fccb4	0.05463858
99	0xbe3dd003	-0.18536381
100	0xbe7fd7f7	-0.24984728
101	0x3e92848b	0.28616747
102	0x3e8f1334	0.27944338
103	0x3d76daa1	0.060267095
104	0xbcd32530	-0.025774568
105	0xbdbb4114	-0.09143272
106	0xbdff0e78	-0.124539316
107	0xbd786386	-0.060641788
108	0x3d30955f	0.0431112
109	0xbe8b6aed	-0.27230015
110	0xbd9d0cd7	-0.07668465
111	0x3e1a3c5b	0.15062086
112	0xbe6c1206	-0.2305375
113	0x3cca9232	0.024727914
114	0x3ca7f385	0.020501861
115	0x3e811376	0.2521016
116	0xbe7a5bb9	-0.24449052
117	0x3e2a05c5	0.16603763
118	0x3d222172	0.039582677
119	0x3e4f6380	0.202528
120	0x3eef38f7	0.46723148
121	0x3f012b29	0.5045648
122	0xbdcb9ba2	-0.09941794
123	0x3e582742	0.21108726
124	0x3e2eae68	0.17058718
125	0x3e8714a0	0.26382923
126	0xbd9fc488	-0.07801157
127	0x3d43fd71	0.047849122
128	0xbb9c8c75	-0.004777486
129	0x3e26df9f	0.16296242
130	0x3edc2357	0.42995712
131	0x3e0c4325	0.13697489
132	0x3ec8323e	0.39100832
133	0x3f052b7c	0.52019477
134	0x3efe3de8	0.49656606
135	0xbe0bcc9a	-0.13652268
136	0xbea70c29	-0.32626465
137	0x3e068fb5	0.13140757
138	0xbf0c069c	-0.54697585
139	0xbe20fac7	-0.15720664
140	0xbef78a1d	-0.4834756
141	0x3e3bc1b2	0.18335608
142	0xbe83f967	-0.25776216
143	0xbe90c206	-0.28273028

conv2d_1.0.bias f4 [16]
0	0xbc077332	-0.008267211
1	0x3e590c62	0.2119613
2	0xbda16e2d	-0.078823425
3	0xbb06fb3a	-0.002059652
4	0x3c3819e6	0.011236643
5	0x3e64b31d	0.22333951
6	0xbe94e4ec	-0.29080904
7	0x3ce6ccdf	0.028173862
8	0x3e81c19f	0.25343034
9	0x3e041f7c	0.12902635
10	0xbe8d3f54	-0.27587378
11	0xbe711402	-0.23542789
12	0xbe0bded3	-0.1365922
13	0xba39523f	-0.00070694456
14	0x3e8eaeb5	0.27867666
15	0x3e736253	0.23767976

conv2d_1.2.weight f4 [16, 16, 3, 3]
0	0xbd9fb346	-0.077978656
1	0xbc9c21cb	-0.019059082
2	0x3c7a5540	0.015279114
3	0xbaea61f4	-0.0017881976
4	0xbd1e6f3b	-0.038680296
5	0x3cf8b3fb	0.030359259
6	0xbd8c6166	-0.06854515
7	0xbd1bfaa3	-0.038080823
8	0xbd03d80b	-0.032188457
9	0x3d23dc29	0.040004883
10	0x3b990be3	0.0046706065
11	0xbd3ac5c8	-0.045598775
12	0x3d491775	0.049094636
13	0xbd991408	-0.07474524
14	0xbd8e9a26	-0.06962995
15	0x3d4ced6c	0.05003111
16	0xbd014d77	-0.031568017
17	0xbd044f20	-0.032302022
18	0x3cb31810	0.02186206
19	0x3d06f360	0.032946944
20	0x3c5bec6b	0.013423066
21	0x3d8179ee	0.06322084
22	0x3d005978	0.031335324
23	0x3c364656	0.011125168
24	0xbd283caa	-0.04107348
25	0xbb6b5780	-0.0035910308
26	0xbda91e83	-0.08257773
27	0xbd74771b	-0.0596839
28	0xbda2407b	-0.07922455
29	0x3b33a280	0.002741009
30	0x3d02d0e2	0.031937487
31	0x3c60ae58	0.013713442
32	0xbd86248b	-0.06549939
33	0xbc8aaff0	-0.016929597
34	0x3d073e80	0.03301859
35	0xbd7937cb	-0.060844224
36	0x3d8dc266	0.06921844
37	0xbd8a6f8e	-0.067595586
38	0x3d2cf9c0	0.042230368
39	0x3be3736e	0.0069412505
40	0xbb968a99	-0.004594159
41	0xbbc9b7eb	-0.006155958
42	0x3b2d127f	0.002640873
43	0xbcfb2d96	-0.030661386
44	0xbd6aae80	-0.057295322
45	0xbd5d4fc8	-0.054031163
46	0xbdb576a4	-0.088605195
47	0xbd9d7903	-0.07689097
48	0xbc83f39f	-0.016107379
49	0xbcbdd548	-0.02317299
50	0xbcd85f40	-0.026412606
51	0xbdb21ac3	-0.08696511
52	0x3d1010d4	0.0351723
53	0x3d8d16dc	0.06889126
54	0x3d8274be	0.06369923
55	0x3d29219e	0.041291825
56	0x3ccf2efb	0.025290957
57	0x3c9a3340	0.018823266
58	0x3c77d72b	0.015126984
59	0xbbc8576b	-0.0061139367
60	0x3ca97716	0.020686667
61	0x3d860704	0.06544307
62	0xbca5cec0	-0.020240188
63	0x3d8fba48	0.07017952
64	0x3cf4637b	0.029832592
65	0x3d2921f6	0.041292153
66	0xbd6fa460	-0.05850637
67	0x3ca73358	0.020410225
68	0x3d851d8b	0.064997755
69	0x3cb0ac3b	0.0215665
70	0xbcca7940	-0.02471602
71	0xbcf6762b	-0.030085644
72	0xbce3a963	-0.02779073
73	0x3d84deab	0.06487783
74	0xbda96640	-0.08271456
75	0xbd0aa7f5	-0.033851583
76	0xbda82944	-0.08210996
77	0xbd8019b7	-0.06254905
78	0x3d8bc1f5	0.06824104
79	0xbd332d76	-0.043744527
80	0xbda995f6	-0.08280556
81	0xbcdba547	-0.026812209
82	0xbd17f17d	-0.037095536
83	0xbcc36710	-0.023852855
84	0x3d915b80	0.0709753
85	0xbca39ce2	-0.019972268
86	0xbc4e4600	-0.0125899315
87	0xbd115edf	-0.035490867
88	0xbd953da4	-0.07287148
89	0x3d764c0b	0.060131114
90	0xbd48adb3	-0.048993777
91	0xbd0490b0	-0.032364547
92	0xbd1ed8e3	-0.038781058
93	0xbd9970fc	-0.07492253
94	0xbc55fc40	-0.013060629
95	0xbd996e8b	-0.074917875
96	0xbca72d90	-0.020407468
97	0x3d716096	0.058930002
98	0x3da6488f	0.08119308
99	0xbc2e6180	-0.010643363
100	0xbd09c678	-0.03363654
101	0xbda93127	-0.08261328
102	0xbd9b9f4c	-0.07598743
103	0x3d5f8870	0.054573476
104	0x3cdf86f0	0.027286023
105	0xbd9424ae	-0.072335586
106	0xbd8a5b37	-0.06755679
107	0x3d3eba43	0.04656435
108	0x3cc5a4a6	0.024126362
109	0xbda2d4b2	-0.07950725
110	0x3d396696	0.04526385
111	0xbbb61f80	-0.0055579543
112	0xbd00dae6	-0.031458758
113	0xbd50d80b	-0.050987285
114	0x3c2ceb96	0.010554215
115	0xbcde66ab	-0.027148565
116	0x3c1507a0	0.009096056
117	0xbd0296f3	-0.031882238
118	0x3da19920	0.078905344
119	0x3c77ec96	0.01513209
120	0xbd13b8d8	-0.036064953
121	0xbca09660	-0.019602954
122	0x3d531c56	0.051540695
123	0x3d8da5dc	0.06916401
124	0x3cfdf069	0.030998426
125	0xbd175c9e	-0.03695356
126	0xbb9d3eac	-0.004798731
127	0xbccc1e7a	-0.024916876
128	0xbd36ece0	-0.044659495
129	0x3d2a0d53	0.041516613
130	0xbcfa7cfb	-0.030577173
131	0xbd123b9b	-0.035701375
132	0x3d76d569	0.060262118
133	0xbd8ae238	-0.06781429
134	0xbc2ee1cb	-0.01067395
135	0x3c9b2a9b	0.018941214
136	0x3ce2f473	0.027704453
137	0x3d54e4c8	0.051975995
138	0xbc8c7ff8	-0.017150864
139	0x3d76192c	0.0600826
140	0x3da26d1f	0.079309694
141	0x3cf0d9b2	0.02940068
142	0xbd6ac615	-0.057317812
143	0xbc17bcf6	-0.00926136
144	0x3d6115bb	0.054952364
145	0x3ce7f5a5	0.028315375
146	0xbcb65dcd	-0.022261525
147	0x3dc67899	0.09690971
148	0x3d5dfa44	0.05419375
149	0xbd204c73	-0.039135408
150	0xbda34414	-0.07971969
151	0x3be4b0bd	0.0069790767
152	0xbc4eb0c5	-0.012615387
153	0xbd3f4925	-0.046700615
154	0x3d344483	0.04401065
155	0x3c8a53b9	0.016885625
156	0xbcc22932	-0.023701284
157	0x3d2199b7	0.039453235
158	0x3cae9269	0.021310048
159	0xbd247faf	-0.04016083
160	0xbd814ffe	-0.063140854
161	0xbd619caa	-0.055081047
162	0xbd164e61	-0.03669584
163	0x3c762a63	0.015024754
164	0x3ad43dad	0.0016192697
165	0xbd05d951	-0.032677952
166	0x3cad2c9f	0.021139441
167	0x3c7aa5b1	0.015298293
168	0xbc72f16f	-0.01482807
169	0x3d1f4b5a	0.03889022
170	0x3c1927bb	0.009347851
171	0x3c7fb47e	0.015606998
172	0xbc8e6703	-0.017383104
173	0x3c61fa06	0.01379252
174	0xbd489cd9	-0.048977707
175	0x3d44c4c2	0.048039205
176	0xbd5419a4	-0.051782265
177	0xbc6edbc8	-0.014578767
178	0xbcdce68c	-0.026965402
179	0xbcd22d96	-0.025656503
180	0xbc14a2ca	-0.009072015
181	0xbc6f2866	-0.014597034
182	0xbd3ac794	-0.04560049
183	0xbc82a39c	-0.015947156
184	0x3cc3888a	0.023868818
185	0x3cde1511	0.027109655
186	0xbd882bd3	-0.06648984
187	0xbd94b0db	-0.07260295
188	0xbd9150e1	-0.070955046
189	0xbcbd80dc	-0.023132734
190	0x3cd359f8	0.025799736
191	0x3d01bcdd	0.031674255
192	0x3d3b5e86	0.04574444
193	0xbd26dbd9	-0.040737007
194	0x3d31929d	0.043352712
195	0xbd55538f	-0.05208164
196	0xbdadfd8d	-0.084956266
197	0x3ce9de5d	0.028548414
198	0x3c8b177b	0.01697897
199	0x3cd2100b	0.025642416
200	0xbc1ee700	-0.009698629
201	0xbd911933	-0.070848845
202	0x3d3e701e	0.046493642
203	0xbd9f3a2a	-0.07774766
204	0x3cef202b	0.029190144
205	0x3d1e90ae	0.038712196
206	0xbd5717f0	-0.052513063
207	0x3d123998	0.035699457
208	0xbd965a02	-0.073413864
209	0x3d645a4b	0.055750173
210	0x3bdb2840	0.006688148
211	0xbcffbd4c	-0.031218193
212	0xbd7d7686	-0.06188061
213	0x3d182496	0.037144266
214	0x3cd4901a	0.02594762
215	0x3d6a77f7	0.057243314
216	0x3c4c95f0	0.01248692
217	0xbdd40d93	-0.103541516
218	0xbc8115ee	-0.015757527
219	0xbd3d5fc9	-0.046233926
220	0xbd3a8ebb	-0.045546275
221	0xbdc404cc	-0.095712274
222	0x3cd62265	0.026139447
223	0xbd97d5f6	-0.07413857
224	0xbd4b2c2b	-0.04960267
225	0xbdac6acd	-0.08418808
226	0x3c923e5e	0.017852005
227	0xbd98c462	-0.07459332
228	0x3b4f3f5b	0.0031623456
229	0x3cd30c53	0.025762713
230	0xbd87c3f3	-0.06629171
231	0xbc13ea8f	-0.009028091
232	0x3d8421a8	0.06451732
233	0xbc5f4449	-0.01362712
234	0xbd8f4e68	-0.06997377
235	0xbd220aa0	-0.039560914
236	0x3b8dc76b	0.004326751
237	0xbd9bfc0f	-0.07616436
238	0xbd5c853e	-0.053838007
239	0x3da5c2c6	0.08093791
240	0x3d999107	0.07498365
241	0xbd61f8ab	-0.05516879
242	0xbd9435c3	-0.07236817
243	0xbd611b6e	-0.0549578
244	0x3d3592f8	0.044329613
245	0xbafd3eab	-0.0019321045
246	0x3d8bd566	0.06827812
247	0x3c59c7eb	0.013292293
248	0x3d5a241e	0.0532571
249	0x3da79eeb	0.08184608
250	0x3d88b0de	0.0667436
251	0xbd2f1003	-0.04273988
252	0x3bde812b	0.0067903004
253	0xbd40dcd6	-0.047085606
254	0xbd82a48a	-0.063790396
255	0xbc918410	-0.017763168

conv2d_1.2.bias f4 [16]
0	0x3be00a4a	0.006837164
1	0x3cdc87b6	0.02692018
2	0x3d412709	0.047156367
3	0x3ce50ef9	0.027961241
4	0xbcc8a836	-0.024494272
5	0x3c94313b	0.018089881
6	0xbd7cb9f5	-0.06170078
7	0xbd823204	-0.06357196
8	0x3c8cfbcb	0.017209908
9	0x3d0fa138	0.03506586
10	0xbc8d9ed1	-0.017287644
11	0xbdb1f826	-0.08689909
12	0x3d49a5e3	0.049230468
13	0xbaf69cc0	-0.0018815026
14	0xbd85590d	-0.06511126
15	0xbd906ccf	-0.070520036

conv2d_2.0.weight f4 [32, 16, 3, 3]
0	0x3d6aa0cb	0.05728225
1	0xbcee9cb9	-0.029127466
2	0xbcb3ad10	-0.021933109
3	0xbd56a13e	-0.052399866
4	0xbd7465d9	-0.059667442
5	0xbd311ebb	-0.043242197
6	0xbc8d913b	-0.017281165
7	0x3d9460ac	0.07245001
8	0xbd9ef49a	-0.07761498
9	0xbda1efda	-0.07907076
10	0xbd982204	-0.07428363
11	0xb718f201	-9.116252e-06
12	0xbd9beae1	-0.07613159
13	0xbd7d28ca	-0.061806478
14	0xbc231f09	-0.00995613
15	0xbd3cfeec	-0.04614155
16	0xbd0617d1	-0.032737557
17	0x3d17c3dc	0.03705202
18	0xbd31c9ce	-0.043405347
19	0x3ddb9fba	0.10723825
20	0xbd8b1722	-0.067915216
21	0xbcdc65d2	-0.02690402
22	0x3d70e2f6	0.058810197
23	0x3d1a737e	0.0377078
24	0xbd84d7ce	-0.06486474
25	0xbd860707	-0.06544309
26	0x3d51a383	0.051181328
27	0xbd1448a5	-0.03620209
28	0x3d21afbf	0.039474245
29	0xbd78dda3	-0.060758244
30	0xbc5cb5b5	-0.013471057
31	0x3c966785	0.018359909
32	0x3ade46ab	0.0016958317
33	0x3c8cf2c5	0.017205605
34	0x3b97d65c	0.004633708
35	0x3d42c97e	0.04755544
36	0x3cd7eece	0.026358988
37	0xbc856971	-0.01628563
38	0xbc2c06b9	-0.01049965
39	0x3d7c8fc6	0.06166055
40	0xbd3f0382	-0.046634205
41	0x3ccc5cea	0.024946649
42	0x3d86753b	0.06565329
43	0x3c02b26f	0.007977112
44	0xbb818cda	-0.0039535584
45	0x3d9c2ba0	0.07625508
46	0x3bc371d2	0.005964496
47	0xbd3231a7	-0.043504383
48	0x3c25dc4c	0.010123324
49	0xbcdd632b	-0.027024826
50	0xbc337d6c	-0.010955196
51	0xbda68c47	-0.081322245
52	0xbda47852	-0.08030762
53	0xbd43fadd	-0.047846664
54	0x3c2d2a2a	0.010569135
55	0x3c904236	0.017609697
56	0xbbf08fac	-0.007341346
57	0x3bb02278	0.0053752027
58	0xbd6cc9c8	-0.05780962
59	0xbd9ad27d	-0.07559679
60	0xbe088ce3	-0.13334994
61	0xbdae40d6	-0.0850846
62	0xbdb1a04a	-0.08673151
63	0x3ba044a0	0.0048909932
64	0xbd61d7be	-0.05513739
65	0xbcf5d047	-0.030006541
66	0xbd8d26e6	-0.06892185
67	0xbb210209	-0.0024567863
68	0xbcc5f932	-0.024166677
69	0x3ca84744	0.020541795
70	0x3ab983dc	0.0014153677
71	0xbce5fdd6	-0.02807514
72	0xbd8129c8	-0.06306797
73	0x3c260c82	0.010134818
74	0x3d7a5073	0.06111188
75	0xbda21acd	-0.07915268
76	0x3cc2f865	0.023800084
77	0x3d137f8c	0.03601031
78	0x3d44f1fb	0.048082333
79	0x3d946b64	0.07247046
80	0x3d81ae87	0.063321166
81	0xbdab3359	-0.08359403
82	0xbd5f2ab6	-0.05448409
83	0x3d568d18	0.05238065
84	0xbd85c5ef	-0.065318935
85	0x3b939588	0.0045039095
86	0xbd8e5bfb	-0.06951138
87	0xbdbce6ed	-0.09223733
88	0xbd8b058f	-0.067881696
89	0xbdd719e5	-0.10502986
90	0xbd3cf699	-0.04613361
91	0xbc314680	-0.010820031
92	0xbd82c3c8	-0.063849986
93	0xbcce5ec2	-0.025191668
94	0x3d8b5d24	0.068048745
95	0x3cbdcb8b	0.023168346
96	0xbdb6c489	-0.08924205
97	0x3d82466e	0.0636109
98	0xbda360cd	-0.07977448
99	0xbd0ebc90	-0.034847796
100	0x3c72ec8c	0.014826905
101	0x3d3e1a03	0.046411525
102	0xbc5aa1f7	-0.0133442795
103	0xbd293d46	-0.0413182
104	0xbc9d644b	-0.019212862
105	0x3ca2c4e0	0.019869268
106	0xbe04ad59	-0.12956752
107	0xbd67d291	-0.056597296
108	0xbd2bb129	-0.041917
109	0x3c137733	0.009000587
110	0x3cb51486	0.022104513
111	0x3ca4ac24	0.020101614
112	0xbd65ea8f	-0.056131896
113	0xbca959b6	-0.02067266
114	0xbdbfefc8	-0.093719065
115	0xbdb4fd91	-0.088374265
116	0xbdb41fdf	-0.087951414
117	0xbc94c71f	-0.018161355
118	0xbd6aaf4d	-0.057296086
119	0x3d5ad580	0.053426266
120	0x3d1e955b	0.038716655
121	0x3d899900	0.067186356
122	0xbd8a3052	-0.067474976
123	0xbd81359d	-0.06309054
124	0x3d88fcbd	0.06688831
125	0x3d2d579b	0.042319875
126	0xbd8efcf4	-0.06981841
127	0xbc22a6ca	-0.009927461
128	0xbd6a674c	-0.057227418
129	0xbdb2a5f0	-0.08723056
130	0x3d53e410	0.05173117
131	0x3c919aa1	0.017773928
132	0x3c2466b8	0.010034256
133	0xbe0239d5	-0.12717374
134	0xbd28b214	-0.041185454
135	0x3da49d4a	0.08037813
136	0x3d7b2f08	0.06132415
137	0xbc03ee80	-0.008052468
138	0x3da26660	0.07929683
139	0x3d88f2be	0.066869244
140	0x3d6813f0	0.05665964
141	0xbd7e2a56	-0.062052093
142	0xbd3c0bb8	-0.045909613
143	0xbc7008c0	-0.014650524
144	0x3d76219e	0.060090654
145	0xbd865929	-0.06559975
146	0x3cc50c59	0.02405374
147	0x3aff9a56	0.0019500952
148	0x3c4e6019	0.012596154
149	0xbd60cbbc	-0.054881796
150	0xbc1c4ea0	-0.00954023
151	0x3d5cc39e	0.053897493
152	0xbd8ae0d6	-0.06781165
153	0xbd9c3241	-0.07626773
154	0x3d5f3a84	0.054499164
155	0xbdc8370a	-0.09776123
156	0x3d2daedc	0.042403087
157	0x3da375d1	0.07981456
158	0xbd17aff8	-0.03703305
159	0xbcba2d21	-0.022726597
160	0x3d1aefb1	0.037826244
161	0x3c313c49	0.010817596
162	0xbc826cb0	-0.015920967
163	0x3db65a7c	0.08903977
164	0x3cf50d4b	0.029913565
165	0xbdbeb7f6	-0.093124315
166	0x3d66e12c	0.056367084
167	0xbceb4a86	-0.028722059
168	0x3da690f8	0.08133119
169	0xbcd5c700	-0.026095867
170	0xbd1f391b	-0.03887282
171	0x3d942345	0.0723329
172	0xbcf17321	-0.029473843
173	0xbd526ace	-0.051371388
174	0x3cd21006	0.025642406
175	0x3da08893	0.078385495
176	0xbb3758d6	-0.0027976534
177	0x3ba3b6f7	0.0049961763
178	0x3d49177f	0.049094673
179	0xbd95a59e	-0.073069796
180	0xbd168240	-0.03674531
181	0x3c7eb117	0.015545151
182	0xbd4cf373	-0.05003686
183	0x3d3889ed	0.04505341
184	0x3d90b478	0.07065672
185	0x3c38abac	0.0112713985
186	0xbd0bf27d	-0.0341668
187	0xbbac6b03	-0.00526178
188	0xbda44e1c	-0.08022711
189	0xbda7b0f6	-0.081880495
190	0xbcc6cc3e	-0.024267312
191	0xbd1dd957	-0.03853735
192	0xbdca6621	-0.09882761
193	0xbd6f8da6	-0.058484696
194	0xbd4db3c5	-0.05022027
195	0xbccc7fa8	-0.024963215
196	0xbd41fb67	-0.047358897
197	0xbc0eb173	-0.008709299
198	0xbdb3698b	-0.08760365
199	0x3ca76fe9	0.020439105
200	0xbda57a36	-0.080799505
201	0xbdf93721	-0.12168718
202	0xbd270ab2	-0.040781684
203	0xbc06b55a	-0.0082219485
204	0x3bc79583	0.006090821
205	0x3cdf5e2f	0.02726659
206	0xbd909ad0	-0.07060778
207	0x3d7e3c86	0.06206944
208	0x3da58851	0.08082641
209	0xbd6815df	-0.056661483
210	0xbd98c000	-0.07458496
211	0x3d8f6d52	0.07003273
212	0x3be14bdb	0.0068754978
213	0x3d71ecf4	0.059063867
214	0x3d7fda58	0.06246409
215	0xbd7532a3	-0.059862744
216	0x3d408e35	0.04701062
217	0x3d9c7fc0	0.07641554
218	0x3d67c7d5	0.05658706
219	0x3d6dc1c0	0.058046103
220	0xbcfca860	-0.030842006
221	0x3d33b34d	0.043872166
222	0xbda801dc	-0.0820348
223	0xbbd67d13	-0.0065456717
224	0x3cec275b	0.02882736
225	0xbd088a38	-0.03333494
226	0x3da3588f	0.079758756
227	0x3c7b2b72	0.015330182
228	0x3d03c037	0.032165732
229	0xbd9e9835	-0.07743875
230	0x3baeef7c	0.0053386074
231	0x3ce61634	0.02808676
232	0xbd1f6ab0	-0.038920105
233	0xbd80f5c0	-0.06296873
234	0xbcc250e0	-0.023720205
235	0x3da1bc09	0.07897193
236	0x3d79b652	0.06096489
237	0x3c651a34	0.013983298
238	0xbb9c0f50	-0.0047625676
239	0xbd3815ab	-0.04494254
240	0xbd555a0a	-0.05208782
241	0xbd26e46c	-0.040745184
242	0xbd703acc	-0.058649823
243	0xbd878a6d	-0.066181995
244	0x3ba632af	0.00507196
245	0x3c87e237	0.01658736
246	0xbd826f16	-0.06368844
247	0xbdb0a945	-0.086260356
248	0xbdf533bf	-0.119727604
249	0x3ddc6740	0.10761881
250	0x3e0f30bb	0.13983433
251	0x3d8bb0d1	0.068208344
252	0x3d4657b1	0.048423473
253	0xbd0cef09	-0.03440765
254	0xbdb8030a	-0.08984955
255	0xbce199a7	-0.027539087

conv2d_2.0.bias f4 [32]
0	0x3d81444a	0.06311853
1	0x3d969e3b	0.07354399
2	0x3d2d0443	0.042240392
3	0xba798113	-0.000951783
4	0xbd7b3600	-0.061330795
5	0xbd9e8161	-0.07739521
6	0xbc284b6e	-0.01027189
7	0xbd27231a	-0.04080496
8	0x3d101c26	0.035183094
9	0xbc9ebc5a	-0.019376922
10	0xbd99c132	-0.07507552
11	0xbd2a41d9	-0.041566703
12	0x3d80f648	0.062969744
13	0xbd9b29fd	-0.07576368
14	0x3d7a2fb6	0.061080657
15	0x3b497b77	0.0030743757
16	0xbc3b420b	-0.01142932
17	0x3d21d49e	0.03950941
18	0xbc9e65db	-0.019335678
19	0x3d91e1fb	0.071231805
20	0x3d65c009	0.056091342
21	0x3d51205f	0.051056262
22	0x3d20d1b5	0.039262492
23	0xbd65f5db	-0.05614267
24	0xbda3ae96	-0.07992284
25	0xbdb1d8c3	-0.08683922
26	0x3d5549f2	0.052072473
27	0xbb8be3b4	-0.0042690877
28	0xbd0a2766	-0.03372898
29	0xbd1d2aa9	-0.038370762
30	0xbb8c33c8	-0.0042786337
31	0xbc8d20f4	-0.017227627

conv2d_2.2.weight f4 [32, 32, 3, 3]
0	0xbcf2e9a0	-0.029652417
1	0xbb40ec0e	-0.0029437575
2	0x3d7cbe68	0.061705023
3	0xbbe8952a	-0.00709786
4	0xbda22e05	-0.07918934
5	0xbdde414f	-0.108523004
6	0x3ca9cbb2	0.020727012
7	0x3b9167c0	0.004437417
8	0x3d0ff3c5	0.035144586
9	0x3cb192fc	0.021676533
10	0x3d1c1d2c	0.038113758
11	0x3d8cb988	0.06871325
12	0xbd95f1b9	-0.073214956
13	0x3cb44c66	0.022009086
14	0xbda02c8d	-0.078209974
15	0xbb756d4d	-0.0037449182
16	0xbdb32e62	-0.08749081
17	0x3cee9d80	0.029127836
18	0x3d987348	0.07443863
19	0x3d91f3a0	0.07126546
20	0x3bb1ee0d	0.005429989
21	0xbc74980e	-0.014928831
22	0xbc438e81	-0.011935831
23	0xbd6fa191	-0.05850369
24	0xbd45f68c	-0.04833083
25	0xbc00b8be	-0.007856546
26	0xbdc423bb	-0.095771275
27	0x3caee855	0.021351019
28	0x3d78b489	0.060719047
29	0x3d1b087b	0.037849884
30	0xbc810124	-0.015747614
31	0x3da2d45a	0.07950659
32	0xbb5c7994	-0.0033641802
33	0x3d962795	0.073317684
34	0x3dbd3769	0.09239084
35	0x3d69ac79	0.05704925
36	0x3ca5a23b	0.02021896
37	0xbd719dc2	-0.05898834
38	0xbca0abdc	-0.019613199
39	0x3d231b6a	0.039821066
40	0xbd3e4b05	-0.046458263
41	0xbd860962	-0.065447584
42	0xbcd77505	-0.026300916
43	0xbc967df2	-0.018370602
44	0x3d4b16cc	0.049582288
45	0x3cc9017d	0.024536842
46	0x3cf9de06	0.030501377
47	0xbc7ec3f6	-0.01554965
48	0xbcb3ac15	-0.021932641
49	0xbc613b9a	-0.01374712
50	0xbd175441	-0.036945585
51	0xbc9ed2a9	-0.01938756
52	0xbcaa3698	-0.020777985
53	0xbd5f3e9f	-0.05450308
54	0x3c43af9c	0.011943724
55	0x3c0cebea	0.008601168
56	0x3c42d547	0.01189167
57	0xbd280992	-0.041024752
58	0x3d561a30	0.052271068
59	0x3d455e32	0.048185535
60	0x3d296c0c	0.041362807
61	0xbbcb281d	-0.0061998502
62	0xbd0e27be	-0.03470587
63	0xbd458e29	-0.048231278
64	0xbd47bf85	-0.04876663
65	0xbd528465	-0.051395793
66	0x3db77cb2	0.089593306
67	0xbd8e7a92	-0.06956972
68	0xbdaf2605	-0.085521735
69	0xbc90f843	-0.017696505
70	0x3b796238	0.0038052928
71	0x3d7175cf	0.05895024
72	0x3a8af836	0.0010602537
73	0xbc96ad8e	-0.018393304
74	0xbcb83f7b	-0.022491207
75	0x3daa7db0	0.08324754
76	0x3d76c402	0.06024552
77	0x3d9d55c3	0.076823734
78	0x3d8d9f9a	0.06915207
79	0x3ce8c81a	0.028415728
80	0xbc051c4b	-0.008124421
81	0xbd4413d0	-0.047870457
82	0x3cf9ecd6	0.03050844
83	0x3d77bc87	0.060482528
84	0xbcce4c6d	-0.025182927
85	0xbd49ac68	-0.049236685
86	0x3d0dc198	0.034608454
87	0x3b97a666	0.0046279905
88	0xbb8fcc59	-0.004388374
89	0x3cce8639	0.025210487
90	0x3d6b5032	0.057449527
91	0xbb1513b8	-0.002274735
92	0x3dc51e44	0.09624913
93	0xbe003782	-0.12521175
94	0xbdb974f3	-0.090555094
95	0xbdb40b52	-0.08791222
96	0x3d77b33b	0.060473662
97	0xbc550e0d	-0.013003838
98	0x3d8aaa22	0.067707315
99	0x3d8be500	0.06830788
100	0x3d6068ce	0.05478745
101	0x3be6423d	0.007026939
102	0x3dbd7720	0.09251237
103	0x3d59a67d	0.05313729
104	0x3d5f9bc3	0.054591905
105	0x3d436fe2	0.04771412
106	0x3d7a8cd6	0.061169468
107	0x3da2a67f	0.07941913
108	0x3c585f05	0.013206248
109	0x3d53edd5	0.051740486
110	0xbd7b946a	-0.061420836
111	0xbdb8b733	-0.090193175
112	0xbcf203b9	-0.02954279
113	0xbc069d95	-0.008216281
114	0xbdbdb341	-0.092627056
115	0xbdd565d0	-0.1041981
116	0xbc02ed89	-0.007991203
117	0xbc869082	-0.016426329
118	0x3c1ff057	0.009761891
119	0x3d2575b9	0.040395472
120	0xbd02e788	-0.031959087
121	0xbac32bee	-0.0014890411
122	0x3d09b427	0.033619072
123	0xbd8af817	-0.06785601
124	0x3cefb98c	0.02926328
125	0x3d1b17ce	0.0378645
126	0x3d73dd90	0.05953747
127	0xbd1f6398	-0.03891334
128	0x3d783405	0.060596485
129	0xbd2db883	-0.042412292
130	0x3a547fa3	0.00081061776
131	0xbdb19450	-0.086708665
132	0xbd4b5400	-0.049640656
133	0xbd17a89b	-0.03702603
134	0x3c5bc26a	0.013413051
135	0xbda3f211	-0.08005155
136	0xbc999883	-0.018749481
137	0xbd992c27	-0.074791245
138	0x3c194d80	0.009356856
139	0x3d22de22	0.039762624
140	0x3dcb1d16	0.09917657
141	0x3d9d3768	0.076765835
142	0xbc3219d8	-0.010870419
143	0x3da07d01	0.078363426
144	0x3d4350bf	0.047684427
145	0xbbac1da4	-0.005252557
146	0xbbb65185	-0.005563917
147	0xbd005f4d	-0.031340886
148	0xbbe1ac40	-0.006886989
149	0x3b13632e	0.0022489536
150	0x3ce64596	0.028109353
151	0x3d897292	0.06711306
152	0x3dc8e6ec	0.0980967
153	0xbcd1b498	-0.02559881
154	0x3cd27182	0.02568889
155	0x3d4b2e8a	0.04960493
156	0xbda18613	-0.07886901
157	0x3c9eaad8	0.019368574
158	0xbd46db9e	-0.048549287
159	0xbc961300	-0.018319607
160	0xbcb63820	-0.02224356
161	0x3d0dcb37	0.03461763
162	0x3d69bf0d	0.057066966
163	0x3be58c04	0.0070052166
164	0x3d1df00a	0.038558997
165	0x3da712e9	0.08157904
166	0x3d01367a	0.031546094
167	0x3d7f3fce	0.06231671
168	0x3dbfa153	0.09356942
169	0x3dd8c4f4	0.10584441
170	0x3d610434	0.05493565
171	0x398d198f	0.00026912658
172	0xbab13fac	-0.0013523004
173	0xbd6b8ff7	-0.057510342
174	0xbcda58b5	-0.026653627
175	0xbd32e415	-0.043674547
176	0xbda26835	-0.07930032
177	0xbd3c4f39	-0.04597399
178	0xbda1d0ad	-0.0790113
179	0xbcc06c98	-0.023489282
180	0x3c86ab95	0.016439239
181	0x3d65c1df	0.056093093
182	0xbc88b7a9	-0.016689138
183	0xbdc9b2bc	-0.09848544
184	0xbd3f52c3	-0.046709787
185	0xbd0d118e	-0.03444057
186	0x3d3d5730	0.046225727
187	0x3da705be	0.08155392
188	0x3d0c2fe5	0.034225363
189	0x3ba3aed5	0.004995207
190	0x3d36e07b	0.044647675
191	0x3d4d4980	0.050118923
192	0x3dbe280d	0.09284983
193	0x3d965065	0.07339553
194	0x3d39c626	0.045354985
195	0xbdb5ad43	-0.08870938
196	0xbd922726	-0.07136373
197	0xbd77b6ac	-0.060476944
198	0x3bf21f64	0.007388996
199	0x3db29d61	0.08721424
200	0x3dbfcc8d	0.09365187
201	0x3ad0a022	0.0015916864
202	0xbcc66e0d	-0.024222398
203	0x3d214e1c	0.03938113
204	0xbc6089ae	-0.0137047
205	0xbd7743f1	-0.06036753
206	0xbc2cfbdc	-0.010558095
207	0x3be9ee2f	0.0071389894
208	0x3d44ae78	0.04801795
209	0x3c945b19	0.018109845
210	0x3d4c5814	0.049888685
211	0x3cbea0ff	0.023270128
212	0xbcd43b31	-0.02590713
213	0xbccd652f	-0.025072662
214	0xbca4d6e1	-0.020121993
215	0x3d22ddc7	0.039762285
216	0x3d3d764a	0.046255387
217	0xbcef5dda	-0.029219557
218	0xbb9b4794	-0.0047387574
219	0x3c469e06	0.012122637
220	0xbc212e7e	-0.009837745
221	0xbc81908e	-0.015816
222	0x3d004405	0.03131487
223	0xbd3ee390	-0.04660374
224	0x3ba3e6f7	0.0050018984
225	0xbb9728f3	-0.004613036
226	0xbcf60de2	-0.030035917
227	0x3d1ea8b5	0.03873511
228	0x3c96634c	0.018357895
229	0xbd55c44a	-0.05218915
230	0xbcab7bd4	-0.02093307
231	0xbc51ccb2	-0.012805151
232	0xbd1a653b	-0.037694197
233	0xbd065046	-0.0327914
234	0xbd4364bd	-0.047703493
235	0xbd53cf24	-0.051711217
236	0xbd4e810b	-0.050416034
237	0xbd9b0ace	-0.0757042
238	0xbc3cad4f	-0.011515929
239	0xbd58ba80	-0.052912235
240	0x3d5ebe4e	0.054380707
241	0x3ccee6b3	0.02525649
242	0x3b2a3969	0.002597416
243	0x3d4bf2c3	0.049792062
244	0xbcf6a9b9	-0.030110227
245	0x3b8fc6f1	0.0043877293
246	0xbd187fb3	-0.03723116
247	0x3cb87c14	0.022520103
248	0x3d92be3e	0.07165192
249	0xbd045d67	-0.032315638
250	0xba1b155a	-0.00059159624
251	0xbd11d65c	-0.03560482
252	0x3ce3ee28	0.027823523
253	0x3d78f06e	0.060776167
254	0x3d8b664e	0.068066224
255	0x3cf5fc68	0.030027583

conv2d_2.2.bias f4 [32]
0	0xbbc2987d	-0.005938588
1	0x3d249255	0.040178616
2	0xbda49340	-0.08035898
3	0xbdb0309f	-0.08603024
4	0xbd5aeaad	-0.05344646
5	0xbca51492	-0.02015141
6	0xbd222717	-0.03958806
7	0x3b0a72fc	0.0021125665
8	0x3d2da8a5	0.04239716
9	0xbd27f28b	-0.04100279
10	0xbd5c42dc	-0.0537747
11	0x3b92e9cd	0.0044834376
12	0xbd4db587	-0.050221946
13	0xbc943dbc	-0.018095843
14	0xbd3cb961	-0.04607523
15	0x3b8740a5	0.0041275793
16	0x3b9cf7ae	0.004790268
17	0xbd29ca41	-0.04145265
18	0x3d3a0126	0.04541125
19	0x3c76e844	0.015070025
20	0x3ccab2a3	0.024743384
21	0xbd5c54d7	-0.053791847
22	0x3d617228	0.05504051
23	0xbccb6036	-0.02482615
24	0x3c9e4ef2	0.019324753
25	0x3d117b90	0.03551823
26	0xbbd6d665	-0.0065563195
27	0x3d629176	0.055314504
28	0xbd01c309	-0.03168014
29	0xbd9e52f3	-0.07730665
30	0xbd71e453	-0.059055638
31	0xbc516d1a	-0.0127823595

conv2d_3.0.weight f4 [64, 32, 3, 3]
0	0xbca5f7d6	-0.020259779
1	0xbd4da5bb	-0.05020688
2	0xbd855582	-0.0651045
3	0xbd2146c6	-0.039374135
4	0xbc8a1c4c	-0.016859196
5	0xbdcb59b5	-0.0992922
6	0xbddef04d	-0.108856775
7	0xbe08881a	-0.13333169
8	0xbdf21b20	-0.1182158
9	0xbd25159d	-0.040303815
10	0xbd01ced0	-0.031691372
11	0xbd538c08	-0.051647216
12	0xbdb02481	-0.086007126
13	0xbcf45c4f	-0.029829172
14	0xbcdf4b19	-0.027257489
15	0xbc24afdf	-0.010051697
16	0xbdfbfc4c	-0.12303981
17	0xbdc15ce9	-0.09441549
18	0x3b94c6f9	0.004540321
19	0xbcabd246	-0.02097429
20	0x3d2609bb	0.040536623
21	0xbd922751	-0.07136405
22	0x3b9fcdc9	0.0048768264
23	0x3cd4d707	0.02598144
24	0xbd41a717	-0.04727849
25	0xbd014a30	-0.03156489
26	0x3d32287e	0.043495648
27	0x3d507c4f	0.0508998
28	0x3ca8c03f	0.020599483
29	0x3d0754a8	0.03303972
30	0xbd2e5de5	-0.042570014
31	0xbc844911	-0.016148122
32	0xbd816f5b	-0.063200675
33	0x3d015ab5	0.031580646
34	0xbd4c2453	-0.04983933
35	0xbd465b05	-0.048426647
36	0x3d540a0e	0.0517674
37	0x3ae3433a	0.0017338761
38	0x3c9c9785	0.019115219
39	0x3d32ae56	0.04362329
40	0xbc2db5b4	-0.010602403
41	0xbd7239b6	-0.05913707
42	0x3cbeb69a	0.02328043
43	0x3cb80e81	0.022467854
44	0x39a173ce	0.00030794594
45	0x3c1258d4	0.008932311
46	0xb82c1420	-4.102674e-05
47	0xbce2e0fb	-0.02769517
48	0x3d0a2fd1	0.033737008
49	0xbcbfc892	-0.023411069
50	0x3d0daef2	0.03459067
51	0x3a92de5d	0.0011205185
52	0xbd6d1dbe	-0.057889692
53	0xbd393181	-0.045213226
54	0x3a08a9c2	0.0005213284
55	0x3b4ef1f9	0.0031577332
56	0xbb620d44	-0.003449277
57	0x3d35d155	0.044389088
58	0x3d5f90cc	0.05458145
59	0x3c9ba923	0.01900155
60	0x3c9f1481	0.019418957
61	0x3ba63b65	0.0050729983
62	0xbd3d264c	-0.0461791
63	0xbdb5c3fa	-0.0887527
64	0xbd9a3b37	-0.075308256
65	0xbdb02ca6	-0.08602266
66	0xbd8ac877	-0.06776517
67	0xbd8a34d0	-0.067483544
68	0xbdbf631a	-0.09345074
69	0xbdbfa887	-0.09358316
70	0xbda14ccd	-0.07875977
71	0xbd0037d2	-0.031303234
72	0xbc23e86a	-0.010004142
73	0xbcce5d32	-0.025190923
74	0xbd0d86ed	-0.034552503
75	0xbc3b2adc	-0.011423793
76	0xbdc8cf41	-0.098051555
77	0xbdce83b2	-0.10083713
78	0x3c038d74	0.0080293305
79	0xbc97228c	-0.01844909
80	0xbab54f55	-0.0013832847
81	0x3d40f788	0.047111064
82	0x3e0e42e5	0.13892706
83	0x3e0dcc72	0.13847521
84	0x3d7c8499	0.061649892
85	0xbc2044da	-0.0097820405
86	0x3d871b60	0.06597018
87	0x3dc3d70b	0.095625006
88	0x3cddf356	0.02709357
89	0x3d4d7744	0.05016257
90	0x3d4a086f	0.04932445
91	0x3cccfa36	0.025021654
92	0xbd2eb902	-0.042656906
93	0xbd7bdefe	-0.06149196
94	0xbd3b9380	-0.045794964
95	0x3b65083f	0.0034947542
96	0xbc587fb9	-0.013214045
97	0xbd52a669	-0.051428232
98	0x3cac814b	0.021057745
99	0xbd19ee94	-0.03758104
100	0x3c9bb58a	0.019007463
101	0x3d8e45c8	0.069469035
102	0x3bf99b28	0.007617373
103	0x3c8fc2df	0.017548976
104	0xbd4d8a82	-0.05018092
105	0xbd515f2b	-0.05111615
106	0x3c086767	0.008325434
107	0x3cc53408	0.024072662
108	0x3bced94f	0.0063125263
109	0xbd4e5fe0	-0.050384402
110	0x3d031965	0.03200664
111	0x3be026d3	0.0068405657
112	0xbc921618	-0.0178328
113	0x3ce9363f	0.02846825
114	0x3d103fdb	0.035217147
115	0xbc77265e	-0.015084831
116	0x3cb5dcd0	0.022200018
117	0xbd322756	-0.043494545
118	0x3d4e41af	0.05035561
119	0xbc9c7e7f	-0.019103287
120	0xbda73d7d	-0.08166025
121	0xbda0d7ca	-0.078536585
122	0x3b9bbe12	0.0047528828
123	0xbcccd8c4	-0.025005706
124	0xbd239fe2	-0.039947398
125	0xbd3f76f3	-0.0467443
126	0x3d99948a	0.07499035
127	0x3d39176c	0.045188352
128	0x3c14cd88	0.009082206
129	0xbcb5e645	-0.022204528
130	0x3c9e9cbb	0.019361844
131	0xbc27d0cd	-0.010242653
132	0x3c549cf4	0.012976874
133	0xbcf0ae51	-0.029379996
134	0x3c469b5b	0.012122001
135	0xbd83053c	-0.06397483
136	0x3cafa83e	0.021442529
137	0xbd764da1	-0.060132626
138	0x3c944393	0.018098628
139	0xbd5affcb	-0.0534666
140	0xbd86d130	-0.06582868
141	0xbc5d54c6	-0.013508981
142	0xbd9e3a10	-0.07725918
143	0xbd7bd988	-0.06148675
144	0x3d3e39ac	0.04644172
145	0x3ce896fa	0.028392304
146	0x3cb536d8	0.022120878
147	0xbd3c9296	-0.046038233
148	0x3c97034c	0.01843419
149	0x3ce98b72	0.028508876
150	0x3ce142cd	0.027497673
151	0x3d0a5b07	0.033778217
152	0x3d1885f9	0.03723714
153	0x3d536ab9	0.05161545
154	0xbd10c769	-0.035346422
155	0x3ca3866d	0.01996156
156	0x3b94f122	0.004545347
157	0x3d411bc4	0.04714562
158	0xbc2c7a36	-0.010527184
159	0x3d19b9a9	0.037530575
160	0x3bcf2d17	0.006322514
161	0x3c706fb5	0.0146750705
162	0x3cd26412	0.025682483
163	0x3cf6eff7	0.030143721
164	0x3bee4413	0.0072712987
165	0xbdcb2c2b	-0.09920534
166	0xbd3f4785	-0.046699066
167	0xbda4bc69	-0.08043749
168	0xbd0adfae	-0.033904724
169	0x3cc1c37f	0.02365279
170	0xbd5d0a8e	-0.053965144
171	0x3d11f69d	0.03563558
172	0x3c425bcf	0.011862709
173	0x3ca5e7f5	0.020252207
174	0xbc1813ca	-0.009282062
175	0x3c8f7143	0.017510062
176	0x3d40cdc5	0.047071237
177	0x3cb62a94	0.0222371
178	0xbccf5c37	-0.025312526
179	0x3c10e28a	0.008843074
180	0x3d3c939d	0.046039212
181	0xbba6a7f7	-0.005085941
182	0x3b761b9f	0.0037553085
183	0xbc2a210e	-0.010383857
184	0xbb347b8f	-0.0027539467
185	0xbd8bff52	-0.06835808
186	0xbc8f574b	-0.01749768
187	0xbd5e18c9	-0.054222856
188	0xbd811637	-0.06303065
189	0xbc88bd01	-0.016691687
190	0xbd0cc476	-0.034367047
191	0xbd60b8b5	-0.05486365
192	0x3d5d3db3	0.05401392
193	0xbd44292a	-0.04789082
194	0xbc1f9c99	-0.009741926
195	0xbcbd7a85	-0.02312971
196	0xbb3c82c4	-0.0028764466
197	0x3d4afb4e	0.04955607
198	0x3b8de378	0.004330095
199	0x3d0caa33	0.034342002
200	0x3d7bea8e	0.061502986
201	0xbc661030	-0.014041945
202	0xbbafdc51	-0.00536684
203	0xbd28a473	-0.041172456
204	0xbcf8e236	-0.030381303
205	0xbd49fb86	-0.049312137
206	0x3c66fa51	0.014097766
207	0x3c892b89	0.016744392
208	0x3ce2f2d0	0.027703673
209	0x3d356d1e	0.044293515
210	0x3ba3cfb7	0.004999127
211	0x3d1b495f	0.03791177
212	0x3c9c6f97	0.019096179
213	0x3d1df03f	0.038559195
214	0xbd122571	-0.03568024
215	0x3d3406b3	0.0439517
216	0x3dd22e94	0.1026279
217	0x3ddd4869	0.10804827
218	0x3da466fe	0.08027457
219	0xbce2e482	-0.027696852
220	0x3cb6ea29	0.022328453
221	0xbd0837ee	-0.033256464
222	0xbd8584aa	-0.06519444
223	0xbdf217d8	-0.11820954
224	0xbda0b4c7	-0.078469805
225	0xbd00a34c	-0.031405732
226	0xbd5e8f3b	-0.054335814
227	0xbc8fb029	-0.017540054
228	0xbd0e0e3d	-0.034681547
229	0xbdc3d15e	-0.09561418
230	0xbdd44012	-0.10363783
231	0xbdc9fe6f	-0.098629825
232	0xbb1e1f32	-0.002412748
233	0xbd8fdd32	-0.070246115
234	0x3d4699cf	0.048486527
235	0xbd44992f	-0.04799765
236	0x39ea6da0	0.00044713635
237	0xbd1bc7c6	-0.038032316
238	0x3d261a65	0.040552516
239	0x3da46823	0.08027675
240	0xbd071121	-0.03297532
241	0x3ca22907	0.019794954
242	0xbcadeb50	-0.02123037
243	0xbda6f7ab	-0.08152708
244	0xbd23084c	-0.039802834
245	0x38549442	5.0682815e-05
246	0xbc12f81b	-0.008970286
247	0xbd07c628	-0.03314796
248	0xbc8b4993	-0.017002856
249	0xbde70053	-0.11279359
250	0xbd94dab4	-0.07268277
251	0xbd2acedc	-0.041701183
252	0x3e054cba	0.1301755
253	0x3e00424f	0.12525295
254	0x3da91ac6	0.0825706
255	0xbd69f940	-0.05712247

conv2d_3.0.bias f4 [64]
0	0x3d50c953	0.050973248
1	0x3c038f03	0.008029702
2	0x3d4c247c	0.04983948
3	0x3dacf0ad	0.08444343
4	0xbd23ccb6	-0.03999015
5	0x3d94a7e5	0.07258586
6	0xbd78d7cf	-0.060752686
7	0xbd26a785	-0.040687103
8	0xbd0b74a0	-0.03404677
9	0xbcb7c062	-0.022430602
10	0x3d6af6e1	0.05736435
11	0xbbf24ee0	-0.0073946565
12	0xbd80fec6	-0.06298594
13	0x3d980804	0.07423404
14	0xbd37b3e4	-0.04484929
15	0xbc585316	-0.013203403
16	0xbd6a2a5e	-0.05716931
17	0x3d02f417	0.031971063
18	0x3d662157	0.05618414
19	0xbd95c05e	-0.07312082
20	0xbd224cc9	-0.03962401
21	0x3d8357ab	0.06413206
22	0xbd356710	-0.04428774
23	0xbc7e9077	-0.015537373
24	0x3d89bc77	0.067254
25	0xbddde36d	-0.10834394
26	0xbd2c1fe8	-0.042022616
27	0x3d2c99fd	0.042139042
28	0x3a433cad	0.0007447701
29	0xbd297646	-0.04137256
30	0xbd7f5f1f	-0.062346574
31	0xbd20445b	-0.03912769
32	0x3d4d21d2	0.05008108
33	0xbd61985e	-0.05507695
34	0x3d4cb6fd	0.0499792
35	0x3cb0030d	0.02148583
36	0x3d69493b	0.056954604
37	0xbd5280f7	-0.05139252
38	0x3d634bea	0.05549232
39	0xbd6d5ff5	-0.05795284
40	0xbe040630	-0.12892985
41	0xbc3db052	-0.011577683
42	0x3d54731b	0.051867586
43	0xbd1d31de	-0.038377635
44	0x3d72b496	0.05925425
45	0xbd17abf7	-0.037029233
46	0xbd7d0ab4	-0.061777785
47	0x3d96f5c6	0.07371096
48	0xbd8832c5	-0.066503085
49	0x3d3d9fc8	0.046294957
50	0xbc19a1fb	-0.009376998
51	0xbd121e36	-0.035673343
52	0xbd9470aa	-0.072480515
53	0xbca4834b	-0.020082137
54	0x3db9f8aa	0.09080632
55	0xbba50316	-0.0050357683
56	0x3d487aa9	0.048945103
57	0x3dba6623	0.09101512
58	0xbd2f485d	-0.04279362
59	0x3d8fb1bf	0.07016324
60	0x3d7cfed6	0.061766468
61	0xbd712e8d	-0.058882285
62	0x3d6d7411	0.057972018
63	0x3d996a86	0.07491021

conv2d_3.2.weight f4 [64, 64, 3, 3]
0	0x3ae4719b	0.0017428877
1	0x3b8bec16	0.004270087
2	0xbbf51a73	-0.0074799596
3	0xbc8ff6c1	-0.017573716
4	0xbcacfd55	-0.021116892
5	0xbd12dfdb	-0.035858016
6	0x3ce476cc	0.027888678
7	0xbd10b089	-0.035324607
8	0xbd3a29bd	-0.04544996
9	0x3c9959b5	0.018719533
10	0xbd3e3311	-0.04643542
11	0xbcfe1556	-0.031016033
12	0xbd4f69e4	-0.050638095
13	0xbd2639cc	-0.040582463
14	0xbb8af54f	-0.004240669
15	0xbd4e3cb3	-0.050350856
16	0x3c95b3fe	0.018274304
17	0xbbc09ff7	-0.0058784443
18	0xbc8dc1cd	-0.017304325
19	0xbd2c060f	-0.041997965
20	0xbd0c94ec	-0.03432171
21	0xbd0daff5	-0.034591634
22	0xbbc7f188	-0.006101791
23	0xbd24e6ad	-0.040259052
24	0xbc92725e	-0.0178768
25	0x3c8534dd	0.016260559
26	0x3b892a4a	0.0041859495
27	0xbcfa9dde	-0.030592855
28	0x3c5aa89d	0.013345865
29	0xbc086ecf	-0.0083272
30	0x3c5c4d17	0.013446114
31	0xbc6f6dd2	-0.014613586
32	0xbd4a2af1	-0.04935736
33	0x3c9db9c3	0.019253617
34	0xbc836217	-0.016037984
35	0xbcff090c	-0.031132244
36	0xbc8f4bc5	-0.017492184
37	0x3af25aaa	0.0018490155
38	0xbccf0d69	-0.02527495
39	0x3c7e2dc4	0.015513841
40	0xbd0992fc	-0.03358744
41	0x3a549586	0.0008109439
42	0xbd293f07	-0.041319873
43	0xbcee9306	-0.02912284
44	0xbd7107dc	-0.058845386
45	0x3cacb086	0.021080267
46	0xbd0e0f50	-0.034682572
47	0x3c88d39a	0.016702462
48	0xbcf217bb	-0.029552331
49	0x3c903674	0.01760409
50	0x3d072759	0.03299651
51	0xbd1d4789	-0.0383983
52	0xbd4448aa	-0.04792086
53	0xbd1df980	-0.03856802
54	0xbcb20750	-0.021732002
55	0x3c33b90b	0.010969411
56	0x3c906ff6	0.017631512
57	0x3c19058b	0.0093397
58	0xbcb63453	-0.022241747
59	0x3d1da97c	0.03849171
60	0x3ca9a106	0.020706665
61	0xbccf3406	-0.025293361
62	0xbce03b50	-0.027372032
63	0x3cc62976	0.024189692
64	0x3ce8ee18	0.028433844
65	0x3c9f74d0	0.01946488
66	0xbbdee176	-0.0068017794
67	0x3c585706	0.013204342
68	0xbc479890	-0.01218237
69	0x3c3c8a80	0.01150763
70	0x3d1a1ade	0.03762328
71	0x3b841f36	0.004032041
72	0x3cbc9816	0.023021739
73	0xbb4681d6	-0.003028979
74	0x3ca355b5	0.01993833
75	0x3c589420	0.0132189095
76	0x3ce3d21b	0.027810147
77	0x3d3b2699	0.045691106
78	0xb892afe5	-6.9945854e-05
79	0x3cf3afa1	0.029746832
80	0x3d1a1af0	0.037623346
81	0x3c217230	0.009853885
82	0xbbba3400	-0.0056824684
83	0xbd2122a7	-0.039339688
84	0x3d1f73d3	0.038928818
85	0x3c8b9dd3	0.01704303
86	0xbd21449b	-0.039372068
87	0xbc86a52e	-0.016436186
88	0x3b7391c0	0.0037165731
89	0x3ccc1196	0.02491073
90	0xbccddf6b	-0.025130948
91	0xbcf8e5e7	-0.030383063
92	0xbd040cf7	-0.032238927
93	0xbd4a8f63	-0.04945315
94	0x3c0301f2	0.007996069
95	0x3bad8b6c	0.0052961614
96	0x3c971557	0.018442793
97	0xbcd97f36	-0.026549917
98	0x3c8228ae	0.015888538
99	0xbcd75206	-0.026284229
100	0x3d00792f	0.03136557
101	0xbb54b7c0	-0.0032458156
102	0x3acb86d6	0.0015527855
103	0x3c5e8bfb	0.013583179
104	0xbce366cb	-0.027758976
105	0xbd28bac8	-0.041193753
106	0xbd278db2	-0.040906616
107	0x3d22d284	0.039751545
108	0xbd80d8d2	-0.06291355
109	0xbc81a77a	-0.01582693
110	0xbc38244a	-0.011239121
111	0x3c26a81c	0.010171916
112	0x3ba949bf	0.005166262
113	0xbd1fc6f8	-0.03900811
114	0x3c14ba9d	0.009077695
115	0xbcb67736	-0.022273641
116	0xbd78f358	-0.060778946
117	0x3c859cd5	0.016310135
118	0xbd15d8f7	-0.036583867
119	0xbcbb1985	-0.022839317
120	0x3ca76e75	0.020438412
121	0x3c058ad2	0.008150773
122	0xbcc9efa3	-0.0246504
123	0x3cbaefcc	0.022819422
124	0xbb1cadb0	-0.0023907237
125	0xbd11de17	-0.035612192
126	0xbcef6c96	-0.029226582
127	0x3c774e10	0.015094295
128	0xba1b5756	-0.0005925795
129	0xba417e00	-0.0007381141
130	0x3c9908d6	0.018680971
131	0x3cb934eb	0.022608241
132	0xbcdda68b	-0.027056953
133	0x3cf9bdc3	0.030485993
134	0x3c408080	0.011749387
135	0xbcf54808	-0.029941574
136	0x3b415d80	0.0029505193
137	0xbcbcb020	-0.023033202
138	0x3b42c02b	0.0029716592
139	0xbb44d0eb	-0.0030031751
140	0x3b7f45eb	0.0038951586
141	0x3c80f633	0.015742397
142	0x3d059b00	0.032618523
143	0xbcc7fac3	-0.024411565
144	0x3d1f7593	0.038930487
145	0x3b8087e0	0.0039224476
146	0x3d0c5ca2	0.03426803
147	0xbd03f57c	-0.032216534
148	0xbc197fb0	-0.009368822
149	0xbc99b230	-0.018761724
150	0xbd05b12e	-0.032639675
151	0x3d042b47	0.032267835
152	0x3c4e2116	0.0125811305
153	0xbd0cbd6d	-0.034360338
154	0x3cadaec0	0.021201491
155	0xbd5d1a98	-0.05398044
156	0x3c7fc79b	0.0156115545
157	0xbce464e9	-0.027880149
158	0x3c8965fc	0.016772263
159	0xbca6d5d2	-0.02036563
160	0xbab6eaa4	-0.0013955426
161	0xbc9e1b72	-0.019300196
162	0x3c61a7b2	0.013772892
163	0xbd57ae1c	-0.052656278
164	0xbd2134e1	-0.03935707
165	0xbd548b55	-0.05189069
166	0xbce576e1	-0.028010787
167	0x3c18b0db	0.009319509
168	0xbc3085c1	-0.010774077
169	0x3c5b9357	0.013401828
170	0x3c96418e	0.018341806
171	0xbbfeabe7	-0.007771957
172	0x3cd689a1	0.026188673
173	0xbd3182e1	-0.043337706
174	0x3c468e20	0.012118846
175	0xbcf8802c	-0.030334555
176	0x3cb8d121	0.022560658
177	0xbcc8b7e7	-0.024501754
178	0x3cd173bc	0.025567882
179	0x3c2ca83d	0.010538158
180	0xbd0fdb64	-0.035121337
181	0xbbf8ec8b	-0.0075965575
182	0xbcc86530	-0.024462312
183	0xbc9b9180	-0.018990278
184	0xbc51a560	-0.012795776
185	0xbae167a5	-0.0017197026
186	0x3d1484fc	0.036259636
187	0xbd2018f6	-0.039086305
188	0xbcc3ac94	-0.023886003
189	0x3cdd4d64	0.027014442
190	0xbc44781d	-0.011991528
191	0xbc8fe857	-0.017566843
192	0x3ccee4ef	0.025255648
193	0x3ca0a3ce	0.019609358
194	0x3a0e81c6	0.0005436208
195	0xbd41b202	-0.047288902
196	0xbbbefefe	-0.0058287373
197	0x3d072e2a	0.03300301
198	0xbc820446	-0.015871178
199	0x3ca9b028	0.02071388
200	0x3b8fb20b	0.004385238
201	0xbd2273a4	-0.039661065
202	0x3bb5d820	0.0055494457
203	0xbd0189c3	-0.03162552
204	0xbc9cb906	-0.019131195
205	0x3cfb5683	0.0306809
206	0x3d03e152	0.032197304
207	0x3d15ab18	0.03654012
208	0xbcd2ad08	-0.025717273
209	0x3d024b5a	0.031810142
210	0xbcece228	-0.028916433
211	0xbbcc9c6b	-0.0062442324
212	0xbd22c4ec	-0.03973858
213	0x3b81de00	0.003963232
214	0xbcd54bc8	-0.026037112
215	0xbd05d3bb	-0.032672625
216	0xbc64ae47	-0.013957567
217	0x3b40343e	0.0029328014
218	0xbcdf3130	-0.027245134
219	0xbb2646e3	-0.0025371842
220	0xbd1163f9	-0.035495732
221	0xbc10ee2b	-0.008845846
222	0xbd406a04	-0.046976104
223	0xbd2fc3c6	-0.042911313
224	0xbd01a8c2	-0.03165508
225	0xbd52ee97	-0.05149707
226	0xbb62233e	-0.003450587
227	0x3bd69cc6	0.0065494506
228	0xbb8acd68	-0.004235912
229	0xbc00264e	-0.007821633
230	0xbb7d615d	-0.003866277
231	0xbc51c196	-0.012802502
232	0xbce81366	-0.028329562
233	0xbd4dab92	-0.05021245
234	0xbd173a7f	-0.03692102
235	0x3cd9ebd3	0.026601708
236	0x3d29613e	0.041352503
237	0xbc40c266	-0.011765098
238	0xbc4e5556	-0.012593588
239	0xbcddee88	-0.02709128
240	0x3b26502b	0.0025377374
241	0x3d17762f	0.036977943
242	0x3d11cb40	0.035594225
243	0x3c53d158	0.012928329
244	0xbd46079d	-0.048347104
245	0x3bd8a097	0.0066109407
246	0x3c6febd9	0.014643633
247	0x3ca86957	0.020558042
248	0x3cd26c20	0.025686324
249	0xbd4853db	-0.048908096
250	0xbc53f927	-0.0129378205
251	0xbd4f8066	-0.05065956
252	0xbcf2b876	-0.029628973
253	0xb9206b0a	-0.00015298664
254	0xbd3ecd45	-0.04658248
255	0xbd70973b	-0.058737975

conv2d_3.2.bias f4 [64]
0	0xbd3b3bf5	-0.045711476
1	0x3d21565b	0.039388996
2	0x3d865123	0.06558444
3	0x3c251daf	0.010077878
4	0xbda0a510	-0.07843983
5	0x3cb4e1e9	0.022080379
6	0xbd2c9b73	-0.042140435
7	0x3d2f5648	0.042806894
8	0xbb8d90e1	-0.0043202494
9	0xbc8acbd3	-0.016942894
10	0xbcc4d93b	-0.024029365
11	0xbc585a49	-0.013205119
12	0x3d0bc5a2	0.034124024
13	0x3c760bad	0.015017432
14	0xbcce24a9	-0.025163965
15	0xbd5daa41	-0.054117445
16	0xbd53ea8b	-0.05173735
17	0xbd530434	-0.05151768
18	0x3b02dcf4	0.0019968124
19	0x3bb918d7	0.005648713
20	0xbc8fea2a	-0.017567713
21	0x3c88da09	0.01670553
22	0x3d29bf49	0.04144219
23	0xbd8d6332	-0.06903686
24	0x3ce19224	0.027535506
25	0xbc76c85a	-0.015062416
26	0xbc8aa44d	-0.016924048
27	0xbc971144	-0.01844085
28	0x3d3645f3	0.044500303
29	0xbc2e3e5f	-0.010634988
30	0x3c1e397a	0.009657258
31	0x3d0b725a	0.0340446
32	0x3bd02e95	0.0063532093
33	0xbcc80e01	-0.02442074
34	0xbd5778b8	-0.05260536
35	0x3cc2abb7	0.02376352
36	0xbd7bd19a	-0.06147919
37	0xbd5635ef	-0.05229753
38	0xbd453929	-0.048150215
39	0x3b73814e	0.003715593
40	0xbc8ab368	-0.01693125
41	0x3c965282	0.01834989
42	0xbc850907	-0.016239656
43	0xbd077730	-0.03307265
44	0xbd4688ff	-0.048470493
45	0x3c0f6294	0.00875153
46	0x3c8f7e2f	0.017516224
47	0xbcaeb948	-0.021328583
48	0xbcd919d4	-0.026501574
49	0xbc3df2bb	-0.011593516
50	0x3d698c18	0.05701837
51	0xbb1c878a	-0.0023884499
52	0xbb3613f0	-0.002778288
53	0xbd092c5d	-0.033489574
54	0x3ca63c1a	0.02029233
55	0xbc86af5a	-0.016441036
56	0x3c1d0286	0.009583121
57	0xbd485505	-0.048909206
58	0xbd941262	-0.07230069
59	0xbd2a6240	-0.041597605
60	0x3b213ae2	0.0024601747
61	0xbc6e32ad	-0.014538449
62	0xbd86e05e	-0.065857634
63	0xbd53ba7e	-0.051691525
