models/model02_fluxsteps20_dropout.pth (torch, 622902 bytes, 16 tensors)

conv2d_1.0.weight f4 [16, 1, 3, 3]
00000000: ca7b 0f3e c1f5 14be dd4f 9dbd 039d df3d
00000010: 7f3f 953e 5a91 603e c265 0b3e aca3 7e3e
00000020: 1462 7d3d d837 6bba ec19 823e 8640 183d
00000030: 2c3e d63e 98ee 5cbe 9bb8 1b3e 8bea 183d
00000040: 87cf 16be d872 a93d 7afe ac3d d782 ca3e
00000050: 3725 55bd c4f0 513e 1b1d da3e a329 c3bd
00000060: 61b5 933d 146c 06be cbad cf3e c228 9bbd
00000070: 2c0f 2f3e 03a6 46be 158f 023d 5c19 c43d
00000080: 77c8 2c3e b69a bd3e 6898 073e 335d c7bd
00000090: 3cc4 833e d362 9dbe 78db 5f3e 6cb9 91be
000000a0: fc38 81be b7a9 e2be 9864 1bbe 80dd 56be
000000b0: 06d6 4ebe af32 8cbe a6f6 5cbe a06a 45bd
000000c0: 00b0 aeba 9072 323e bb0c 4fbe d044 efbd
000000d0: bee8 9bbe b0e2 3d3e 3046 4d3e 9dd7 5cbc
000000e0: fb83 173d dc86 9e3e f7a0 aa3e 1edb 2d3e
000000f0: 89c6 c1bd 9d0d e6bd 5268 19bd 5591 49be
00000100: 2ac1 e1be 7084 b1be a260 1abf 11b0 edbe
00000110: c902 df3c 5970 06bf ea59 b2be 5a54 59be
00000120: 4cc1 9a3e eb22 893e f44b 743e 4f3a 59bd
00000130: 2f9d d0bd 7925 833c 6785 bdbe 6296 b9be
00000140: df1b b0be 3077 823e 8374 863e 07c1 a2be
00000150: de3e 863c d9fc d73d 663a 1b3e 7b8e 3ebe
00000160: 4352 5c3e 245b ab3e e181 81be 9721 03be
00000170: 6155 4d3c 5039 b63e 317e 54bd acea c4bd
00000180: 379b d73e 015f a53d cfed 47bd 8666 3b3e
00000190: a734 8cbb a738 75be 1f3c 503e b5c7 ce3e
000001a0: 41f4 853e 2873 ba3d 1b86 913d 6f8d 83be
000001b0: a699 a8be 20c6 3a3d 3eea 85be 2b4e 21bc
000001c0: 4bbb 9fbd f024 a23d b695 efbd 806f aabe
000001d0: d6e0 77be 5470 a9be eef5 36be 20c7 5dbd
000001e0: 00f0 793c ebed e33c 002e 093b 5797 83be
000001f0: d6d3 2ebd fbb5 c73d cc25 283e fd36 2e3e
00000200: 1d6a 843e 1472 a23e f6b1 06be ae1e 9f3d
00000210: 7287 59bd 3760 553e 9b2c 553e 968e c53d
00000220: c67c cb3e ac5b 8f3e c60d 9c3e 1bc2 45be
00000230: b836 38be 2826 b63e 25d4 583e e0b8 933e
0.14012066 -0.14546873 -0.07681248 0.109186195 0.29150006 0.21930447 0.13613036 0.24867123
0.061861113 -0.000897286 0.25410402 0.03717091 0.41844308 -0.21575391 0.1520714 0.037333053
-0.14727603 0.08273858 0.08446975 0.39552948 -0.052037444 0.20502001 0.4260033 -0.09529426
0.0721233 -0.13127166 0.4056228 -0.07576133 0.17095631 -0.19399266 0.031874735 0.095751494
0.16873346 0.37032098 0.13241732 -0.09734573 0.25735652 -0.3073946 0.21861064 -0.28461778
-0.25238788 -0.44270107 -0.15175092 -0.20982933 -0.20198831 -0.2738242 -0.21578464 -0.04819739
-0.0013327599 0.17426515 -0.202197 -0.11683047 -0.30451006 0.18543506 0.20046306 -0.013479141
0.0369911 0.30962265 0.3332593 0.16978118 -0.09461696 -0.11233065 -0.037453003 -0.19684346
-0.44092685 -0.34671354 -0.603037 -0.4642339 0.027223008 -0.5251518 -0.34834224 -0.21223584
0.302256 0.26784453 0.23857099 -0.053034123 -0.101862304 0.01600908 -0.3701584 -0.36247545
-0.34396264 0.25481558 0.26260766 -0.31787893 0.0163874 0.10546274 0.15158996 -0.1860904
0.21515755 0.33467972 -0.25294402 -0.12805782 0.012532563 0.355906 -0.051878158 -0.096150726
0.42110607 0.08074761 -0.048810776 0.18300828 -0.0042787376 -0.23947392 0.20335434 0.4038674
0.26162913 0.091039956 0.07105657 -0.25693843 -0.32929724 0.045599103 -0.26155275 -0.009845297
-0.07799395 0.079172015 -0.11698477 -0.33288193 -0.24206862 -0.33093512 -0.17867252 -0.05414498
0.015254974 0.027823409 0.002093196 -0.257014 -0.04268249 0.09751507 0.16420668 0.17013164
0.25862208 0.3172766 -0.13153824 0.077695236 -0.053107686 0.20837484 0.20817797 0.09646337
0.39743632 0.27999628 0.30479258 -0.19312327 -0.17989624 0.35575986 0.21174677 0.28851986

conv2d_1.0.bias f4 [16]
00000000: c685 6c3e aba2 283c 6016 d7bd 8056 01be
00000010: fc55 0a3e 6830 80be 5e42 993d 9c35 843d
00000020: a6e2 b4bb 5bf3 813e 2a50 9e3b 4d01 4f3e
00000030: 20bf 44be 4812 60be dc3a 4d3e 415f a83b
0.23097906 0.010292689 -0.105023146 -0.12630653 0.13509363 -0.2503693 0.07483362 0.06455538
-0.0055201827 0.25380978 0.0048313336 0.2021534 -0.19213533 -0.21881974 0.20041984 0.0051383083

conv2d_1.2.weight f4 [16, 16, 3, 3]
00000000: 8410 d0bd d6e2 cebc 200c 14bd e25a 293d
00000010: 963c 9fbd 336a 83bd 89e8 263c d459 a8bd
00000020: 1407 01bd 686f 603c 9c6c 38bd 46a7 5e3d
00000030: 3efa 37bd 97f8 c8bc 70e1 d3bc d77d e8bd
00000040: 9f38 44bd 6395 33bd 889d 22bd 0d87 04bd
00000050: 6081 75bd 26b6 b03c 78ae ee3d 5e51 2a3d
00000060: 68a5 3e3d 7827 fc3d 6656 9fba d6da b03d
00000070: a52d df3d 5fb8 8cbc 7c65 a6bd e83f 163d
00000080: 6e54 da3c 727b 6f3d 68ae 0c3d a933 1abd
00000090: 2c5d 4cbd 13ea 3ebd e85b 04bc f0d7 1c3c
000000a0: edcf 303d c816 1c3d d627 163d 75fa ccbb
000000b0: 04a0 0e3b a8d6 0d3d 90bc 0dbd 2079 c9bc
000000c0: 1b93 993c e88c 193d b696 4a3d a80e 44bd
000000d0: c003 b13c b25d a3bd 0e37 483d 6094 1c3c
000000e0: 939e 9fbc 30d1 92bc 52b7 eb3c 0993 183d
000000f0: e688 b1bc 6730 01bc 0bcd 82bc 93b7 123d
00000100: 91fe 30bb 87c4 173d 1220 c2bb 15bf 103c
00000110: d8b1 1e3d 4f62 5bbd d2c1 9b3d ec5b 86bd
00000120: edc8 953c 962d babd be39 b5bd bfea 0abd
00000130: f8d3 823c c87c 89bd 3a2b 51bc 1833 2bbd
00000140: 7108 1e3c f03f fa3b 26a8 86bd 57db bcbd
00000150: 9b59 8b3d 28a1 943c 361d 06bd 7825 083d
00000160: c3e1 953d eae5 56bd 434a 96bd e97d b9bc
00000170: 90bb 743d 3204 72bc bd9b 11bb fdf7 693d
00000180: 6f6f 76bb 4c7a 663b a52a 4fbd fcc2 8d3c
00000190: 231d a2bc af44 bcbc 2f71 15bc 22a1 c03a
000001a0: d06f eebb 4214 8d3d 2c2e 523d dbd0 74bc
000001b0: 6eeb 683d 061e a6bc 73cc 62bd 6b82 fdbc
000001c0: f800 993d 73ef 823d 561b c8bb 5477 883d
000001d0: c0eb 7dbd 5341 a43d 6033 8a3c 18d1 5bbd
000001e0: ab2c 66bd 222c 80bd b392 47bd c6fd a3bd
000001f0: c69c 06bd 6bcc 93bd afdd 463c 8aa8 9ebd
00000200: e2f1 bfbd bd43 8d3d 676d f9bc 6c0b 68bd
00000210: de48 de3c 7244 5c3c c481 e03a 28cf c5bd
00000220: 0b6a c5bc 2c3a 873d 74f8 2cbd b8d4 a03c
00000230: 6d91 8a3d 2880 b8bd ee5e d73b e82d 883d
00000240: a0a2 14bc 744b 7dbd bd8a 00bd 1135 a0bc
00000250: 459a 243d 06a2 c63d 7786 023d 1748 8bbc
00000260: 4375 603a 933d 7fbd 590d 6ebd ab76 b33c
00000270: 08e4 8e3d 02a3 4a3d 9ff2 0c3e 1f5d e33d
00000280: 27ee e33d e9b8 c73d 2f58 cfbd ae19 0ebe
00000290: faa1 89bd fd64 00be c348 81bd 054f bcbd
000002a0: 7659 97bd 12df 04bd c509 60bd 464c a7bd
000002b0: 3898 02be 8867 9dbd 47de bfbd 67dd ecbc
000002c0: 3a8e 77bd 18e6 4f3d 687d 893d 1788 33bc
000002d0: e68b 90bd 78b0 cd3a e7d3 73bd e654 6a3c
000002e0: 3a46 83bd bcee 183d 87a4 de3c d878 633d
000002f0: 22f0 da3c 73f6 55bd e052 d4bc 8064 d9bb
00000300: de61 073d 2b8b 193d 6643 da3c c0b4 89bb
00000310: 0e89 38bd 66a2 bfbc 9d7c a1bd 5d60 afbd
00000320: 6b3f a2bd 2cc1 e63d 770a f43c 1457 0cbb
00000330: 19d2 afbc 2664 d23b 814b 1ebb 9bdc 5dbd
00000340: e4d5 33be 78b6 d5bd 816f 1cbd b9e5 a5bd
00000350: 47d4 2bbe 6fdc 31be eb4c 22be 0668 10be
00000360: 1876 c93d 74ef a3bc 167b 9d3d 046d 063e
00000370: cb65 fd3d 8e17 953c be55 8c3d 92b6 5b3d
00000380: c484 813d a1b1 883d 8d85 99bd 6979 84bb
00000390: 8e7d 713d 7a1d 963d 705f 663d e28f e8bc
000003a0: fe67 1fbd 2c1e e7bc 0918 b03d df05 f93d
000003b0: a5de 3f3d 4a8f 013e c019 793d fd49 d23d
000003c0: 1df9 793d d330 d4bc ba99 a4bc eb78 44bd
000003d0: 686f 91bd d587 2a3d 8eea e83c f5b1 2f3d
000003e0: c7be 893d 3988 e3bc 3bf0 3d3b 21e9 30bc
000003f0: 570c 82bd 47ba 99bd d4ef 9abd 8825 11bd
-0.101594 -0.025254648 -0.036144376 0.04134644 -0.07775228 -0.0641674 0.010187277 -0.08220258
-0.03150089 0.013698436 -0.045025453 0.054358743 -0.044916384 -0.0245326 -0.025864333 -0.11352127
-0.04790556 -0.04384364 -0.039701015 -0.032355357 -0.059937835 0.02157123 0.11654371 0.041581504
0.046544462 0.123122156 -0.0012156486 0.0863549 0.10897378 -0.017177759 -0.08124825 0.03668204
0.026651587 0.058467336 0.034346014 -0.037646923 -0.049893543 -0.04660995 -0.008078553 0.009572968
0.043167043 0.038107663 0.036659084 -0.0062554427 0.0021762857 0.03462854 -0.034603655 -0.02459389
0.018746903 0.037487894 0.049460135 -0.04786554 0.021608233 -0.07976855 0.04888063 0.00955686
-0.019484794 -0.017922014 0.028773937 0.0372496 -0.021671724 -0.007885075 -0.015966913 0.0358196
-0.0027007202 0.037052657 -0.0059242332 0.00883462 0.038743824 -0.05356055 0.07605328 -0.065605015
0.018284285 -0.09090726 -0.08848904 -0.033915278 0.015970215 -0.06713253 -0.012766654 -0.041796774
0.009645567 0.0076370165 -0.065750405 -0.09221523 0.068042 0.018143252 -0.0327427 0.033238858
0.07318451 -0.052465357 -0.07338383 -0.022643046 0.059749186 -0.014771508 -0.0022218071 0.057121266
-0.003760304 0.003516811 -0.05057778 0.01730489 -0.019789284 -0.02298197 -0.009121223 0.0014696459
-0.0072765127 0.068886295 0.051313564 -0.014942373 0.05686515 -0.020277988 -0.05537076 -0.030945977
0.07470888 0.063933276 -0.0061067743 0.06663385 -0.061992407 0.08020272 0.0168702 -0.053666204
-0.056194942 -0.06258418 -0.048723888 -0.08007388 -0.032864355 -0.07216724 0.012137814 -0.0774699
-0.09372307 0.06897686 -0.030447675 -0.056651518 0.027134355 0.013444053 0.0017128517 -0.096586525
-0.024098417 0.06602892 -0.04222913 0.019632682 0.06766019 -0.09008819 0.006572596 0.06649381
-0.009071976 -0.061839536 -0.03138231 -0.019556554 0.040186185 0.09698872 0.031866517 -0.017002149
0.0008562395 -0.06231458 -0.058118198 0.021907171 0.06977087 0.049471863 0.13764428 0.11101746
0.11129408 0.09752066 -0.101242416 -0.13876984 -0.06720348 -0.12538524 -0.06312706 -0.09194759
-0.0739011 -0.0324393 -0.054696817 -0.08168845 -0.1275338 -0.07685763 -0.09368568 -0.028914167
-0.060438372 0.050756544 0.067133725 -0.010957739 -0.070579335 0.001569285 -0.059528258 0.014302468
-0.06409879 0.03733705 0.027178062 0.055535167 0.026725832 -0.052236985 -0.025918424 -0.006634295
0.033052318 0.037486237 0.026643466 -0.0042024553 -0.04505258 -0.023392867 -0.07885096 -0.08563302
-0.07922252 0.11267313 0.029790146 -0.0021414207 -0.021462487 0.00642063 -0.002415389 -0.054165464
-0.17562062 -0.10435194 -0.038192276 -0.08100457 -0.16780196 -0.17369245 -0.15849654 -0.14102182
0.09836978 -0.020011641 0.076894924 0.13127524 0.12372931 0.018199708 0.068522915 0.05364091
0.06324151 0.06674505 -0.07496176 -0.0040427935 0.05895763 0.07329841 0.05624336 -0.028388921
-0.038917534 -0.02821263 0.08598334 0.12159323 0.04684319 0.12652317 0.060815573 0.102680184
0.06102859 -0.025902187 -0.020092834 -0.04796688 -0.07101327 0.041633446 0.028432157 0.042894322
0.06725841 -0.027774917 0.00289823 -0.01079777 -0.0635001 -0.07506233 -0.07565275 -0.035436183

conv2d_1.2.bias f4 [16]
00000000: ba39 163d 76dd 4dbc f3dc ee3b 06e3 203d
00000010: bcb5 84bd 5e79 853d 5b79 4dbd eb63 3cbd
00000020: 3e7f 46bd 2344 6b3d c015 ffbc 4b77 1cbd
00000030: b938 143d fa8f 99bc cea5 3bbd 8f3a 9dbd
0.036676146 -0.012565007 0.007289523 0.039279006 -0.064799756 0.065172896 -0.05016456 -0.045993727
-0.04846119 0.057438027 -0.0311383 -0.038199704 0.036186907 -0.018745411 -0.04581242 -0.07677185

conv2d_2.0.weight f4 [32, 16, 3, 3]
00000000: b973 ab3d 3602 a23d 92f3 52bc 9e8f 18bd
00000010: a209 05bd c31e 5c3d 79a4 b6bc 5b8b 323d
00000020: ff6c 57bd 6644 ab3d 6753 413d d913 c03c
00000030: 8616 133c 4505 edbd 1382 cfbc ee45 103d
00000040: 9dee 7e3c 9889 ab3d 305f f3bc 0641 643d
00000050: ca70 923d f769 3e3c bc08 3abd acb9 26bd
00000060: 2da6 77bd b019 64bd 9a92 cb3d 00ae 743d
00000070: 3bd2 6ebb 0e29 253c 9068 073d 4625 af3d
00000080: ea5e bc3b 0440 92bd 6495 173b 9cbe 5e3d
00000090: b86f 8e3d def9 753d 76b8 6f3c 40b4 72bd
000000a0: 22d5 83bd 304a d13c 0655 2ebd e631 05bd
000000b0: 5bcb f6bc 7d5f 943c ad09 993c bb15 93bd
000000c0: 55af 4fbd cd11 4ebd 7e72 89bd 4385 d8bd
000000d0: 787d d7bc 710e 94bd a5e6 c33d 1cd0 013c
000000e0: 17a4 923d e930 013d 5502 b23d 184c 683d
000000f0: 2814 77bd a14c 2d3d 6f46 b8bd 3d4f 3b3d
00000100: 822b 853d 0218 403d a899 86bd 3b3c 553d
00000110: 1fa1 1fbd 3494 ea3d 1d21 d63d 3a1f cb3d
00000120: c60a f73c c54c 21bd 6099 4ebd 0df3 a2bd
00000130: 256c 88bd af9b 523b ba92 903c 95b6 07bd
00000140: 87c8 183d 113a 43bd 23da 583d bea3 bf3d
00000150: 19b9 89bd bc4c f2bd bc86 12bd 25cf 69b9
00000160: 78d9 463d b134 2cbd b84c 4abd b8cf a93d
00000170: 0fd1 873d 1e08 1bbd e0e5 03bd 26a7 8f3c
00000180: b0d0 153d 14a0 9dbd 7651 813d e0fb dab9
00000190: 7e08 113d ab0f 7dbb c630 72bd e511 97bd
000001a0: 70bd c43c 127f 9c3d 2330 833d 6019 463d
000001b0: f6f7 953d a5d5 803d 30db 19bd 8a61 3d3d
000001c0: 946b 77bd 5ad6 45bd a6e7 833d 6df3 383d
000001d0: 660b 13bc c83d a9bc 886d d73c 235e 863d
000001e0: 7357 abbd 7e7c fc3b 044e 87bd 5166 a0bb
000001f0: 54ac d43c 95d6 6e3d 3f1d 94bc 6bca 11bd
00000200: 8be3 0e3c 4b41 4b3b c3f7 9ebd 9742 8a3d
00000210: b1b0 9cbc bda0 94bd 345e 12bd ce61 8fbd
00000220: 47d1 89bb 6421 9cbd 6097 14bd 58da 99bd
00000230: 3230 eb3b 289f 12bd 47e4 793d 1849 40bd
00000240: 9d44 0ebc d6d8 853c 282d ddbd 4642 86bd
00000250: a097 d83c 6844 82bd df82 163d 1c2f 5abd
00000260: 92fa 9b3d 7eba 863d 7e5e 7bbd 43ad 303d
00000270: 4903 2cbd cda8 3d3d 2eb8 ba3c b627 b9bd
00000280: 3974 92bd 8ba1 e6bd 2827 7d3c 9c28 493d
00000290: 5d4a 87bb 5d84 833d c45b 913d 8a6c 28bc
000002a0: fcb5 ac3c 2421 c4bd 7f6e dabd 4676 89bc
000002b0: 9204 d9bc fd8d 9b3d 5675 e63c 54a6 293d
000002c0: 80a8 a53d e77a 85bd a314 143d 87b1 a5bd
000002d0: 1697 7a3d 4787 923d d075 063d 5aab 89bd
000002e0: ccf7 893d 56aa 4c3b a09d 86bd 6bcc 76bd
000002f0: d0f2 533d e4e4 9f3d 8701 793d 2cc6 6e3d
00000300: 5277 503d a574 793d 225b 943d 2110 2c3d
00000310: 7fd3 913d 8d5f 3a3b d108 963d ec2f be3d
00000320: 7422 85bc 01c7 e0bd 9ed4 27bd 4bb5 03be
00000330: bba1 cdbd f6c5 06bd 98c5 2cbd ce52 8e3d
00000340: 9662 a9ba 8b7c 083d 8b85 403d 6e4f 003d
00000350: ebcc 95bd a5ee 50bd e096 f5bd 60bb eabd
00000360: 8ae8 173d 4fa9 683d ab4c e6bc db17 c9bc
00000370: 7339 8a3b 44a2 04bc 3b86 e13c 1c41 77bc
00000380: 013f 24bd 272a 243d 2ffd bdbd ac2b e4bd
00000390: ee25 2dbd 6252 983d 2431 0c3b dfa3 423d
000003a0: 1fb3 54bd 243e 8ebd 4b34 81bd 30b6 073d
000003b0: 5ed6 5cbd e2ce a0bd 9657 85bb 16f8 c73c
000003c0: 8246 a8bd 2810 793d 5668 e43c ae67 9ebd
000003d0: 7572 96bc eede 00bd f002 3b3d 6b24 18bd
000003e0: 9042 d5bc f79c 61bd 788c 1dbd d6db 98bc
000003f0: 149c 1b3c 1873 ccbc ed4f 8cbd 06ea a13d
0.08371682 0.07910578 -0.0128754545 -0.03724634 -0.03247989 0.053740274 -0.022295224 0.04358993
-0.05259418 0.08362655 0.04719868 0.023446964 0.008977538 -0.11573271 -0.025330579 0.03522294
0.0155598195 0.08375853 -0.029708475 0.055726074 0.07150419 0.011621944 -0.045418486 -0.040704414
-0.060461212 -0.05568856 0.099400714 0.05973625 -0.0036441225 0.010080589 0.033058703 0.08552031
0.0057486193 -0.07141116 0.0023129815 0.054380998 0.069549024 0.060052745 0.014631381 -0.05925393
-0.06437136 0.02554807 -0.042561553 -0.03251829 -0.030126264 0.018111939 0.018681372 -0.07181879
-0.05070432 -0.050309945 -0.06711291 -0.10572293 -0.026304945 -0.07229317 0.09565476 0.007923152
0.07160204 0.031540785 0.08691851 0.056713194 -0.060321957 0.042309407 -0.08997809 0.045729864
0.06502439 0.046897896 -0.06572276 0.052059393 -0.038972016 0.11454049 0.104555346 0.09918065
0.030156504 -0.039379854 -0.05043924 -0.079565145 -0.06661252 0.0032136252 0.01764809 -0.03313311
0.037300613 -0.0476628 0.052942406 0.09357403 -0.06724758 -0.11831042 -0.035773024 -0.00022297779
0.048547238 -0.042042438 -0.04938957 0.08291572 0.06631672 -0.037849538 -0.032201648 0.017535757
0.036575973 -0.07696548 0.063143656 -0.00041767862 0.03540849 -0.0038614075 -0.059128545 -0.0737646
0.024016112 0.07641424 0.06405666 0.048364043 0.073226854 0.062907495 -0.03756255 0.0462356
-0.06040533 -0.048300125 0.06440668 0.045154024 -0.008974886 -0.020659342 0.026297346 0.06560924
-0.08366289 0.0077052703 -0.06606677 -0.0048950096 0.025961079 0.05831011 -0.018080352 -0.03559343
0.008721243 0.003101426 -0.077621005 0.06750982 -0.019127222 -0.07257221 -0.03573437 -0.07001077
-0.004205856 -0.07623556 -0.036277175 -0.07512349 0.007177376 -0.035796314 0.061008718 -0.046944708
-0.008683351 0.016338747 -0.107996285 -0.065556094 0.026439488 -0.06360704 0.036745902 -0.053267583
0.07616152 0.06578539 -0.06136941 0.043133985 -0.04199532 0.04630356 0.022792902 -0.090407774
-0.07151074 -0.112612806 0.01545123 0.049110994 -0.004128738 0.06421731 0.07097581 -0.010279784
0.02108287 -0.095766336 -0.10665607 -0.01678003 -0.026491437 0.075954415 0.028132122 0.04141839
0.080887794 -0.065175824 0.036152493 -0.08090501 0.061179243 0.07154708 0.0328272 -0.06722136
0.06736717 0.0031229458 -0.06573033 -0.060253542 0.051745236 0.07807329 0.060792472 0.05829446
0.050895043 0.060902257 0.07243945 0.04200757 0.07120418 0.00284383 0.073259 0.09286484
-0.01625178 -0.10975457 -0.040974252 -0.12862127 -0.10040613 -0.032903634 -0.042180628 0.069493875
-0.0012923058 0.0333219 0.047002356 0.03132575 -0.073144756 -0.05100884 -0.11991668 -0.1146152
0.037087 0.05680209 -0.02811273 -0.024547508 0.0042182743 -0.008095328 0.027529826 -0.015091207
-0.040099148 0.040079262 -0.092768066 -0.11141142 -0.0422725 0.07437588 0.0021391595 0.04751956
-0.051928636 -0.06945446 -0.06308802 0.033132732 -0.053915374 -0.0785196 -0.004069279 0.024410289
-0.08216573 0.060806423 0.027881783 -0.07734619 -0.018365124 -0.031462602 0.0456571 -0.037144106
-0.026032716 -0.055081334 -0.03846404 -0.018659513 0.009497661 -0.024957225 -0.06851182 0.079059646

conv2d_2.0.bias f4 [32]
00000000: ce6b 94bc 72c5 973d a9ba 8fbd 6f30 06bd
00000010: 3134 b43d c104 5fbc 7013 3e3d d6b8 e63c
00000020: 6eb1 ba3b 47cc 2e3b 4abe 02bd 2183 a3bb
00000030: 7f67 9dbd 51ee 2cbc 510d efbc 7b6e 57bd
00000040: c8fb ce3d e60b 183b cc64 21bd ebe8 edbd
00000050: 8094 5b3c 3388 e0bc 53b6 243d d0a3 d3bc
00000060: f154 de3c d301 253c eb3c 64bd 455e 35ba
00000070: e430 7c3d 4ec7 de3c 0a84 dfbd aeae cd3a
-0.018117812 0.074107066 -0.070180245 -0.032761034 0.08799017 -0.013611973 0.046405256 0.028164309
0.005697421 0.0026672052 -0.031919755 -0.004989997 -0.07685756 -0.010554866 -0.029181154 -0.052595597
0.10106617 0.0023200451 -0.039402768 -0.11616691 0.013402104 -0.027408695 0.04021294 -0.025834948
0.027140113 0.010071236 -0.05572216 -0.00069186493 0.061570063 0.027194645 -0.10913856 0.0015692317

conv2d_2.2.weight f4 [32, 32, 3, 3]
00000000: 49f7 893c 73a6 d43c 9347 5a3d 6f61 46bc
00000010: 3e98 83bd e99c 853c 3509 e83c 4fd3 9e3d
00000020: dbbb cebc c3ae 9a3c a2f0 5cbd 2279 60bd
00000030: f7f2 573d cca1 41bd 77f3 e53c db70 323d
00000040: 9e6b b7bc f6c5 403d 357d 573d 9e13 39bd
00000050: fd4a 703b ba39 623c 5568 48bd eca2 b9bc
00000060: 4c16 5bbd 624a d5bc bc76 e0bc 3832 693d
00000070: 3a02 8ebc 35ec 603d aa56 7f3d 14ee a43d
00000080: d336 f03c 0127 4dbb cc95 ee3a 605e cdbc
00000090: 6219 96bd 051c 40bc c9ff 9dbd cdff 0abd
000000a0: 4c1c 77bd bb88 c2bc d246 e7bc ec3b a43c
000000b0: b37f f43c ae8f 89bc 84e4 03ba 402a f83c
000000c0: 4a01 ca3c 72be 0a3d 9f67 b5bc 267b 923b
000000d0: ce43 2cb9 7901 283d 016e 273d 871a c03d
000000e0: 9b9a 1f3d 7a09 8d3d c634 883d 712d a1bb
000000f0: 6d75 093c ff8b 493b e03f 2f3d f556 943d
00000100: b4d6 283d f48e 33b9 950e 04bd e806 993b
00000110: 0b65 203d 5611 103d 39f9 2f3d 281f f23a
00000120: 82a1 0c3b 70c3 5abc 1c08 173c 9888 ef3c
00000130: 777d 8abc 740d 513d 7f2c 9a3c 0a48 453c
00000140: 8b10 e2bc 6bd3 15bd 1493 20bd d78b 5d3b
00000150: 2a1a fbbc 6d04 023d a284 20bd fc6b 223d
00000160: 9d0f 1f3d 7bd6 5cbc 74e6 5abc 41fe 6abd
00000170: ff77 5cbd 4da5 413d 8c9a 993c 75ee bc3c
00000180: f6be bbbc d94b 843d 1218 d3bc 8728 113d
00000190: 60a1 2b3d 485a 8c3c f202 eabc 14dd 6f3c
000001a0: a10e cf3c eadc a03c 535f d23c a938 263d
000001b0: 3b1e 28bd c8f4 0ebd a75f 37bd 1d6a 3dbc
000001c0: cd42 503d ed42 923c 9d7b 05bd 8d57 b5bc
000001d0: a0e3 ab3c 49dd 633d 97bc 063c 39a3 0abc
000001e0: 31e3 0cbd 3043 263d 70d6 973d 5ab4 163d
000001f0: 47ec 883d cdcd 8f3d b992 e7bb b343 81bc
00000200: f5bb bfbc ddc2 583b 6072 813c 4e81 edbc
00000210: 3208 b43c 9142 debc ff12 b1ba 0706 babc
00000220: 4d34 b0bc dfd0 3ebb b547 5fbc 1752 c8bc
00000230: 28e3 003d 9364 ecbc 1e9a 2abc dc7a b13c
00000240: 3352 7bbd 56c3 b2ba f086 23bd a793 e7bc
00000250: 39f1 77bc ecb4 6d3c 1650 f03d 3263 a33d
00000260: 630f d23c 9dca d83c 4c3e 203d 866a cb3d
00000270: e0ef 02be c269 f3bd 4c7e fbbc 4183 923d
00000280: 288b 0b3d 2c7e d73d 9f3b 2abd 5576 763d
00000290: 1ce0 813c f3f6 9f3c 2161 8f3d 0539 98bc
000002a0: 852e 5dbd 1e6b 073d fdff e7bb b74e e3bc
000002b0: 0dc8 96bb 5523 5e3d 425d 9bbd 6e72 7cbd
000002c0: 2f2e ecbd e8c3 64bd 2c07 9cbc e4b8 49bd
000002d0: d6a7 c3bc 3523 553d 2946 e33c 5aba 28bc
000002e0: 8b5d 5dbd fc48 883c e542 92bb 6d43 503d
000002f0: 4b53 80bb af27 2abd fd32 563d 547d 813c
00000300: a04b 0d3d 9c2f 363b ea74 283d 6350 64bd
00000310: 8124 853c aa90 96bc dbed 803d 29f7 1f3c
00000320: 0103 433d fc9a ac3c d332 1fbc 2c90 c0bc
00000330: f80f 743c 1f03 413d 9c36 87bb d75b 093d
00000340: 3365 0fbd 922b 18bc c011 02bd 4234 89bd
00000350: 88c6 f53c 4705 2f3d 6b93 8fbd a58c d0bc
00000360: dec2 cd3c 7f3c 0f3c 7fa1 35bc 7e90 38bd
00000370: f818 3b3d 4a01 f83b 2c68 273a b044 973c
00000380: 54f9 2dbb 9ef3 723d 8424 1d3d caea ddbc
00000390: 178d 43bb 79df 423d 74b6 03bb caaa a03c
000003a0: 695d 6dbd 2002 a2bc f99e e6bc 8fd9 02bd
000003b0: b4bd 283d e8a2 9e3c 8e78 a33c 6894 82bc
000003c0: 9013 72bb 5e94 363d 3ae3 803c 3dfc 423c
000003d0: 47ea 963a f4ba 403c cce7 c33c 664d 53bd
000003e0: f051 7ebd a971 b93c 019e 8e3d 349d 693d
000003f0: e85a 5cba 0e55 8fbd d75e fabd bb2e 2abd
0.016841548 0.025958275 0.053290915 -0.012108191 -0.06425522 0.016310172 0.028324703 0.07755148
-0.02523606 0.018882161 -0.053940423 -0.05480302 0.052721944 -0.047273442 0.028070195 0.04356466
-0.022390183 0.04706379 0.05260964 -0.045184724 0.003666579 0.013807708 -0.048927624 -0.022660695
-0.05348806 -0.026036445 -0.027400367 0.056932658 -0.017335046 0.054912765 0.06233851 0.08053222
0.029323017 -0.0031303766 0.0018202602 -0.025069416 -0.0732906 -0.01172543 -0.07714803 -0.033935357
-0.06032972 -0.023746839 -0.028232012 0.020048104 0.029846048 -0.016792145 -0.0005031305 0.030293584
0.024658818 0.03387303 -0.022144137 0.004470247 -0.00016428457 0.04101703 0.040876392 0.0938006
0.038965803 0.06886573 0.06650691 -0.004918747 0.008389813 0.003075361 0.042785525 0.07243148
0.04122038 -0.00017124024 -0.03224047 0.0046700127 0.039158862 0.035172783 0.042962287 0.001847242
0.002145857 -0.01335226 0.009218242 0.029239938 -0.01690553 0.05103822 0.018820046 0.012041101
-0.027595779 -0.036578577 -0.039202765 0.0033805275 -0.030652124 0.031742502 -0.03918899 0.039653763
0.03883325 -0.0134788705 -0.013360608 -0.05737138 -0.053825375 0.047276784 0.018750452 0.023062924
-0.022918206 0.06459779 -0.025768314 0.03543904 0.041901946 0.017132893 -0.028565858 0.0146401115
0.02527553 0.01963659 0.02568022 0.04058138 -0.041044455 -0.03490141 -0.044768956 -0.011560944
0.050844956 0.017854178 -0.03258859 -0.022136474 0.020982563 0.055630956 0.008223674 -0.008461767
-0.034396354 0.04059142 0.074139476 0.03679309 0.06685691 0.07021675 -0.0070670513 -0.015779352
-0.023405055 0.0033075132 0.015801609 -0.028992321 0.021976564 -0.02713135 -0.001350969 -0.022707952
-0.021509314 -0.0029116196 -0.013627936 -0.024453206 0.031466633 -0.028856551 -0.010412721 0.02166503
-0.06135769 -0.0013638537 -0.03992361 -0.028268648 -0.015133196 0.014508467 0.11734025 0.079779044
0.025642103 0.026463801 0.03912191 0.09932427 -0.12786818 -0.11885406 -0.030699871 0.07153941
0.034068257 0.10522112 -0.041560765 0.060171444 0.015853934 0.019526934 0.07000948 -0.018581877
-0.053999443 0.03306114 -0.0070800767 -0.027747495 -0.0046014846 0.054232914 -0.07586147 -0.061632566
-0.11532246 -0.055850893 -0.019046389 -0.04924859 -0.023883741 0.05203553 0.027743416 -0.010298336
-0.054044288 0.016636364 -0.004463541 0.050845552 -0.0039161793 -0.04154175 0.05229472 0.015806831
0.03449595 0.0027799373 0.041127123 -0.055740725 0.016252758 -0.018379528 0.06295367 0.009763517
0.047610287 0.021069996 -0.009716707 -0.023506247 0.014896385 0.047122117 -0.004126383 0.03353485
-0.03500862 -0.009287732 -0.03175521 -0.066994205 0.030001894 0.042729642 -0.070105396 -0.02545769
0.025117334 0.008742451 -0.011085867 -0.045059673 0.04567811 0.007568513 0.0006386067 0.01846537
-0.0026546316 0.059314363 0.038364902 -0.027089495 -0.0029838735 0.0475764 -0.0020097764 0.019612689
-0.05795041 -0.019776404 -0.028151976 -0.03194576 0.04119654 0.01936479 0.019954946 -0.015939906
-0.003693793 0.044575088 0.01573335 0.011900959 0.0011513912 0.011763323 0.02391424 -0.051587485
-0.06208986 0.022637205 0.069637306 0.057034686 -0.000840588 -0.06998645 -0.122251205 -0.041548472

conv2d_2.2.bias f4 [32]
00000000: 8fb8 393d b7c6 733d 6c68 b0bb 8847 333c
00000010: 4fc9 14bb 814c 1dbd 9da7 713d a441 00bd
00000020: b989 403d 4013 31bb fe22 9bbc 8662 f6bc
00000030: 6df0 ae3c 22a5 ea3c f540 803d 0fbc fabc
00000040: 21e0 5a3d a2dc a8bd f60a 363d f976 80bd
00000050: 8a2c 803d 2e08 0a3d 9a0d 1d3d 8286 efb9
00000060: 4563 99bc fc0a c13c efad 62bd ed3a 763d
00000070: 28a2 02bd e4c0 79bd 8167 43bd 968f 81bd
0.045342024 0.05951568 -0.005383542 0.010942347 -0.0022702997 -0.038403038 0.05899774 -0.0313126
0.047006343 -0.002701953 -0.018937584 -0.030076277 0.021354878 0.028643195 0.062623896 -0.030607251
0.053436402 -0.08245207 0.044444047 -0.06272692 0.06258495 0.033699207 0.03834305 -0.00045685848
-0.018724093 0.023564808 -0.055341657 0.06011479 -0.031892926 -0.06097497 -0.04770613 -0.06326215

conv2d_3.0.weight f4 [64, 32, 3, 3]
00000000: d95e 03bc 72b6 93bd 3464 21bd 89c8 4d3c
00000010: 9176 27bd c6f4 853c d0c2 41bc 269b bbbb
00000020: 2b48 d4bb 3d1d 89bb d423 5cbd 03d8 cdbb
00000030: 32c2 a43b 5ddc 89bd 1c1c 6c3c 13f0 a4bc
00000040: 4c4f 50bd 10ab 31bc f399 313d d005 75bd
00000050: eba8 533d 07c2 6bbd 1ca7 663b 8a59 7abc
00000060: 78ba 75ba e7a6 4e3d b3bc 9dbc 10bb 83bb
00000070: eab7 9bbc 74b8 7938 b6b6 973c feec bc3b
00000080: 754c 47bd 459b 9f3b c6ea 32bc a279 81bd
00000090: e864 8bbc 62f7 d23c 5f0e f43c 4582 c13c
000000a0: 3c9e d13b dd94 5ebd 4196 523d c606 e4bc
000000b0: d370 bdbc 5891 1abc e80c a1bc 2ccd dcbc
000000c0: 147f 033d 3613 543d 21c5 773b 2eb6 563d
000000d0: 0f73 383d 2871 143d 2d74 25bc d28e dabb
000000e0: 4aff e4bc 8b46 45bd 48a4 c73c ab04 61bd
000000f0: b20d 80bd 449c 47bd abf4 0ebd 756e 193d
00000100: b2c6 833d f385 bbbb 77c3 8d3b 6dc1 2e3d
00000110: 925d dcbb 6a1c 76bd a0e8 5dbc ad12 05bd
00000120: a314 6cbd d479 f0bc aab1 943c bd2f e0bc
00000130: c540 123d ecf9 e13b b9be 8abd 92f7 70bd
00000140: a586 2cbd 6630 30bd bc60 f7bc cd6a 483d
00000150: 3d28 263c 1f17 753c 25fb 00bd 1335 39bc
00000160: 9704 2cbb 52e9 47bd 86c4 8fbb 3638 77bc
00000170: d0d8 40bd f9b1 d83c 16a0 843c 58d6 2d3d
00000180: a297 c1bc d54a 093d ae7c 113d 88aa 4abd
00000190: 6bc1 103d cc54 3fba bb5a 0f3d 0312 53bd
000001a0: 8410 163d 1fcd 163d 38bf 283c 709f 5d3d
000001b0: a728 a9bb f835 df3c 4c41 08bd b111 f73c
000001c0: e622 0abc a41a 3bbc 09c2 81bc bf8c adbd
000001d0: ceb7 56bd 1a74 313d 2f35 ae3c 1d10 063d
000001e0: 227c e63c ecab 243d 9d48 533d 37e5 25bd
000001f0: 0432 ca3c 7c99 a1ba 1e61 0f3d 3edd bf3c
00000200: 2b02 fdbc 6657 09bd 7387 093b c669 59bb
00000210: daa9 8d3b 9af5 063c 3d80 79bd 513a 6ebd
00000220: 5bc9 b0bd 9328 2ebc 1726 eabb 6b80 44bc
00000230: c68f 0a3d 4923 093d 8ddd a4bc 3e42 273d
00000240: a86a 5cbd de09 f63c f58d 673c 7740 88bb
00000250: a66d 463d 6d86 9d3b 4b76 6d3b 1c04 763c
00000260: 934c f3ba 38c2 173d d0d7 ca3c 8d99 5c3d
00000270: 0575 3fbd 77a4 18bd 1a89 7bbd 2561 0bbd
00000280: f039 033d fa07 6e3d 59a3 70bd 7eab 263d
00000290: 9ea9 27bc 0ec6 bd3c 22be da3c 534c cebc
000002a0: 6383 f4bb eecb f2bc 0940 a33c b8ed d73c
000002b0: 3031 083c c19a 52bd 8eaf 36bc c699 dfbc
000002c0: 6700 6dbd f015 91bd f47f 86bd ae47 1abc
000002d0: 71f5 90bd d675 043d 148d 52bd f50a 77ba
000002e0: 9dcf e6bb 5aae 123c 15f9 4f3c 95b9 00bd
000002f0: 6470 5cbd 966d a4bc 1b26 29bb 144d 4ebd
00000300: b690 423c d157 4fbd 05b3 1dbd 3ad1 dbbc
00000310: 98ba 893c 0787 c1bc 4202 553c 3a01 7dbd
00000320: d4af 3b3c 2d62 443c 3f0d 28bd 8ee5 46bc
00000330: d387 3f3d a4ae f4bc 363a 2dbd 8707 143d
00000340: 1429 1bbc 101f a43b dbdc 833c 4bb7 2bbb
00000350: 52ea 15bc 3a69 4cbc f756 c53c a7e9 85bd
00000360: 257d 42bd cdff 38bc 9c9d be3c 5f03 5ebd
00000370: c37a ebbc 8128 d33a a424 75bd e803 333d
00000380: 1934 59bd 11d6 9d3c 0041 e7bc ad31 e53c
00000390: 3c0b 703c 8f9a bf3b dc94 a73c 01ad 06bd
000003a0: 56e1 ae3c 73c8 363c 0a9a 3c3d beb9 d53b
000003b0: 9e13 9dbc f38b 513b 61a4 23bd d203 29bd
000003c0: ea96 203d ef82 993c 3d3a 25bd 65cf fabc
000003d0: d35d b6bc 3a40 6abd 31df 92bd 4a27 a53c
000003e0: d969 44bd c793 51bc 42f3 5bbc 7e43 7a3c
000003f0: 44bf e93c a252 443d 794c 663d b573 203d
-0.008018219 -0.07212533 -0.0394022 0.012560018 -0.040884558 0.016352069 -0.011826232 -0.0057252822
-0.0064783297 -0.0041843937 -0.053745106 -0.006281854 0.0050280327 -0.06731484 0.014410999 -0.020134008
-0.050856873 -0.010844007 0.043359708 -0.059819996 0.051674765 -0.057558086 0.003519482 -0.015280137
-0.00093737943 0.05045214 -0.019255018 -0.0040201023 -0.019008595 5.953801e-05 0.01851974 0.0057655564
-0.0486569 0.0048708045 -0.010920232 -0.06322028 -0.01701589 0.025752727 0.029792009 0.023621688
0.006397037 -0.054341186 0.051412825 -0.027835261 -0.023125088 -0.009434067 -0.019659474 -0.026953302
0.032103613 0.051776133 0.0037806707 0.052419834 0.045031603 0.036240727 -0.010098499 -0.0066698575
-0.027953763 -0.04816298 0.024370328 -0.054936092 -0.06252612 -0.04873301 -0.034901302 0.037458856
0.064343825 -0.005722755 0.0043262797 0.042664934 -0.0067250216 -0.06008569 -0.013544232 -0.032488514
-0.05763687 -0.029354967 0.018151123 -0.027366513 0.0357063 0.006896248 -0.06774659 -0.05882985
-0.042120595 -0.043014906 -0.030197494 0.04892998 0.0101414295 0.014959126 -0.03148951 -0.011304158
-0.0026247853 -0.048806496 -0.004387441 -0.015089085 -0.04708177 0.026452051 0.016189616 0.042440742
-0.023631874 0.03351863 0.035519294 -0.049479038 0.035340708 -0.00072987075 0.034998637 -0.05153085
0.036636844 0.036816712 0.010299496 0.05410713 -0.005162317 0.027247414 -0.033265397 0.030159803
-0.008431172 -0.011419926 -0.015839593 -0.08474111 -0.052421384 0.043323614 0.021265594 0.03273021
0.028135363 0.04020302 0.05158292 -0.0405018 0.024682052 -0.0012329067 0.035004728 0.023420926
-0.030884823 -0.033530615 0.0020985275 -0.0033174618 0.0043232264 0.008237267 -0.060913313 -0.058161084
-0.086321555 -0.010629791 -0.007145654 -0.011993508 0.03382852 0.033480916 -0.020125175 0.040834658
-0.053812653 0.030034002 0.014132966 -0.0041580754 0.048444413 0.0048072846 0.0036233838 0.015015628
-0.001856225 0.037050456 0.02476111 0.053857375 -0.046742458 -0.03726622 -0.061410047 -0.03402819
0.032037675 0.058113076 -0.05874953 0.04069089 -0.010233311 0.023165729 0.02670199 -0.025182879
-0.0074619516 -0.029638257 0.019927995 0.02635847 0.008312508 -0.051417116 -0.011150254 -0.027295005
-0.05786171 -0.07084262 -0.06567374 -0.009416504 -0.07078064 0.03233894 -0.051404074 -0.0009423935
-0.0070437924 0.008952701 0.012693663 -0.031426985 -0.05381812 -0.020071786 -0.0025810066 -0.050366476
0.011875322 -0.050620858 -0.038500804 -0.026833165 0.016812608 -0.023623956 0.013001027 -0.061768748
0.011455495 0.011986298 -0.041028257 -0.012139691 0.04676039 -0.029868431 -0.042291842 0.03613999
-0.009470243 0.0050085858 0.016096523 -0.002620178 -0.009150105 -0.01247626 0.02408932 -0.06538706
-0.04748263 -0.011291456 0.023268513 -0.054202434 -0.02874506 0.0016110094 -0.059849396 0.043704897
-0.0530282 0.019267114 -0.028229237 0.027977789 0.014651116 0.0058472822 0.020456724 -0.032879833
0.021347683 0.011156189 0.04604534 0.0065223863 -0.019174393 0.0031974285 -0.039951686 -0.04126341
0.039206423 0.018739192 -0.040338743 -0.030616472 -0.022261536 -0.057190157 -0.07171477 0.020160336
-0.047952507 -0.0127915805 -0.013424696 0.01527488 0.028533585 0.047930367 0.056225274 0.039172847

conv2d_3.0.bias f4 [64]
00000000: 5a86 ec3b f962 08bd 875d a3bc 9362 363b
00000010: 63dc 8cbd 2df7 4bbd 40ec 4cbc 0a7e 9db9
00000020: 3264 b23d c547 d73b 27aa 58bd 088b 043b
00000030: 6aa4 55bc 23e6 f5bc 7a04 d6bc 04a2 5a3d
00000040: 62a9 b7bc 0e73 12bd 9214 b73d db04 a1bc
00000050: 150b 94bd ea2a 93bd d442 c03d 956d 323c
00000060: 4dbd 993d dcd7 503b a7f7 833b 5d09 69bc
00000070: daca 23bd 326a c2bc 9a86 9bbd 621f efbc
00000080: 6e81 42bd f744 6a3d 5483 8f3d 49fe 67bd
00000090: b082 f4bc d9cb 7bbd 613b 66bd 693b 793d
000000a0: 9511 45bc d6a0 e63b f01c 55bd c71c 923d
000000b0: 5d14 3b3d 58df cd3c 5364 123d ca5f 34bc
000000c0: 7b64 c63c 86f4 5abd 21aa 57bd 6b98 63bd
000000d0: e166 07bd 8a3f 083d 9f77 f2bc 9d72 bf3c
000000e0: e1a9 5e3d e679 2ebd 9130 9e3d e269 64bd
000000f0: daf7 e2bc 4b1a 5dbd 2e9a a33b e790 0bbb
0.0072181644 -0.033297513 -0.019942058 0.002782975 -0.06877973 -0.049796272 -0.012507498 -0.0003003928
0.08710517 0.006569835 -0.052896645 0.002022447 -0.013039688 -0.030016964 -0.026125181 0.053377166
-0.022419635 -0.035754256 0.0893947 -0.019655636 -0.07228676 -0.071859196 0.093877465 0.010890384
0.075068094 0.0031866943 0.004027325 -0.014223424 -0.039988376 -0.023732278 -0.075940326 -0.02918977
-0.047486715 0.057194676 0.07007471 -0.05663899 -0.029847473 -0.0614737 -0.056208972 0.060847674
-0.012028118 0.007038216 -0.05202955 0.07134395 0.045673717 0.025130913 0.035740208 -0.011009166
0.024217835 -0.053455852 -0.052652482 -0.05556528 -0.033057097 0.03326372 -0.029598055 0.023370082
0.054361228 -0.04259672 0.07724107 -0.05576504 -0.027706075 -0.053980153 0.004992745 -0.0021296085

conv2d_3.2.weight f4 [64, 64, 3, 3]
00000000: 7371 95bc 607d c1bc 0e7a d73c 28dc 273d
00000010: a669 66bc e161 24bd 2b24 503b d3ec ea3c
00000020: 78c5 3bbd fb49 d8bb ebfd 4fbc 6c4b e5bb
00000030: 66df e8bc d0b9 763c 4ff0 eabc 7fd9 6d3d
00000040: f840 253d 0cd8 24bc 5e17 87bc 7726 d4bb
00000050: 8bba 2abd e3c3 0b3d 9d70 c83c 0323 8fbc
00000060: 304a 633c d2b3 fdbc d0f9 f33b 3f98 753d
00000070: 1c54 303d 7580 8e3d 6a93 42bc cc32 26bc
00000080: ed4a 55bd 445b 593d 5986 353c 97ae 4c3b
00000090: 00d7 98bb 585e c83c 38e3 b4bc a021 52bc
000000a0: 8832 b8bc 868f eb3c bc80 123d 6ad9 b3bc
000000b0: 56fd 133d bff2 87bc 25ac 0fbd b8dc c33c
000000c0: bf52 c83c fe6d dbbc 31bb f5bc 42d2 c53c
000000d0: 0e19 4ebc 425f 09bd 69e3 56bc 56bb a33c
000000e0: f91c 073d 69be 973c 2125 243c 279e bc3c
000000f0: 74e6 3d3c f32d 943d b75e 90bc a015 95bc
00000100: 6d92 12bd edc6 a2bc c092 e5bb 0cf8 25bd
00000110: 9c6e c9bc 2c65 383d 25c1 c83c ad07 163d
00000120: 5162 48bc d799 61bc 893f 96bc d729 f53c
00000130: 6d6d dcba 571e 8d3c e53c e8bb b9f0 8c3c
00000140: 2b2b 15bd 2b5d 263c 40ab 773c c0a6 24bd
00000150: 289b c9bc eb23 a4bc 8228 44bc 2b9d debb
00000160: 089b a4bc ebea 513c 3dcd 92bb fd61 393d
00000170: fa25 ae3c ec53 e0bb 9e16 e73a 6192 863a
00000180: 6f80 babc 8407 13bd 60a5 dd3c b05d bd3c
00000190: 2b5f e1bc 2126 ba39 c9f0 35bc 65a9 d0bb
000001a0: 5b0d e5bc 4011 ef3b ebca 163b 4b8f e0bc
000001b0: 89b1 d4bc cff1 00bc 2a89 4abd b128 23bd
000001c0: 50ec 3a3c c233 e43c 9a05 36bd e486 e4bc
000001d0: 480f b1bc ac34 a73c 9542 e03b 228f 1cbd
000001e0: c2de 353d dff0 0b3d 0b3c 993c d694 d9bc
000001f0: c348 c53a 8c07 993c 51fb f53b 88f2 dabc
00000200: 36d3 c13c 72ea a4bc 05d9 bf3b 1e28 da3c
00000210: 7c86 243d dc6e f1bb 9aba 553b a4b5 9f3c
00000220: 19f5 84bc 7ce0 073c fcf2 0dbd 4b9b cb3c
00000230: d6e0 1e3c 50dd a8bc 9240 0dbb ecc5 18bd
00000240: 23bc aa3c f1b4 dabc 8236 3d3d 9bc9 703c
00000250: 71da 503d 0aea 12bd 8520 7b3d cb0e d63c
00000260: 8e1d 45bc 8be9 babb d033 a53c c011 9b3c
00000270: 6bc0 233b 0639 8d3c b04e 14bd 6345 1cbd
00000280: 963a bebb 1a55 1c3d 1cd6 38bb 1505 32bc
00000290: 7157 213b 3c86 f6bc 7b74 fbbc 01eb d338
000002a0: 0a50 03bd 71ec d53c 6b1d 4fbc ca61 d83c
000002b0: ca62 82bc 0532 05bd 6aab 00bd fe94 df3b
000002c0: b05a bbbc 41fb 27bb bbfe 453d dba7 58bc
000002d0: f4b4 25bc e2e4 7abc e270 38bd 7bbd 8dbb
000002e0: a5b9 a43c 48ee ed3c bde5 34bd 30a6 603b
000002f0: f857 04bd 76b0 69bc 16d0 e93c eb07 70bb
00000300: e876 133d ab7e 97bb ae4e 343c 0eb7 f63c
00000310: c319 09bd 8258 ccbc 8024 e43b 58d4 4d3d
00000320: 1a1b f8ba 1e09 133d 3aba 7e3c af5f ce3a
00000330: cf84 cdbc e7f8 d039 4343 30bc b911 bd3c
00000340: 19b0 b93c bddc d5bc f868 a13c 302c 3f3d
00000350: f400 d73c 6bdc ba3c ab96 753d 9ca4 423d
00000360: d6e3 4b3d 5f69 323d 7241 8538 745b 513c
00000370: 06c5 45bc 99d0 29bc e086 2ebd ff98 15bd
00000380: d1b9 593c 3fa7 4dbd 02bc 99bc 58bb bcba
00000390: a69e 20bd 23f2 cd3c b691 5bb9 9279 073d
000003a0: 0672 adbc 951c 7fbc e1c0 d3bc 17ff 4cbb
000003b0: db8a 8ebc a567 a4bc 9a3e 1ebd 23bf 833c
000003c0: b7cb 393d f888 353d cc08 113d b029 353c
000003d0: abd3 74ba ebaa 37bc 1b84 8a3c 469a e2bc
000003e0: 0066 e9ba ab1a 2f39 d0bd 123d 40a6 063c
000003f0: 36e7 fbbc a35c 283c 4a6f 213c f55e 16bc
-0.018242573 -0.023619354 0.026303317 0.04098144 -0.0140632745 -0.040132407 0.003175984 0.02867738
-0.045842618 -0.006600616 -0.012694816 -0.0069975164 -0.028426837 0.01505895 -0.028679041 0.05806875
0.040345162 -0.010061275 -0.016490635 -0.006474312 -0.041681807 0.03412236 0.02446776 -0.01747275
0.013872668 -0.030969534 0.0074455515 0.059959646 0.043048963 0.06958095 -0.011875967 -0.010143947
-0.052073408 0.053065553 0.011079394 0.0031231993 -0.004664302 0.02445905 -0.022081003 -0.0128254
-0.022485033 0.02875496 0.035767302 -0.021954257 0.03613027 -0.016595243 -0.03507628 0.023908958
0.024453519 -0.026785847 -0.029996486 0.02414811 -0.012579216 -0.03353811 -0.013115742 0.01998679
0.032986615 0.018523412 0.010018618 0.023024632 0.011590589 0.072353266 -0.017623289 -0.018198788
-0.035784174 -0.019870246 -0.0070060194 -0.04051976 -0.024588875 0.04501836 0.024506161 0.036628414
-0.012230472 -0.013769588 -0.018340843 0.029927177 -0.0016817279 0.017226381 -0.0070873373 0.01720463
-0.03641812 0.010154049 0.015116513 -0.040198088 -0.024610117 -0.020036658 -0.011972548 -0.006793638
-0.020093456 0.012812356 -0.0044800327 0.045259465 0.021258343 -0.0068459418 0.0017630642 0.0010267013
-0.02276632 -0.03589584 0.027056396 0.023115963 -0.0275112 0.00035505093 -0.011104771 -0.0063678497
-0.02796047 0.0072957575 0.0023009132 -0.027412077 -0.025963562 -0.007870152 -0.049447216 -0.03983373
0.01140888 0.027856711 -0.044438936 -0.027896352 -0.021613732 0.020410858 0.0068438747 -0.03822244
0.04440189 0.03416526 0.018705389 -0.026560228 0.0015051592 0.018680356 0.007506766 -0.026726976
0.023660284 -0.020131323 0.005854728 0.026630457 0.040167317 -0.007367952 0.0032612444 0.019495793
-0.016230153 0.008293267 -0.034655556 0.024854323 0.00969716 -0.020613343 -0.002155338 -0.037298128
0.020841664 -0.026697608 0.04619456 0.014696504 0.050989572 -0.03586773 0.06131031 0.0261301
-0.012030972 -0.00570411 0.020166308 0.018929362 0.0024986516 0.017239105 -0.036207855 -0.03815211
-0.005805324 0.038167097 -0.002820379 -0.010865469 0.002461877 -0.030093305 -0.03069519 0.00010105037
-0.032058753 0.02611372 -0.012641291 0.026413817 -0.015916247 -0.032518405 -0.031413473 0.006823181
-0.022870392 -0.0025631937 0.048338633 -0.013223614 -0.010113943 -0.015313359 -0.04502953 -0.0043255663
0.020108053 0.029044285 -0.044164408 0.0034278743 -0.032310456 -0.014263263 0.028541606 -0.0036625813
0.03600207 -0.0046232543 0.011005087 0.030116584 -0.033471834 -0.024944548 0.006962359 0.050251335
-0.0018928975 0.035897367 0.01554733 0.0015745069 -0.025087742 0.00039858298 -0.010758224 0.02307974
0.022666978 -0.026106233 0.019703373 0.046673 0.026245572 0.022810182 0.05995814 0.047520265
0.04977783 0.04355752 6.354124e-05 0.012778152 -0.0120709 -0.010364675 -0.042609096 -0.03652286
0.013288931 -0.050208326 -0.018766407 -0.0014399095 -0.0392138 0.025139874 -0.00020939749 0.033074923
-0.021172535 -0.015570779 -0.025848808 -0.0031279975 -0.017400196 -0.020068953 -0.03863392 0.016082352
0.045360293 0.044320077 0.03540878 0.011057302 -0.00093394023 -0.011210184 0.016908696 -0.027661454
-0.0017806888 0.00016699235 0.03582555 0.008218348 -0.030749898 0.010275993 0.009853194 -0.009177913

conv2d_3.2.bias f4 [64]
00000000: ad86 273c b312 7bbd 172a 3dbd ce0a 69bc
00000010: 70dd 15bd cee9 a63c 3efe 783c 1846 ed3c
00000020: 44fe 133d 6d59 28bd f077 5fbd d5bd 99bc
00000030: 1d53 b33c 4d45 32bd 7c20 c73c b043 833c
00000040: c183 44bc 8298 55bd e1e0 6b3d d819 82bd
00000050: 5977 48bd 3302 523d da48 913b ea8b 283c
00000060: 7565 b0bb 808b 823b d444 34bd e4ee 62bc
00000070: 6dc6 1ebd 9579 faba 2e0d a73b e324 14bd
00000080: fbc1 5fbd 4c1a 803b cd05 ddbc cfd4 21bc
00000090: 1cd5 e4bc 88f5 7bbb fbd4 9a3b 0284 ce3c
000000a0: a722 d73c d36d 923c 0d26 0aba 091f 72bd
000000b0: 2d9d 13bc 257e ed3c 4136 8bbb 5923 a13c
000000c0: fbc7 c6ba af9d ca3c 785f e7bc cbef 343c
000000d0: dcbf 843b 5725 dd3c 54ff 973c 5f56 29bd
000000e0: 7ad6 fdbb 3233 2d3c a915 96ba be0d c5ba
000000f0: 952c 3dbd 488f f9bc fafa 4a3c 356c 3cbb
0.01022498 -0.06129713 -0.046182718 -0.014223767 -0.036588132 0.020375159 0.015197335 0.028964087
0.03613116 -0.041100908 -0.05455774 -0.018767277 0.021890217 -0.04352312 0.024307482 0.016023487
-0.011994303 -0.052147396 0.057587508 -0.063525856 -0.048941944 0.05127163 0.0044337334 0.010287264
-0.0053831884 0.003983915 -0.044010952 -0.013850901 -0.038763452 -0.0019109721 0.0050980067 -0.03616799
-0.054628354 0.003909385 -0.026980305 -0.009877398 -0.02793365 -0.0038445909 0.0047250963 0.02520943
0.02626164 0.017874634 -0.0005269952 -0.05911163 -0.009009642 0.028990814 -0.004248411 0.019670175
-0.00151658 0.024733393 -0.028243765 0.011043499 0.0040511917 0.026995344 0.018554367 -0.041342136
-0.007746515 0.010571288 -0.0011450547 -0.0015034003 -0.046185095 -0.03046383 0.012388939 -0.002875102

fc1.weight f4 [64, 1280]
00000000: 64c9 983c 0a85 7337 04a4 b9bc 527d ef3c
00000010: 6815 46bc 7a3b 8d3c 0fa6 bb3c 628c 073d
00000020: 8e46 313d 9617 2dbc b0d7 a43b db5d ca3c
00000030: e5a7 85bb bf84 e83c 1a7d b63b 7fe6 7ab9
00000040: 363b 033b 050c 103d 6e13 933c 88f6 023d
00000050: 0f5d 10bc fdd8 773b 7b1c 02bc 4aff ddbc
00000060: 633d 613c 1abb 933c 6baa f83c b0be 7d3c
00000070: ba05 cabc 8336 973c fed1 663c 7a77 203c
00000080: 2bef 7abc 9ad6 13bc 2f1d 92bc edf5 123b
00000090: c71c 84bc 63d8 9dbc 7211 97bc e365 9cbc
000000a0: 5d09 f2b9 cf9c d3bc 9077 27bd 4bb8 c3bc
000000b0: 2dea f1ba a826 83bb a252 ff39 0b00 83bc
000000c0: 29e2 35bd d81e 8ebc f775 5abd 87fb 8bbd
000000d0: c42d dabc f728 c7bc 9a53 32bd 5b7f 86bc
000000e0: 1794 1bbd 040a a9bc cee2 b8bc 132b 3ebd
000000f0: 742d 1f3d 42ac ca3c d7e9 6d3d 4bef 3f3d
00000100: f2e4 cf3c b3e4 bbbc 7332 c6bc 83c4 05bb
00000110: 8314 68bc 932b 56bd 5731 86bc d009 7dbc
00000120: 45b8 5abc 6ac7 5abc 382c c5bc ace2 5bbd
00000130: c17a a8bd 8d2e b4bd 433c b3bd 5016 9abd
00000140: b203 2e3d aeff 323c 0ec6 d43c bd40 383d
00000150: f576 163d a6b3 dbbb 765a 11bd 577b b2bc
00000160: e31d 1bbd a470 f7bc e1e2 173c c8b5 d73b
00000170: 5a75 4f3a cffa 0bbd 0b1b eebc b122 3abd
00000180: b4a1 afbd a3cd adbd 3215 8dbd a857 a0bd
00000190: e0f8 b5bc 10f9 a1bc 9d82 843c 8c09 d83c
000001a0: ead1 c13c ba6a 9a3c 8bda c13a ae2b 6fbc
000001b0: b2e2 af3c 9091 f6ba 4317 df3c 1095 e5bb
000001c0: 239a ca3a f1f5 3d3c e075 b1bc 703a 8cbb
000001d0: ea97 f3bb edd3 793c 1905 e23c 9568 ba3c
000001e0: afc4 443d 5252 913d 2aad b03c 757e c43c
000001f0: 9712 3a3d 0b5b 19bc 8b01 903b fecc 10bc
00000200: ce9e 553c 8063 d7bc ad69 ab3c 8676 3b3d
00000210: 8a94 f739 354c 473d d60c 053d 6355 b2bc
00000220: f5e7 e8bc f03b 56bd 8cad 03bd bed8 e5bc
00000230: c2ed 93bb 264e 18bb 8915 833c 1eb8 423d
00000240: ba17 ee3c e959 d93c ffe1 233d 2e79 993c
00000250: 6d1c dbbb b65e d63c 7820 dfba 087e c8bc
00000260: a68b cfbb bacb abbb cc59 82bc 95cd 493c
00000270: 7693 2a3c 98a5 c43c ca20 033d 3c1b 8f3c
00000280: 8fc1 09bc b0af 303b 44ec 973c 9be1 ad3c
00000290: d07d f2bb b9e8 353c 9c7b e0bc 4b8e b9bc
000002a0: 4c0d e83c b2df 973c 3a40 1cba da80 fcbc
000002b0: 51d7 75bb 4f09 b9bb ea68 c6bb d569 913c
000002c0: 7feb 6d3c dd90 67bc cb27 733c e04d 973d
000002d0: ef8c 30bd bdd7 2a3c 00d1 013c d338 973c
000002e0: 96f0 183c 193a f1bc d8d3 f6bc e314 8e3c
000002f0: 27b8 78bc 9c41 66bb 4643 78bc 15a3 26bc
00000300: 7ea4 86bb 777a 26bc 96dd 843b 229e 50bb
00000310: 7e07 b43c f379 583c 130b 2d3c 26f7 843c
00000320: d1d8 abba 06a0 73bb f8f5 92bb c600 41bd
00000330: f2fb 15bd 652f 193c 794c 0dbd c086 183b
00000340: 6e4f f03b 16fb a7bc 84f7 68bd 3310 acbc
00000350: 0b44 0bbd b3a9 33bd ebd3 25bd fc0b 27bc
00000360: 50df c03c 7039 e0bc 7dda c73b ed82 aebb
00000370: e5c7 cd3c 8174 7fbc c89e 2c3c 9c14 733c
00000380: fc54 c63c 06a9 16bc fb0b 7d3c e8d4 dcbc
00000390: 0feb babc 80ed 753c c061 ca3b a585 be3b
000003a0: 6771 603c 57d2 bc3b fa34 9ebb e4f4 0abc
000003b0: cadb 2abc c0fa f7ba c04a 5c3b 557e 1dbc
000003c0: fcb3 c83c 8407 c73c c564 45bb 7211 c23c
000003d0: df4f cdbc 9f82 db3c 977e 073c ad67 523c
000003e0: 8677 8dbc 70af 06bc 455f 79bc 5915 913c
000003f0: 4a49 863c 7066 4dbc 8c0a 7fbc f2a3 27bc
0.018650718 1.4514904e-05 -0.022661217 0.029234562 -0.012090065 0.017240275 0.022906331 0.033092864
0.043280177 -0.010564705 0.0050305948 0.024702957 -0.0040788525 0.02838361 0.0055691125 -0.00023927724
0.0020024306 0.035167713 0.0179536 0.03197339 -0.008811249 0.0037818544 -0.007941361 -0.02709927
0.013747546 0.018033553 0.0303547 0.015487358 -0.024660934 0.01845861 0.014088152 0.00979411
-0.015315811 -0.009023333 -0.017836181 0.0022424415 -0.016127003 -0.01926822 -0.018440936 -0.019091552
-0.00046164813 -0.025831608 -0.040885508 -0.023891589 -0.0018456631 -0.004002411 0.00048698956 -0.015991231
-0.044405136 -0.017348692 -0.053335156 -0.068350844 -0.02663315 -0.024311526 -0.04353676 -0.01641815
-0.037983026 -0.020634659 -0.022569086 -0.046427798 0.038861707 0.024740342 0.058084335 0.046859067
0.025377724 -0.0229362 -0.024193978 -0.002041132 -0.014165047 -0.05228765 -0.016380949 -0.015444234
-0.013349597 -0.013353208 -0.024068937 -0.053682968 -0.082265384 -0.08797941 -0.087517284 -0.07523787
0.042483993 0.010925217 0.025973346 0.044983614 0.03673454 -0.0067047654 -0.03548666 -0.021787329
-0.0378703 -0.030205078 0.009270401 0.0065829493 0.000791391 -0.034174737 -0.02906563 -0.04544324
-0.08575764 -0.08486488 -0.06888808 -0.07829219 -0.0222134 -0.019772083 0.016175563 0.02637174
0.023659665 0.01884972 0.0014789862 -0.014597816 0.021470401 -0.0018811692 0.027232772 -0.007006295
0.0015457313 0.0115942815 -0.021662652 -0.004279427 -0.007433881 0.015248281 0.027590321 0.022754947
0.048039135 0.070957795 0.021566946 0.02398608 0.045427885 -0.009360085 0.004394715 -0.008837936
0.01303835 -0.026292562 0.020924414 0.04576733 0.00047222181 0.04865666 0.032482944 -0.021769231
-0.028430918 -0.052303255 -0.03214793 -0.028057452 -0.004514427 -0.002323994 0.01600148 0.04753887
0.029064048 0.02653213 0.04001045 0.01873454 -0.006686738 0.026168209 -0.0017023226 -0.024474159
-0.006333786 -0.005242792 -0.01591196 0.012317081 0.010411134 0.024004743 0.032013692 0.017469041
-0.008407964 0.0026960187 0.018545277 0.021225741 -0.007400252 0.011102849 -0.027402692 -0.022650858
0.028326653 0.018539283 -0.0005960498 -0.03082316 -0.0037512372 -0.0056468616 -0.006054987 0.01775066
0.014521479 -0.014133659 0.01484103 0.073879 -0.043103155 0.010427413 0.007923365 0.018459713
0.009334704 -0.029446648 -0.030130312 0.017343944 -0.015180624 -0.003513432 -0.015152758 -0.010170718
-0.0041089645 -0.010161034 0.0040547354 -0.0031832536 0.021976229 0.013212669 0.010561722 0.01623113
-0.0013110881 -0.0037174239 -0.004484888 -0.04711988 -0.036617227 0.009349679 -0.034496758 0.0023273677
0.0073336875 -0.02050547 -0.056876674 -0.021003818 -0.034000438 -0.04386301 -0.040485304 -0.010195728
0.023543984 -0.027371138 0.006099044 -0.005325666 0.025119731 -0.015591742 0.010535903 0.014836457
0.024210446 -0.009195572 0.015444751 -0.02695699 -0.022817163 0.015010238 0.0061762035 0.0058142715
0.013698912 0.005762379 -0.0048280926 -0.008481238 -0.010428378 -0.0018919334 0.003361389 -0.009612639
0.024499886 0.024295576 -0.0030119878 0.02368996 -0.0250625 0.026795683 0.008269927 0.012842101
-0.017268907 -0.0082205385 -0.015220468 0.017710375 0.016392369 -0.01253663 -0.015566479 -0.010231959

fc1.bias f4 [64]
00000000: 04eb e73c 15e6 8f3c b4d8 cd3b 9f3b 0bbc
00000010: 9e56 7f3d f61b e7bc d8df 183d 90aa bf3c
00000020: d74c 01bc 8ad4 5d3d deb1 953c a77a fdbc
00000030: bd4b a03c aa5b 313b bc1f babc f7d2 9abc
00000040: f6fc 2fbd 9069 e6bc 535c 1ebd 2c2c 583d
00000050: 12a9 ef3c 328e 39bd fca1 03bd 0316 c23c
00000060: c8fb 7fbc 9ec5 95bd e58c 0fbd b39a e13c
00000070: bcfb eebc 9674 963d 7e61 903d fb0d 5dbd
00000080: 57d9 363d b68c 113d 7047 e23c 2f5f ac3c
00000090: 226f 8dbd f6e3 313d df9d 1f3d 0ce2 d8bb
000000a0: fee2 6dbd 63c2 243d 223e efbc 60c3 babb
000000b0: eab6 1d3c f7c0 cd3b 826d a9bb 3f0f 82bc
000000c0: c185 2ebd b987 a73c 4d12 683a 8225 813b
000000d0: d6e6 a0ba 2beb 6abd ff4f 2ebc f7f8 1dbd
000000e0: 7521 8dbb 3d78 26bd e001 363c 85cd f63c
000000f0: 6c74 183d f138 213d f7a7 d0bc f607 313d
0.028310306 0.017565766 0.0062819365 -0.0084981015 0.062338464 -0.028211575 0.03732285 0.02339676
-0.007891855 0.05415777 0.01827329 -0.030942274 0.019567365 0.0027062693 -0.02272021 -0.018899424
-0.04296585 -0.028126508 -0.038662266 0.0527765 0.029255424 -0.045301624 -0.032136902 0.023692137
-0.015623994 -0.07313083 -0.035046477 0.027539587 -0.02917277 0.07346456 0.07049845 -0.05396841
0.044640865 0.035534583 0.027621955 0.02104148 -0.069059625 0.04343029 0.038968917 -0.0066187438
-0.058077805 0.040224444 -0.029204432 -0.00569956 0.00962613 0.0062791067 -0.005170525 -0.01587641
-0.042608026 0.02045046 0.00088528247 0.003941239 -0.0012275826 -0.05735318 -0.01063919 -0.03856751
-0.004306967 -0.040642012 0.0111088455 0.030127296 0.037220404 0.039360944 -0.025470717 0.043220483
