models/model01_fluxandBtTXsteps20.pth (torch, 728018 bytes, 36 tensors)

conv2d_1.0.weight f4 [16, 1, 3, 3]
00000000: 3426 bb3e cc1f a73e a6ed 8bbd 4eea ed3d
00000010: 5731 8ebd fd67 eebd a1cb a23e e706 03be
00000020: 7f92 b6bd 9039 bbbd d0a3 223e feea 0b3e
00000030: dee0 8fbe 7301 1d3e 272a aabe 18f3 8bbe
00000040: 2f38 9a3e d86b 9ebe cf72 9e3e 9db1 bc3e
00000050: a4b5 303d 81a7 eabd e9cd d23d 2331 803c
00000060: 3027 0ebe 1272 503c 4fb0 25be 2608 9bbe
00000070: a88a 273e 175c af3d b1d4 0dbe 6e79 0bbc
00000080: c049 943e 34c8 003e bb2d bc3e 5c4a ae3e
00000090: ac2d 953e b2a0 6dbe 48e6 84be a34f 103e
000000a0: 159c 80be 899a b93d 41e8 4d3e 28c0 623e
000000b0: 8d3a c43c 67b7 2abd 49a4 2c3e 4518 1dbd
000000c0: 5053 383e 3bc9 923e 4e52 d4bc 88f1 05be
000000d0: fefb 873e 11f5 1dbe 0a46 92be d1ee 363e
000000e0: d575 34be 5da1 a73e 2671 79be 7b58 97bb
000000f0: a0ac a63e a571 85be 074f d9bd cb25 9c3e
00000100: cd7f b93e ad83 743e 7d7f 8a3e 5814 0f3e
00000110: dbc7 663e 5505 a73e 50ba 02be 9dcb 4c3e
00000120: 3a8f 8b3e 2776 a83e bb2e a83c 8f35 12be
00000130: 1a3f 833e 2136 323c e494 a53e 0a3d 0c3d
00000140: a85a b33e 086b 64be 9eab 3e3e 874e 90be
00000150: 067b 913d 4079 d13d 3638 04bd 03a6 7bbe
00000160: 6603 38be 6b18 dbbc c061 863e e437 c63c
00000170: 90ab 563d e46e 29be a472 43be 4139 06be
00000180: b56d 963d 561f 973e 4ddf 6b3e 9562 bcbd
00000190: c77f ab3d 4cc8 9b3e eb10 7c3e d09f 86bd
000001a0: 4840 503e 9494 0ebe 8298 f93d 0bf0 c63e
000001b0: 620e 45bd bc6c 283e 8e94 733d 4220 aebe
000001c0: feaf 8b3d c24c 04be a556 2dbe c06a 2b3d
000001d0: f16f 8d3c 2c23 8e3e bd6f d03d 6eea 5f3e
000001e0: 6838 25be a14e a3bd f080 0fbe 439f 923e
000001f0: 75f6 a33e edd1 993c 80e9 1f3e 7715 11bc
00000200: 5934 3d3e 2749 b13e 6598 aa3e f6b8 a93e
00000210: fa64 4b3e 4878 093e bd21 8dbd a1f6 0bbe
00000220: fb08 133e 70e5 b03e bedf 9dbe 95f0 53be
00000230: c0f6 6b3e 0b25 913e faae 7b3e ee5a 0d3e
0.36552584 0.32641447 -0.06832437 0.11616956 -0.069430046 -0.11640928 0.31795982 -0.12795602
-0.08914661 -0.091418386 0.15882802 0.13663861 -0.28101248 0.15332584 -0.33235285 -0.27333903
0.3012099 -0.30941653 0.30946967 0.36854258 0.043141976 -0.1145773 0.102931805 0.01564843
-0.13882136 0.012722509 -0.16180538 -0.30279654 0.16361487 0.085624866 -0.13850667 -0.008512838
0.28962517 0.12576371 0.3675364 0.34041107 0.29136407 -0.23205832 -0.2595694 0.14092879
-0.2511908 0.09062678 0.20108129 0.22143614 0.0239537 -0.041678812 0.16859545 -0.038353223
0.18000531 0.28669152 -0.025918152 -0.13080418 0.26559442 -0.15425517 -0.2856906 0.17864539
-0.17623074 0.32740298 -0.24359569 -0.004618702 0.32553577 -0.26063266 -0.106107764 0.30497584
0.36230317 0.23878355 0.2705039 0.13972604 0.22537176 0.32621256 -0.12766385 0.19999547
0.2725771 0.32902643 0.020530095 -0.14278243 0.2563408 0.010877163 0.32340157 0.0342379
0.35030103 -0.22306454 0.18620154 -0.28184912 0.07103543 0.10228205 -0.03228017 -0.24575047
-0.17970046 -0.026745042 0.26246452 0.024196573 0.05240971 -0.16546208 -0.190867 -0.13107778
0.07345144 0.29516095 0.23034401 -0.091984905 0.08373981 0.30426252 0.24615829 -0.065734506
0.20337021 -0.13923866 0.12187292 0.38855013 -0.04810942 0.16447729 0.059467845 -0.34008986
0.06820677 -0.12919906 -0.16927584 0.04184985 0.017265292 0.2776121 0.101775624 0.21866772
-0.16134799 -0.07973982 -0.1401403 0.28637132 0.3202397 0.018776858 0.15616417 -0.008855215
0.18477 0.34626123 0.33319393 0.33148926 0.19862738 0.1342479 -0.06891201 -0.136683
0.14358895 0.34550047 -0.30834764 -0.20697244 0.23043346 0.28348574 0.24578467 0.13804218

conv2d_1.0.bias f4 [16]
00000000: 0b80 49bd 0b10 78be 0405 cdbd 071b 823e
00000010: 5b79 b73d 503f f3bc 4208 153e ed8b 483e
00000020: 67f1 d8bc a6e4 20be 2f82 8b3d e2bc acbc
00000030: 4ca6 913e 700b f33d 3dd2 35be d500 ba3b
-0.049194377 -0.2422487 -0.10010722 0.25411245 0.089586936 -0.029693276 0.14553931 0.19584627
-0.026482297 -0.15712222 0.0681194 -0.02108616 0.28447187 0.11867416 -0.17755981 0.0056763687

conv2d_1.2.weight f4 [16, 16, 3, 3]
00000000: be1b 07be 7b70 24be 2923 59bd cec5 af3d
00000010: ca40 9c3c 6d81 633b 824c eb3c 80ea a53d
00000020: 487f a4bb 0b97 d93c f632 773c 130b 613d
00000030: a3a3 8cbd 78a7 133d a0ce 5f3c 53e1 653d
00000040: 16b5 16bc d3d7 1b3d d6ad bcbd df16 54bc
00000050: 9f78 1abe f6e8 ed3d 4228 7c3d 0c1e 0b3e
00000060: c6c7 0e3b 6397 d23d f52c a53d bd3b 8f3d
00000070: a285 50bc 46f1 8f3d 95f0 60bd 9a33 77bd
00000080: b110 2ebd b528 cc3c b17d 9ebc bad9 553d
00000090: 8a11 67bd 8832 a13d 019e 543d cedf 163c
000000a0: 4ec4 8dbd f452 efbc b21f 9f3b c583 e73c
000000b0: 8e23 9abd c22c 793c b7ca e9bb a8ec 5b3d
000000c0: 152f b63d dab6 433d f649 163d 944d e3bc
000000d0: d92d ee3b abb1 cdbd 2353 763d 2d92 e83c
000000e0: 32c5 a7bd 7372 efbc 5643 423c 1509 eebc
000000f0: 2bb3 9f3c 2d84 423d 499f ff3c 8c7d 893c
00000100: 313e 68bd 2c57 9cbd 5e83 953b f01f 09bd
00000110: c09f 5237 684f 2e3c c91c 29bd abdb a0bd
00000120: 2dcb a03d bcba b53d e82c 1d3d a37c a43d
00000130: 924e 023e c164 033e 7570 0c3d 39f0 bb3c
00000140: b9a3 aa3d 9bd2 fdbc da31 a4bd 2b55 4fbb
00000150: 8b28 81bd b6e8 b93c 1386 973d 273c 923d
00000160: 7654 3f3c d0c7 a9bc 1e95 123c acdf 9e3d
00000170: c7c2 9abd 9606 ae3b dc5f 1e3d 2194 12bd
00000180: fbc2 a1bb abae af3c 5620 46bd 04f0 e33c
00000190: e391 603d 9016 193d 45f3 5a3d 20fc afbc
000001a0: cb0c e63c f355 123e 0234 4ebc 3984 ef3d
000001b0: 7a46 7fbd 3e83 4cbd d584 5fbd c668 4ebc
000001c0: 651a 02bd fe2b 49bc 9c49 cf3a 27fa 31bd
000001d0: 3352 50bd dc3c a33d af04 693d 1e49 00bd
000001e0: 4887 8b3d 1449 683d 5f2f 07bd e13a f7bc
000001f0: 246b 593d c024 db3c 1d8c 803d fbec 823d
00000200: 0398 eb3d af14 2c3d 7e33 863d d9f8 513d
00000210: b304 d63d 1cd0 0e3d cdd8 373d e556 73bd
00000220: d99a 973c 56eb a7bd 30eb 10bd d24d 90bd
00000230: 3161 0e3c 269d 023d 1f42 aa3a e6df 9f3d
00000240: e2d3 21be 21a0 07be c072 ffbd ad92 d33d
00000250: 6e53 ae3d 6a29 893c fd8d dd3d ff48 863d
00000260: 307e 0a3c de24 773d 8686 db3c 00e4 d6b9
00000270: b670 ef3c 0083 fd3c 109c 8abc 9802 693d
00000280: 70fc 0d3d 5025 52bd 19b0 0bbe 3c1e 493c
00000290: b13a 15be bdf4 103e 2dd5 3f3e bfa3 253e
000002a0: 7a5e 173d e216 9c3d 4495 c23d 1638 adbd
000002b0: 45fe bdbb e408 2f3d 741e 4a3b 70f1 783d
000002c0: 0a7c 2a3d a332 56bc 4aff d83c 7292 85bd
000002d0: 8aef f93a b9b1 113d cb8c 133d a156 2f3d
000002e0: 67f9 babd 3155 fcbc d101 1e3d f752 563d
000002f0: 8acb 98bd 842c bbbc b37c c23d cbf0 64bc
00000300: 34a5 1fbc 75c1 0d3e 6d8a 96bc 42b8 8d3c
00000310: 8aed a3bd d9c9 89bd 39ae 253d 89d2 d6bc
00000320: d5bc 9d3c 1d75 263c 1c63 1fbd c93b 683d
00000330: 39e8 6f3b 9911 fdbc 9691 453d 202b 61bd
00000340: ee46 633d d6c6 523d b402 0b3d 32bf 623d
00000350: 125d a13d 05ec 2c3b b3bb 5c3c e359 663d
00000360: 7e9e f93d 885a d73c e8f5 b63c 12c9 313d
00000370: 5fe6 5e3d 5a78 663d 42fb 5a3d eca8 133e
00000380: 74fe 133e fb59 1abd 800c 633b 1b74 94bd
00000390: 7b32 d93c 864b ff3c 807e 043d 4334 5ebd
000003a0: 007b 153d 1e5f 8ebd 249f 9abd 6432 82bc
000003b0: 4456 52bd a9e9 42bd 81e6 afbd eede 0ebd
000003c0: 492c ac3c 55f9 823d 325a b03c 577c cf3b
000003d0: dfb1 4e3d d494 cfbb 3b35 ad3d aa2f f83c
000003e0: a8cf d03d b19c 8d3d 19c2 c33d 3d1f 8c3d
000003f0: 7a10 dcbc ab0a 8dbb 26f9 c5bd 8206 e8bc
-0.13194177 -0.16058533 -0.053012047 0.0858265 0.019073863 0.0034714595 0.028723005 0.08101368
-0.005020056 0.02656128 0.015087834 0.0549422 -0.06867149 0.036048383 0.013660103 0.05612309
-0.009198448 0.038047623 -0.09212844 -0.012944906 -0.15085076 0.116166994 0.06156183 0.1358568
0.0021786555 0.10282781 0.080652155 0.06993816 -0.012727173 0.07028441 -0.054916937 -0.060351945
-0.042496387 0.024921754 -0.019347044 0.052209593 -0.05641321 0.07870966 0.051908497 0.009208633
-0.06922208 -0.02921436 0.0048560733 0.028261075 -0.07526313 0.015208425 -0.007134761 0.05369249
0.08895699 0.047781803 0.03669163 -0.027746953 0.007268649 -0.10043653 0.06013788 0.028390015
-0.08191909 -0.029229378 0.011856874 -0.029057065 0.019494614 0.047489334 0.031203883 0.016783498
-0.056699935 -0.07633814 0.0045627793 -0.033477724 1.255417e-05 0.010639049 -0.041287217 -0.07854398
0.07851253 0.088735074 0.038372904 0.08031585 0.12725285 0.12831403 0.034286935 0.022941696
0.08332009 -0.030984214 -0.08017321 -0.0031636457 -0.06306561 0.022693973 0.073986195 0.071403794
0.011677852 -0.02072516 0.008946685 0.07757506 -0.07556682 0.0053108437 0.038665637 -0.035785798
-0.0049365736 0.021445593 -0.04837068 0.02782441 0.05482663 0.037375033 0.053454656 -0.021482527
0.028082272 0.142906 -0.012585642 0.11695141 -0.06232307 -0.04992985 -0.054570038 -0.012598222
-0.031763453 -0.012278555 0.0015814784 -0.043451454 -0.05085964 0.079705924 0.056889232 -0.03131973
0.06812912 0.056710318 -0.03300416 -0.030179443 0.053080693 0.026750922 0.062767245 0.06392857
0.11503603 0.042011913 0.0655279 0.05126271 0.10450115 0.034866437 0.04488449 -0.05940904
0.018506454 -0.08199184 -0.035380542 -0.07046093 0.008690164 0.03188815 0.0012989676 0.07806377
-0.15803483 -0.13244678 -0.12473059 0.103307106 0.08512007 0.01674338 0.10818098 0.06556892
0.008452937 0.060337894 0.026797544 -0.00040987134 0.02922855 0.030946255 -0.01692012 0.05688724
0.03466457 -0.051305115 -0.13641395 0.012275275 -0.1457317 0.1415586 0.18733664 0.16175745
0.036955334 0.07621552 0.095011264 -0.08457963 -0.0057981336 0.042733088 0.0030840905 0.060777128
0.0416222 -0.013073596 0.026488919 -0.06522073 0.0019068581 0.03556988 0.036022943 0.042807225
-0.09129601 -0.030802341 0.03857595 0.052325215 -0.07460697 -0.022848375 0.09496441 -0.013973425
-0.009743977 0.13843329 -0.018376553 0.017299775 -0.08004291 -0.067279525 0.040449355 -0.026223438
0.019255081 0.010159758 -0.038912877 0.05669764 0.0036606921 -0.03089218 0.048234545 -0.054972768
0.055487566 0.051459156 0.033938125 0.05535812 0.0787908 0.0026385796 0.013472485 0.056238066
0.12188433 0.026288286 0.022334054 0.043404646 0.054418918 0.05626712 0.053462274 0.14419907
0.14452535 -0.03768347 0.0034644902 -0.07248708 0.026513329 0.031163942 0.032347202 -0.05424906
0.036494255 -0.06951736 -0.07549885 -0.015893169 -0.0513518 -0.047586117 -0.08588887 -0.03488057
0.02101721 0.063952126 0.021527383 0.006331961 0.0504626 -0.0063348804 0.084574185 0.030296165
0.10195857 0.06914652 0.095585056 0.06841896 -0.026863325 -0.0043042502 -0.09666662 -0.028323416

conv2d_1.2.bias f4 [16]
00000000: ab90 f6bc 9637 b6bd d079 683d ca7b 7cbd
00000010: d495 8f3d 9796 f73c a7c4 aabd 704c a13a
00000020: d1e0 d3bb 7e24 cfbb ac8e 413d bf14 5b3d
00000030: 0812 f1bc 983c bfbd 587f 20bd f272 e23c
-0.03009828 -0.08897321 0.056756794 -0.061641492 0.07010999 0.030223174 -0.0833829 0.0012306105
-0.006466009 -0.006321489 0.047255203 0.053486582 -0.029427543 -0.09337729 -0.039183944 0.0276427

conv2d_2.0.weight f4 [32, 16, 3, 3]
00000000: 77e6 07bc aa49 48bd 61ed b3bd 6f57 9dbd
00000010: 1fd3 acba fd38 223d 7f3b cf3d 2757 823c
00000020: 54b0 5a3c 1607 52bc 1a11 2ebd 2c0b dfbd
00000030: 72bb b4bd 89ba 553d 780c dbbd dfc8 a23c
00000040: 8426 9c3c 0bd0 c43d f1f6 633c 6b77 7f3b
00000050: c027 99bc 33ed c0bd 3c19 6ebd ff6b e1bd
00000060: bf92 873d 16d6 6ebd e1d2 013d 1022 1cbc
00000070: 74c5 533c 8baf b23c fe5a 8d3d ec92 edbb
00000080: ce6c 5bbd ac7e 6a3c 0e22 3c3d 988e 283d
00000090: cb38 293d 9c96 303c 7f08 b4bc a553 0dbd
000000a0: a476 69bd 5a24 203c 9659 823c 34f0 443d
000000b0: f379 60bd 38b3 45bd cd19 07bd 76b0 a8bd
000000c0: 6918 03bd d50b c9bd d1e8 183d 57da 83bd
000000d0: aca6 fd3c 07d9 353d db09 94bc 6bf5 f73c
000000e0: afb0 923d f227 013d a0c1 adbc da56 7dbd
000000f0: 84e6 b4bb 7095 a73d fe82 20bd c2e4 00be
00000100: d8ad 2fbd c790 b8bd 034f 8ebd c12f 11be
00000110: b87c 29bd d502 443c 349b cb3d 46dc 023e
00000120: d6e9 4e3d b985 df3c f531 823d 53a6 0e3d
00000130: 54ae 77bd a30e 173d 02c6 0e3d 197f 883d
00000140: eb0d 1a3d 7af8 47bd 28ac e63b 8f90 e7bd
00000150: 326a 81bd e6ae b0bd 15de 6dbb 1ecc bd3d
00000160: c18e 8e3c 5130 b03d 59a9 76bc e28d cd3b
00000170: 9601 12bc e3a6 323c bdaa b53d 2d89 e6bc
00000180: aaa6 9a3c 4155 883d 4bfd 8a3d db38 05bd
00000190: 3c2f f5bc 0c17 12be cdec dd3c 9a57 83bd
000001a0: 7840 063c 4e71 cabc 7b9b aa3d 2450 603d
000001b0: 4c91 e1bd b073 e6bd 1bec a6bd 0188 b93c
000001c0: a97c a73c d8c4 17bd 0d2d 763b e4ee a53d
000001d0: 211f 153c 56da e33c 5bb2 a63c 4031 8a3c
000001e0: c0d0 96bb 6dd9 e63c fc3c 3f3c 2b2e d6bb
000001f0: 6953 9dbd b88e 3abc cca9 03be 71d7 1cbd
00000200: fd7e eabd 5691 adbd 7da9 3abc c35d 29bd
00000210: d18e 1f3d 7d7f 373d 6f98 36bd 36bd 04be
00000220: 9eb8 01be a637 b6bc cd66 2abb e4df 153c
00000230: 12c3 ba3c 666c c6bb 2560 013d ed61 80bd
00000240: e2dc a03c 7838 11bd dfbd 6f3d c139 20bd
00000250: 157b 9dbc 7b02 2fbb 330e c1bd 9294 ddbd
00000260: 72a4 cd3b f884 dc3d ab8a 483d a8a2 dd3d
00000270: 7bdc 533d 54e6 38bc fc62 4fbd 8b7e 883d
00000280: 0dac af3c e992 80bd 3ab2 c43b aed1 dd3d
00000290: 7ea1 713b 9fa8 9fbc 6871 c83c 7602 623c
000002a0: ad32 afbc cc73 a5bc c57d 7ebd 13c8 7e3d
000002b0: 16d9 8e3d 9bd9 ccbc 89a8 8b3d 76e8 53bd
000002c0: 366a cbbc 5bfe 963d 32cb aebd 5688 843a
000002d0: 514f 303d 9a51 663d c650 aebc e0ff 53bd
000002e0: 9a62 6e3d 1f45 4dbd 54f6 ad3c ca86 9c3d
000002f0: c884 3e3d 03c6 483d 466c 3b3c c184 01bc
00000300: b076 93bd 38ed 3b3d 54fd 493d 9b4f e63b
00000310: 2a61 9d3d df80 5dbd 9113 953c 70bd 963d
00000320: 0130 27bd 7b63 993c 2b02 d3bb b87f 6dbd
00000330: 2e65 61bd 9606 88bb 7e6d 21bd ab63 43bd
00000340: 30c8 da3d 6785 42bd 8488 aa39 f507 323d
00000350: 4f5a 793d ce57 153d 7a60 acbd 4efc d1bb
00000360: 06ea 213d dd1a eb3c 9067 44bd 6596 a13d
00000370: bcd3 9d3d f11e 39bc 9583 9f3c 417d 5cbd
00000380: f8b2 5bbd 4f32 abbc bf8f 09bd 0109 9a3d
00000390: 2777 a4bd 0c71 223d dd2b 9cbd 6773 ab3d
000003a0: 4749 033d bbc8 2f3c abef 7fbb 9b6b 703d
000003b0: 0bef a83d 68eb 1a3c f137 8f3d f6ce e7bc
000003c0: 18a3 883d 37a8 20bd 921b 613d d4cf 92bd
000003d0: 7e60 e43b 0ab2 e1bd ca96 a63c 9e56 d93c
000003e0: 60fa 4abd ae15 7abd 954d ae3b cda2 0e3d
000003f0: 4276 be3d 38a1 273b 9af0 f0bc 68b0 bbbc
-0.008294693 -0.048898377 -0.08785511 -0.07682692 -0.0013185478 0.03960513 0.1011877 0.015910698
0.013347704 -0.012819072 -0.042496778 -0.10890803 -0.08824815 0.052179847 -0.106957376 0.019871173
0.019061334 0.096099935 0.013913856 0.003898109 -0.018695712 -0.09420242 -0.058129534 -0.11006927
0.066197865 -0.058309637 0.03169525 -0.0095296055 0.012925494 0.021812221 0.06902121 -0.0072501805
-0.05357056 0.0143124275 0.045930915 0.041151613 0.041313928 0.010778096 -0.021976708 -0.034503598
-0.05699791 0.009774292 0.015911859 0.048080638 -0.0548038 -0.04826662 -0.03298359 -0.08236782
-0.0320057 -0.0981671 0.037331406 -0.064381294 0.030963264 0.044396427 -0.018071106 0.030268392
0.07162606 0.031532235 -0.021210492 -0.061850406 -0.0055206437 0.081828 -0.039187424 -0.12587264
-0.0428904 -0.09011989 -0.06948664 -0.14178373 -0.041378707 0.011963566 0.09941712 0.1277934
0.050515972 0.027285444 0.06357185 0.034826588 -0.060468987 0.036879193 0.034856804 0.06664867
0.03761093 -0.04882095 0.0070395656 -0.11306869 -0.06319083 -0.08627109 -0.0036295701 0.09267448
0.017402055 0.086029656 -0.015055024 0.0062730173 -0.008911511 0.010904047 0.08870456 -0.028141582
0.0188783 0.06656886 0.06786593 -0.032524925 -0.02992975 -0.14266604 0.027090454 -0.06413193
0.0081940815 -0.024712231 0.08330437 0.054763928 -0.11014041 -0.112525344 -0.08150502 0.02264786
0.020445185 -0.03705296 0.0037563473 0.081022054 0.00910166 0.027814072 0.020348718 0.016869187
-0.0046025217 0.028179849 0.011672255 -0.0065362654 -0.07681925 -0.011386566 -0.12857741 -0.0382914
-0.11450002 -0.08474986 -0.011392948 -0.041349184 0.03895456 0.044799317 -0.044578966 -0.12962803
-0.12668082 -0.022243332 -0.0026001215 0.009147618 0.022798095 -0.0060554026 0.03158583 -0.06268678
0.019636575 -0.035454243 0.058530685 -0.03911758 -0.01922373 -0.002670436 -0.094265364 -0.10819353
0.006275707 0.10767549 0.04896037 0.1082204 0.05172394 -0.011285383 -0.05063151 0.06664761
0.021444345 -0.06278021 0.0060026916 0.10831009 0.0036869938 -0.019489584 0.024468139 0.013794532
-0.021386469 -0.020196818 -0.062131662 0.062202524 0.069749996 -0.025006106 0.06819255 -0.051735364
-0.024830919 0.07372733 -0.0853485 0.0010111432 0.043044392 0.056230165 -0.02127875 -0.051757693
0.058199503 -0.050114747 0.021235622 0.076428965 0.04651335 0.049016964 0.011439389 -0.007905186
-0.07200372 0.045880526 0.04931386 0.0070285327 0.07684548 -0.05407798 0.018197807 0.07360351
-0.040817264 0.018724194 -0.0064394674 -0.05798313 -0.055028133 -0.0041511757 -0.03941106 -0.047702473
0.10682714 -0.047490504 0.0003252664 0.04346462 0.06087714 0.03646069 -0.08416839 -0.006408251
0.039529823 0.028699333 -0.047950327 0.078900136 0.07706401 -0.011298881 0.019471923 -0.05383039
-0.053637475 -0.020898012 -0.033584353 0.075212486 -0.08030539 0.03965859 -0.07625554 0.083716206
0.032052305 0.01072901 -0.0039052765 0.05869637 0.08248719 0.009455539 0.06993092 -0.028296929
0.06671733 -0.039222922 0.054957934 -0.07168546 0.0069695106 -0.110202864 0.020335574 0.02653056
-0.049555182 -0.06105583 0.005319307 0.034823228 0.092999 0.0025578272 -0.029411603 -0.022911265

conv2d_2.0.bias f4 [32]
00000000: c68c d8bb a110 b13c 85c1 adbd 21f3 073d
00000010: edfd 00bd f931 c13c f195 8e3d cae5 b1bd
00000020: 1b91 50bc d90b c0bc e2fc aabd da33 56bd
00000030: abd3 b9bd 11d2 05bd 7bbb a1bb e423 85bc
00000040: ba01 3c3d f7bb b5ba cf94 b1bd c27a a33c
00000050: 7018 98bd 366c 84bd a37c 5f3d 5077 f1bc
00000060: bda6 58bc eb5d e2bc a89b 383c f8d1 7c3d
00000070: 21dd cebc b1c9 363d 0a89 15bd 0477 403d
-0.0066085784 0.021614375 -0.084841765 0.03319085 -0.031492162 0.0235834 0.06962193 -0.08686407
-0.012729908 -0.02344315 -0.08349015 -0.052295543 -0.090735756 -0.032671038 -0.0049356795 -0.016252466
0.045900084 -0.0013865222 -0.08670961 0.019955996 -0.07426536 -0.06465952 0.054562222 -0.029475838
-0.013223347 -0.027632674 0.01126758 0.06172368 -0.025251927 0.04462594 -0.036507644 0.046988502

conv2d_2.2.weight f4 [32, 32, 3, 3]
00000000: 04cf db3c d839 1b3d 8de7 33bc e145 d5bc
00000010: 7810 40bc 08c9 2b3c 47ff 9abd a835 36bd
00000020: 5b31 1cbd 8fc1 773c 1f15 84bc 4406 19bd
00000030: 3311 3abc 0c82 8cbd 3216 49bd 734a cdbc
00000040: ef74 83bd 9b5c cdbb 2299 a43c bbe8 113d
00000050: 4ba9 0dbd e990 173d 4b5a 89bc dbb2 4a3c
00000060: 51f6 223d 58bc 4c3c ddcd f43c f3ce 203d
00000070: 9cbf 0fbd 806b ec3c c2d2 a53a d56c 62bb
00000080: e51e 3e3d 8c5e 543d f27a 29bd 83ee 40bd
00000090: 2d98 7e3c a00e 87bc 80a3 17bb 7ae0 e5bc
000000a0: 069e 06bd 5981 6a3c efdd 273d c552 933c
000000b0: eb9c 9f3c 54bd 2a3d d0f1 b03d bec4 c03d
000000c0: a925 093d ff9d 8a3d 0e84 a23d 29fd 58bd
000000d0: 3af3 d2bc 6e6d 933c 522e 4dbd c4fe 53bd
000000e0: ecd4 3a3d f4f3 80bc 639e 64bb a308 3c3d
000000f0: 7c91 163c b734 d739 0145 71bd 812c 263d
00000100: a6fc 6fbd e095 58bc 68e1 c0bd c64f 99bc
00000110: 87a6 b1bd c0f4 c63d e405 073d 3deb 633d
00000120: 73b4 abbc a7c4 193c 2870 53bc eaed 9bbc
00000130: ad44 67bd ee6d 87bd a1a7 593b a5c1 eb3c
00000140: 0e74 ae3b 83d8 50bd 52ea b2bd acb0 abbc
00000150: 5a01 02bd 1ef5 c5bd 453c efbc 972d f3bc
00000160: b513 30bc 8707 b1bd 6606 9cbb 13a2 e5bc
00000170: 46f3 20bd 27df 43bd 2508 8abc 66d2 64bd
00000180: 982d 4dbd adee 033d aa21 3abd 1f02 eabc
00000190: 4138 2cbd 40a6 37bd d888 073d eb35 c4bc
000001a0: 782e ba3c a0f9 923d 6753 343d 162d 803d
000001b0: a714 2b3d 50e3 ac3d bd99 1c3c 583e 2b3b
000001c0: 92ef 96bb b586 1d3d b5f4 293c c9bd febb
000001d0: e6f2 aabc 3c20 fc3a e567 103b 7d1f 24bc
000001e0: e507 623d 22f9 f83b 2597 503c 7728 f8bc
000001f0: 1136 49bd 2c8a 4e3d 4b63 163e 50de ae3d
00000200: 6e1a 8e3d 12ce 48bd 4320 3ebd 508d b6bc
00000210: 1bbe 853d 9114 dbbc c7f9 833d 5e51 493d
00000220: 53ee c3bc f33f 8f3c ffc8 353c 1717 62bd
00000230: 2b03 2f3d 3eb8 a03a 6024 363d 6e80 0a3d
00000240: f47c 8abd db17 44bd e0cd 6fbd cf13 183d
00000250: e828 b9ba e08e 9dbc 33ff 4b3d b716 97bc
00000260: 0b4a c13c 9fb5 003c 86d5 963d 08fc 3bbd
00000270: 5d31 8c3c 4722 063d 8f45 1a3d a71e f7bc
00000280: 85aa d9bc dbe5 2fbd 8b13 a43c bd0c c2bd
00000290: 46a9 85bd ba0f 2c3d 350f 543d 8f48 20bc
000002a0: a6dc 35bd 8da7 a2bc 5b13 dd3b cd75 bcbd
000002b0: 1135 503c 332d 8bbd 7a56 483d 1471 59bd
000002c0: 088c 4d3d 5214 4ebd 1634 36bd 0a08 9abd
000002d0: 40a2 383d caac 22bc 8216 113d c345 69bd
000002e0: b91e 87b9 07b7 45bd fffc 5ebd ea5e 9f3c
000002f0: 4ec7 68bd 62f3 b03d 05d9 9f3b 4b43 b43c
00000300: 6b46 6d3d 66a8 d2bc e910 fdbc 11ac 5abd
00000310: f8e2 97bd f56d 9abb e1da 9c3d 08b4 08bd
00000320: 1bdf 82bc df56 f73c 0082 d53c 81f7 72bc
00000330: f370 a0bd b2c2 a8bc eeaf 2cbd 1d06 7b3a
00000340: 0d2a 263d 4d33 013d 0ade c8b9 7c5c 0dbc
00000350: 6dd2 6dbd a21b 34bc a162 0f3d 3068 3fbd
00000360: 9dc6 e1bc a327 223d c672 94bd d788 6ebd
00000370: 088b 33bd 6001 0e3d c92b fdbc ac15 67bc
00000380: bb32 1a3d b220 78bd 19dc d8bd fcc6 e6bd
00000390: 968d 473d f928 7fbc aa11 28bd 82fa fcbc
000003a0: d880 85bd 8a14 74bd 648f 29bd 49be 63bd
000003b0: b841 73bc 644d 82bd bf07 413d 4cad 27bd
000003c0: d218 8bbd 4bf8 18bd 4366 683c 6ae6 95bc
000003d0: da19 523c 823f 49bc e6f3 743d e00b 213d
000003e0: cf5c 263c 4dae 23bd 7aa3 7a3c c5f1 463c
000003f0: d964 eabb 67b7 5bbc 84bb 67bc 4168 bc3d
0.026832111 0.03789696 -0.010980499 -0.026034297 -0.011722676 0.010484941 -0.075682215 -0.044484764
-0.038133007 0.015121832 -0.016123353 -0.03735949 -0.01135664 -0.06860742 -0.049093433 -0.025059914
-0.06418788 -0.006267143 0.02009255 0.03562234 -0.03458528 0.03700343 -0.016766688 0.012371744
0.039785687 0.0124960765 0.02988332 0.039259862 -0.035094842 0.028859854 0.0012651312 -0.0034549732
0.046416182 0.05184798 -0.041377015 -0.047102463 0.015539211 -0.016486466 -0.0023138225 -0.02806114
-0.032865547 0.014313065 0.040983137 0.017983804 0.019484004 0.041684464 0.08639872 0.094125256
0.03348318 0.067684166 0.07935344 -0.052975807 -0.025750745 0.017996516 -0.050093003 -0.051756635
0.045613214 -0.015741326 -0.0034884445 0.045906674 0.00918996 0.0004104727 -0.058903698 0.040569786
-0.058590554 -0.013219327 -0.09417993 -0.018714797 -0.08674341 0.09714651 0.032964602 0.055644263
-0.020960068 0.0093852645 -0.012905158 -0.019034345 -0.05646198 -0.06612764 0.0033211487 0.02877886
0.0053238934 -0.05098773 -0.08736099 -0.020958267 -0.03173957 -0.09665893 -0.029203543 -0.029684825
-0.010746886 -0.08644014 -0.004761505 -0.028031385 -0.039294504 -0.047820237 -0.016849587 -0.055864714
-0.05009231 0.03221004 -0.04544226 -0.028565465 -0.042045835 -0.044836283 0.03308949 -0.023951491
0.022727236 0.071765184 0.04402485 0.062585995 0.041767742 0.08441794 0.009558138 0.002612969
-0.0046061957 0.038458545 0.010373284 -0.007774089 -0.020867776 0.0019235681 0.0022034582 -0.010017273
0.05518331 0.0075980583 0.012731348 -0.030292733 -0.049123827 0.05042474 0.14686315 0.085384965
0.06938635 -0.04902465 -0.046417486 -0.02228418 0.065304 -0.026743205 0.064441256 0.049149863
-0.023917353 0.017486548 0.0110952845 -0.0551978 0.04272763 0.001226194 0.044468284 0.033813886
-0.06762114 -0.047874313 -0.058545947 0.037128266 -0.0014126571 -0.019233167 0.049803924 -0.018443448
0.023594877 0.007855802 0.07364945 -0.045894653 0.017113382 0.032747533 0.037663992 -0.030165983
-0.026570568 -0.042943817 0.02002885 -0.09475086 -0.06526427 0.042007186 0.051772315 -0.009782924
-0.04439988 -0.019855285 0.006746692 -0.09202156 0.0127079645 -0.067957304 0.048910595 -0.053086355
0.050182372 -0.050312348 -0.044483267 -0.075210646 0.04507661 -0.009928891 0.035421856 -0.056951296
-0.00025772097 -0.04827025 -0.054440495 0.019454438 -0.056830697 0.086401716 0.0048781657 0.022004744
0.057928484 -0.025715064 -0.030891852 -0.05338675 -0.07416338 -0.004712815 0.07658935 -0.033374816
-0.015975526 0.03019279 0.026062965 -0.014829517 -0.07834043 -0.02060065 -0.042159967 0.0009575801
0.040567447 0.031543065 -0.00038312405 -0.008628007 -0.058062006 -0.010992916 0.03500617 -0.04673022
-0.027560527 0.03958858 -0.07248454 -0.05823597 -0.043833762 0.03466928 -0.030904667 -0.014104288
0.037646037 -0.060578056 -0.10588855 -0.11268422 0.04871901 -0.0155737335 -0.04103247 -0.03088117
-0.065187156 -0.0595899 -0.041396514 -0.055601392 -0.014847212 -0.06362417 0.047126528 -0.040936753
-0.067918435 -0.037346166 0.014184537 -0.018298347 0.012823546 -0.012283208 0.059802912 0.039317966
0.010153963 -0.039961148 0.015297765 0.012142603 -0.0071531353 -0.013410426 -0.014143828 0.09199572

conv2d_2.2.bias f4 [32]
00000000: f6bc 42bc 65e6 8cbc 32c4 13bd 00b2 aebc
00000010: be7d 093d e197 19bc e4c8 fb3b 3b79 bc3c
00000020: 0a07 18bd 3a2b 1ebd e761 233c fd77 c839
00000030: 61d8 05bd 7287 fcbc 8d5a 6b3d a19b 3239
00000040: af4a 06bd 2508 8ebb 6979 833c b920 843c
00000050: c188 acbd db09 8bbd 9be7 7fbd ac51 40bd
00000060: cc3e 95bc 721d b7bc 612e 14bd 0408 2abd
00000070: 33f4 573c b084 d23c 4ce8 30bd dce1 acbc
-0.011885872 -0.017199704 -0.03607578 -0.021325111 0.033567183 -0.00937459 0.00768386 0.023007026
-0.037116088 -0.038615443 0.009972072 0.0003823637 -0.032677058 -0.030826304 0.057459403 0.00017033379
-0.032786068 -0.004334467 0.016049104 0.016128885 -0.08424521 -0.06788989 -0.062476736 -0.04695289
-0.01821842 -0.022352908 -0.036177043 -0.04151155 0.01318078 0.025698036 -0.043190286 -0.021103792

conv2d_3.0.weight f4 [64, 32, 3, 3]
00000000: 8d98 193d 1b10 cd3c 5e5e 323d c7c8 233c
00000010: bbaf ecbc dd73 033c 1d29 173d 2889 1fbd
00000020: 346e e93c 7bb7 383d 0e94 13bd 6d76 16bd
00000030: c6a4 663d f628 fdbc 3fcf 9fbc 1bb3 2c3c
00000040: bf4c 413d 9c0b 6fbc a64a a8bd 98fd a7bd
00000050: 1327 1bbd decc cd3b ea78 0a3c 9851 053b
00000060: 16ad fc39 9451 cbbc ffd4 63bd fa68 4cbd
00000070: b356 08bc 9925 b9bc 373c 0fbd 384c ec3c
00000080: e2bf 673d f31f 1bbd 78b9 e2bc b2a8 3cbd
00000090: ce96 a5bc 686b d4bc 9eec 3fbd d23a ec3c
000000a0: 1efe 6c3d 0033 0c3d 2e6e 0bbd c780 e5bc
000000b0: 339e ea3c 7c0e 643d c9a6 3c3d a834 6a3c
000000c0: eb5f 223d 671c 8f3c 0248 063d 657e 1fbd
000000d0: c15d 0f3d c691 f63a 0247 90bb bdf0 fc3c
000000e0: 285a 413c f6ec 74bd f9e4 e9bc 2ac1 053c
000000f0: ade2 96bd 274f 18bd 9ba8 b93c a0f2 f13c
00000100: 796a cebb 74b0 2d3d 3cf4 813d a5ac 003b
00000110: efb1 5bbc 103d dc3c 5b49 533d d5cb 6e3c
00000120: d685 dbbb d951 363d 514f 8f39 52e6 513d
00000130: fd9d 36bd f221 6d3b 4d5b 6ebb 3b5e 883c
00000140: b88b 2a3d d004 25bd b468 293d eed5 1f3d
00000150: 845d 6fbc 70cf 93bc 87f8 9fbc 2a4a 243d
00000160: 5cb1 e73c a351 09bd 35b3 c8bc bc03 13bd
00000170: 1118 23bc cf14 243d 3a27 5a3d fc5e 483c
00000180: 697c 57bc 9b10 f7ba 49a1 eabb 9d1c 823c
00000190: e85a 1ebc 0c8d 4e3d f97d 313d 7560 84bd
000001a0: 2aba 1dbd 0a65 9ebd a6ef 13bd 2115 45bd
000001b0: f82c 66bd 7ba3 323d 35d8 57bc ad91 2e3d
000001c0: 99c0 4c3c 3741 3bbd ca1d 91bb 1a47 b5bc
000001d0: e748 52bd af30 3e3d af17 c8bc 20ff 5abc
000001e0: f6dc 863c 33a1 283d 6064 26bd 6a35 983c
000001f0: 5f7a ef3c a6bc bebc 34c7 1f3d 5b77 9cbc
00000200: dd2b 053d b6ae 88bd e09a c3bd 2110 08bd
00000210: e6b0 a4bd 73c9 1dbd 1e82 81bd 05bb 893c
00000220: eae8 353d da2c e7bc daa8 06bd f9b8 0f3d
00000230: 965c 7fbc c2ad 03bd 790b 5fbb 3b81 f13b
00000240: 6ec0 1f3d cca2 f93c 0b63 253c 6658 13bd
00000250: 05b3 38bb fc13 df3b fc6d 8cbd 6a51 f3bc
00000260: 7dae 133d 2508 debc e4ed 4dbd 0402 4f3d
00000270: 15a5 0a3d fe08 ca3b b4ad 8bbc 8d32 b53b
00000280: db53 4bbd 65d1 553c fe42 a03b a882 0fbd
00000290: 3e08 83bd fda2 fd3c 6d29 ccbc b3ea 65bd
000002a0: f280 c2bc 3eba 82bd cfa8 4dbd aa5e 4bbc
000002b0: 00e1 8dbd f333 f1bc 7e9e 143c ebeb 20bd
000002c0: 03ba 84bc fd6f a4bc c9d2 b7bc f214 ecbc
000002d0: 0f2c 473d 5701 d23c cedc d23b 7929 b23c
000002e0: e073 443c 2201 553c 7659 56bd 02e4 bc3b
000002f0: d919 90bc c92b c33c 1a85 b93c 70a5 6a3b
00000300: dfff 133d d8e3 013d 1711 64bd b93c 113d
00000310: ae45 033d b94f acbc 0127 b3bc ca56 fbbc
00000320: e234 783d 0e36 fcbc c83c 763d d715 86bc
00000330: 15c9 3e3c 4bbf 2ebd 72ea 613d 10a8 fe3c
00000340: 409a 193c e6ee 71bd 7da5 323d 1426 1bbd
00000350: e407 adbc 9736 d93c 15e9 edbc 75ec c33c
00000360: 0953 5e3c 6e7e 123d fa3f c4bc 167a fb3b
00000370: 6bc2 38bc 5e59 953d c7a0 4e3d bc18 c03c
00000380: 215f f23c e95f 22bc b2b4 d83c 887f 46bd
00000390: 161b 13bd 6269 b63c c1f5 df3c 0dc8 da3c
000003a0: bca4 4bbd df1e 48bc da5a 2fbd a34d 743d
000003b0: e7e1 38bd 8cad 0dbd 26ec 7ebc c8b5 8c3d
000003c0: c8df 0a3c 377e 26bd 87e0 c6bc cf5b 1bbd
000003d0: f544 05bd 544f 3e3d 990e b3bd 9ee7 30bc
000003e0: 2d26 9ebd 97d5 26bd 1e9f aebc 9720 1bbd
000003f0: 36f4 863c 263d 05bd b2ed cc3c 2a2c cfbc
0.037499 0.025032094 0.043547027 0.0099965995 -0.028892389 0.008023229 0.036904443 -0.03894916
0.028494932 0.045096856 -0.036029868 -0.036734033 0.056309484 -0.03090332 -0.019508002 0.010540749
0.04719233 -0.01459017 -0.08217363 -0.08202666 -0.03787906 0.0062805256 0.00845168 0.0020342823
0.00048194145 -0.024819173 -0.05562305 -0.0499048 -0.008321452 -0.022600936 -0.034969535 0.028844938
0.056579478 -0.037872266 -0.027676329 -0.046059318 -0.02021351 -0.025930122 -0.046856515 0.028836641
0.057859533 0.034228325 -0.034040622 -0.028015507 0.028639888 0.055677876 0.046057496 0.014294781
0.039642256 0.017469598 0.032783516 -0.0389389 0.03500152 0.0018811754 -0.004402996 0.030876512
0.01180128 -0.059796296 -0.028551565 0.00816373 -0.07367454 -0.03718486 0.022663405 0.029534638
-0.0062993136 0.042404607 0.06345412 0.0019634154 -0.013409122 0.026884586 0.05158363 0.0145749645
-0.006699304 0.04451165 0.0002733418 0.05124504 -0.044584263 0.0036183563 -0.0036370337 0.016646495
0.041637152 -0.040287793 0.04135962 0.03902238 -0.014609698 -0.01804325 -0.019527687 0.04010979
0.028282814 -0.03352512 -0.024499515 -0.035892233 -0.009954468 0.040058907 0.053260066 0.012229677
-0.01315222 -0.0018849553 -0.00716034 0.015882785 -0.009665228 0.05042748 0.043333028 -0.0646371
-0.038507618 -0.077341154 -0.03611722 -0.048115853 -0.05619523 0.04361294 -0.013174106 0.042619396
0.012497091 -0.04571649 -0.0044286 -0.02212863 -0.051339056 0.046433147 -0.024425356 -0.013366491
0.016462784 0.041169357 -0.04062307 0.018580157 0.029233156 -0.023283314 0.039008334 -0.019099882
0.032512534 -0.066739485 -0.095510244 -0.033218507 -0.08041553 -0.038522195 -0.06323646 0.01681281
0.044411577 -0.02821963 -0.032875873 0.035088513 -0.015586039 -0.03214813 -0.0034033938 0.007370142
0.039001875 0.030473135 0.010094414 -0.035972975 -0.0028182876 0.0068078022 -0.06856915 -0.029701907
0.036055077 -0.027103493 -0.0502757 0.05053903 0.03384884 0.0061656227 -0.017050602 0.0055297078
-0.049640518 0.013050412 0.0048907986 -0.035036713 -0.063980564 0.030961508 -0.024922097 -0.05613203
-0.023743127 -0.06383179 -0.050209817 -0.012412706 -0.06927681 -0.029443717 0.009070991 -0.03928749
-0.016201979 -0.020072931 -0.022439377 -0.028818581 0.048626002 0.025635405 0.0064350134 0.021748291
0.011990517 0.013000758 -0.05233141 0.0057644853 -0.01759045 0.02382459 0.022646476 0.0035804175
0.03613269 0.03171143 -0.05568036 0.0354583 0.032048874 -0.021034108 -0.021869184 -0.030681033
0.060597308 -0.030787494 0.06011656 -0.016367836 0.011644621 -0.0426629 0.055155225 0.031085998
0.009375155 -0.059065722 0.043614853 -0.03787811 -0.021121927 0.026515288 -0.029041806 0.023916462
0.013569602 0.035765104 -0.023956288 0.007674466 -0.011276822 0.07292436 0.050446298 0.023449294
0.029586377 -0.009910562 0.02645335 -0.048461467 -0.035914503 0.022267047 0.027338864 0.02670672
-0.04971765 -0.0122143915 -0.042811252 0.059644353 -0.045137312 -0.034589335 -0.015559232 0.068706095
0.008476205 -0.04064771 -0.024276985 -0.037929352 -0.032536466 0.046462372 -0.08743019 -0.010797409
-0.07722125 -0.04073104 -0.021316107 -0.037872877 0.01647387 -0.03252902 0.025015686 -0.025289614

conv2d_3.0.bias f4 [64]
00000000: e8e3 32bb 37d1 91bc a5bd 0bbd 2df4 4abd
00000010: 0610 09bd 77e1 b43c 2b9f 883c 08ee 183d
00000020: 2378 523d 9f08 74bc eb77 873c 5116 37bd
00000030: 6515 10bd c780 023d b9b6 733c 9d86 183d
00000040: 2719 bdbd 8086 b5bc d9ff ee3c 10b3 d23c
00000050: acbe 5abd d137 db3c 3f84 113d 5b47 f6bc
00000060: 6c89 ae3c fe09 8d3a 2037 f6bc f43d 0d3c
00000070: 9d84 87bd a100 d23c 5b17 b83c 4101 493c
00000080: 0678 51bd 9a65 40bd 55ec 2fbc 816c f73c
00000090: 2da6 293d e607 24bb da4b e03c 9ce7 1e3d
000000a0: 61ee f8bc ba7b a1bc c173 c3bb 7905 083d
000000b0: db27 9f3d fd8c b7bd 8364 89bd c504 b4bc
000000c0: ae0a e6bb 6b11 b03c 3358 5dbd eb21 c4bb
000000d0: 421d e5bc 5892 e9bc 8e18 243c 0299 14bc
000000e0: e58f 66bc 2cb2 d23a d17b 103d 5c5f 783c
000000f0: 771b 1f3b 031c 80bc e322 f53c 28c8 5c3c
-0.0027296487 -0.017799957 -0.034116406 -0.04954927 -0.033462547 0.022080166 0.01667746 0.03733638
0.051384103 -0.014894634 0.016536674 -0.044699017 -0.035176653 0.031861093 0.014875107 0.037237752
-0.09233313 -0.022158861 0.029174732 0.02572015 -0.053404495 0.026760014 0.03552651 -0.030063322
0.021305762 0.0010760424 -0.030055583 0.008620728 -0.06617091 0.025635066 0.022472074 0.012268365
-0.051139854 -0.046971895 -0.010737498 0.030203106 0.041418243 -0.0025029122 0.027379919 0.0387951
-0.030387105 -0.019712318 -0.0059647267 0.033208344 0.07771274 -0.08962438 -0.06708624 -0.02197493
-0.007020316 0.02149268 -0.05403919 -0.0059854886 -0.027968053 -0.028512165 0.01001562 -0.009069683
-0.014072393 0.0016074828 0.03527433 0.015159454 0.0024277845 -0.015638357 0.029923862 0.013475455

conv2d_3.2.weight f4 [64, 64, 3, 3]
00000000: 365b 14bc 2c67 93ba 3714 613b d4c2 70bc
00000010: 9940 f23b cf0d 843c 0d71 89bd cdf6 7bbd
00000020: dafa 4bbd 7bc6 8e3c c54e c03c fb65 2c3d
00000030: 2d6e 353d 1255 133d cd45 163d 9ad7 53bd
00000040: 9115 8abd 26f0 4ebc ae16 b5bc 563a 103b
00000050: 2b95 55bc 6cba 373e 1ff2 a3bc 222b a33c
00000060: 06d8 07bc a6f9 423c 3869 afb9 b613 ad3c
00000070: 98ee 07bd a570 06bc e225 913c 4eac ff3c
00000080: e681 29bc 6a48 c6bc a31a 07bd 392d 05bd
00000090: 2069 70bd c480 4c3c 787c 4ebd 5862 d03d
000000a0: a8fd ed3d 374e cd3d becc 5c3b 3f07 d0bc
000000b0: be93 3b3c f2fb 19bd b5f1 40bc 1fe7 5bbd
000000c0: 0a34 cdbc 2eb1 f63c 4fe2 4139 93ac 84bd
000000d0: f20e 01be 2f20 f3bd 4931 713d 302d a63d
000000e0: 37d8 d53c 0429 383d 5cba 6a3c f5fe 113d
000000f0: 4360 bcbc 5724 85bd 36ee bfbd 99d3 943d
00000100: 3c1f b03d 952b 323c 419e 96bc e011 46bd
00000110: 0e9f 7abd 4a3b 54bd ae0f 82bd 2c2a 6bbd
00000120: ce3d 96bd 68fb 143c 301b d03c 2952 dfbd
00000130: ace6 d1bd fe4c c9bc 8b07 07be 405e b0bd
00000140: 03b3 ebbd 4628 f3bc f93a b3bc 56c9 933c
00000150: 1f8d 00bd ec63 18bd a0e0 253d 2a22 043d
00000160: 784d ba3c 1018 f1bc 9344 5a3d f243 443c
00000170: ed9c c13a 5d2a 1bbc eaba 23bb fbca 03bb
00000180: 214f efbd cc19 aebd 8bd3 ebbd 89fc 043c
00000190: 0bcc b23b 60d1 fb3c 0057 afbb 9643 85bb
000001a0: 90dc d23c 6b1f 283c f017 58bc 7eed b43c
000001b0: 85be b3bc 8a4b 96bc ea82 13bd 1cc7 bbbc
000001c0: 97b8 1c3c 9831 bdba 9682 f4bb 0242 10bd
000001d0: 8602 073c 8d91 953d 2d4f 9e3d c3c4 003d
000001e0: 7460 0ebd 1f09 86bc 98c9 e7bc 5e2f 9cbd
000001f0: f84c a5bd a85e 8dbd e034 87bd 3e3f a9bd
00000200: bfdc a1bd eabd 893d 6db5 893c 3b9b 013c
00000210: 3146 1cbe 2acf 29be d31e f0bd 512d 1ebe
00000220: 6181 e6bd dd23 d5bd 5b34 503d d26b 973d
00000230: 7e5f ad3d 41de d2bd 956c 20be ddc0 e0bd
00000240: 53c6 d9bc 0ee2 cebc cff3 1b3d 9e12 0cbd
00000250: 00c8 0c3b 8bc8 8fbc 53dd ff3c c01c 91bc
00000260: f68e 073c bda4 203d 7c34 5abc ff8a 0e3d
00000270: 0934 0cbd 5cef 6fbd 2d3a febc 1378 7fbb
00000280: 025b 3abd 0467 27bd a929 873b 8132 0d3d
00000290: 490e 8f3c 4e73 07bd a9b1 36bd 0c6b babc
000002a0: 6886 cbbd a5ae e3bd 635d 49bd f1f3 02bd
000002b0: 07fd ab3c 083e e7bc 0eb9 a1bc e4ff a53c
000002c0: 2232 0abd 26ed 8abd 47b0 ecbd c68d a6bd
000002d0: fc6b bcbc 4fd5 04bc cf0a ebbc 0ec0 743c
000002e0: 7fcc 4b3d 377f 283d d902 3cbd df91 32bd
000002f0: a00c 423c 64cf ff3d 92bc 56bc bda1 143d
00000300: e817 59bd 2b91 9cbb 4ee7 393c 8825 24be
00000310: 1f51 8abd 0160 debd b6a2 f63d d26b bd3d
00000320: 993d f63d 5bf3 af3c 2a20 9b3d a9ae c33d
00000330: ea0f bfbd dbd4 d8bd d73b a9bd 052f e13b
00000340: cbc3 2c3c fe08 debc 3b8e 493d 03c7 49bd
00000350: 3ebd 413b 2417 04bc b057 c43c 63d5 963c
00000360: f49d dfbc b6e3 c03b 2bea b53c a102 413c
00000370: eb0a 91bd b012 1dbd 9fb4 10bd f9eb d6bd
00000380: 6b84 c3bd 4bf9 19bb f623 36bc cde7 243d
00000390: c3de 22bd 506c 473c 20d6 22bc d6c0 b2ba
000003a0: e38e 57bc a60c 49bd 393b 433c 37b6 a33c
000003b0: 6744 b239 54ae 873d f998 293c 8026 873d
000003c0: 63e7 9a3c f641 173d 2014 fcbb a8f9 1ebd
000003d0: db15 eebc 901f 8dbc 7924 a5bd 9278 4dbd
000003e0: 5a52 d2bb a4d5 8ebd 6c31 3bbd de2b 7abd
000003f0: 0ec2 95bd f6af 5bbd 71b8 36bc 407c da3b
-0.0090549495 -0.0011245958 0.0034344324 -0.014694888 0.0073929545 0.016119866 -0.06711016 -0.061514664
-0.049799778 0.017428627 0.02347506 0.042089444 0.044294525 0.0359698 0.03668766 -0.051719286
-0.06742395 -0.012630498 -0.022105541 0.0022007427 -0.013036053 0.17942208 -0.020012913 0.019918028
-0.00829125 0.011900341 -0.00033456995 0.021127563 -0.033186525 -0.0082055675 0.01771826 0.031210091
-0.010345912 -0.024204452 -0.032984387 -0.03251383 -0.058694005 0.012481872 -0.05041167 0.101750076
0.11620647 0.10024684 0.0033691372 -0.02539408 0.011448799 -0.03759379 -0.011776377 -0.05368721
-0.025049228 0.030113783 0.00018490221 -0.064782284 -0.12603357 -0.11871373 0.058884893 0.081140876
0.026104076 0.04496099 0.014326658 0.035643537 -0.02299512 -0.06501072 -0.09371607 0.072669216
0.085997075 0.010874649 -0.018386008 -0.04835689 -0.061186843 -0.051814355 -0.06350647 -0.057413265
-0.07336007 0.009093143 0.025403589 -0.10904343 -0.10249075 -0.024572846 -0.13186471 -0.08611727
-0.11508753 -0.02968229 -0.021878706 0.01804034 -0.031384584 -0.037204668 0.040497422 0.032259144
0.022742018 -0.02943042 0.053288054 0.01197909 0.0014771499 -0.009470549 -0.0024983236 -0.002011
-0.116850145 -0.08501014 -0.11514958 0.00811685 0.0054564527 0.030739486 -0.0053509474 -0.0040668948
0.025739938 0.010261397 -0.013189301 0.022085901 -0.021941433 -0.018346567 -0.03601352 -0.022922091
0.009565494 -0.0014434336 -0.007461856 -0.0352192 0.008240348 0.07303152 0.07729945 0.031437647
-0.034759954 -0.016361771 -0.02829437 -0.07626222 -0.08071321 -0.0690282 -0.06601882 -0.082640156
-0.07903432 0.06725676 0.016810143 0.007910545 -0.15261151 -0.16582933 -0.11724629 -0.15446974
-0.11255146 -0.10407231 0.05083118 0.07393612 0.08465479 -0.10296298 -0.15666421 -0.10974286
-0.026583826 -0.025254276 0.03807431 -0.034197442 0.0021481514 -0.017551681 0.031233465 -0.017713904
0.008273831 0.039219607 -0.013318177 0.034800526 -0.034229312 -0.05857788 -0.0310336 -0.0038981482
-0.045496948 -0.040869728 0.0041248393 0.034471992 0.017462866 -0.033068947 -0.044603024 -0.022756122
-0.09937745 -0.11117295 -0.049161326 -0.031970922 0.020994676 -0.028227821 -0.019741561 0.02026362
-0.033739217 -0.06783514 -0.1155706 -0.0813251 -0.02300071 -0.008107497 -0.028691677 0.0149383675
0.04975557 0.041136947 -0.045901153 -0.043596145 0.01184383 0.124907285 -0.013106482 0.03628706
-0.053001314 -0.0047780476 0.011346651 -0.16029942 -0.06753754 -0.10858155 0.120427534 0.09249081
0.120234676 0.021478346 0.07574494 0.09554798 -0.09329207 -0.10587474 -0.08263367 0.0068720602
0.010544728 -0.027103897 0.049207907 -0.049262058 0.002956226 -0.008062158 0.023967594 0.018412298
-0.027296998 0.0058865203 0.022206387 0.011780412 -0.070821606 -0.0383479 -0.035328504 -0.10494227
-0.09546741 -0.0023494537 -0.011116972 0.040260125 -0.039763223 0.01217182 -0.009938747 -0.0013637792
-0.013156625 -0.049084328 0.011915975 0.019984348 0.0003400177 0.06625047 0.010351413 0.0659914
0.018909162 0.03692814 -0.007692829 -0.03881231 -0.029063156 -0.017226964 -0.08063597 -0.050163813
-0.0064185085 -0.069743425 -0.04570143 -0.06107699 -0.073124036 -0.053634606 -0.011152373 0.006667644

conv2d_3.2.bias f4 [64]
00000000: 1e28 21bd e491 923c 916c 00bd 7c31 4b3b
00000010: 8a5a 83bc 4f7e e13a 1884 923c 1980 823b
00000020: f6b7 403c e7a7 cd3b 06fc 4d3b 6a38 583c
00000030: 878f efbc f71d 6c3c 9f67 883c 1ed6 2cbd
00000040: 7b29 83bb 2ef2 4abc e8d9 73bc eaa4 56bd
00000050: 7065 0dbd c6fa 943c 3dc5 eebc b570 93bc
00000060: 8aa2 2abd e1c3 0c3c c683 22bd 0d75 4abd
00000070: bad5 393c 0098 1dbc 0713 1a3c d017 11bc
00000080: ed71 aebb 8734 c33c 976d 87bc 1122 73bd
00000090: be4e fdbc b674 1abd bd06 64ba 5bd4 2ebd
000000a0: 53bf 56bd 7d53 523c ff87 1e3b a46e 1ebd
000000b0: 9b51 bf3c aa9f 03bb 836a 0bbd 1bbe 9b3b
000000c0: 8f47 46bd 4ec5 f6bc f239 f63a 0d78 8a3c
000000d0: 3749 9ebc 71f1 a4bc 4e8c 903c ef78 3ebd
000000e0: 0b9c 10bd fb69 e0bb 6044 113c d24b 48bd
000000f0: 52c8 b73b 8cc7 41bd 5ae2 463c fcb3 24bd
-0.0393449 0.017891832 -0.031353537 0.0031004837 -0.016034383 0.0017203781 0.017885253 0.0039825556
0.01176261 0.006276119 0.0031430735 0.013197044 -0.029243244 0.014411441 0.016650973 -0.042196386
-0.0040027476 -0.012386842 -0.014883496 -0.052403368 -0.034520566 0.018185984 -0.029146785 -0.017998079
-0.041658916 0.008591623 -0.03967645 -0.049428035 0.01134246 -0.009618759 0.009403951 -0.008855775
-0.0053236396 0.023828758 -0.016531749 -0.05935866 -0.030921336 -0.03770896 -0.0008698514 -0.042682987
-0.052428555 0.012837288 0.0024189947 -0.038679734 0.023354342 -0.002008418 -0.034037124 0.004752887
-0.048408087 -0.03012338 0.001878558 0.016902948 -0.019322021 -0.02013466 0.017645027 -0.04650205
-0.035305064 -0.0068485714 0.0088663995 -0.048900433 0.005608597 -0.047309443 0.012138927 -0.04021071

conv1d_1.0.weight f4 [16, 3, 3]
00000000: b3ce a33e f860 93be 4a75 19be 8f95 ee3c
00000010: 78d4 903e 06c5 76be 8006 8bbc 0708 a7be
00000020: 38b4 05be 544a 15be e536 d1bd 9096 ac3e
00000030: 1168 66be 2f72 0dbe 0325 263e bb17 5fbe
00000040: 633d 42be 76c0 473d 54a7 dbbd c575 973e
00000050: 3ce7 77be b08b 993d a902 6f3e 79f1 79bd
00000060: 07aa 88be 8d5e fbbc 7a1a 88be 0c87 a2be
00000070: 1a3b 9a3d 5d28 663e 5a82 9cbe 5f0a c4be
00000080: 15ed 5d3e 02d7 643e 9977 37be 5453 f43d
00000090: 9519 f33d 9784 1cbe 28ca 14bd c1f1 2c3e
000000a0: 88f5 343e 208e da3d 4585 72be ec85 eebb
000000b0: c435 623e 2733 dabd 2e3e 8bbe 8ce0 9e3e
000000c0: 1003 92be e184 923e 8000 493e cabc 01be
000000d0: b7c6 27be 5a9d a93c c042 7dbe f259 043e
000000e0: da97 953d e279 a73e b078 893e 4305 1bbe
000000f0: 088a 4b3c b233 4ebe 1518 83bc 80ca 7dbd
00000100: bcb9 603e 3f30 05be cd3d 25be a10c b73d
00000110: 6da0 2c3e f90e 86be 0c0d 913e 05f8 393e
00000120: 726a a93e 1eb2 143e 667a ea3d a9f9 4cbe
00000130: 8429 803e efea 5fbe 9008 2c3e a4eb 97be
00000140: 4d24 583e 2317 8dbe 0690 a2be 9c8d 4ebe
00000150: 0ba2 283e f449 263e 134d 953e f7a5 63be
00000160: f701 43be 4aed bd3c 6eb0 7abe 2ebe b8be
00000170: e4d3 44be f8fa 08be 1416 173e b126 a2be
00000180: 0441 29be c644 903e 8733 65be 4054 7f3e
00000190: a7e7 06be 800f 0ebe bf77 043c 6c3d cabd
000001a0: a71d 463d f4e8 17be 58ae 7abe 2da5 31be
000001b0: 3ded b7be a676 acbd 5fd3 b2bd 5434 853e
000001c0: 6d00 6cbe d163 fa3d 931e 29bc d958 ae3c
000001d0: d71b ff3d dc3f 333e e312 4f3e 7877 8c3e
000001e0: d413 94bc 48b7 0b3d 71f8 8cbc bf50 8a3e
000001f0: 3441 c43d 458e 833d 1662 77be 0cb7 123e
00000200: 04be 99be 06a4 5ebe 9b6d b9bd cba2 5d3e
00000210: bbfb dd3c ef6b c13b e566 1f3e 6d84 953e
00000220: 6e08 92bd ee9a 10be 91d3 c63d 5434 1fbe
00000230: 8168 853e 5cdf 913e 2da1 e53d 43f3 7bbe
0.31993636 -0.2878492 -0.14986148 0.02912405 0.282871 -0.24098596 -0.016970873 -0.32623312
-0.13057029 -0.14579135 -0.102155484 0.3370862 -0.22500636 -0.13813089 0.16225056 -0.21786396
-0.1896873 0.04876753 -0.10725275 0.2958204 -0.24209303 0.074973464 0.23340859 -0.061021302
-0.2669222 -0.030684734 -0.265827 -0.31743658 0.07530804 0.22476335 -0.305682 -0.38289163
0.21672471 0.22347644 -0.17916717 0.11929956 0.11870114 -0.15284954 -0.036325604 0.16889097
0.17671788 0.106716394 -0.23683651 -0.0072791483 0.22090822 -0.10654288 -0.27195877 0.3103069
-0.28517962 0.28617004 0.19629097 -0.12669674 -0.16384397 0.020704914 -0.24732494 0.12924936
0.07304354 0.32710177 0.2684989 -0.15138726 0.012423046 -0.20136908 -0.016002694 -0.061960697
0.21945852 -0.13006686 -0.16136856 0.08937956 0.16858073 -0.26183298 0.28330266 0.18161018
0.33089024 0.14521071 0.11449127 -0.20017113 0.25031674 -0.21866964 0.16800141 -0.29671967
0.21107598 -0.27556714 -0.31750506 -0.20171207 0.16468064 0.16239148 0.29160365 -0.2223128
-0.19043718 0.023184437 -0.24481365 -0.36082596 -0.19221455 -0.13376987 0.14754516 -0.31670144
-0.16528708 0.2817747 -0.22382937 0.24934483 -0.13174306 -0.138731 0.00808519 -0.098749965
0.048368122 -0.14834958 -0.2448057 -0.17348166 -0.35923186 -0.08421068 -0.08731722 0.26016486
-0.23047037 0.1222607 -0.010322231 0.0212826 0.12456482 0.17504829 0.20222048 0.27434897
-0.018075861 0.034110337 -0.01720831 0.2701473 0.09582749 0.0642362 -0.2415851 0.1432764
-0.30027783 -0.21742257 -0.09054109 0.21644132 0.027097574 0.0059027593 0.15566595 0.29202595
-0.07130514 -0.14121601 0.09708322 -0.15547305 0.26056293 0.28490722 0.112123825 -0.24604516

conv1d_1.0.bias f4 [16]
00000000: b747 4bbe 8218 993e 4e99 06bd ad40 793e
00000010: 9a6b a13e 4a5b 0d3e bdc7 613d 701b 2a3e
00000020: 20ad 9ebe f181 a6bd 0e36 39bc 4a7b 8ebe
00000030: 1e81 433e abb4 f43d 7fe0 683e 9c41 02be
-0.19851576 0.2990151 -0.032861046 0.24341078 0.31527406 0.13804355 0.055122126 0.16612029
-0.3099146 -0.08130253 -0.011304392 -0.27828437 0.19092223 0.11948522 0.22741888 -0.1272034

conv1d_1.1.weight f4 [16]
00000000: 70ec 7c3f 4a38 813f a24d 7b3f 6b4e 7e3f
00000010: d9dd 7d3f 214b 7e3f 9b6d 7e3f fe9f 7e3f
00000020: 92b3 833f 0665 7d3f 1e52 853f f95b 803f
00000030: 6935 863f c4fd 7c3f 6524 833f f87c 833f
0.98798275 1.0095303 0.98165333 0.99338406 0.9916664 0.9933339 0.99385995 0.9946288
1.0289176 0.98982275 1.0415685 1.0028068 1.048505 0.98824716 1.0245482 1.0272512

conv1d_1.1.bias f4 [16]
00000000: 81c5 8ebc 7352 ad3c 0ada 0bbc ea9a 0dbc
00000010: d8a3 c5b7 fa4a 133c e077 2a3c 1b01 5fbc
00000020: 9e0f ac3c ee5a f2ba 3ac0 843c 7d15 bfbb
00000030: b8a1 803c e2f1 6e3b 8e40 28ba 2754 29bc
-0.017428162 0.021157479 -0.008535871 -0.008642891 -2.3560526e-05 0.008990044 0.010404557 -0.013611103
0.02100354 -0.0018490234 0.016204942 -0.005831419 0.015702114 0.0036460091 -0.0006418311 -0.010335005

conv1d_1.1.running_mean f4 [16]
00000000: 8554 ebbe 220f aebb 2420 89be 72f0 a63e
00000010: 38a8 ac3e 2c5d 89bb 4134 6bbd 22f3 9c3e
00000020: 3cdd 6bbe cd94 96be 265b 6dbe b4f4 12bf
00000030: 51fb 6b3e b666 fc3e ed4f 903e 229a f0ba
-0.4596292 -0.0053118626 -0.26782334 0.3260532 0.3372209 -0.004192015 -0.05742288 0.30654246
-0.23033613 -0.294104 -0.23179302 -0.5740464 0.23045088 0.49297112 0.2818598 -0.0018356482

conv1d_1.1.running_var f4 [16]
00000000: f34f d13c 8370 893c ec7e 3c3d 86ff d73c
00000010: e628 a13c f09a 943c 89b7 f93c dc1d e93b
00000020: bde9 0c3c 251c 6e3d 9f44 da3c e229 e63c
00000030: cead e73b 7059 e23c e824 273c bd08 d23b
0.025550818 0.016777283 0.04601948 0.02636696 0.019672822 0.018140286 0.030483024 0.007114155
0.008600649 0.05813231 0.02664405 0.028096143 0.0070702797 0.027630538 0.01020167 0.006409733
