models/model06_logflux_lr001_nofs.pth (torch, 622626 bytes, 16 tensors)

conv2d_1.0.weight f4 [16, 1, 3, 3]
00000000: b166 8b3e 26de 973e f05e 7dbd f0a5 a73e
00000010: 0b3f 5bbd 9c02 b63d 6358 13be fb66 5b3e
00000020: 3d66 a23e 9d19 87be 24d9 8c3e 9dbd 213d
00000030: aaaf 763e 9489 ef3c 59c4 193e 744f 84bd
00000040: 9f2f 7e3e 0b41 303d 9a05 ecbd 908d 073e
00000050: cfe1 f4bd c2f2 cdbb 59fe c5bd bb1e 813e
00000060: d3cb 6abe 0837 03be 00a2 6fbd caf5 6bbe
00000070: ed72 7e3b 8ffe b8be df51 8b3e df0c a7be
00000080: 11b9 643e fcfc 633c eff1 14be 2cdb 2a3e
00000090: 61c8 30bb 7ebc 6d3e f37d 1dbc 3d78 19be
000000a0: 224c 083d 2eab 11be 3208 b73d 638f 783e
000000b0: 0320 0f3e 3d9d 0fbe fbbd 773e 75bb cc3d
000000c0: bab0 433e 76cb 4fbe 3d4f 7bbe 7050 a0bd
000000d0: 8d38 b9be d65a a83e 5239 6d3d 41bf cc3d
000000e0: b9bc 943d 56ee 55bd 0fcd 6b3e 05c0 8cbe
000000f0: 97b6 3cbc 38bd 89be 6ba6 833d f819 05be
00000100: 5c32 d03d 8cd0 afbd abb2 883e 98d8 4bbe
00000110: 941f 4dbe 427d 5cbe 0f6b 933e e319 d43d
00000120: ad56 c13e d16d 6abe eae8 8bbe bdda 6bbe
00000130: 301d 4cbe 14cf 2a3e b63c 1c3e 8422 a03e
00000140: 30eb 11be 4b01 83be 6d3f 663e 2186 9bbd
00000150: c715 813e 194f 43bd 1eda 823e 44f2 7ebe
00000160: fb5e ddbd 6420 373e ef5f 3e3d 93ee e2bd
00000170: 2932 353e 1fe0 463e 27a1 89be 6f58 51be
00000180: e885 8e3e 8abd 0cbe b932 14be db22 a5be
00000190: b078 43be 5b88 aa3d f636 34bd e3c4 77be
000001a0: d61a 003c 9328 69be 04cb 90be a3f5 3bbe
000001b0: d0d2 83be 506d 33be ea06 be3e 3320 bf3d
000001c0: 8529 093e 8fad 90be eab6 41be 0c1c a1bd
000001d0: 2fef ae3d cca4 87be c647 d6bd 97de 39be
000001e0: 6a07 4c3d c7d6 a2bd 5e5b 1b3d cf1f 66be
000001f0: 6257 20be f047 43be b2af 09be 1b37 92be
00000200: 2db4 893e d51e 9cbd ad90 903e fa5c c03d
00000210: 3038 92be f074 653e fb95 cfbd b3d0 bdbd
00000220: 3637 9abe 3fee c7be ad36 263e a969 01bd
00000230: 6e97 5d3e eab1 a7be e78e 9f3e eec0 85be
0.27226785 0.29661673 -0.061858118 0.32743788 -0.05352692 0.088872164 -0.14389186 0.21426003
0.31718627 -0.2638673 0.27509415 0.03948747 0.24090448 0.029240407 0.15016307 -0.06460467
0.24822854 0.04303078 -0.11524506 0.13237596 -0.11957132 -0.0062850425 -0.096676536 0.25218758
-0.22929315 -0.12813962 -0.058504105 -0.2304298 0.0038825825 -0.36131713 0.272109 -0.32627007
0.22336222 0.013915297 -0.14545415 0.1668517 -0.0026974904 0.23216435 -0.009612548 -0.14987274
0.03327573 -0.14225456 0.0893711 0.24273448 0.13977055 -0.14024825 0.24193566 0.09996692
0.19110385 -0.20292458 -0.24541946 -0.07827842 -0.36175957 0.32881802 0.057915993 0.09997416
0.072625585 -0.052229248 0.23027442 -0.2749025 -0.011518142 -0.26902175 0.06428226 -0.12998188
0.10165855 -0.08584699 0.26698813 -0.19906843 -0.20031577 -0.21532157 0.28792617 0.103565
0.3776144 -0.22893454 -0.27326137 -0.23032661 -0.19933009 0.16680557 0.15257534 0.31276333
-0.14249873 -0.25586924 0.22485133 -0.075939424 0.25211927 -0.047682855 0.25557035 -0.24897105
-0.10809132 0.1788345 0.04647821 -0.11080661 0.17694916 0.19421433 -0.26880762 -0.20443891
0.27836537 -0.13744178 -0.14472474 -0.32253155 -0.19089007 0.08326789 -0.043997727 -0.241962
0.007818898 -0.22769384 -0.2827989 -0.18355422 -0.25746775 -0.17522168 0.3711465 0.093323134
0.13394745 -0.28257415 -0.18917432 -0.07866678 0.085417144 -0.26492918 -0.104629084 -0.18151318
0.049811758 -0.07951122 0.03792893 -0.22473072 -0.15658334 -0.1907041 -0.13445929 -0.28557667
0.26895276 -0.07623068 0.2823538 0.09392734 -0.28558493 0.2240789 -0.101360284 -0.09268322
-0.30120248 -0.39048955 0.16231795 -0.031594906 0.21639797 -0.32752925 0.31163713 -0.26123756

conv2d_1.0.bias f4 [16]
00000000: 2c45 b5bd f21d b83c 8e4f 5f3e 9386 8d3e
00000010: 58a4 6a3e a7d4 5bbe ecc9 993d b0a5 1cbe
00000020: 18c5 553c e3fb 3dbe faec 9b3e 9385 7abe
00000030: 9e04 683e dbb9 103e 0ce3 8f3d a9dc d1bd
-0.08851084 0.022475217 0.21807691 0.27641734 0.22914255 -0.21467839 0.07509217 -0.1529758
0.013047479 -0.18553118 0.30454236 -0.24465017 0.22658011 0.14133398 0.07025728 -0.10247166

conv2d_1.2.weight f4 [16, 16, 3, 3]
00000000: 088e b63d 30ef cb3c 9710 f33b 3607 8cbd
00000010: 274f e13c 9e0c 6bbc c569 15bd 0e53 993d
00000020: 5262 5b3c 1e48 28bd 2794 19bd 03f1 d2bb
00000030: 6b01 593d 79d2 afbc a7a7 3bbd 8ebd f0bc
00000040: 12a8 61bd 8e89 b13c b320 9e3d 2ec1 8fbd
00000050: 0f0d 1e3c 0e1f 903d c9c2 b83c e0a1 4b3b
00000060: 9526 a43d e1a9 b43d 687f 963d 3c83 a63b
00000070: d509 4cbc e93a bd3c 3686 a33c 976d 86bc
00000080: 34d3 bf3d d834 cd3d f148 bd3c 693d 473c
00000090: b398 8c3c 4082 073c d0a6 f13c b33c c03c
000000a0: 6f4c 96bd 25f0 06bd 2b97 903d acc6 133d
000000b0: d79d e7bb 6d3a eb3c 666a 2b3b c7f3 8d3c
000000c0: be0b 8ebc f907 303d 7eb5 d43d d30f db3d
000000d0: 3f05 82bd 34ae 98bd 5366 7b3c fadd af3d
000000e0: 3ada 1f3d 2645 a9bc daef 513d 42f4 e8bc
000000f0: 07e1 15bd 08dc 943d 6f01 19bd f33c b4bc
00000100: b70c 6fbd d7b5 8f3d da81 9b3d caff b73c
00000110: 3317 3ebd 3947 debd 318b 27bd 9d15 973d
00000120: 2031 0f3d 6657 da3d 146d 043d 5396 663d
00000130: 2a39 023c 36f5 95bd f7f9 90bd 5ca4 92bd
00000140: 0df0 9b3d 78c8 343d d5a1 133d d8f6 ac3c
00000150: e931 4ebd 16fb 55bd dfb3 2f3d 65ae 263d
00000160: 59aa b13c fafb 493d 3762 02bc b890 2dbd
00000170: 2ab9 053c ac75 f3bc dabd 58bc 1122 86bd
00000180: e3ad 783d d14b 52bd dc88 613d 46e4 1a3d
00000190: 16dc 733d 04e9 82bd 607c 753d ab5d 21bd
000001a0: 0b51 fd3c 8c46 a03d 368e 40bc abf0 28ba
000001b0: 92fc 633c 7dc8 2dbd 3604 9d3d 47b5 7dbd
000001c0: 22a4 c23d c28b c13d 3941 0a3e 107a 983c
000001d0: 9fac 2abd d2a5 8a3d d688 073e 1a95 65bd
000001e0: 814e cf3c 47ed 07bc a70a 3b3d fae4 87bc
000001f0: b0a0 0cbc d4d2 89bb ffa6 9bbd 11d7 a93d
00000200: 4d57 883d 774f ccbb 2e69 db3b 1d08 11bd
00000210: 5504 7abd 870b 98bd 4f8b 143d f590 a2bd
00000220: a1c3 443d 7b96 70bd 8d2a 143e 0d08 693d
00000230: 6484 053e e1ad 6a3d c31e f43d 5e0e ac3c
00000240: cbbb 68bd e892 943d cfa1 6cbd 5f5a 293d
00000250: 48a8 35bc af85 d4bc f503 be3d f84c 7f3d
00000260: 9263 d6bd 2092 0c3d 1dfd ac3d b2cf e3ba
00000270: 28e9 873d e56e ba3d 7aa7 3dbd 19b3 d83c
00000280: e9e3 37bd f6d6 40bd ffc9 3b3d 4d2b 763d
00000290: 39f7 73bd aef7 a0bd 4d7c b2bd ab9f bfbd
000002a0: 2a9b e6bc ae84 353d 4406 2e3d 30ef 18bb
000002b0: 95b5 0abe 2cc1 87bd f059 2dbc 5597 25be
000002c0: 64c2 c0bc f937 f7bc b388 0bbe e7d6 b8bc
000002d0: 8ba3 73bc 1846 e2bc c87f 6ebd d5a8 9abd
000002e0: d892 8bbd 7e5f 88bd dd89 993d 22e6 33bd
000002f0: c689 a4bd 7679 a53c 6626 bc3c 1605 3b3d
00000300: fa80 823d 6814 3e3d 5737 a9bd 3f2f 1c3c
00000310: 83c3 4e3d 1662 fcbb d004 9ebd 40ab 603d
00000320: 83af 1bbd 35c5 93bd 772c a1bd c7b4 25bc
00000330: 009c 083d f602 fa3c a4ea b33b 55fa 96bd
00000340: 35b1 b8bd 5657 c03a 3050 8d3d e8f6 233d
00000350: 68bc 46bd 2bf1 2cbc 965c 55bd ceaa 24bd
00000360: e99c e33c 659b 913d 21fd 7e3d 0c98 c5bd
00000370: add3 9e3d 615f 86bd 8d62 013c 7108 753d
00000380: 5661 993a 11f5 103d b36a 91bd 1b60 02bd
00000390: 5ec5 c73d 2bbb 94bc f6bd 8bbc 8e43 873c
000003a0: 34c6 a23d d36c 273d 960e 81bb 3f83 87bd
000003b0: 1290 9cbd ca24 95bc 6923 853b bc45 5abd
000003c0: 5e75 43bd e503 0b3d ddd4 02bc 0068 763b
000003d0: 3001 a8bc d28d 9abd 7a78 a0bd 9829 23bd
000003e0: ce81 2dbd f0af d43c 4bbb c6bc 8389 05bd
000003f0: 0dfc d43c f766 e13d e951 573d 2b3c b4bd
0.08913809 0.024894327 0.007417749 -0.06837313 0.027503563 -0.01434627 -0.036477823 0.074865445
0.013390141 -0.0410844 -0.037494805 -0.0064374222 0.052979868 -0.021462666 -0.045814183 -0.029387262
-0.055091925 0.021672036 0.07721081 -0.07019268 0.009646668 0.07037173 0.022553818 0.0031071827
0.080151714 0.08821464 0.073485196 0.0050815623 -0.012453516 0.02309938 0.019961458 -0.016409678
0.09366456 0.10019845 0.02310607 0.012160637 0.017162656 0.0082708 0.029498488 0.023466444
-0.07338797 -0.032943863 0.07060083 0.03607814 -0.0070683765 0.028714383 0.0026155948 0.017328156
-0.017339583 0.042976353 0.103861794 0.106963776 -0.06348657 -0.074551016 0.01534422 0.085872605
0.039026476 -0.020662855 0.05125413 -0.028436784 -0.036591556 0.0726853 -0.037354883 -0.02200172
-0.058361735 0.07017105 0.075931266 0.022460837 -0.046408843 -0.108534284 -0.040904228 0.07377169
0.03495896 0.10661201 0.032330588 0.056295704 0.007948199 -0.07322161 -0.07078927 -0.07160255
0.076141454 0.044136494 0.036043007 0.021113798 -0.050340567 -0.052241407 0.042896148 0.04069366
0.021687673 0.04931257 -0.007957987 -0.042374343 0.008161822 -0.029719196 -0.013228858 -0.065494664
0.060712706 -0.051341835 0.05506216 0.037815355 0.059536062 -0.063921005 0.059933066 -0.03939597
0.030922433 0.07825956 -0.011752656 -0.0006444554 0.013915198 -0.04242753 0.07666819 -0.061940458
0.09503962 0.09450485 0.13501443 0.018612891 -0.04166853 0.06769909 0.13235793 -0.056050397
0.025305988 -0.008296317 0.045664456 -0.016588677 -0.008583233 -0.004206041 -0.07600211 0.08292974
0.06657276 -0.006235059 0.006695888 -0.035408128 -0.061039288 -0.07424074 0.036265668 -0.079378046
0.04803813 -0.05873726 0.14469357 0.056892443 0.13038784 0.05729473 0.1191993 0.021002945
-0.05681972 0.07254583 -0.0577715 0.04134595 -0.011087485 -0.025942652 0.092780985 0.062329262
-0.1046821 0.034319043 0.08446715 -0.0017380624 0.06636268 0.09103183 -0.046302296 0.026452588
-0.044895086 -0.047080003 0.045846935 0.06009989 -0.05956194 -0.07859741 -0.08715115 -0.09356626
-0.02815016 0.044315986 0.042486444 -0.0023335926 -0.1354583 -0.066286415 -0.010580525 -0.1617101
-0.023530193 -0.030178057 -0.13626365 -0.02256341 -0.014870535 -0.027621314 -0.05822733 -0.075517334
-0.068151176 -0.06658839 0.074969985 -0.043920644 -0.08034091 0.020199519 0.022967529 0.045659147
0.063722566 0.04640618 -0.08262508 0.009532749 0.050479423 -0.0077021224 -0.07715762 0.054850817
-0.038009178 -0.07215349 -0.07869809 -0.010113901 0.0333519 0.03051899 0.005490618 -0.07371966
-0.090181746 0.0014674466 0.0690006 0.04003039 -0.048519522 -0.010555546 -0.05209025 -0.040201955
0.027784782 0.07109717 0.06225312 -0.09648141 0.07755218 -0.06561161 0.0078970315 0.059822503
0.0011701982 0.035389964 -0.071004294 -0.031829935 0.09754442 -0.018155655 -0.017058354 0.016511705
0.079479605 0.040875267 -0.0039385064 -0.0661683 -0.07644667 -0.018206019 0.004063059 -0.05328916
-0.047719352 0.03393926 -0.007985321 0.003759861 -0.020508379 -0.07546581 -0.07835479 -0.03983459
-0.04236012 0.0259628 -0.02425923 -0.032601845 0.025999093 0.11005967 0.05256835 -0.08800539

conv2d_1.2.bias f4 [16]
00000000: 53f5 9a3c 4a57 7abd 1ddf c23d 2be0 31bd
00000010: a123 853d 18af 8fbd f423 2cbd fd2d c9bd
00000020: 05e8 a7bb ed65 e93c be35 59bd 8aa3 b8bd
00000030: 0b00 963d bc31 823d 8c4b 7bbc ce91 88bd
0.018915808 -0.0611184 0.09515212 -0.043426674 0.06500936 -0.07015818 -0.042026475 -0.09823225
-0.0051240944 0.028490985 -0.05302977 -0.090155676 0.07324227 0.06357142 -0.015337836 -0.06668435

conv2d_2.0.weight f4 [32, 16, 3, 3]
00000000: 1cba a5bc 1fb5 22bd 8773 383d c0f0 15bd
00000010: f123 d1bc c9a5 63bd d108 0cbd c43c 1e3d
00000020: c4ff 6a3d bb7d 633b 905a 943c 4f2b ab3d
00000030: f648 1e3a de4a 1e3d 48e5 94bc 674a 9dbc
00000040: 2e18 b23d bda2 4d3c 1646 6b3d 55ee d6bb
00000050: 7042 843d 2aa3 9dbd 101b a4bd 9d07 97bd
00000060: fa32 dfbd f205 adbd d862 d6bd 4060 a1bb
00000070: 00f2 4d3a 462e b1bc f842 69bd 0bd8 9a3d
00000080: e631 e2bc d3a9 223d 40b5 6d3d b860 60bd
00000090: 57c1 dbbb 09d5 513d d833 a53d 0f44 0cbd
000000a0: 9081 203d a483 acbd d112 6abd 0061 713d
000000b0: 594e 91bc c1f2 a23d be55 e03b 5699 10bd
000000c0: c845 ae3d 1475 a23d 5708 583c 87ba 3ebd
000000d0: 0993 c23a e93e 11bd a127 7b3d 75d1 a03b
000000e0: 9c6c b33c db48 8d3d f7a3 333d 9d18 10bd
000000f0: 5c22 9c3d 3fe9 6b3d b940 31bd 2ef7 953d
00000100: 3ece 083d c5f3 d7bb 2f9f 23bd c8da 953b
00000110: f8a8 7bbd 69e6 453d 2e36 753d 8e5c c5bc
00000120: c9bd 883d a114 43bd 7d18 4fbb 5cea 8bbd
00000130: f30f 19bc e5b2 aa3c 602f e13c 28ea 10bc
00000140: 780c 49bd 23be d53d 634d d33d 8a41 713d
00000150: 74e6 5bbd 0ba9 853c 1753 0ebc 8d33 8f3d
00000160: 0338 9b3c 86ca d83a 9221 7d3b 5259 1a3d
00000170: ef96 15bc 3773 763d 6d16 cb3c 8865 a8bd
00000180: db2f b93b 9361 8dbd 6359 8dbd c20b b33c
00000190: 1e95 cb3c 7812 13bb b582 ca3d 66b4 cbbc
000001a0: c61f 81bc 1c14 beba deef 4e3c 83b6 743b
000001b0: e21d 8c3d b4dd 2dbd 07ae 5bbd 1891 e93a
000001c0: f448 6a3d 9071 503c db54 843d 0442 103d
000001d0: 7430 b43d 16b8 673d 7a4b 883d 7b0d 91bb
000001e0: e7fa c6bd 6cd1 88bd 9961 0039 2e9c f23c
000001f0: cb9a 77bd 729f 263d 8d66 183c 15c8 29bc
00000200: ecdd a9bb cdc8 93bc 7237 943d f3f2 873b
00000210: 6b46 6b3d 8a66 95bd 15e5 1dbd 595d d83b
00000220: 0b90 7a3d f9b8 203d 1d78 d83c 4581 94bd
00000230: f971 123c d3c3 57bd 582e 89bd a651 5a3c
00000240: 3644 73bd 286a 8b3d 7e41 52bd 7a1d b43c
00000250: 065a 2c3d 6889 98bd 9aa6 1a3d 4d17 93bc
00000260: 3d76 243d 225d ab3d b64e ecbc 312a cebc
00000270: 56aa 983d df04 973c 0126 413a 5754 8c3d
00000280: fece cebc 8351 efb8 2559 793d f7bd 133d
00000290: 99f4 57bd eb35 b83c 5fbf 7cbd 3480 40bd
000002a0: c10a 4a3d a6fa e4bc f707 4dbd 568e c13b
000002b0: d0d2 a63c b62d 54bd c62e 66bd 1049 a5bd
000002c0: cb63 b03c 033d 5cbd 8019 d03b 1baf 98bc
000002d0: 9257 55bd 93bc 9ebc 6958 90bd cd0f 49bd
000002e0: da31 debb 9391 99bd 30bc 9abd ff43 573d
000002f0: 344c 373b 3509 f4bc f687 063c c35a 843d
00000300: 683f 86bd 3201 21bd ccc9 62bd a3d4 763a
00000310: 49f8 d438 2923 81bd e5ce 423d 2f55 9dbd
00000320: 5fcd 803d 4930 81bd 41c6 b8bc 0e43 283b
00000330: ea17 2abd afd4 8e3d 0af8 86bd 06a5 5fbc
00000340: 8094 8fbd 7281 5b3c dbcc 8e3d d758 9a3d
00000350: 5dbf df3b 972e 23bd 3cc0 a93d 920a ad3b
00000360: ad11 523d 559d 0dbd 072d 0fbd df17 89bd
00000370: 14bc 963d b800 953c e3d1 a6bd 6077 f53b
00000380: 6306 febc 9859 133c a16b 043d 3286 1cbd
00000390: 830a cf3c 62bd 33bd 56ca cd3c 9b5e abbd
000003a0: 7dc4 593c bbd3 a93d a071 b83d 8f6f 003d
000003b0: ea0c 873d 3088 9b3d 35a1 1e3c 5877 8e3c
000003c0: c272 c0bb 3117 583d d8b2 5d3d 862f 59bd
000003d0: d535 7fbc 60a7 64bd fd26 c43c bb2f b0bd
000003e0: f94c b73c 5753 babc e170 fa3c 5646 c73c
000003f0: 0f88 00bd f136 503d d754 323d 7df7 9dbd
-0.020230345 -0.03972351 0.04503205 -0.03660655 -0.025529834 -0.055578027 -0.034188095 0.03863217
0.057372823 0.0034712392 0.01810959 0.0835787 0.00060380937 0.038645618 -0.018175736 -0.019200517
0.08696018 0.012551007 0.057439886 -0.006559173 0.064579844 -0.07697137 -0.08012974 -0.07374499
-0.10898395 -0.084483996 -0.10468072 -0.004924804 0.000785619 -0.02162851 -0.056948632 0.07560738
-0.027611684 0.03971274 0.05803418 -0.05477974 -0.0067063975 0.051228557 0.08066529 -0.034244593
0.03918606 -0.08423546 -0.05714685 0.058930397 -0.017737554 0.07956458 0.0068461588 -0.035302483
0.085094035 0.07932487 0.013185582 -0.046564605 0.0014844845 -0.035460386 0.06131709 0.0049077817
0.021902375 0.06898662 0.04385754 -0.035179723 0.07623741 0.057595488 -0.043274615 0.073225364
0.033399813 -0.006590339 -0.03994673 0.0045732 -0.061440438 0.04831544 0.059866123 -0.024091985
0.06676824 -0.047627095 -0.003160029 -0.0683181 -0.0093421815 0.020837257 0.02748841 -0.00884489
-0.049084157 0.10436656 0.10317495 0.058900394 -0.053686574 0.016315958 -0.008686802 0.069922544
0.018947607 0.0016539849 0.0038624746 0.03768284 -0.009130224 0.06016847 0.024790967 -0.082224905
0.005651457 -0.069033764 -0.06901815 0.021856192 0.024851378 -0.0022441428 0.09888212 -0.024866294
-0.015762221 -0.0014501843 0.012630431 0.003734023 0.06841637 -0.04244776 -0.053632762 0.001781973
0.05719848 0.012722388 0.064614974 0.035219207 0.08798304 0.056572042 0.06655021 -0.004426656
-0.097158246 -0.06680569 0.00012243389 0.029615488 -0.060450356 0.040679403 0.009301794 -0.010362645
-0.005183926 -0.018040085 0.07237138 0.004148835 0.057440203 -0.072949484 -0.038548548 0.006602925
0.061172526 0.039238904 0.026424462 -0.07251219 0.008938306 -0.052676987 -0.066982925 0.013325131
-0.059391223 0.06807357 -0.05133199 0.021986712 0.04207804 -0.07448083 0.03775654 -0.017955447
0.040151823 0.08367373 -0.028846126 -0.025166603 0.07454364 0.01843494 0.0007368029 0.06852024
-0.025245186 -0.00011411591 0.06087603 0.036069836 -0.0527235 0.022486648 -0.061705943 -0.046997264
0.049326662 -0.02795155 -0.050056424 0.0059068603 0.020364195 -0.051801406 -0.05619695 -0.08070576
0.02153196 -0.053769123 0.006350696 -0.018638184 -0.052085467 -0.019377029 -0.07048113 -0.049087334
-0.006780845 -0.07498469 -0.07555425 0.05255508 0.0027969005 -0.029789547 0.008211127 0.06462624
-0.065550625 -0.03930778 -0.05536823 0.00094158406 0.000101551945 -0.063055344 0.04756059 -0.07682263
0.062891714 -0.06308038 -0.022555472 0.0025674733 -0.041526712 0.0697416 -0.065902784 -0.0136501845
-0.07010746 0.013397561 0.06972667 0.07536476 0.006828232 -0.039839353 0.08288619 0.005280801
0.05128639 -0.03457387 -0.03495505 -0.06694006 0.07360092 0.01818882 -0.081455015 0.0074910372
-0.031008905 0.008993529 0.032329205 -0.038213916 0.025273567 -0.04388178 0.025120895 -0.08367654
0.013291475 0.082923375 0.09006047 0.03135639 0.0659426 0.07594335 0.009681989 0.017390892
-0.005873055 0.052756492 0.054125637 -0.053023838 -0.015576799 -0.055823684 0.023944372 -0.08602854
0.02237557 -0.022744818 0.030571403 0.024325531 -0.031379756 0.050833646 0.04353794 -0.0771322

conv2d_2.0.bias f4 [32]
00000000: e5f9 12bd ab94 5a3c 60e5 a93c 0ea6 283a
00000010: a500 8bbd 7362 33bd 3a4a 9cbd 91b9 32ba
00000020: 8a13 6cbc 5191 9f3d a8cd dbbc 72f8 b6bd
00000030: cc50 903d 4328 a53d 3b5e 8ebd 15c7 573c
00000040: f581 f43c 89fe 6f3d 595d 15bd f1ea 2f3d
00000050: abb9 bb3d ef44 203d 31dd 4e3d aba9 3e3d
00000060: c22d 28bd 3f86 1e3d ff3f 613d 0dab 99bd
00000070: 1277 a4bd e548 22bd 77fb 1c3d 3e8d 8a3d
-0.03588285 0.013341109 0.020739257 0.00064334355 -0.06787232 -0.04379506 -0.07631345 -0.00068178127
-0.014408955 0.07791389 -0.026831463 -0.08934106 0.07046661 0.0806432 -0.06951567 0.013170023
0.029847125 0.058592353 -0.036465976 0.042948667 0.09166273 0.03912824 0.050503913 0.046548527
-0.041059263 0.038702246 0.054992672 -0.075033285 -0.08030523 -0.0396203 0.038325753 0.06765221

conv2d_2.2.weight f4 [32, 32, 3, 3]
00000000: 4384 453c 3c80 12bc 77be a33c 268c 5cbb
00000010: 34cf 5b3d cc92 023c f250 a83c 52ed 943c
00000020: bc71 3e3d 01f5 1e3d 70da 1f3c b5de 203d
00000030: 49c7 7abd 3710 5cbd 9ecd fa3c 3201 233d
00000040: cb63 303d c560 7abd d86c 693c 0303 56bd
00000050: 5bec 18bc 76be be3c 6286 803d a865 d83c
00000060: e229 23bc 39bf 48bc 207f d03c 5471 6b3d
00000070: a6bb 1a3d 63c3 293d 4423 22bc 3fb7 80bc
00000080: 842d bb3d c19e 963d 2e30 0b3c 75ee 183d
00000090: 9bfd 243d aa43 593d b134 42bd 44c2 57bc
000000a0: 2256 923c 9b0e 5d3d fb9b b43c 43ea 2b3b
000000b0: 3a3c 803c 30a3 5b3d 857f 3dbd b5e9 db3c
000000c0: 7acc 2cbd 0796 b73b f8ff 63bd c152 1c3d
000000d0: 2e7a 06bd cd43 803b cf18 f3bc 02ed 8b3b
000000e0: ea4b fabc feea 14bd 84e2 94bc ef0a 1d3d
000000f0: 53ef c0bc 3c2a 0ebd bf18 183d fc59 7bbc
00000100: 22d9 2ebd c2ff 17bd f79a 8abd 2613 8ebd
00000110: 0a03 86bd 6d45 4dbd 6547 e7bd 8a6a e2bd
00000120: 7b0d 6e3d 23bf c83b 4971 7f3c d940 e53c
00000130: ba5f 41bc d80a 203d 2453 8abc 2392 333c
00000140: 3af5 1abd 4e06 c93b e513 69bd a7b6 9e3c
00000150: 1e88 413c 28a0 a73a 181f 5b38 45a3 833d
00000160: 498b d03d bf58 693d 3cf5 223d da50 45bd
00000170: e47a 42bc 3cda 1abd e690 3ebd cf16 de3b
00000180: 4c10 1fbd 3418 e5bb 7a17 2dbd 7514 5cbd
00000190: 156d f8bc ddfe 67bd ce16 513c 2b32 35bd
000001a0: 7588 393d 3976 cd3c 416c 07bd 9cf3 89bc
000001b0: cf5a b4bc a5ed 953d ffa8 2239 58fd 0cbd
000001c0: e29c 7dbc adf5 a93b e636 a6bd fc2e 09bd
000001d0: 0996 fabc f2c3 50bc f4b2 2b3d 76e8 5ebd
000001e0: cc27 29bd 683a 66bc 899d 7dbc b02c 4e3b
000001f0: 4028 aa3c 07d1 82bd 79b3 223d 598a ca3c
00000200: 2093 783d 2a0d a83d 5546 223d e834 3b3d
00000210: 5cc1 563c 4d04 883d 6847 ce3d b751 eb3c
00000220: 339d 5d3d 284d ff3c aaba f7bb 9545 1dbd
00000230: 866a a2bd 56b0 91bd b5c9 0ebb b76c 87bc
00000240: 41ed 573d 05c3 f53d b3c2 f33d c30a aabc
00000250: a785 fbbc 9d25 b7bb a8b8 16bd fc1c 19bc
00000260: 915b 28bc d397 143d 5cbb fcbc 78bc 143d
00000270: 4c40 c93b aa15 45bd 30ae 56bd fde1 713c
00000280: 91da 4a3d e2db 35bd 9f2c fe3c a57b 03bd
00000290: 9a9d 7d3d f714 853d 8896 fd3c 2fc2 9d3d
000002a0: 9218 883d 910e a53d cf9f 3d3d 8adc e13c
000002b0: 601b 8b3d fba5 353d 2fd0 6bbd b5f2 a7bc
000002c0: 14a8 cd3c f20f 73bd cac9 d43c 2a61 2abd
000002d0: 222d 923d 75fa aebc abce 543d 4d95 55bd
000002e0: 95e5 673c 9e5a 2b3a 8eaa 0abd 2fc3 25bd
000002f0: 8808 e0bc 7797 7abc 5bfb 33bc 1c17 c23c
00000300: e76c 5cbc 340a 043d 7aaa 563d 5d70 debc
00000310: 6e30 b43c 6373 e43c 1078 dfbc 6833 833d
00000320: c96c 8a3c 6da3 81bd 02c4 e3bc 6c12 32ba
00000330: 0586 7b3c b8a7 38bd 2202 bf3c fcdb 5a3d
00000340: 8a86 f23c 0dc5 6b3d e45a 30bd b451 8d3c
00000350: 62e8 133d 4e1c d5bd 4477 b0bd 645f 11bc
00000360: b56b d13b aa18 923d bf19 823d 0a38 90bd
00000370: 1ec4 b63a 9e4b bcbd 986c 49bd 5e1d d4bd
00000380: 2afc 90bd c3ff a93d 57c6 d63c 3ad5 e1bb
00000390: 7147 f4bb 9e74 3fbd 7f19 b33c 7d02 05be
000003a0: 2f27 bcbd 0b9f f6bd 2577 8c3b 2d02 b73c
000003b0: 94a4 9f3b 4364 1ebd 1109 28bc c3fb f2bc
000003c0: d402 03bd 9dcd 2f3c 8e69 13bd 91af 793d
000003d0: a78e 793d 6fad 993d ebb4 453d 93c2 b43c
000003e0: 1c4a 833c 5f0f f2bc 5bb5 0e3d d0e4 e33c
000003f0: 5de1 4a3d 06f9 a1bb 49a9 0abd c90e 4f3d
0.012055459 -0.008941706 0.019988282 -0.003365287 0.0536644 0.007969569 0.02054641 0.01817957
0.046495184 0.038807873 0.009756669 0.03927489 -0.06122521 -0.0537264 0.030615624 0.03979606
0.04306392 -0.061127443 0.014247142 -0.052248966 -0.009333695 0.023284178 0.062756315 0.026415661
-0.009958716 -0.012252622 0.025451243 0.057481125 0.03777661 0.0414461 -0.009896103 -0.015712379
0.09139541 0.07354499 0.008495374 0.037336785 0.04028092 0.053043045 -0.04741353 -0.013168875
0.017863337 0.053969007 0.022047034 0.002623216 0.015653718 0.053622425 -0.04626419 0.026844839
-0.04218719 0.0056026014 -0.055664033 0.038164858 -0.032831363 0.0039143325 -0.029674916 0.004270197
-0.030553777 -0.03635692 -0.018174417 0.038340505 -0.023551619 -0.034708247 0.037132975 -0.015341278
-0.042687543 -0.037109144 -0.067678384 -0.06937246 -0.065435484 -0.050115038 -0.11292914 -0.11055477
0.058118325 0.006126301 0.015590974 0.027985023 -0.011802608 0.03907284 -0.016885348 0.010960135
-0.037831523 0.006134785 -0.05690374 0.019374205 0.011812238 0.0012788819 5.2242627e-05 0.064276256
0.101828165 0.0569694 0.039784655 -0.04817281 -0.01187012 -0.03780578 -0.046524905 0.0067776213
-0.0388339 -0.0069914106 -0.042258717 -0.053730447 -0.030325452 -0.05663954 0.012761785 -0.044237297
0.04529615 0.025080787 -0.033062223 -0.016839795 -0.022015957 0.07320718 0.0001551248 -0.034421295
-0.015479298 0.0051867575 -0.0811594 -0.033492073 -0.03058912 -0.0127420295 0.04191871 -0.05442091
-0.04129772 -0.014052011 -0.015479454 0.0031459741 0.020771146 -0.06387525 0.03972194 0.024724172
0.060687184 0.08205636 0.039617855 0.045704752 0.013107624 0.06641445 0.100722134 0.028725488
0.054104995 0.03116472 -0.007560094 -0.038396437 -0.07930474 -0.071137115 -0.0021787707 -0.016531331
0.052716497 0.12000088 0.1190237 -0.020757085 -0.030703379 -0.0055892006 -0.036797196 -0.009345289
-0.010275737 0.036277603 -0.030851059 0.03631255 0.006141698 -0.048116364 -0.052412212 0.014763352
0.049524847 -0.04439915 0.031027136 -0.03210034 0.06191788 0.06498139 0.030955568 0.07703053
0.066453114 0.08059419 0.046294983 0.027570982 0.06792331 0.044347744 -0.057571586 -0.020501474
0.02510456 -0.05934138 0.025975127 -0.04159657 0.07137515 -0.021359662 0.051954906 -0.052144337
0.014153858 0.00065366353 -0.03385406 -0.040469345 -0.027347818 -0.015294901 -0.010985221 0.02369266
-0.013453699 0.032236293 0.052408673 -0.027153188 0.02199575 0.027887052 -0.02727893 0.06406289
0.016897576 -0.06329999 -0.027803425 -0.0006792906 0.015351777 -0.045081824 0.023316447 0.05343245
0.029605169 0.05756097 -0.04305543 0.017250873 0.03611029 -0.10405789 -0.08616498 -0.008872841
0.0063910135 0.071336105 0.06352567 -0.070419386 0.0013943946 -0.0919411 -0.04917583 -0.10357164
-0.070793465 0.08300736 0.026217623 -0.0068918737 -0.0074548055 -0.046742074 0.021862743 -0.1298923
-0.09187161 -0.12042054 0.004286664 0.022339905 0.004871914 -0.038669836 -0.010256068 -0.029661065
-0.03198512 0.010730174 -0.035989337 0.06095845 0.06092706 0.07503783 0.04826824 0.022065436
0.016026549 -0.029548345 0.034840923 0.027819067 0.04953133 -0.004943016 -0.03385285 0.05055121

conv2d_2.2.bias f4 [32]
00000000: d219 083c 9b79 67bb 3efd 533c d4e1 8f3c
00000010: d129 773d 4d3a c83b 62e6 413c 144d 8c3d
00000020: a507 d1bb 81a8 07bc 00b5 8dbc 411f d63c
00000030: 11a5 02bd e444 f43c 4668 f13c 1bfc e3bb
00000040: b77e cb3b c797 633d c7b2 85bd c2e2 1fbd
00000050: e8ca 8d3c a8fa abbc e36c 22bd f62c 14bc
00000060: 59ad 9c3c 132d d5bc fcbd 87bd 4872 dc3c
00000070: ae44 333d f997 adbc 2f8f 8f3d e7bf 5dbd
0.008306937 -0.0035320285 0.012938796 0.017563738 0.060342614 0.0061104656 0.011834713 0.06850639
-0.006379085 -0.008279921 -0.017298222 0.02613795 -0.0318957 0.029818006 0.029468667 -0.0069575435
0.006210174 0.055564668 -0.0652824 -0.039034612 0.017308667 -0.020993546 -0.039654624 -0.009043923
0.019125627 -0.02602247 -0.066280335 0.026909962 0.04376667 -0.02119063 0.07009732 -0.05413809

conv2d_3.0.weight f4 [64, 32, 3, 3]
00000000: 49a5 293d 2678 123c 45ca 49bd ba71 a3bd
00000010: 41b4 a8bb 372f 31bd 0ad8 c03c d825 e93c
00000020: 8106 1ebd 713d 39ba 3260 93bc 40b4 7abd
00000030: 608e e03b 8824 7c3c 2ac4 24bd 92f5 523d
00000040: 4b88 153d e7f0 233d 5d63 bbbc 2b86 c4bc
00000050: e239 653d 0979 873d e18b 89bc 9936 b73d
00000060: 77ee 93bb ad7b 24bd b4fc 17bd 5d34 67bb
00000070: 283c 213d df9b 02bd e11d 443d 3781 813d
00000080: 46ab 763d cb4b e73c a761 bbbc e245 b3bc
00000090: 8468 4c3d 6ac1 b7bb 28f2 813c b9ea 8a3d
000000a0: 9e13 47bd 6e26 25bb 544f 05bd ffd7 94bc
000000b0: f61a 7fbb 7820 51bc 154c 6a3d 5ec3 c33c
000000c0: dda4 17bd 03df 693d 43fb 85bc 2005 0b3c
000000d0: 323e b43b 1167 31bd dc3f 163d 233f febc
000000e0: 23ef 42bd 3f8b 5c3d 1874 233d c9d9 a1bc
000000f0: 222e 29bd db0a 5e3d d999 b23c 2a1e f7bc
00000100: 6bda 29bd c330 89bc f11e dbbc d190 2e3c
00000110: d44b 523c d4af 79bd f080 d83c 90db d73c
00000120: 20b7 5abd ed64 5d3d 53c7 89bc 93e0 e33c
00000130: 3159 7e3d db5b 213d 9f0f 223d aedd 013c
00000140: cd36 713c 476c f5bc 18be b4bc 7012 883d
00000150: e5d6 21bd 9109 263d 2ffd a5bc 08d1 8b3d
00000160: d26e 793d 7b72 313b 4393 be39 cad9 07bd
00000170: dcac 863d bc7a c9bc 9f13 fa3c 9091 393d
00000180: e289 36bd 4454 3cbd c8f9 12bd 3bac 4c3b
00000190: e79f 453d 0b73 3ebc 65d0 debc c867 193d
000001a0: 69d5 493d 5560 0d3d 274b 613d 9964 51bd
000001b0: ad2c 13bc 7bba 633d 7e8e 8bba 1801 823a
000001c0: 8b2d 5e3d 89c6 973d d957 90bd 7340 f8bd
000001d0: 53d8 d2bd 93e1 5d3d 6548 76bc 705e 66bd
000001e0: e7b0 78bd ae7c 83bd 1ce9 1fbd 17c4 01bd
000001f0: 65de 27bc 8ff3 813d 9fa7 aa3b aa1e a93c
00000200: 64c4 873d 4d0d 5abc 070e 113c aef1 0b3d
00000210: 4acf ba3d 2ba6 543d dd09 323d d821 f3bc
00000220: e2d5 933c 147c cfbc 3ee3 fa3b 6dbe f9bb
00000230: b06c b43c 10bd 703d e51a 36bd 5e0c 88bb
00000240: 2797 03bd a6ab 68bd 0875 8cbd 0dd7 7abd
00000250: 2ecf aabd 7441 e73b 0748 28bd 86e7 0b3d
00000260: f2ac 3e3d 61ff 0ebb 1a88 7d3d ca30 4d3d
00000270: 304d 0dbd 77d0 253d 9813 b83c d927 373d
00000280: 7cd4 3dbd e731 333d 08a2 9d3b 469b c03c
00000290: 5d36 2ebd 55f6 813c 8e59 d1bc 039f 063d
000002a0: ca35 32bc 1c9a 983c 30d5 66bd 84f1 adbc
000002b0: 9b7f 933d ac55 ab3d 7aa4 8d3c c553 583d
000002c0: f690 6b3d a15e f8bc f738 9abb 37ab 1fbc
000002d0: 11f5 80bd f76c 9fbd 35a2 ccbd 4d9a 2b3b
000002e0: ef6b 2ebd 58e0 e0bc 422f 28bd eed5 38bd
000002f0: bd8f 3e3d 1e0d 2a3d bf87 023d 0902 413d
00000300: 125d 423d b991 0e3d 0b24 1a3d b90b f8bb
00000310: ac73 7b3c 6a72 4fbd 8d05 adbc 4366 b4bb
00000320: 2b46 3cbb 4d0b 6e3d e7ee 443d 7101 983c
00000330: eff2 893d d9e2 adbc c61b 9f3c 6dc5 23bd
00000340: 80ed 39bd 81b6 163d 1b3e c43c e32d 0d3b
00000350: c606 03bd e738 393d 8e30 00bb c2e1 2c3d
00000360: f91d c0bd 77cb debb f9db 53bd 19e0 9bbd
00000370: 6fe3 7dbd d100 d0bd 4d73 4cbc 8ba0 06bb
00000380: 5b5c 51bd d3f4 503c f4f1 fa3d 748b bf3d
00000390: 3869 e7bc 0ee3 023d 46ee e13c 96ea fcbc
000003a0: 5742 013d a9c5 dd3c a9ef 3dbd 4be8 74bc
000003b0: df84 3cbc ce5f e2bc 6e47 b3bd 7a1f aa3c
000003c0: e55b 70bc 2991 3ebd 8b98 743a c105 9fbc
000003d0: e50f 2abc 2249 88bd 4061 51bd 7547 babd
000003e0: 7b02 babd 1a0e 5ebd f0aa 59bd 3af1 ac3c
000003f0: 8727 35bd a3b1 9ebb 6100 88bc 142e 323d
0.041417394 0.008939778 -0.049265165 -0.07980676 -0.005148441 -0.04325792 0.023540515 0.028460428
-0.03858042 -0.00070663454 -0.017990205 -0.061207056 0.00685291 0.015389569 -0.04022614 0.051503725
0.036506932 0.040024664 -0.022874529 -0.023989758 0.055963404 0.066148825 -0.016790332 0.089459606
-0.004514511 -0.04015701 -0.03710623 -0.0035279014 0.03936401 -0.03188693 0.047880057 0.06323474
0.060221933 0.028234383 -0.022873713 -0.021883909 0.04990436 -0.0056077735 0.01586254 0.06783051
-0.048602693 -0.0025199908 -0.032546356 -0.018169401 -0.0038925982 -0.012764089 0.057201464 0.02389687
-0.03702246 0.057097446 -0.016355162 0.008485109 0.0055005783 -0.043311182 0.036681995 -0.031035965
-0.04759134 0.053843733 0.039905638 -0.019757168 -0.04130376 0.05420957 0.021801876 -0.03016575
-0.041468065 -0.016746884 -0.026748152 0.010654644 0.012835462 -0.0609587 0.02642867 0.026349813
-0.053397298 0.05405133 -0.016818678 0.027817046 0.06209678 0.03939424 0.03956568 0.007926388
0.014722538 -0.029958857 -0.0220633 0.06644142 -0.03951158 0.040536467 -0.020262329 0.06826979
0.060896702 0.0027076292 0.00036349343 -0.033166684 0.06575939 -0.024594657 0.030526934 0.045304835
-0.04456509 -0.0459788 -0.03588274 0.0031230587 0.048248198 -0.011624108 -0.02719898 0.03745249
0.04927579 0.034515698 0.05500331 -0.051121328 -0.0089828195 0.055597764 -0.0010647324 0.0009918539
0.054242652 0.074109145 -0.070480056 -0.12121668 -0.10295167 0.054170202 -0.015031909 -0.056242406
-0.060715582 -0.06420265 -0.03904067 -0.031681146 -0.010245894 0.06345283 0.0052079703 0.020644505
0.066292554 -0.013308835 0.008853442 0.03416603 0.091215685 0.051916283 0.043466438 -0.029679224
0.018046323 -0.02532772 0.007656484 -0.0076215775 0.022024482 0.058774054 -0.044459242 -0.004151865
-0.032126572 -0.05680432 -0.068582594 -0.061240245 -0.08340298 0.007057363 -0.041084316 0.034156345
0.046551652 -0.0021819698 0.061897375 0.050095357 -0.03449744 0.04048201 0.02247028 0.044715736
-0.04634522 0.043748762 0.0048105754 0.02351154 -0.042532314 0.01586453 -0.025555398 0.03286649
-0.010877082 0.018628173 -0.056355655 -0.021233328 0.07202073 0.0836595 0.017290343 0.052814264
0.057511292 -0.03031856 -0.004706498 -0.009745411 -0.06296743 -0.07784455 -0.09991876 0.00261845
-0.042583402 -0.027450725 -0.041060694 -0.045125894 0.0465238 0.041516416 0.03186774 0.04712108
0.04745204 0.03480694 0.03763203 -0.007569757 0.015347403 -0.050646223 -0.02112081 -0.0055053546
-0.0028728347 0.058116246 0.048079398 0.018555375 0.06735789 -0.021226333 0.019422423 -0.0399832
-0.045392513 0.036795143 0.023955395 0.0021542243 -0.03198888 0.045220282 -0.001956019 0.042207487
-0.09380717 -0.0067991572 -0.051723454 -0.076111026 -0.061984476 -0.10156406 -0.012478662 -0.0020542468
-0.051113468 0.012753683 0.1225318 0.093527704 -0.028248414 0.031954817 0.027579438 -0.030873578
0.031557407 0.02707179 -0.046371136 -0.014947961 -0.011506288 -0.027633574 -0.087538585 0.020766962
-0.014670347 -0.046525154 0.0009330592 -0.019411923 -0.010379766 -0.06654574 -0.051118135 -0.090956606
-0.09082504 -0.054212667 -0.053141534 0.02111112 -0.04422715 -0.0048429533 -0.016601743 0.043500975

conv2d_3.0.bias f4 [64]
00000000: 6eb1 67bd a023 81bd 9a71 843d 8410 5a3d
00000010: e7db af3d 0a37 ad3d 0f94 21bc 5171 67bd
00000020: 7ef4 18bd b4a2 32bc a0f5 593d ea0f 5e3a
00000030: 0d7d a6bb 7aa4 943d ea11 24bc d15e 44bd
00000040: 7d99 feba 3573 59bd 85d4 b03d a7ca 24bd
00000050: 4169 6bbc a024 47bd 82c3 27bd 0a54 f63c
00000060: ef79 093d aaff 4fbd 8b82 863c 189c 3bbd
00000070: 6df7 bb3b 55c8 77bd 3bd4 a9bc 18bc 1cbd
00000080: 6cad c53c ec3c a8bc d03a bcbc c8ca 3abd
00000090: 294f d93d 9187 a03d 71d9 fd3c fc99 b6bc
000000a0: de10 91bd 61ef 2ebd ec5d ce3c 2af4 933c
000000b0: 5ea9 c13c f141 54bd 86aa 9a3c 060d 71bd
000000c0: 3cdc 7dbd 0f20 00bd 463d d93c c6e5 4abd
000000d0: 8e5a 253d a78c 3b3c b4c2 153d fa00 9bbd
000000e0: 479c 49bd ccd5 80bd 0859 b93c 60ee 2a3d
000000f0: 31be 8d3d f7f8 c43d 4fb0 b03d fc86 1cbd
-0.056565695 -0.06305623 0.0646698 0.053238407 0.08586865 0.084577635 -0.00986196 -0.05650455
-0.03734254 -0.010903049 0.053212762 0.00084709993 -0.005080825 0.07257934 -0.010014037 -0.047941986
-0.0019424405 -0.053088386 0.08634285 -0.040232327 -0.014368356 -0.048618913 -0.040957935 0.03006937
0.03356355 -0.05078093 0.01641967 -0.04580316 0.0057362826 -0.060493786 -0.020731082 -0.038265318
0.024130546 -0.020536862 -0.022977263 -0.045603544 0.10610802 0.07838357 0.030987473 -0.022290222
-0.07083295 -0.04270876 0.02519127 0.018060762 0.02364033 -0.0518207 0.01888014 -0.05885031
-0.06197761 -0.031280573 0.026518475 -0.049535535 0.040369563 0.011447108 0.036562636 -0.07568546
-0.049221303 -0.062907785 0.022625461 0.04173124 0.06921042 0.09617799 0.08627378 -0.03821467

conv2d_3.2.weight f4 [64, 64, 3, 3]
00000000: 9612 a23b 98cb d93c ab6e 18b9 9621 b3bb
00000010: 8e40 043d 32f8 03bd ce8b 91bc 3be1 09bc
00000020: 0ada 233d 2c22 1cbd 2681 d9bc 58ba 95bc
00000030: bb92 53bc 3ecf 18bd e273 00bd f600 ca3b
00000040: f444 063d 009e ed3b 77e0 7cbb 4f15 b93c
00000050: 7650 39bc c5d9 0d3c eddb 93bb 349b 0abd
00000060: e614 413c 380b f3bb 5ce6 7cbc 947a ba3c
00000070: 87d8 443c 8059 cd3b 2589 16bd 8f05 6fbc
00000080: 75c0 15bd f8a1 c3bc daca d5bc d211 86bb
00000090: 3705 6dbc 41e7 e3ba f8b3 3abd c89b ccbc
000000a0: 6d60 a3bc 0630 873c 0397 00bd fc04 163c
000000b0: 79f9 3bbc 4fcf d43c 915d 40bd 2e25 8c3c
000000c0: 1e52 ebbc 4dbe 1bbd 6417 2ebd 5b10 80bc
000000d0: 1fe6 88bb 7402 07bd b10d c0bc cc52 7dbc
000000e0: 50e8 cfbc 4c46 82bc 73d8 903c 289b 4cbd
000000f0: 095e 17bd 5f26 89b9 7620 04bd 2b9d bf3a
00000100: 6f2e 203d bb02 f2bc cc19 23bd 2090 703c
00000110: 0e37 293d e62a 0bbd 3249 073d 60f0 36bc
00000120: d057 8dbc 9a08 993c 1366 243d e042 f13b
00000130: 6cd1 a6bc 8619 75bc 7ba2 37bc c73f ffbc
00000140: 9b63 0e3c e698 d63b b311 72bc 83c0 d7ba
00000150: 7ebd 9e39 f5dd 7e3b 3aca 95bb 43de 5f3c
00000160: d368 2cbd 88b1 0b3b e0ae ee3b ebaf 34bd
00000170: 6653 3d3c 97e3 36bd 9a6e 07bd 28df ffbc
00000180: 51a7 c2bc 59eb 203c 0c50 8abc 26c4 873c
00000190: ced9 c6bc c83d adbc d417 15bd ac1a e93c
000001a0: 009d e4bc b8f0 24bd 5123 e3bc 17c3 1fbd
000001b0: e8c4 e0bc 6059 2a3c 86c6 313c 5959 36bd
000001c0: 5c15 9d3b 6881 3e3b 068c 22bc 7a58 d33c
000001d0: d88b 063d 389e d13c 0d28 43bd 00f9 093c
000001e0: d8aa 54bd a28c 1fbd f4ac ce3c 2105 7bbc
000001f0: cf4b 51bd 0457 c3bc 6534 983c 4773 c7bc
00000200: e511 cd3c 6e8f efbc f827 803c 85a0 c5bb
00000210: 1d32 883c a05e 1c3d a38b c3bc cb91 fa3c
00000220: 4bd5 db3b abff 27bc d3b6 eebc c0a4 373b
00000230: ee9d 8e3c 2a85 0a3d 9b67 463c 966c bb3c
00000240: 3e52 fbbc a2cb 06bd 3c2c 94bb 2777 36bd
00000250: c1b7 3abc fe39 11bd 38ba 493c 24eb 35bd
00000260: f882 d2bc 6d0f 073d 085e d9bc fe58 ecbc
00000270: 8774 cc3c d1f4 043d 8cb6 643c 6fb0 d4bc
00000280: 7880 97bc ae64 a0bc 1496 80bb b3be 38bc
00000290: 3819 60bc 92f4 06bd 9aaa e33c c3bd 10bd
000002a0: f037 edbc cc2b ed3c 1a7d 0abc 587a 72bb
000002b0: 43bb 743c e639 cb3b dcd0 f9bb 55c4 2c3c
000002c0: 1f77 053c 0099 18bd 778e 6b3c 5f57 37bc
000002d0: 5f76 193d ac1a 3b3c af57 303c 09f7 063d
000002e0: 0982 42bc e5b9 933c a05a 43bd 91e5 e83b
000002f0: 29dd cb3c e65b a3bc 4b31 e0bb 6b2e e93b
00000300: 7610 94bc 0617 f3bc d330 b3bc 0b44 0fbd
00000310: bbe2 4b3c 801c 45bc ebe2 403d 60ba 78bc
00000320: 5437 283d 60e4 edbb 2289 04bd 2dcc d93c
00000330: 4db8 22bc 930b f9bc 7588 8bbc 59b5 0dbd
00000340: a855 8dbc d0ad da3b 5da3 0bbb 0b05 ef3b
00000350: da8f 3c3c 5a3f 4dbb 5963 65bc f91d 40bd
00000360: ee78 1e3c ce45 4bbd f537 7fbc 8f47 97bc
00000370: c93d 993c 30c4 35bd 727f f3bc 9078 a73b
00000380: 2dd7 d4ba 8b51 f43b 7938 063c d527 343c
00000390: 428e fe3c 97f2 cb3c 42ff 61bc 3131 053d
000003a0: 001e 19bc fc37 173d cc57 503c e2bb d2bc
000003b0: 5aae b5bc d01e 4fbd 26c9 d6bb a18a a2bc
000003c0: 928b 203b 11a8 3e3c f262 973c 641a c8bc
000003d0: 48e3 f239 2e48 06bd 8b58 bfbb 3b9d a7bc
000003e0: 7749 163d 0090 74b9 4bcd eabb 43ee 84bc
000003f0: 172c ad3c 0fd3 1ebc c2ce b53c c2b6 0abd
0.0049460633 0.026586339 -0.00014537077 -0.0054666502 0.032288127 -0.03221912 -0.01776686 -0.008415516
0.04000286 -0.038118526 -0.02655084 -0.018277332 -0.012913401 -0.037307017 -0.031360514 0.0061646653
0.032780603 0.007251501 -0.003858594 0.022593169 -0.011310687 0.008657877 -0.004512301 -0.03383942
0.011784768 -0.007417109 -0.015435781 0.022763528 0.012014515 0.0062667727 -0.036751885 -0.014588728
-0.036560494 -0.023880944 -0.026097704 -0.00409148 -0.014466575 -0.0017387645 -0.045581788 -0.024976626
-0.01994344 0.016502392 -0.031394016 0.009156462 -0.011473053 0.025977759 -0.046964232 0.017107572
-0.02872568 -0.03802328 -0.042502776 -0.015632799 -0.004177823 -0.032961324 -0.023444029 -0.015461635
-0.02537933 -0.01590266 0.017681336 -0.049952656 -0.036954913 -0.00026159265 -0.03225752 0.0014618983
0.039106783 -0.029542318 -0.039819524 0.0146828 0.04131227 -0.033976458 0.03302879 -0.011165708
-0.017253786 0.01868086 0.040136408 0.0073627084 -0.020363532 -0.014959699 -0.011208172 -0.031158341
0.00869074 0.0065489886 -0.014774728 -0.0016460571 0.0003027729 0.003888962 -0.0045712264 0.013663831
-0.042092156 0.0021315534 0.0072840303 -0.04411308 0.011555528 -0.04465064 -0.033064462 -0.031234339
-0.023761423 0.009821736 -0.016883872 0.016573023 -0.02427378 -0.021147624 -0.036399677 0.028455101
-0.027906895 -0.04026863 -0.027726801 -0.03900441 -0.027437642 0.010397285 0.010850554 -0.044518802
0.004793806 0.0029068831 -0.0099210795 0.025799025 0.03284821 0.02558814 -0.047645617 0.008421183
-0.05192074 -0.038952477 0.025228955 -0.015321047 -0.051097687 -0.023845203 0.018579671 -0.02434696
0.025032947 -0.029243197 0.015644059 -0.0060310983 0.016625458 0.03817618 -0.023870295 0.030587098
0.006708776 -0.010253827 -0.029139912 0.0028021783 0.017409291 0.0338184 0.012109662 0.022878926
-0.030678865 -0.032909043 -0.0045218747 -0.044547226 -0.011396349 -0.035455696 0.012312464 -0.0444137
-0.025697216 0.032973696 -0.026534095 -0.028851029 0.024957908 0.032460038 0.013959538 -0.025963036
-0.018493876 -0.019579258 -0.0039241407 -0.011275935 -0.013677888 -0.032948084 0.02779131 -0.03533722
-0.028957337 0.028951548 -0.008452678 -0.0036999192 0.014937225 0.0062019704 -0.007623775 0.010544856
0.008146076 -0.037255287 0.014377228 -0.0111902645 0.037466403 0.011419933 0.010763093 0.032950435
-0.011871823 0.018032977 -0.04769385 0.0071074446 0.02488573 -0.019941282 -0.0068418137 0.007116129
-0.018074255 -0.029674064 -0.021873867 -0.034977 0.0124441935 -0.012030721 0.047091406 -0.015181154
0.04106839 -0.0072598904 -0.032357343 0.026586616 -0.009931636 -0.030401027 -0.017032841 -0.034596775
-0.017252758 0.006673552 -0.002130709 0.0072943023 0.011508906 -0.0031318278 -0.014000737 -0.046903584
0.009672387 -0.049627118 -0.015577306 -0.018466739 0.01870622 -0.044376552 -0.029723857 0.0051108077
-0.0016238444 0.0074560097 0.008192175 0.010995825 0.031073693 0.02489595 -0.013793768 0.032517616
-0.009345531 0.036918625 0.012716245 -0.025724355 -0.022177864 -0.050566494 -0.0065547405 -0.019841494
0.0024497253 0.01163675 0.018479798 -0.024426647 0.00046327175 -0.03278368 -0.0058394126 -0.020460716
0.036691155 -0.00023323298 -0.007165586 -0.016226893 0.021139188 -0.009693875 0.022193316 -0.033865698

conv2d_3.2.bias f4 [64]
00000000: 208a 853b 5013 443c e518 71bc 1adc 4bba
00000010: 30e7 a83c 0f83 5cbd 82ed 173d dbae de3a
00000020: 767b 8bbc e933 d93c 1877 c3bc 13e5 493b
00000030: 943c 403d 7b25 5ebc 5204 81bd 5ade 583d
00000040: 71b8 07bd 2aad 29bd a8ae 9fbc 0dac 3bbd
00000050: ff46 21bc f772 523c 62c7 243c 4fbc 7abc
00000060: 8303 823c 04c8 863c 2f2d da3b 3bc2 ebbc
00000070: 937f 78bb a154 a03b 0227 1cbd 1c3b eebc
00000080: 5b1d 0fbd 01e8 43bd cd6f c73c 066c 92bc
00000090: a0e9 2cbd 19db 5b3d 53af a53b ec63 25bc
000000a0: b20d 4cbd dd4f 1bbd 381e bb3b 838a cb3c
000000b0: e555 00bb a873 24bd 1c84 a2bc 4b58 d6bc
000000c0: eac0 633b 0e3a 79bb a460 c0bc 8592 61bb
000000d0: fd0b 36bd 6c78 8f3c f483 96bc c81d febc
000000e0: 9a9c 8c3c 3bec 4f3d 6f9c c5bb 1f7c e7bc
000000f0: 42bc c73b 659f 0bbd 42d8 c3bc c803 0d3c
0.0040753037 0.011967495 -0.014715408 -0.0007776633 0.020618051 -0.053835925 0.03709174 0.0016989367
-0.017026644 0.02651401 -0.0238605 0.0030806705 0.04693277 -0.013558741 -0.06299652 0.052946426
-0.03313488 -0.041424908 -0.019492462 -0.045818377 -0.009843587 0.012844793 0.010057302 -0.015303685
0.015870815 0.016452797 0.0066582183 -0.02877914 -0.0037917837 0.004892901 -0.03812314 -0.02908092
-0.034940105 -0.047828678 0.024345303 -0.017873775 -0.04221499 0.053675745 0.0050563007 -0.010094624
-0.04981775 -0.03791796 0.0057103895 0.024846321 -0.0019582447 -0.04014936 -0.019838385 -0.026165148
0.0034752437 -0.0038028988 -0.023483582 -0.0034419608 -0.044445027 0.017513476 -0.018373467 -0.03102006
0.017164517 0.050762396 -0.006030611 -0.028257428 0.00609544 -0.034087557 -0.02390683 0.008606859

fc1.weight f4 [64, 1280]
00000000: 716f b3bc f34a 9f3c 80a4 6dbc b38e 93bc
00000010: 6f9f 61bc d495 c43c f443 723c 6a89 9fbc
00000020: 9ccd cc3b c7d9 543c 5c51 993c 8f7f 863c
00000030: 39ed d6bb cff5 ff3b 61c0 83bc 366f 953c
00000040: da03 8d3c 536f e63b b54e 8dbc f7c3 d13a
00000050: d4d7 f23b 982d 01bd 8f35 1cbb fec8 5e3b
00000060: c935 8fbc b738 ad3c 7ae8 c2bc d63c 733c
00000070: caff dbba a1a6 27bc 90d0 3dbc 3481 063c
00000080: ad47 7abc 1a02 c13a d3a7 103b 94e6 3fbc
00000090: d655 123c 1579 4f3c dff2 0a3c bf2d 93bc
000000a0: 917c 053c fdc8 25bc 87ff 7dbc 0cc2 9ebc
000000b0: 6a66 9eba 6232 84bc aecc e4bb 9aa4 ac3c
000000c0: 90c5 923c 4b11 29bc a800 9ebc 3b48 a9bc
000000d0: eed1 5d3c e578 1abb 3ac3 653c e68d 8a3c
000000e0: a679 f03c 5015 e9bb f895 933c 2b7a 983c
000000f0: ce8b 4fbc 50ab 803b ce7d b73a 96b3 2f3c
00000100: d26e da3c 27e4 55ba e3ad d53c 85bc 84bc
00000110: 2993 053c f36b d1bb 5270 c3bc e0a7 a2bc
00000120: e835 8b3c ae70 fe3a 22a3 0abc 8e3a b8ba
00000130: 1add 283c ca28 7abc 7b38 ad3c 11f6 2c3a
00000140: 33fa 3bbc e227 cf3c 0baf 6f3c 0c50 ce3a
00000150: 98b5 a63c f7f3 6c3c e96b 363c c930 1b3b
00000160: 5c1e a13c 24fb a5bc f828 07bc 2e6d b3bc
00000170: f5ed 88bc c34b adbc b1a7 aebc 65d7 85bc
00000180: b3fd 523b 9dc7 43bb 6311 9ebc c484 dd3c
00000190: 5460 1d3d f1ea 56bb 877a e03b 8e5b 17bd
000001a0: b6f8 71bb 2919 c13c 8362 ebbc d374 6abc
000001b0: cc31 1bbb 9608 24bd eb68 973c 2f05 6abc
000001c0: 2286 7abc 9eb0 cdbb 9679 dabc 711e a3bc
000001d0: 8a4c b4bb 0a10 603c 0439 d73b 1c6f 84ba
000001e0: 4070 103c 0880 0f3d 7bf1 09bb 68e8 c63c
000001f0: d103 b73c 13bf 243d 0ecf bd3b 7920 2a3c
00000200: 84c8 463d 64a7 503d b12b c93c b546 03bb
00000210: bd64 f93b 8dc4 873c 868c 423d d743 1d3d
00000220: 1d1d 063d aa97 a439 cc3a e6b8 bc7e c93c
00000230: 3a80 59bc 0ecc 393c 7be7 ccbc ebb3 19bc
00000240: 4366 503b 3ec9 02bd b2c6 023c a87e 643c
00000250: e2c2 ac3c b966 263b 6501 cdbc b7c1 a6bc
00000260: 5ebd 203c 28d3 803c adf7 44bb cefa 53bc
00000270: 0722 9e3c a1d8 bdbc 3d03 17bc 2780 cbba
00000280: ac8a 86bc b619 86bc 646b 98bc b12d 59bc
00000290: 103c d6bb aae7 a5bc 9d55 7fbb e503 833c
000002a0: f20c 383b 529c b63a bcd8 64bb c5ee 02bd
000002b0: 8c55 c73b 11ff b43b 842d cabb 3a16 8cbc
000002c0: 6a11 f6bc 2c60 9bbc fda0 bdbc c49d 813c
000002d0: 010a 36bc 85ff f1bb 568f c53c 031a 7fbc
000002e0: 59ac e43b 48f5 b0bc a61d d2bc f9f0 753c
000002f0: 8201 8b3c d1a5 093c c44d e5bc 3254 3dbc
00000300: 30b4 f4bc c106 acbc 53b5 e6bc 3ead a03c
00000310: 8fe4 9fbc 944f a23c 8619 4c3b bde7 d8bc
00000320: 3c6f 513c c939 9bbc 7d7f d1bc 7fbf 8dbb
00000330: 0733 773c dbdc 413c 211e 37bc 55e6 293c
00000340: 092a 363b d7f8 a5bc 1eaf 60bc 1e89 843c
00000350: a2e6 a9bc 4bd6 533c a691 96bc f064 afbc
00000360: 4160 f0bb 9210 063b 61ba 1bbc ee70 063c
00000370: dae3 cf3c c6ec 36bc c0ad bebc 7295 5bbc
00000380: fbf5 d9bc b6ed 1ebd c7b6 15bc 271a 85bd
00000390: 4d52 01bd bf27 0ebd 4ac4 96bc 0fdc f0bc
000003a0: 0b6a b93c e932 433b 6c1d 3fbb c878 5c3d
000003b0: 748f aa3c fd7b 283d f318 c43c 0359 093d
000003c0: 9377 cfbc eb7b 563b 5bf1 33bc 778b 5d3b
000003d0: a417 743d 0e88 d3bc a429 993b 80cf c6bc
000003e0: 81bf f3bb bd3f 17bc bde0 a1bc bf42 d9bb
000003f0: e357 ebba 1873 0dbc cfe7 073d fc52 14bc
-0.021903725 0.019444918 -0.014504552 -0.01801238 -0.013770922 0.023997225 0.014786709 -0.019474704
0.0062500965 0.012991375 0.018715553 0.016418247 -0.006559041 0.007811285 -0.016082944 0.018241506
0.01721375 0.007032314 -0.017249444 0.0016003837 0.0074109826 -0.031537622 -0.0023835634 0.0033994312
-0.017481701 0.021145208 -0.023792494 0.014846047 -0.0016784605 -0.0102325985 -0.01158537 0.008209515
-0.015275878 0.0014725358 0.0022072687 -0.011712689 0.008931598 0.012663146 0.008480757 -0.01796615
0.008147375 -0.01011872 -0.015502817 -0.019379638 -0.0012084965 -0.016137306 -0.0069824075 0.021074582
0.01791647 -0.010319064 -0.019287422 -0.020664325 0.013538821 -0.0023570594 0.014023596 0.016913366
0.029354881 -0.0071131364 0.018015847 0.018612942 -0.012667609 0.003926672 0.0013999285 0.010723969
0.026664171 -0.00081593025 0.026083892 -0.016203174 0.0081527615 -0.0063910424 -0.02385727 -0.01985544
0.016993478 0.0019412243 -0.008461745 -0.0014055537 0.010306621 -0.015268514 0.021145096 0.0006597946
-0.011473226 0.025287572 0.014629136 0.0015740409 0.020350263 0.014462463 0.011134126 0.0023680201
0.019667797 -0.020261355 -0.008249514 -0.021902647 -0.01671503 -0.02115429 -0.021320196 -0.01633806
0.0032194674 -0.0029873617 -0.0192954 0.027040847 0.038421944 -0.0032793845 0.006850544 -0.036952548
-0.0036921925 0.023571568 -0.028733497 -0.01431008 -0.0023680804 -0.04004725 0.018482646 -0.014283462
-0.015290769 -0.006277158 -0.026669305 -0.019911977 -0.005502288 0.013675699 0.006568076 -0.0010103914
0.008815825 0.03503421 -0.0021048475 0.024280742 0.022340687 0.040221285 0.005792505 0.010383719
0.04853107 0.050940886 0.024556966 -0.0020031158 0.007610886 0.016573215 0.047497295 0.038394775
0.03274261 0.00031393516 -0.000109782064 0.024596564 -0.0132752005 0.011340154 -0.025012722 -0.009381275
0.0031799234 -0.0319302 0.007981943 0.013946213 0.021089021 0.0025390817 -0.025025079 -0.020356042
0.009810774 0.015725687 -0.0030054853 -0.0129382145 0.019303335 -0.023174586 -0.009217081 -0.0015525863
-0.016423546 -0.016369682 -0.018605895 -0.013255523 -0.0065379217 -0.020252068 -0.0038960942 0.015993068
0.0028083888 0.0013932085 -0.0034919223 -0.03196599 0.006083196 0.0055235703 -0.0061699767 -0.017100442
-0.0300376 -0.018966757 -0.023148054 0.015822299 -0.011110784 -0.0073851966 0.0241162 -0.0155701665
0.0069785533 -0.021601334 -0.025648903 0.015011066 0.016968492 0.00840135 -0.027991183 -0.011555718
-0.029871076 -0.020999314 -0.028162634 0.019613858 -0.019518165 0.019813336 0.0031143143 -0.026477689
0.012782868 -0.018948453 -0.025573486 -0.0043258066 0.015087849 0.011832441 -0.011176617 0.010369857
0.002779605 -0.020260258 -0.013713626 0.016178664 -0.020739857 0.012929509 -0.018379997 -0.021410435
-0.007335693 0.0020456654 -0.009504885 0.0082056355 0.025377203 -0.01116485 -0.02327621 -0.01340233
-0.02660655 -0.038800918 -0.009137816 -0.06499129 -0.03157263 -0.034705874 -0.018404145 -0.029401807
0.022633573 0.0029784983 -0.0029161824 0.053826123 0.020820357 0.04113387 0.023937678 0.033532154
-0.025325572 0.003272767 -0.010982837 0.0033805051 0.059592858 -0.025821712 0.0046741534 -0.024268866
-0.0074386005 -0.009231505 -0.019760484 -0.006630271 -0.001795527 -0.0086333975 0.033180054 -0.009052988

fc1.bias f4 [64]
00000000: 3ae0 2a3d 5b60 a93c e7b6 ba3b f55a 09bd
00000010: 9684 9dbc 6829 403d 2ee2 483d 1e1b 0dbd
00000020: 8deb b43c 8396 e0bc 1e26 4e3b 8051 92bc
00000030: 6d3a 0a3d 8968 b93b e468 0ebc 9217 143c
00000040: 3ba0 cabc 585f d13b 80ed 0bbd dc78 1e3d
00000050: 4d32 4e3d c825 3e3d 5ae3 11bd 8059 ff3c
00000060: f870 0d3d 92a5 153b f577 d33c f28c d53c
00000070: 30db deba db49 01bc d500 fbbc 0e93 173c
00000080: d74d 633d e9fa 463b 6af1 03bd 97fa 303c
00000090: 7977 d63c 20b5 9d3b 44bd 1dbd 7a2b a8bc
000000a0: 61c7 c93c 7830 033c efe7 68bd bf77 95bc
000000b0: e2db d0bc 217b 173c 4cd1 c53c 7519 c3bb
000000c0: 0875 e9bc f7d1 543c c16e b43b abb7 433d
000000d0: 6a45 36bc c903 1abd 850e 04bd cb59 873d
000000e0: 0f8b efbb 2b2d 5cbc ae96 0bbc 8fc3 6a3c
000000f0: e807 cbbc b2b8 23bc 1e66 45bd 7240 64bc
0.041717745 0.020675829 0.005698073 -0.03353401 -0.019228261 0.046914488 0.049043827 -0.03444969
0.022084976 -0.02741552 0.0031455825 -0.017861128 0.033747125 0.0056582135 -0.008692 0.009038823
-0.024734607 0.0063895397 -0.034162045 0.03868948 0.05034094 0.04642275 -0.03561721 0.031170607
0.034531564 0.0022834283 0.025814036 0.026068185 -0.0017002579 -0.007891144 -0.030640045 0.009251369
0.055494156 0.0030361956 -0.032212652 0.010801933 0.026180016 0.0048128515 -0.038510576 -0.020528544
0.024631204 0.008007161 -0.056861814 -0.018245576 -0.025495473 0.009245665 0.024147652 -0.0059539624
-0.028498188 0.012989513 0.005506367 0.04778258 -0.011124948 -0.037601266 -0.03224041 0.066089235
-0.0073102782 -0.013438503 -0.008519812 0.014328851 -0.024784043 -0.009992765 -0.04819309 -0.013931381
