models/model03_fluxsteps10_dropout.pth (torch, 622902 bytes, 16 tensors)

conv2d_1.0.weight f4 [16, 1, 3, 3]
0	0x3ea6efb8	0.32604766
1	0x3eb22158	0.34791064
2	0xbbb1db77	-0.0054277736
3	0x3eb290ea	0.34876186
4	0xbd0114ac	-0.031513855
5	0x3de2f88f	0.11082565
6	0xbd98b783	-0.07456877
7	0x3e90c623	0.28276166
8	0x3ec331b4	0.38123858
9	0xbe24a8c0	-0.16079998
10	0x3ebf60ef	0.37378642
11	0x3e15d296	0.14631113
12	0x3eabbdbb	0.3354319
13	0x3e09210b	0.13391511
14	0x3e8022e7	0.25026628
15	0x3d4e2937	0.050332274
16	0x3eb52a89	0.35384014
17	0x3e16c027	0.14721738
18	0xbe47a6bc	-0.19497198
19	0x3d4ac369	0.049502764
20	0xbe3d5533	-0.18489532
21	0xbd44c968	-0.04804364
22	0xbe137442	-0.14399818
23	0x3e58bad6	0.21165022
24	0xbebbd1cc	-0.366835
25	0xbe85618a	-0.2605098
26	0xbe523799	-0.20529021
27	0xbec8d8e3	-0.3922797
28	0xbe25ab3a	-0.16178599
29	0xbf06ef9e	-0.52709377
30	0x3e637664	0.22213131
31	0xbeb96d3c	-0.36216152
32	0x3e3a366f	0.18184827
33	0xbd82f825	-0.06394986
34	0xbe66f922	-0.22555974
35	0x3db10430	0.08643377
36	0x3e1af429	0.15132202
37	0x3ebe0eb1	0.37120584
38	0x3e0e68d2	0.13907173
39	0xbdc6be5c	-0.09704277
40	0x3dc427b9	0.09577889
41	0xbdb53971	-0.08848847
42	0x3e884cb8	0.26621032
43	0x3ed7e883	0.4216958
44	0x3ea20b9d	0.31649485
45	0xbe1538b8	-0.14572418
46	0x3e450a28	0.19242156
47	0x3d744b40	0.059642076
48	0x3e2d574e	0.16927835
49	0xbe500b5e	-0.20316836
50	0xbea8f1c3	-0.3299695
51	0xbe03e0b3	-0.12878685
52	0xbe82e7be	-0.2556743
53	0x3e8c09e4	0.27351296
54	0x3e87fc11	0.265595
55	0x3e9d8f95	0.30773607
56	0x3e8e90e6	0.27844924
57	0x3dd52ba3	0.10408714
58	0x3ebdc1a8	0.3706181
59	0xbe0105b0	-0.12599826
60	0x3dd9fa2d	0.1064342
61	0xbe136b0a	-0.14396301
62	0x3e420023	0.18945365
63	0xbe01e91b	-0.12686579
64	0x3df56e36	0.11983912
65	0xbd4bca8e	-0.049753718
66	0x3e791b9f	0.24326943
67	0xbe2ff8ff	-0.17184828
68	0xbe25cfd9	-0.16192569
69	0xbe659163	-0.22418742
70	0x3ea8c377	0.32961628
71	0x3e0fd921	0.14047672
72	0x3ede5a06	0.43428057
73	0xbe17185f	-0.1475539
74	0xbe3e16f9	-0.18563451
75	0xbdf8d232	-0.121494666
76	0xbdafff64	-0.08593634
77	0x3e8abf0d	0.27098885
78	0x3ea1d3a5	0.31606784
79	0x3ef23af9	0.47310618
80	0x3cd33198	0.025780484
81	0xbe68b0e3	-0.22723727
82	0x3e351aa0	0.17685938
83	0xbe09f7ee	-0.13473484
84	0x3e4f29d0	0.20230794
85	0xbda1ff4b	-0.079100214
86	0x3e434223	0.19068198
87	0xbe849a40	-0.25898933
88	0xbe2c40f8	-0.16821659
89	0x3dd02106	0.10162549
90	0x3e0af57d	0.13570209
91	0xbca299fe	-0.01984882
92	0x3e871df7	0.2639005
93	0x3df0773b	0.117414914
94	0xbeb3dc67	-0.3512909
95	0xbe9286f4	-0.28618586
96	0x3f02b434	0.5105622
97	0x3dba6cc9	0.0910278
98	0x3db3d167	0.08780175
99	0xbea522db	-0.32253155
100	0xbe4378b0	-0.19089007
101	0x3daa885b	0.08326789
102	0xbd3436f6	-0.043997727
103	0xbe77c4e3	-0.241962
104	0x3c001ad6	0.007818898
105	0xbe692893	-0.22769384
106	0xbe90cb04	-0.2827989
107	0xbe3bf5a3	-0.18355422
108	0xbe8237f0	-0.25433302
109	0xbe331829	-0.17489685
110	0x3eb9a7f5	0.36260954
111	0x3e55a3e1	0.20863296
112	0x3e8271e7	0.25477526
113	0xbe1dc141	-0.15405752
114	0xbe6e5264	-0.23273617
115	0xbdea899f	-0.114520304
116	0x3d3302d2	0.04370386
117	0xbf04dc24	-0.5189841
118	0xbebdee30	-0.37095785
119	0xbedc2cda	-0.4300297
120	0xbe735294	-0.2376197
121	0xbeba6c3f	-0.3641071
122	0xbe875437	-0.26431438
123	0xbedac4c3	-0.42728242
124	0xbedcbd41	-0.4311314
125	0xbecb4221	-0.3969889
126	0x39021233	0.00012404546
127	0xbe18851d	-0.14894529
128	0x3eca57e7	0.3952019
129	0x3cd6acbe	0.026205417
130	0x3ec38c41	0.38192943
131	0x3e4c9104	0.19977194
132	0xbe5fd23b	-0.2185754
133	0x3e973d53	0.29538974
134	0xbcbcb7be	-0.023036834
135	0xbe02d78b	-0.12777536
136	0xbe8daa56	-0.27669019
137	0xbea9ab8b	-0.3313869
138	0x3dc35176	0.09537022
139	0xbd951fd6	-0.07281463
140	0x3e04e393	0.12977438
141	0xbe8c0f56	-0.2735545
142	0x3e7d6a73	0.24747638
143	0xbe7a8e98	-0.24468458

conv2d_1.0.bias f4 [16]
0	0x3c722e23	0.014781508
1	0x3d84d0c8	0.06485134
2	0x3e0e7912	0.13913372
3	0x3e7995a0	0.24373484
4	0x3e8dbe41	0.27684215
5	0xbe87534c	-0.26430738
6	0x3da54efd	0.080717064
7	0xbdeddfc8	-0.116149485
8	0x3c035f02	0.008018257
9	0xbe7f7c10	-0.2494967
10	0x3e7015d4	0.23445827
11	0xbe7a8593	-0.24465017
12	0x3def49b5	0.116839804
13	0x3e1c56a4	0.15267426
14	0x3dca74b5	0.09885541
15	0xbe388a63	-0.1802154

conv2d_1.2.weight f4 [16, 16, 3, 3]
0	0x3d857fcf	0.06518518
1	0x3bda8619	0.0066688177
2	0xbaef38c2	-0.0018251168
3	0xbda8386a	-0.08213885
4	0x3cbca337	0.023027046
5	0xbcc57026	-0.024101328
6	0xbd402a17	-0.04691514
7	0x3d7d9932	0.061913677
8	0x3c04d2cf	0.008106901
9	0xbd6b9ca5	-0.057522435
10	0xbd5c90e0	-0.0538491
11	0xbc830c54	-0.01599709
12	0x3d0fa5b8	0.03507015
13	0xbd05b144	-0.032639757
14	0xbd7111be	-0.05885481
15	0xbd21457c	-0.039372906
16	0xbd961edd	-0.073301055
17	0x3c90a34d	0.017655993
18	0x3d5539b0	0.05205697
19	0xbda0ac28	-0.07845336
20	0x3c2ed063	0.0106698
21	0x3d02cef9	0.031935666
22	0x3b62d8d8	0.0034614112
23	0xbd2821c3	-0.041047823
24	0x3d038f1a	0.032118894
25	0x3d053f0b	0.032530826
26	0x3c9fdacd	0.019513512
27	0xbcd2c26c	-0.025727473
28	0xbd09b6f1	-0.033621732
29	0xbb25e792	-0.0025315029
30	0xbccf1db9	-0.025282728
31	0xbd12df9e	-0.03585779
32	0x3d2f5886	0.042809032
33	0x3d716dfa	0.058942772
34	0xbc9ed711	-0.019389661
35	0xbcf0ce7f	-0.02939534
36	0xbc25f9e3	-0.010130378
37	0xbc8626d4	-0.016375937
38	0x3c09d3bc	0.008412298
39	0x3c3d761c	0.011563804
40	0xbdb34e1f	-0.08755135
41	0xbd2edd1c	-0.042691335
42	0x3d70eff4	0.058822587
43	0x3cacd5c3	0.021098023
44	0xbc8161ed	-0.015793765
45	0xbd4dcab6	-0.05024215
46	0xbd50d458	-0.050983757
47	0xbd98e0a7	-0.07464724
48	0xbcde8610	-0.027163535
49	0x3ce68a16	0.028142016
50	0x3d59a43b	0.053135138
51	0x3d1d97bb	0.03847478
52	0xbd96dc1b	-0.073662005
53	0xbd4d43db	-0.05011354
54	0xbcc9480c	-0.024570487
55	0x3d8be3b4	0.0683054
56	0x39fa0c1c	0.00047692738
57	0xbd08f9da	-0.033441402
58	0x3cbbdab4	0.022931434
59	0xbd3245ee	-0.04352372
60	0xbd84a511	-0.064767964
61	0x3d4bec56	0.049785934
62	0xbd4a383e	-0.049370043
63	0xbc487840	-0.012235701
64	0xbda9c7aa	-0.08290036
65	0x3d6471c3	0.055772554
66	0x3d814d90	0.06313622
67	0x3cf8cbf0	0.030370682
68	0xbd6e00c0	-0.058106184
69	0xbda87010	-0.08224499
70	0xbd8a9ca4	-0.06768158
71	0x3d7e8848	0.062141687
72	0x3cef6221	0.029221596
73	0x3d763ed5	0.060118515
74	0x3d0755c9	0.033040795
75	0x3ce0fc5d	0.027464086
76	0xbbc478da	-0.005995852
77	0xbd8daa5d	-0.0691726
78	0xbd9238f3	-0.071397685
79	0xbda1c78f	-0.07899391
80	0x3d1649fb	0.036691647
81	0xbd279570	-0.040914
82	0xbc896370	-0.016771048
83	0xbd44706b	-0.047958773
84	0xbc78cbc0	-0.015185297
85	0xbd703e08	-0.058652908
86	0xbd5f0856	-0.05445131
87	0x3ce272ab	0.027642569
88	0xbccae2d6	-0.024766367
89	0x3d52b846	0.051445268
90	0xbd1ae43c	-0.037815318
91	0xbd941e76	-0.072323725
92	0xbcd470ae	-0.025932636
93	0xbd5a4bb9	-0.05329487
94	0xbd18001f	-0.03710949
95	0xbdb9057e	-0.09034251
96	0x3d0fff40	0.035155535
97	0xbd8e9496	-0.06961934
98	0x3cf90337	0.03039704
99	0x3d1ae446	0.037815355
100	0x3d73dc16	0.059536062
101	0xbd82e904	-0.063921005
102	0x3d757c60	0.059933066
103	0xbd215dab	-0.03939597
104	0x3cfd510b	0.030922433
105	0x3da0468c	0.07825956
106	0xbc408e36	-0.011752656
107	0xba28f0ab	-0.0006444554
108	0xbcf64a44	-0.03006471
109	0xbda7ed73	-0.08199587
110	0x3ce33d61	0.027739229
111	0xbdc1fb59	-0.09471769
112	0x3d2a0c44	0.041515604
113	0x3d54d2ce	0.05195885
114	0x3d8a9742	0.067671314
115	0xbd02e4b7	-0.0319564
116	0xbda4e438	-0.08051342
117	0x3c997bf0	0.018735856
118	0x3d3c8fd6	0.04603561
119	0xbda9ddb4	-0.0829424
120	0xbc9af446	-0.018915307
121	0xbd4c9d38	-0.049954623
122	0xbbeed596	-0.007288645
123	0xbd280246	-0.041017793
124	0xbd0b86a8	-0.034063965
125	0xbcd8b7f6	-0.026454907
126	0xbdba764f	-0.09104597
127	0x3d66947f	0.05629396
128	0x3d6b4a57	0.057443943
129	0xbcc60bbc	-0.024175517
130	0xbca8687b	-0.020557633
131	0xbd3b04f3	-0.045659017
132	0xbdb074f0	-0.08616054
133	0xbdbed0c5	-0.093171634
134	0x3c9d64e5	0.01921315
135	0xbd3b6863	-0.045753848
136	0xbd5b6f73	-0.053573083
137	0xbbd50e2b	-0.006501933
138	0xbce355eb	-0.02775093
139	0xbcdcdb5b	-0.026960066
140	0x3b2f7aab	0.0026775997
141	0xbc90cd56	-0.017676037
142	0xbceb0cf6	-0.028692704
143	0xbd236eb3	-0.039900493
144	0xbd823d4b	-0.06359347
145	0x3da51003	0.080596946
146	0xbd1b3f8e	-0.037902407
147	0xbb57f134	-0.0032950165
148	0xbd277fe0	-0.040893435
149	0xbc317b53	-0.010832625
150	0x3dba4d63	0.090967916
151	0x3cdbdcdc	0.026838712
152	0xbda48dd3	-0.08034863
153	0x3d36fcf8	0.044674844
154	0x3dbb1893	0.091355465
155	0x3c9d7847	0.019222392
156	0x3d2d0df5	0.04224964
157	0x3d9337f9	0.0718841
158	0xbcd7d1ea	-0.026345212
159	0x3c8f2bf2	0.01747701
160	0xbd71171c	-0.05885993
161	0xbd0de424	-0.0346414
162	0x3d993799	0.074813075
163	0x3d50a844	0.05094172
164	0xbd7eaf81	-0.062179092
165	0xbce73f99	-0.028228568
166	0xbc6d0363	-0.0144661395
167	0xbd963937	-0.073351316
168	0xbdcf1fca	-0.10113485
169	0xbd566e7c	-0.05235146
170	0x3d210b30	0.03931731
171	0x3d0caafd	0.034342755
172	0xbd374e6b	-0.04475252
173	0xbd7e1982	-0.062036045
174	0x3d2955c0	0.041341543
175	0xbd746382	-0.05966521
176	0xbccc2015	-0.024917642
177	0x3d3340db	0.043763023
178	0xbd2bb58d	-0.041921187
179	0xbccae841	-0.02476895
180	0xbb1365d3	-0.0022491112
181	0xbc60e8af	-0.013727351
182	0xbd401ce1	-0.04690254
183	0xbdca0271	-0.09863747
184	0xbdb7e511	-0.08979238
185	0xbd9a8c81	-0.0754633
186	0x3de65265	0.11246184
187	0xbc2f5bd4	-0.010703046
188	0xbd4731b3	-0.04863138
189	0x3ca57976	0.020199519
190	0x3cbc2666	0.022967529
191	0x3d3b0516	0.045659147
192	0x3d81ba2b	0.06334337
193	0x3d3e1468	0.04640618
194	0xbda93757	-0.08262508
195	0x3bf22dd6	0.007390718
196	0x3d4ec383	0.050479423
197	0xbbfc6216	-0.0077021224
198	0xbd2e6b46	-0.042582773
199	0x3db40361	0.08789707
200	0xbd261e76	-0.040556394
201	0xbd12df5c	-0.035857543
202	0xbd7e2947	-0.062051084
203	0x3a8a1b1c	0.0010536644
204	0x3d032979	0.032021973
205	0x3ba399b4	0.004992688
206	0x3c11fa3d	0.008909759
207	0xbda7fde6	-0.08202724
208	0xbd9f6228	-0.07782394
209	0x3c7cb06e	0.0154229235
210	0x3d9b9ea4	0.07598618
211	0x3d44ec28	0.04807678
212	0xbd46bc68	-0.048519522
213	0x3c0359d0	0.008017018
214	0xbd2fc9bb	-0.042916995
215	0xbd24ab7f	-0.040202614
216	0x3c291f3f	0.010322391
217	0x3d1f1ccb	0.03884582
218	0x3d8a21aa	0.06744702
219	0xbde7a432	-0.11310615
220	0x3cbc9dbf	0.023024438
221	0xbda95eca	-0.08270033
222	0x3da090f7	0.0784015
223	0x3e0041ab	0.1252505
224	0x3bf2bf1f	0.0074080373
225	0x3d9b462a	0.07581742
226	0xbd916ab3	-0.071004294
227	0xbd02601b	-0.031829935
228	0x3d47156b	0.04860441
229	0xbc94bb2b	-0.018155655
230	0xbc8bbdf6	-0.017058354
231	0xbd0e43d0	-0.03473264
232	0x3d6b487e	0.05744218
233	0x3d276cd3	0.040875267
234	0x3d072710	0.032996237
235	0xbd233ccb	-0.0398529
236	0xbd93c280	-0.07214832
237	0xbbe2fe81	-0.006927312
238	0x3baac275	0.0052111694
239	0xbd861b63	-0.06548192
240	0x3c1e50f8	0.009662859
241	0x3db42963	0.087969564
242	0x3c7093e7	0.0146837
243	0x3b766800	0.003759861
244	0xbca80130	-0.020508379
245	0xbd9a8dd2	-0.07546581
246	0xbda0787a	-0.07835479
247	0xbd232998	-0.03983459
248	0xbd2d81ce	-0.04236012
249	0x3cd4aff0	0.0259628
250	0xbcc6bb4b	-0.02425923
251	0xbd058983	-0.032601845
252	0x3dbf0707	0.09327512
253	0x3d3a4b8f	0.045482215
254	0x3d79cf8f	0.06098896
255	0xbccdc783	-0.025119549

conv2d_1.2.bias f4 [16]
0	0xbb289ad0	-0.002572704
1	0xbcb5ad60	-0.022177398
2	0x3d89a2dd	0.06720517
3	0xbd31e02b	-0.043426674
4	0x3d0d5dc3	0.034513246
5	0xbda560c2	-0.08075096
6	0xbc993e90	-0.01870659
7	0xbd9edee7	-0.07757359
8	0xbd191d30	-0.03738135
9	0x3d1b8995	0.037973005
10	0xbd409bad	-0.047023464
11	0xbda94f7d	-0.08267114
12	0x3d80e566	0.06293754
13	0x3d251f14	0.04031284
14	0xba3150d0	-0.0006764056
15	0xbd89705c	-0.06710884

conv2d_2.0.weight f4 [32, 16, 3, 3]
0	0xbcb76447	-0.022386683
1	0xbcdb953e	-0.026804563
2	0x3d51ea7b	0.05124901
3	0xbcdb6e95	-0.026786128
4	0xbcbeff45	-0.023315081
5	0xbd722bb6	-0.059123717
6	0xbd20c388	-0.039248973
7	0x3d38d083	0.045120727
8	0x3d5bea88	0.053690463
9	0x3c8b6cb0	0.0170196
10	0xbd1cf01c	-0.038314924
11	0x3da3ec7b	0.080040894
12	0x3c6b4652	0.014360027
13	0xbce867df	-0.028369842
14	0xbcec9c40	-0.0288831
15	0xbc615997	-0.01375427
16	0x3d265d0d	0.040616084
17	0x3cf9b286	0.030480634
18	0x3d1d3bee	0.03838723
19	0xbccfbff2	-0.025360081
20	0x3d50f7ed	0.05101769
21	0xbd3e325b	-0.04643474
22	0xbd4fcfe4	-0.05073537
23	0xbd268e76	-0.040663205
24	0xbdacd236	-0.08438532
25	0xbd7ad818	-0.06124124
26	0xbda5785c	-0.08079597
27	0xbba16040	-0.004924804
28	0x3a4df200	0.000785619
29	0xbcb12e46	-0.02162851
30	0xbd6942f8	-0.056948632
31	0x3d9ad80b	0.07560738
32	0xbce231e6	-0.027611684
33	0x3d22a9d3	0.03971274
34	0x3d6db540	0.05803418
35	0xbd6060b8	-0.05477974
36	0x39c6887e	0.00037867198
37	0x3d6b02fd	0.057375897
38	0x3db7457f	0.08948802
39	0xbcb53c9e	-0.022123631
40	0x3d4b730f	0.049670275
41	0xbd9c46da	-0.07630701
42	0xbd8bc6db	-0.06825038
43	0x3d5d6440	0.054050684
44	0xbcb7360c	-0.022364639
45	0x3dba55dd	0.09098408
46	0x3c79f17d	0.015255329
47	0xbcd4bec5	-0.025969872
48	0x3dc08609	0.09400565
49	0x3db01487	0.08597665
50	0x3ca6eeb0	0.020377487
51	0xbd13e4b1	-0.03610677
52	0x3c1abd08	0.009444483
53	0xbcd92c94	-0.026510514
54	0x3b96d788	0.00460333
55	0xbd412f40	-0.0471642
56	0xbcf80259	-0.030274557
57	0x3bbc76e7	0.005751479
58	0xbc4fe4a2	-0.012688788
59	0xbdb34f40	-0.0875535
60	0x3c985d6b	0.018599233
61	0xbbe404e9	-0.006958593
62	0xbdc9f69e	-0.098614916
63	0x3d3d3573	0.04619355
64	0x3c8462a6	0.01616032
65	0xbc8384a6	-0.016054463
66	0xbd8cf972	-0.068835154
67	0xbcbccc2b	-0.023046574
68	0xbda7543a	-0.08170362
69	0x3d1d9cd0	0.038479626
70	0x3d520586	0.0512748
71	0xbcc489d6	-0.023991507
72	0x3d9e376b	0.07725414
73	0xbcfcc91b	-0.030857613
74	0x3c69cfab	0.014270703
75	0xbd6ddf88	-0.058074504
76	0xbb66e580	-0.0035232008
77	0x3d09fa26	0.033685826
78	0x3d130628	0.035894543
79	0xbb3721d6	-0.0027943752
80	0xbd2c1f1e	-0.042021863
81	0x3d1f0439	0.038822386
82	0x3d0f6862	0.035011657
83	0xbb32751a	-0.0027230443
84	0xbd469e76	-0.048490964
85	0x3c06c1ba	0.008224899
86	0xbb75c7ae	-0.0037503052
87	0x3d9fffec	0.07812485
88	0x3c5843d3	0.013199764
89	0x3c1b034b	0.009461234
90	0xbd7d33f9	-0.061817143
91	0xbc114348	-0.008866139
92	0xbd50e444	-0.05099894
93	0x3d072714	0.032996252
94	0x3c2577b2	0.010099338
95	0xbdad641f	-0.08466362
96	0xbd1046e4	-0.035223857
97	0xbdc61881	-0.096726425
98	0xbda2c093	-0.07946887
99	0xbcaecd02	-0.02133799
100	0xbbf4e9f4	-0.0074741784
101	0xbd338682	-0.04382945
102	0x3d7006c1	0.05860019
103	0xbd62796a	-0.05529157
104	0xbd6e0493	-0.05810983
105	0xbc0903b9	-0.008362704
106	0x3b040e33	0.0020150065
107	0xbccba572	-0.024859164
108	0x3cfaf4b5	0.030634264
109	0xbdaa572c	-0.08317408
110	0xbdab9924	-0.08378819
111	0x3c30b61f	0.010785609
112	0x3d83e0a9	0.06439335
113	0x3cbdeb07	0.023183359
114	0x3d3d602e	0.046234302
115	0x3c7dccfb	0.015490766
116	0x3d927ea9	0.07153065
117	0x3d0f7857	0.035026874
118	0x3d373dc6	0.044736646
119	0xbcc3b9ff	-0.0238924
120	0xbda5241c	-0.08063528
121	0xbd4fb248	-0.05070713
122	0x3c9d034a	0.019166607
123	0x3d3a3374	0.045459226
124	0xbd3a709c	-0.04551755
125	0x3d6ebe9b	0.058287244
126	0x3ba04e46	0.0048921434
127	0xbbe5af10	-0.0070093945
128	0xbb752d31	-0.003741097
129	0xbd1101fe	-0.03540229
130	0x3d6af2ec	0.057360575
131	0xbc812424	-0.015764304
132	0x3cfa1703	0.030528551
133	0xbdba0dd8	-0.09084672
134	0xbd7ab669	-0.061209116
135	0x3ba70156	0.005096595
136	0x3d8846fc	0.06654164
137	0x3d228126	0.039673947
138	0x3cbfd453	0.023416674
139	0xbda89e03	-0.08233263
140	0x3acd5756	0.0015666287
141	0xbd615090	-0.05500847
142	0xbd91ba3c	-0.071155995
143	0x3c3ab34b	0.011395286
144	0xbd566315	-0.052340586
145	0x3d9a389f	0.07530331
146	0xbd378c93	-0.044811796
147	0x3d01245e	0.031528823
148	0x3d4254ea	0.04744426
149	0xbd846195	-0.06463925
150	0x3d298f89	0.04139665
151	0xbb8dc815	-0.00432683
152	0x3d3261c6	0.043550275
153	0x3de190c9	0.11013944
154	0x3d29f57e	0.041493885
155	0x3c732838	0.014841132
156	0x3d7308c9	0.05933455
157	0xbc619be4	-0.013770077
158	0xbdbca32f	-0.09210812
159	0x3d49a704	0.049231544
160	0xbd29db32	-0.041468807
161	0xbd710584	-0.05884315
162	0x3e0a69c8	0.13516915
163	0x3de3359a	0.11094208
164	0x3cd4f11f	0.025993882
165	0x3d86222d	0.06549487
166	0xbcab5cb3	-0.020918226
167	0xbae06f0a	-0.0017122936
168	0x3ca702c5	0.020387063
169	0xbd672780	-0.056434155
170	0xbd9d3676	-0.07676403
171	0x3bc18e56	0.0059068603
172	0x3ca6d2d0	0.020364195
173	0xbd542db6	-0.051801406
174	0xbd662ec6	-0.05619695
175	0xbda54910	-0.08070576
176	0x3cb063cb	0.02153196
177	0xbd5c3d03	-0.053769123
178	0x3bd01980	0.006350696
179	0xbc98af1b	-0.018638184
180	0xbd48f3d4	-0.049060658
181	0xbcabce07	-0.020972265
182	0xbd781b4d	-0.06057291
183	0xbcb57a4d	-0.022153044
184	0x3c9f57e1	0.019451084
185	0xbd491726	-0.04909434
186	0xbda618ea	-0.08110221
187	0x3d5eff72	0.05444283
188	0x3945212c	0.00018799742
189	0xbcbd728e	-0.023125913
190	0x3c0a0058	0.0084229335
191	0x3d99fd8c	0.07519063
192	0xbd7d3e63	-0.061827075
193	0xbd15d6ef	-0.03658193
194	0xbd5b76c5	-0.053580064
195	0xba4f0a73	-0.00078979804
196	0x3b2b4285	0.0026132178
197	0xbd797425	-0.06090178
198	0x3e3b7ed5	0.18310101
199	0x3d928028	0.0715335
200	0x3e5e7c9a	0.21727219
201	0xbd8cb843	-0.06871083
202	0xbcc95383	-0.024575954
203	0xba9423fe	-0.001130223
204	0xbdc44ce2	-0.09584977
205	0x3c863286	0.016381513
206	0xbdf164d0	-0.117868066
207	0x3c3ce0dc	0.01152822
208	0xbd2ef91a	-0.04271803
209	0x3d2a4597	0.041570272
210	0x3d67e590	0.056615412
211	0x3d6a8067	0.05725136
212	0xbc12849a	-0.0089427475
213	0xbc6aba2d	-0.014326614
214	0x3dcaee0c	0.09908685
215	0x3cd31643	0.025767451
216	0x3d66f033	0.056381416
217	0xbd314b63	-0.043284785
218	0xbd1e6918	-0.038674444
219	0xbd8dad14	-0.06917778
220	0x3d9d08eb	0.076677166
221	0x3c627cc0	0.013823688
222	0xbd752458	-0.059849113
223	0x3bea88ab	0.0071574054
224	0xbd12664e	-0.035742097
225	0x3dd064de	0.10175489
226	0x3e003a40	0.1252222
227	0x3d6a486d	0.057197977
228	0x3d90ad5f	0.07064318
229	0x3ab4a1e6	0.001378116
230	0x3d8e4d5b	0.06948348
231	0xbde94cbe	-0.113915905
232	0xbca094b4	-0.019602157
233	0x3d3d1e6b	0.046171587
234	0x3e4b9057	0.1987928
235	0x3e0e2af3	0.13883571
236	0x3e28deb7	0.16491209
237	0x3e22b5da	0.15889683
238	0x3da47bb5	0.08031408
239	0x3dafe115	0.08587853
240	0xbd23b3b1	-0.03996629
241	0x3d07d313	0.03316028
242	0x3ce013ae	0.027353134
243	0xbdc4d3a0	-0.09610677
244	0xbd033aa0	-0.03203833
245	0xbdc0fbf8	-0.09423059
246	0x3d31e635	0.043432433
247	0xbd661c21	-0.05617917
248	0x3d32c874	0.0436482
249	0xbd05b9f4	-0.03264804
250	0x3ccdd13e	0.025124189
251	0x3c7357e1	0.014852495
252	0x3cd64bec	0.02615925
253	0x3de4ced9	0.111722656
254	0x3dd1eb78	0.1024999
255	0xbd5c0231	-0.053713027

conv2d_2.0.bias f4 [32]
0	0xbd1c4969	-0.038155947
1	0x3b977c5e	0.00462298
2	0x3d66a282	0.056307323
3	0x3b801ff6	0.00391006
4	0xbd873f35	-0.06603853
5	0x3cc4e827	0.02403648
6	0xbdaa9626	-0.0832942
7	0xbd1c522d	-0.038164306
8	0xbc71f815	-0.01476862
9	0x3d2b3975	0.041802842
10	0xbcd006cb	-0.025393864
11	0xbd97bc7f	-0.07409
12	0x3d08b134	0.03337212
13	0x3d79e278	0.061006993
14	0xbd851da6	-0.064997956
15	0x3ca3a086	0.019974004
16	0x3d017a25	0.031610627
17	0x3d335509	0.043782268
18	0xbc93fc00	-0.018064499
19	0x3c89961e	0.016795214
20	0x3cbc153f	0.02295935
21	0x3d0812b6	0.03322097
22	0xbcda5211	-0.02665046
23	0x3d8fff2a	0.070310906
24	0xbd975a35	-0.073902525
25	0x3cba65ff	0.022753714
26	0x3d52964f	0.051412877
27	0xbd9e2a2f	-0.0772289
28	0xbd886a9d	-0.0666096
29	0xbd92a35c	-0.071600646
30	0x3d744ce1	0.05964363
31	0x3db68ebb	0.089139424

conv2d_2.2.weight f4 [32, 32, 3, 3]
0	0xbb2f7fea	-0.0026779124
1	0xbcbc2609	-0.022967355
2	0x3cbec36a	0.02328654
3	0xbd2b5946	-0.041833185
4	0x3c928fb1	0.017890783
5	0xbc475f84	-0.012168769
6	0xbd19952d	-0.03749578
7	0xbd2b0054	-0.04174836
8	0xbbd161f0	-0.006389849
9	0x3d7e8b90	0.062144816
10	0x3d133ca5	0.035946507
11	0x3d82156c	0.06351742
12	0xbd2cf3d6	-0.042224728
13	0xbd0848c4	-0.03327252
14	0x3d4fab3a	0.050700404
15	0x3cbbb415	0.022913018
16	0x3cd62470	0.026140422
17	0xbda25d0f	-0.07927906
18	0xbd6a8b7e	-0.057261936
19	0xbe0d0c7a	-0.1377429
20	0xbd910657	-0.07081287
21	0xbd855cff	-0.06511878
22	0xbcf3727c	-0.029717676
23	0xbd547f58	-0.051879257
24	0xbe04b3bc	-0.12959188
25	0xbe12fe1a	-0.14354745
26	0xbdceb4bc	-0.10093066
27	0x3d74ad55	0.059735615
28	0x3d2b90c3	0.041886102
29	0x3d489a5a	0.048975326
30	0xbcd596e7	-0.026072932
31	0xbcf3ab6d	-0.029744828
32	0x3da4d0ba	0.08047624
33	0x3cd77e2c	0.02630528
34	0xbd1cbb6c	-0.038264677
35	0xbb90452a	-0.0044027762
36	0x3d2de16d	0.04245131
37	0x3d5943aa	0.053043045
38	0xbd4234b1	-0.04741353
39	0xbcef3f8b	-0.029205104
40	0x3cbb95ab	0.022898516
41	0x3d38689b	0.045021635
42	0x3c27f648	0.010251589
43	0xbb6e53a6	-0.0036365776
44	0x3b1595d7	0.0022824907
45	0x3d6a1085	0.05714466
46	0xbd4e5b3f	-0.050379988
47	0x3cbaf3bb	0.022821298
48	0xbd44f237	-0.048082557
49	0xbc62d31c	-0.013844278
50	0xbd967a04	-0.073474914
51	0xbd0dae9b	-0.034590345
52	0xbdc5cb15	-0.096578754
53	0xbd7f6a84	-0.06235744
54	0xbd175eb0	-0.036955535
55	0x3bb0d3f9	0.005396363
56	0xbce2bc7e	-0.02767777
57	0xbcf6debf	-0.03013551
58	0xbcd13143	-0.025536185
59	0x3d15c14c	0.036561295
60	0x3c06eb57	0.00823482
61	0xbc78aaf0	-0.015177473
62	0x3d4d9182	0.050187595
63	0x3ccf4976	0.025303584
64	0xbc04279d	-0.008066085
65	0x3c5baa16	0.013407251
66	0xbcbc7859	-0.023006605
67	0xbce32add	-0.0277304
68	0xbc869d29	-0.016432362
69	0x3c905e81	0.017623188
70	0xbd673eb8	-0.056456298
71	0xbd226c8c	-0.0396543
72	0x3e0c63b9	0.13709916
73	0x3da8e2dc	0.08246395
74	0x3dbb542c	0.09146914
75	0x3d9a9b64	0.0754917
76	0x3d00e4a0	0.031468034
77	0x3deb1dcb	0.11480292
78	0x3963e696	0.00021734307
79	0x3cf2c2ad	0.029633844
80	0xbcfd7b98	-0.030942723
81	0x3d423b22	0.047419675
82	0xbcc9d2f1	-0.024636718
83	0x3d58f4c8	0.052967817
84	0x3bf6fc67	0.007537413
85	0xbc0bd869	-0.008535483
86	0xbc01fd8d	-0.007933986
87	0x398a5178	0.0002638211
88	0x3cfe8720	0.031070292
89	0xbc24303e	-0.010021267
90	0x3d421ebc	0.04739259
91	0xbd1878cd	-0.03722458
92	0xb907724a	-0.00012917179
93	0xbd8480ec	-0.064699024
94	0xbd93bfc7	-0.07214313
95	0xbc8f091c	-0.017460398
96	0xbd276a54	-0.040872887
97	0xbc0eeb37	-0.008723072
98	0xbd3ad94a	-0.04561738
99	0xbd232beb	-0.039836805
100	0xbc968a32	-0.018376444
101	0xbd3a4c59	-0.045482967
102	0x3ba13003	0.0049190535
103	0xbd7ea4bc	-0.06216882
104	0x3cdb9acc	0.026807211
105	0xbc4ca8fe	-0.012491463
106	0xbd8f41d2	-0.06994976
107	0xbd55ed35	-0.05222817
108	0xbd373c22	-0.04473508
109	0x3d414568	0.04718533
110	0xbcafcd63	-0.02146024
111	0x3ba17328	0.004927058
112	0x3c9ebd6c	0.019377433
113	0x3d353e55	0.044248898
114	0xbd42c647	-0.047552373
115	0xbb330cb0	-0.0027320795
116	0xbaefd7ae	-0.001829853
117	0xbc49b0c8	-0.012310214
118	0x3c8b921b	0.017037442
119	0xbd64e03e	-0.055877917
120	0xbd83b836	-0.0643162
121	0xbd73e645	-0.059545774
122	0xbd45256e	-0.0481314
123	0x3c071ad2	0.008246141
124	0x3bf87a48	0.0075829364
125	0xbd8406a3	-0.06446578
126	0x3cfd4e4e	0.030921128
127	0x3c67a55d	0.014138547
128	0x3d487305	0.048937816
129	0x3d00d281	0.031450752
130	0xbc51d8a4	-0.012807999
131	0xbc08e602	-0.008355619
132	0xbd209db3	-0.039212894
133	0x3c55055f	0.013001769
134	0x3d3cdff2	0.04611201
135	0x3c87674e	0.016528752
136	0x3d1733e5	0.036914725
137	0x3c66b0ff	0.014080285
138	0xbcc61dcd	-0.024184132
139	0xbd3280a4	-0.043579713
140	0xbdac12cd	-0.084020235
141	0xbd37370b	-0.044730227
142	0x3c924038	0.017852888
143	0x3c870463	0.016481584
144	0xbc0315e4	-0.008000825
145	0x3d6f6e22	0.05845464
146	0x3d7351d9	0.059404228
147	0xbd7e7741	-0.06212545
148	0xbd929ad3	-0.071584366
149	0xbd2fc2ff	-0.042910572
150	0xbd1c4c0e	-0.03815847
151	0xbc2fb4df	-0.010724275
152	0xbbf49a7b	-0.0074647046
153	0x3d2d4fed	0.04231255
154	0xbcd14b9b	-0.025548747
155	0x3d2a5ac2	0.04159046
156	0x3b8ad95e	0.004237338
157	0xbd562d90	-0.052289546
158	0xbd639704	-0.05556394
159	0x3c805667	0.0156662
160	0x3d4721a8	0.04861608
161	0xbd3f9827	-0.046775963
162	0x3d762186	0.060090564
163	0xbb65d5be	-0.0035070027
164	0x3db18019	0.08667011
165	0x3d587f39	0.052855704
166	0x3cb59b80	0.022168875
167	0x3d8bfcb4	0.06835309
168	0x3c93f37b	0.018060436
169	0x3d12e818	0.035865873
170	0x3b679e0b	0.0035342004
171	0xbbd10cee	-0.006379715
172	0x3c9cbf6a	0.019134242
173	0x3c477e2f	0.012176081
174	0xbd773805	-0.06035616
175	0xbd1328fc	-0.035927758
176	0x3cc16a83	0.023610359
177	0xbd75d1f1	-0.06001467
178	0x3c491b7f	0.012274622
179	0xbd34ff34	-0.044188693
180	0x3d762186	0.060090564
181	0xbd04fed2	-0.032469578
182	0x3d32e204	0.043672577
183	0xbcce019c	-0.025147252
184	0x3d2a8869	0.041633997
185	0x3d0255be	0.03182005
186	0x3c24d2e3	0.010060045
187	0x3b158479	0.0022814556
188	0x3c9cd99d	0.019146735
189	0xbd0ae16a	-0.033906378
190	0xbd01a74d	-0.03165369
191	0x3b0e17ad	0.0021681592
192	0xbdc0e9aa	-0.09419568
193	0xbd5194e8	-0.0511674
194	0xbcfbfeb1	-0.030761095
195	0xbde6903a	-0.11257978
196	0xbd842dc3	-0.06454041
197	0xbd719b6f	-0.058986124
198	0xbcee33cb	-0.029077431
199	0x3d74bad0	0.05974847
200	0x3c817d84	0.01580692
201	0xbd752155	-0.05984624
202	0xbcd72f74	-0.026267745
203	0x3b98da5d	0.004664703
204	0x3cce67bd	0.02519595
205	0xbd1ab009	-0.037765536
206	0x3d0264ae	0.031834297
207	0xbd387106	-0.045029663
208	0xbd8eb7c6	-0.06968646
209	0xbd1d7d33	-0.038449477
210	0xbdc35407	-0.09537511
211	0xbd1cf17c	-0.038316235
212	0xbc9af456	-0.018915337
213	0xbdb7ba5c	-0.08971092
214	0xbdaa8f17	-0.083280735
215	0xbc019c18	-0.007910751
216	0x3d9a8d5c	0.075464934
217	0x3e0e3cc8	0.13890374
218	0x3e01d88b	0.12680261
219	0x3bc51757	0.006014745
220	0x3da38217	0.07983797
221	0xbc992431	-0.018694015
222	0xbba9cea3	-0.0051821037
223	0xbd44fa19	-0.048090074
224	0xbcd18a25	-0.025578568
225	0x3d99a674	0.075024515
226	0x3ca87f50	0.02056852
227	0xbc8328e2	-0.016010705
228	0x3ccb8171	0.024841996
229	0xbc7e0814	-0.015504856
230	0x3d4baaf1	0.04972357
231	0xbd2dcfa2	-0.042434342
232	0xbc457621	-0.01205209
233	0xbd44b5d3	-0.048024964
234	0xbd167987	-0.03673699
235	0xbca60672	-0.020266745
236	0xbd2832d8	-0.041064113
237	0xbda0b8b8	-0.07847732
238	0xbd5e0327	-0.054202225
239	0xbd9713b2	-0.073768035
240	0xbd9f7c58	-0.077873886
241	0xbd2d91c3	-0.042375337
242	0xbdb663b8	-0.089057386
243	0x3d3a7845	0.045524854
244	0x3d64dde4	0.055875674
245	0x3d99a52e	0.07502209
246	0x3c8c5ed7	0.017135067
247	0xbb6ee44a	-0.003645199
248	0xbc437c77	-0.01193153
249	0xbcf85f82	-0.03031898
250	0x3d300e7e	0.04298257
251	0x3cc0a918	0.02351813
252	0x3e1d181a	0.15341225
253	0x3dd09631	0.10184897
254	0x3d991ea8	0.0747655
255	0x3d825646	0.063641116

conv2d_2.2.bias f4 [32]
0	0xbbd21c0e	-0.006412036
1	0xbb593c93	-0.0033147677
2	0x3d493946	0.049126886
3	0x3b424aac	0.0029646559
4	0x3ca683c3	0.0203265
5	0x3c072d01	0.008250476
6	0xbc84c380	-0.016206503
7	0x3d8eed61	0.0697887
8	0xbb707cf2	-0.0036695567
9	0x3ccd0111	0.025024923
10	0xbc6a6bd1	-0.014307932
11	0x3cc4492c	0.023960672
12	0x3a86f30e	0.0010295825
13	0x3ca7dea6	0.02049191
14	0x3cee7fd5	0.02911369
15	0x3ce48e6e	0.027899947
16	0xbd069a09	-0.032861743
17	0x3cd0fb24	0.025510378
18	0xbdb4664d	-0.08808575
19	0xbc3a1cfc	-0.0113594495
20	0xbc3850a0	-0.011249691
21	0xbd0810a1	-0.033218984
22	0xbd69c043	-0.05706812
23	0xbd014ea7	-0.03156915
24	0x3baae757	0.005215566
25	0x3b0d39d1	0.0021549354
26	0xbd4e98dc	-0.050438747
27	0xbc8a0691	-0.016848834
28	0x3c0db261	0.008648486
29	0xbbdb6e30	-0.006696485
30	0x3d057996	0.032586657
31	0xbd7404af	-0.05957478

conv2d_3.0.weight f4 [64, 32, 3, 3]
0	0x3d4850d8	0.048905224
1	0x3ca20336	0.019776922
2	0xbd2ef4da	-0.042713977
3	0xbd8d00da	-0.06884928
4	0x3c0e8fa2	0.008701237
5	0xbd04f6ee	-0.032462053
6	0x3cda36ac	0.026637398
7	0x3d07db17	0.033167925
8	0xbd22efc6	-0.039779447
9	0x3be2f35f	0.0069259848
10	0xbc4dc45d	-0.012559024
11	0xbd5952f1	-0.053057615
12	0x3cb5caa8	0.02219136
13	0x3cc93245	0.024560103
14	0xbd38a2ac	-0.04507701
15	0x3d6304ff	0.055424687
16	0x3cfd21ae	0.030899849
17	0x3d0936d5	0.033499558
18	0xbcba905f	-0.02277392
19	0xbc796215	-0.0152211385
20	0x3d79ce0f	0.06098753
21	0x3d74f4c0	0.059803724
22	0xbcb52742	-0.022113446
23	0x3dad27c6	0.08454852
24	0x3ce6a6fd	0.028155798
25	0xbb3607a7	-0.0027775557
26	0xbc0d4b5b	-0.008623923
27	0xbd83a9b8	-0.06428856
28	0xbcc006a0	-0.023440659
29	0xbdc235c8	-0.09482914
30	0x3d4c0a2e	0.049814396
31	0x3d93de05	0.07220081
32	0x3d83f852	0.06443848
33	0x3c833350	0.016015679
34	0xbd065222	-0.03279317
35	0xbcfd89bb	-0.030949464
36	0x3d8acd9d	0.06777499
37	0x3b16d94d	0.0023017705
38	0x3cd32e66	0.02577896
39	0x3d9f78d2	0.077867165
40	0xbd658a23	-0.05603994
41	0xbadad309	-0.0016694973
42	0xbbc306ac	-0.005951723
43	0x3ce33f7d	0.027740235
44	0x3cff2c58	0.031149074
45	0x3c74d35e	0.014942972
46	0x3dcc9c0d	0.09990702
47	0x3d80d887	0.06291299
48	0xbda1f0f1	-0.07907284
49	0x3c51d3c4	0.0128068365
50	0xbd53a30c	-0.051669165
51	0x3d88a6f9	0.066724725
52	0x3d853f4b	0.06506213
53	0x3c98fc7f	0.018675087
54	0xbd159136	-0.036515437
55	0xbdd20d1e	-0.10256408
56	0xbdfc83ae	-0.123298034
57	0x3d9b1c56	0.07573764
58	0x3d7e2602	0.062047966
59	0xbb93a4c4	-0.0045057256
60	0xbd23a341	-0.039950613
61	0x3d64fa10	0.05590254
62	0x3cad76b0	0.021174759
63	0xbba63102	-0.00507176
64	0xbc80da62	-0.015729133
65	0x3aeb1c28	0.0017937468
66	0xbcd95355	-0.026528994
67	0x3c6a783e	0.0143108945
68	0x3c687429	0.014187851
69	0xbd64e67c	-0.05588387
70	0x3d0b14e2	0.033955462
71	0x3caf03e1	0.021364154
72	0xbd2ab9c9	-0.041681085
73	0x3d744cd4	0.05964358
74	0xbcc0bd98	-0.023527905
75	0x3cf87628	0.030329779
76	0x3d696032	0.056976505
77	0x3d0daaef	0.034586843
78	0x3d163a3d	0.036676634
79	0x3c310253	0.010803777
80	0x3c0a56d9	0.008443558
81	0xbdb569fe	-0.08858107
82	0xbda671f2	-0.08127202
83	0x3baa111c	0.005190028
84	0xbcc6ab4e	-0.024251606
85	0x3d5eb1ce	0.054368787
86	0xbc4673e8	-0.012112595
87	0x3d6ee89e	0.05832731
88	0x3d4d21d4	0.05008109
89	0xbbf390f0	-0.0074330494
90	0x3d13910b	0.036026996
91	0x3bd31dae	0.006442747
92	0x3dce8b3d	0.10085151
93	0xbdb132b6	-0.086522505
94	0xbcf5a1b3	-0.02998433
95	0xbbede7b4	-0.007260287
96	0xbd066d02	-0.0328188
97	0xbd120390	-0.03564793
98	0xbccd9da4	-0.025099583
99	0xbd31cc43	-0.04340769
100	0x3bc9d590	0.006159492
101	0xbd294a28	-0.041330487
102	0x3cd6e71d	0.02623325
103	0x3db99c6b	0.090630375
104	0x3dbefab6	0.09325163
105	0xbb706ecb	-0.0036687132
106	0x3ca4697e	0.020069834
107	0xbdb36df5	-0.08761207
108	0xbdf414c8	-0.11918026
109	0xbd65d676	-0.05611273
110	0xbde8d007	-0.11367803
111	0xbbc6d1ab	-0.006067475
112	0x3d3ce88d	0.046120215
113	0x3d801c6c	0.06255421
114	0xbd2b7d49	-0.041867528
115	0xbda8f691	-0.08250154
116	0xbd62521d	-0.05525409
117	0xbcaa7e31	-0.020812126
118	0xbd9466cd	-0.0724617
119	0xbe060cc2	-0.13090804
120	0xbbddc0e6	-0.00676738
121	0x3c842109	0.016129034
122	0x3c50c0da	0.012741292
123	0xbd7e70be	-0.062119238
124	0xbd3f2c49	-0.046673093
125	0x3d759d85	0.059964675
126	0xbb88094c	-0.004151499
127	0x3bc4cd95	0.0060059526
128	0x3d405d1e	0.046963803
129	0xbdba8135	-0.091066755
130	0xbd819114	-0.063264996
131	0xbcd6a6f6	-0.02620266
132	0x3cfc453f	0.030794738
133	0x3b0368b0	0.0020051412
134	0xbc371793	-0.011175054
135	0xbc117152	-0.008877115
136	0x3d12f2f5	0.035876233
137	0xbc72af16	-0.014812252
138	0x3d0c7de4	0.034299746
139	0x3c983122	0.018578116
140	0x3d6eefcb	0.058334153
141	0x3d86ebc3	0.06587937
142	0xbd209ec7	-0.039213922
143	0x3b0daaaa	0.0021616616
144	0xbb0f8a62	-0.002190255
145	0xbce05c43	-0.027387744
146	0xbd2468fe	-0.04013919
147	0xbd241007	-0.040054347
148	0xbd7af383	-0.061267387
149	0x3cf293e2	0.029611532
150	0xbd87255c	-0.065989226
151	0x3b9dbdaa	0.0048138695
152	0x3c84b761	0.016200723
153	0x3bc3b7e2	0.0059728483
154	0x3d8f8c17	0.07009142
155	0x3d45debf	0.04830813
156	0xbd6c9410	-0.05775839
157	0x3c949c24	0.01814086
158	0xbb2019ee	-0.0024429518
159	0x3d33e013	0.043914866
160	0xbd51f9aa	-0.05126349
161	0x3d17f8c2	0.03710247
162	0x3cca8c68	0.024725154
163	0x3d35f28a	0.044420756
164	0xbc8edb5c	-0.017438583
165	0x3d35547c	0.044270024
166	0x3a155a87	0.00056973886
167	0x3d60d0f1	0.054886762
168	0x3c35ccb9	0.011096173
169	0x3d2f6f23	0.042830598
170	0xbcfd7731	-0.030940624
171	0xbcc7ae2a	-0.02437504
172	0x3d421b3e	0.04738926
173	0x3d49211d	0.049103845
174	0xbc3c95b1	-0.011510299
175	0xbca079ff	-0.019589422
176	0x3cb31bad	0.021863783
177	0xbd629c91	-0.055325095
178	0x3ba7bb27	0.005118746
179	0xbb9c7a01	-0.004775286
180	0xbd9873ec	-0.07443985
181	0xbda137ab	-0.07871946
182	0xbdcae8fe	-0.09907721
183	0x3d9eb746	0.077498004
184	0x3d0ae7c2	0.033912428
185	0x3d405cfb	0.046963673
186	0xbd853dec	-0.06505951
187	0xbd89b271	-0.06723488
188	0x3ca525dc	0.020159654
189	0x3d63898a	0.05555109
190	0x3d4236a4	0.04741539
191	0x3d5cb86c	0.053886816
192	0xbd137e21	-0.036008958
193	0xbd45447b	-0.04816101
194	0xbd249cd4	-0.040188625
195	0x3c3cd51b	0.011525418
196	0x3d04c7ed	0.032417227
197	0xbd39684f	-0.045265492
198	0xbcc0249b	-0.023454955
199	0xbbe41174	-0.0069600884
200	0xbb3ede75	-0.0029124294
201	0x3cdb96eb	0.026805362
202	0x3c76b697	0.015058181
203	0xbc89882e	-0.016788568
204	0x3d0fe260	0.035127997
205	0xbd471a54	-0.048609093
206	0xbc00a6cc	-0.0078522675
207	0xbd3f7492	-0.04674203
208	0xbd42e080	-0.04757738
209	0x3cfe6520	0.03105408
210	0x3c9afd25	0.018919537
211	0xbc3d852d	-0.011567396
212	0xbce72db9	-0.028220044
213	0x3d2dfe36	0.042478763
214	0x3b9b5eb0	0.0047415122
215	0x3d45088d	0.048103858
216	0xbc82765e	-0.015925582
217	0x3d9ec979	0.077532716
218	0x3cb3851a	0.021914054
219	0xbcd39bf9	-0.02583121
220	0xba907b6e	-0.0011023113
221	0xbd0f2bb6	-0.034953795
222	0x3bca84f0	0.006180398
223	0x3b7fa05e	0.0039005498
224	0xbd0dfc79	-0.034664605
225	0x3d0e713e	0.034775965
226	0x3d7629a8	0.06009832
227	0x3cd8b0ec	0.02645155
228	0xbd02c413	-0.031925272
229	0xbd8882a2	-0.06665541
230	0xbd894ff6	-0.067047045
231	0xbd54ec01	-0.051982883
232	0x3c65f3b4	0.014035154
233	0x3b26ee0f	0.0025471484
234	0xbcb48a44	-0.022038586
235	0x3a7d0557	0.000965198
236	0xbc181280	-0.0092817545
237	0x3a5f2180	0.0008511767
238	0xbd70046a	-0.05859796
239	0x3d4bf891	0.0497976
240	0xbca969ff	-0.020680426
241	0xbd4fe958	-0.050759643
242	0xba8bbb5b	-0.0010660695
243	0x3d066eee	0.032820635
244	0x3d5cec75	0.05393644
245	0xbbec47d9	-0.0072107133
246	0xbc35fe04	-0.011107925
247	0xbd0d3c60	-0.034481406
248	0xbd1218f5	-0.035668332
249	0xbcb86ab1	-0.022511812
250	0xbd0980ad	-0.03356998
251	0x3d38ac41	0.04508615
252	0xbd59b5db	-0.053151947
253	0xbc486bd8	-0.012232743
254	0xbcc822d2	-0.024430666
255	0x3d02e1c9	0.031953607

conv2d_3.0.bias f4 [64]
0	0xbc463b4e	-0.0120991
1	0xbcf2e9f7	-0.029652579
2	0x3c81f547	0.015864028
3	0x3dea17e3	0.11430337
4	0x3bcc7da8	0.0062405653
5	0x3d3eed40	0.046612978
6	0xbd47aa6e	-0.04874652
7	0xbd38f3c1	-0.045154337
8	0xbd1c7a64	-0.03820266
9	0xbc6a650a	-0.014306316
10	0x3da8d0d4	0.08242956
11	0xbcc2108d	-0.023689533
12	0x3da59842	0.080856815
13	0x3d8a602a	0.06756623
14	0xbcfe429f	-0.031037627
15	0xbc962609	-0.018328683
16	0x3bd7b84c	0.006583249
17	0xbd59ec10	-0.053203642
18	0x3d80f12e	0.062960014
19	0xbd2145d8	-0.03937325
20	0xbcaefdb9	-0.021361219
21	0xbd46fc84	-0.04858066
22	0xbd954a99	-0.07289619
23	0x3dc03aa1	0.093861826
24	0xbc2e1ebf	-0.010627448
25	0xbd1401ea	-0.036134638
26	0x3d211159	0.039323185
27	0xbd7b4d4a	-0.061353005
28	0x3d05b07e	0.03263902
29	0xbd454a6f	-0.04816669
30	0xbd5e7899	-0.05431423
31	0xbd7cfce0	-0.061764598
32	0x3da4bdee	0.08044039
33	0xbd050472	-0.032474943
34	0xbcd18521	-0.025576176
35	0xbd1b971e	-0.037985913
36	0x3d6e96e7	0.05824938
37	0x3df089eb	0.11745056
38	0x3cf0d75d	0.029399568
39	0xbd8bf7a0	-0.0683434
40	0xbd4fcb45	-0.050730962
41	0xbd552285	-0.052034874
42	0x3dae9264	0.085240155
43	0x3b9e5051	0.004831352
44	0x3d9f6b29	0.07784111
45	0xbd823007	-0.06356817
46	0x3da7d43e	0.08194779
47	0xbdb3307f	-0.08749484
48	0xbda63a30	-0.08116567
49	0xbd2d7947	-0.042351987
50	0x3d957aae	0.0729879
51	0xbd8d074c	-0.068861574
52	0xbd58141d	-0.052753557
53	0xbc45710b	-0.012050877
54	0x3d1b0b78	0.037852734
55	0xbd872175	-0.06598178
56	0x3d294829	0.041328583
57	0xbd8e6d08	-0.0695439
58	0xbb8ecb64	-0.004357742
59	0x3d159384	0.036517635
60	0xbd09dc7f	-0.033657547
61	0x3da48ee9	0.080350704
62	0x3d8bca13	0.06825652
63	0x3cfd9a9e	0.030957516

conv2d_3.2.weight f4 [64, 64, 3, 3]
0	0xbbc02328	-0.005863566
1	0x3bd62163	0.0065347417
2	0xbc8ce718	-0.017200038
3	0xbcff197e	-0.031140085
4	0xbc15e06a	-0.009147743
5	0xbd2c0b0a	-0.042002715
6	0xbd4e8736	-0.050421916
7	0xbd326cb1	-0.043560687
8	0x3c5caaae	0.013468428
9	0xbd3409f8	-0.04395482
10	0xbd03d760	-0.03218782
11	0xbc38f51d	-0.011288908
12	0x3c27e978	0.010248534
13	0xbc3f3e76	-0.011672607
14	0xbd147add	-0.036249984
15	0x3c77f67b	0.015134449
16	0x3d569416	0.05238732
17	0x3c9a2e70	0.018820971
18	0xbc1ae305	-0.00945354
19	0x3c93799f	0.01800233
20	0xbbd84472	-0.006599956
21	0xbb86465f	-0.0040977444
22	0xbc9c5466	-0.019083213
23	0xbd3ac5af	-0.045598682
24	0x3cde0b2d	0.027104938
25	0x3c101ae3	0.008795473
26	0x3c05254a	0.008126566
27	0x3bcbd186	0.0062200455
28	0xbc399b03	-0.011328462
29	0xbc99a503	-0.018755442
30	0xbcb13e54	-0.021636166
31	0xbc148500	-0.009064913
32	0xbd23f8b7	-0.040032115
33	0xbc98a20e	-0.018631961
34	0xbcba16fb	-0.022716036
35	0xba1053ca	-0.00055056496
36	0xbc961d43	-0.0183245
37	0x3b2b8a57	0.0026174986
38	0xbd1d478a	-0.038398303
39	0xbcfbe044	-0.030746587
40	0xbcc14afc	-0.023595326
41	0x3c3f67b1	0.011682437
42	0xbd1c8908	-0.03821662
43	0x3c12e416	0.008965513
44	0xbc37ef02	-0.0112264175
45	0x3cbb9f00	0.022902966
46	0xbd4fea5e	-0.05076062
47	0x3c389d75	0.011268009
48	0xbcd60981	-0.026127579
49	0xbd17deeb	-0.037077826
50	0xbd22ae07	-0.039716747
51	0xbd3ae094	-0.04562433
52	0xbd14ec3f	-0.036358114
53	0xbd8d9e8a	-0.069150046
54	0xbd2e2096	-0.042511545
55	0xbd133b2a	-0.035945095
56	0xbd00beea	-0.03143207
57	0xbccd1ba1	-0.025037589
58	0x3ba1120a	0.0049154805
59	0xbd6f2464	-0.058384314
60	0xbceabe4d	-0.028655196
61	0x3c0e1cf7	0.008673898
62	0xbc1d8cad	-0.009616059
63	0x3ca29e80	0.01985097
64	0x3da39773	0.07987871
65	0xbc2cff3e	-0.010558901
66	0xbd523873	-0.051323365
67	0x3b51259b	0.0031913284
68	0x3cfa9c64	0.030592151
69	0xbd655782	-0.055991657
70	0x3c52ce5e	0.012866585
71	0xbb3721a7	-0.0027943642
72	0xbcd7737e	-0.026300188
73	0x3c7590c9	0.014988133
74	0x3cbd1a39	0.023083793
75	0xbc09d4d6	-0.00841256
76	0xbd075dc2	-0.0330484
77	0xbb817ccf	-0.003951646
78	0xbd025afc	-0.03182505
79	0xbd817e66	-0.06322937
80	0xbbfa10bd	-0.00763139
81	0xbcba6e69	-0.022757726
82	0xbd59c9dc	-0.053171024
83	0xbd1087ca	-0.03528575
84	0x3cf6b6fc	0.03011655
85	0x3d0074af	0.03136128
86	0x3d3497e2	0.04409016
87	0x3c5c2c5c	0.0134383105
88	0xbd41d7fc	-0.04732512
89	0x38780a25	5.9137255e-05
90	0x39cceec5	0.0003908781
91	0xbd3e86be	-0.04651522
92	0x3c1a781f	0.009428053
93	0xbd699752	-0.057029076
94	0xbd41794e	-0.047234826
95	0xbd3720f3	-0.044709157
96	0xbd0561ec	-0.03256409
97	0x3b73662a	0.0037139752
98	0xbccb4e0d	-0.024817491
99	0xbae15888	-0.0017192522
100	0xbd6ce575	-0.057836015
101	0xbd47ae07	-0.04874995
102	0xbd75d92e	-0.06002157
103	0xbc12df00	-0.0089643
104	0xbd617f11	-0.05505282
105	0xbc0c251e	-0.008553771
106	0xbb0973f3	-0.0020973652
107	0xbb5ad6c0	-0.003339216
108	0xbd6be583	-0.057591926
109	0xbccfcaf3	-0.025365328
110	0xbc89531a	-0.016763259
111	0xbd0b62dd	-0.03402983
112	0x3bf6bc06	0.0075297384
113	0x3b889190	0.004167743
114	0xbb6d9026	-0.003624925
115	0x3d106a54	0.035257652
116	0x3d3e3016	0.046432577
117	0x3c863562	0.016382877
118	0xbd760142	-0.060059793
119	0xbc16e14f	-0.009208991
120	0xbd154831	-0.0364458
121	0xbd16e21d	-0.036836732
122	0x3cbf5d61	0.023359956
123	0xbcb54233	-0.022126293
124	0xbd7343fd	-0.05939101
125	0xbd2e8ee6	-0.042616747
126	0xbc45329b	-0.012035991
127	0xbd67247a	-0.05643127
128	0x3c46f0be	0.012142358
129	0xbc21a854	-0.009866793
130	0x3daf1aaf	0.08550011
131	0x3d7d9a0f	0.0619145
132	0x3ca2a270	0.019852847
133	0x3d120603	0.035650264
134	0xbcf9f018	-0.030509993
135	0x3c8c4ee1	0.017127456
136	0xbc812aca	-0.015767474
137	0xbbe22dd1	-0.0069024344
138	0xbd18ea6b	-0.037332933
139	0xbbb330bc	-0.005468456
140	0x3caed2c9	0.021340745
141	0x3d0594fa	0.03261278
142	0x3c509f27	0.012733257
143	0x3d09b517	0.033619966
144	0xbd05e66d	-0.032690454
145	0xbcf9d3aa	-0.030496437
146	0x3c48817e	0.012237905
147	0xbd171799	-0.03688774
148	0x3c224050	0.009903029
149	0xbca09ff1	-0.019607516
150	0xbd3e7018	-0.04649362
151	0xbdfdfd5c	-0.1240184
152	0xbdcf1209	-0.10110862
153	0x3cd04310	0.025422603
154	0xbcc26bad	-0.023732984
155	0x3b9fbef9	0.0048750606
156	0x3cec1387	0.028817905
157	0x3d5e09f5	0.054208715
158	0x3cdf1815	0.027233163
159	0xbc92ffa9	-0.017944174
160	0xbc599787	-0.013280756
161	0xbca99312	-0.020700011
162	0xbbeecd6f	-0.007287673
163	0xbc770abf	-0.015078246
164	0xbcb9cfce	-0.022682097
165	0xbd2ecdde	-0.0426768
166	0x3c82ce0c	0.015967391
167	0xbd495898	-0.049156755
168	0xbc91cab5	-0.017796854
169	0x3cbf6898	0.023365304
170	0xbc82528b	-0.0159085
171	0xbc87ff1a	-0.016601134
172	0xbbdec39f	-0.006798222
173	0xbd1fe7cd	-0.03903942
174	0x3d2b7d60	0.041867614
175	0x3d96d7fb	0.07365414
176	0x3d6bc706	0.05756285
177	0x3c8e5bb6	0.017377716
178	0x3dbbcba9	0.091697045
179	0x3d4c6570	0.049901426
180	0x3d05fab4	0.032709792
181	0x3bf29457	0.0074029374
182	0x3c069048	0.00821311
183	0x3cef36f0	0.029201
184	0xbc53dcbc	-0.012931045
185	0x3c900451	0.017580183
186	0xbd321676	-0.04347845
187	0x3c3a1c3f	0.011359273
188	0x3ce4493e	0.027866956
189	0xbca35be6	-0.019941282
190	0xbbe0314b	-0.0068418137
191	0x3be92e6b	0.007116129
192	0xbc941076	-0.018074255
193	0xbcf31706	-0.029674064
194	0xbcb330d3	-0.021873867
195	0xbd0f440b	-0.034977
196	0x3c4be2bb	0.0124441935
197	0xbc451c80	-0.012030721
198	0x3ce40f26	0.027839255
199	0xbc416701	-0.011804343
200	0x3d76dd51	0.060269658
201	0xbcbb2f16	-0.0228496
202	0xbd31f7b8	-0.043449134
203	0x3ca26d98	0.019827649
204	0xbbd04aa2	-0.006356553
205	0xbc8b18a5	-0.016979525
206	0x3ad34b38	0.0016120439
207	0xbd3f87c5	-0.04676034
208	0xbd00f6e3	-0.03148545
209	0xbb9b6062	-0.0047417143
210	0xbc77e0e0	-0.015129298
211	0xbc0d6088	-0.008628972
212	0xbaa973d9	-0.0012928202
213	0x3b6c046d	0.003601338
214	0xbc9529dd	-0.018208439
215	0xbd760b2d	-0.06006925
216	0x3a928d01	0.0011180938
217	0xbd48bfc7	-0.049011018
218	0xbc5bcfe9	-0.013416269
219	0xbcba950a	-0.022776145
220	0x3c894aff	0.016759394
221	0xbd237a8f	-0.039911803
222	0xbcf1e360	-0.029527366
223	0x3c43cbcf	0.011950447
224	0x3b999cf8	0.0046879016
225	0x3bf4518b	0.0074560097
226	0x3cb7dd98	0.022444531
227	0x3cde9a88	0.027173296
228	0x3d09abc0	0.03361106
229	0x3d18f0b0	0.037338912
230	0xba60d6ab	-0.000857691
231	0x3d23d796	0.04000052
232	0xbc191e00	-0.009345531
233	0x3cf2e79b	0.029651454
234	0x3bac0204	0.0052492637
235	0xbd335e71	-0.04379124
236	0xbd2fd289	-0.04292539
237	0xbd0aa8b9	-0.033852313
238	0xba9d0785	-0.001198039
239	0xbca21fbc	-0.019790523
240	0x3d236c59	0.03989825
241	0x3d20c55a	0.03925071
242	0x3d34145c	0.04396473
243	0xbc2d3bc0	-0.010573328
244	0x3cee786e	0.02911016
245	0xbc72fd96	-0.014830967
246	0xbbbf588b	-0.0058394126
247	0xbbbbec5c	-0.0057349633
248	0x3d164977	0.036691155
249	0xb9749000	-0.00023323298
250	0xbbeacd4b	-0.007165586
251	0xbc84ee43	-0.016226893
252	0x3c391ee4	0.011298869
253	0xbcae0e80	-0.021247149
254	0x3b99c95e	0.0046931943
255	0xbd0b8685	-0.034063835

conv2d_3.2.bias f4 [64]
0	0xbbd54507	-0.006508473
1	0x3da801af	0.08203446
2	0x3c2dc00e	0.010604871
3	0xbbdfbd08	-0.006827954
4	0x3ddf6d69	0.1090954
5	0xbd193e97	-0.037413206
6	0xbd0bdf28	-0.034148365
7	0x3bcbd4e6	0.006220448
8	0xbcaa128b	-0.020760795
9	0x3d740aba	0.059580542
10	0xbc8dc2df	-0.017304836
11	0xbc499082	-0.01230252
12	0x3ca8a74c	0.020587586
13	0xbc067e6b	-0.008208851
14	0xbbf26e01	-0.0073983674
15	0x3b69ad6c	0.0035656346
16	0xbd07896d	-0.033090044
17	0xba29191c	-0.000645058
18	0xbd00cfb5	-0.031448085
19	0xbd334142	-0.043763407
20	0xbb493b01	-0.0030705335
21	0x3c56e1b2	0.013115333
22	0x3de25311	0.11051
23	0x3c0e3579	0.008679741
24	0xbc0b5b5d	-0.008505669
25	0x3c43f3be	0.011959968
26	0x3bae134d	0.0053123594
27	0xbcd16400	-0.025560379
28	0xbae24754	-0.0017263689
29	0xbc88e06f	-0.01670858
30	0xbd0a354a	-0.033742227
31	0xbcc687e0	-0.024234712
32	0xbc83a81e	-0.016071375
33	0xbd67400f	-0.056457575
34	0x3cf1808c	0.029480241
35	0x3d61b315	0.055102427
36	0xbd2f21de	-0.042756908
37	0xbd0c680d	-0.034278918
38	0x3ba504c4	0.0050359685
39	0x3b361a45	0.0027786654
40	0xbd3f3191	-0.04667813
41	0xbd1038bc	-0.035210356
42	0x3d7bdd16	0.06149014
43	0x3d8302c8	0.06397015
44	0xbb15929c	-0.0022822982
45	0x3bc3daae	0.0059769964
46	0xbcf372ee	-0.029717889
47	0xbcdf92e4	-0.027291723
48	0xbc276958	-0.010217987
49	0x3a2c217b	0.0006566268
50	0xbc93a269	-0.01802178
51	0xbb0e0bf4	-0.0021674605
52	0xbd53bef5	-0.051695783
53	0x3a950a34	0.0011370839
54	0xbd629638	-0.05531904
55	0xbd0e3f8b	-0.034728568
56	0xbd2da43d	-0.042392958
57	0x3dc65a05	0.096851386
58	0xbc8c49ae	-0.017124977
59	0x3cc89973	0.024487233
60	0xbd59dcc9	-0.053189073
61	0xbd288b4e	-0.041148476
62	0xbcc34708	-0.023837581
63	0xbd3e7c59	-0.046505306
