models/model02_fluxsteps20_dropout.pth (torch, 622902 bytes, 16 tensors)

conv2d_1.0.weight f4 [16, 1, 3, 3]
0	0xbe764d0b	-0.24052827
1	0x3e0bc613	0.13649778
2	0x3e8c2ff2	0.2738033
3	0xbe93cd28	-0.2886746
4	0xbd9926f0	-0.0747813
5	0xbdf43adb	-0.11925288
6	0xbde751db	-0.112949096
7	0xbbf9de56	-0.0076253815
8	0xbbc26e56	-0.005933563
9	0xbea7f37b	-0.32802948
10	0xbe331630	-0.17488933
11	0xbee1a217	-0.44068977
12	0x3eb97c2b	0.36227545
13	0xbe6514e3	-0.22371249
14	0x3d50b65f	0.050955173
15	0x3eb54112	0.35401207
16	0x3db93e05	0.090450324
17	0x3e3f185f	0.1866164
18	0x3e969efc	0.2941817
19	0x3cba858a	0.022768755
20	0x3e98c3ad	0.2983679
21	0x3d1b7690	0.037954867
22	0xbd34138b	-0.04396395
23	0xbb994079	-0.004676875
24	0x3e317439	0.17329492
25	0xbd7f021f	-0.062257882
26	0x3d75249f	0.059849378
27	0x3e8591d5	0.26087824
28	0xbdfc3b4f	-0.12316
29	0x3eeeb78c	0.4662441
30	0xbe07a485	-0.13246353
31	0xbe267854	-0.16256839
32	0xbe208b18	-0.1567806
33	0x3dcda70a	0.10041626
34	0x3e7e2b43	0.2482119
35	0x3e2bb9eb	0.16770141
36	0x3d697ea0	0.057005525
37	0x3e998300	0.29982758
38	0xbe972e07	-0.29527304
39	0x3bab63bf	0.0052303965
40	0xbe90a119	-0.28247908
41	0x3e9f2479	0.31082514
42	0xbb0d2308	-0.0021535773
43	0xbd91c225	-0.07117108
44	0x3e3dedb2	0.18547705
45	0x3e8058ab	0.25067648
46	0xbe854278	-0.26027274
47	0x3d962bc0	0.073325634
48	0xbe9072be	-0.2821254
49	0x3d6f1b36	0.05837556
50	0xbe8a50a7	-0.27014658
51	0xbe8a333f	-0.26992223
52	0xbea2d3ef	-0.31802318
53	0xbda087e0	-0.07838416
54	0xbd856db4	-0.06515065
55	0xbf098ca3	-0.5373022
56	0xbf0cbcbd	-0.5497549
57	0xbefb6fa1	-0.49108604
58	0xbdd7d67d	-0.10538957
59	0xbed021d3	-0.40650806
60	0xbd871502	-0.06595804
61	0xbcb5d340	-0.022195458
62	0xbf031651	-0.5120593
63	0x3dfc3aa7	0.123158745
64	0x3e8c2bfa	0.273773
65	0xbde5b58b	-0.11216267
66	0x3e8331f9	0.25624064
67	0xbe1181dd	-0.14209695
68	0x3e9f208b	0.31079516
69	0x3ec215f2	0.37907368
70	0x3e988d1f	0.29795167
71	0x3b45f41a	0.003020531
72	0x3edbef8d	0.429562
73	0x3e96ac95	0.29428545
74	0xbc8a5ade	-0.016889032
75	0xbe7c1203	-0.24616246
76	0x3de97c84	0.114007026
77	0xbe75f261	-0.24018241
78	0xbe119a5d	-0.14219041
79	0x3dd1af09	0.102384634
80	0xbe012d67	-0.12614976
81	0x3ecb2a7a	0.39680845
82	0x3edff021	0.4373789
83	0x3e624001	0.22094728
84	0x3a78ba53	0.00094882137
85	0xbdb87416	-0.09006517
86	0xbe655795	-0.22396691
87	0x3e377b25	0.1791807
88	0xbd9ff4a8	-0.07810336
89	0xbc898973	-0.016789174
90	0x3d54c196	0.05194243
91	0xbe602148	-0.21887696
92	0xbe95c93c	-0.29255092
93	0xbde0ae36	-0.10970728
94	0xbe0a507b	-0.13507263
95	0xbdcb00d6	-0.09912269
96	0xbe168033	-0.14697342
97	0xbe5c991b	-0.2154278
98	0xbd210f0b	-0.039320987
99	0xbe9eec6a	-0.31039745
100	0xbea3b015	-0.31970277
101	0xbebe9cd8	-0.37229037
102	0xbe1c852f	-0.1528518
103	0xbea10e38	-0.3145616
104	0x3dd91e4c	0.10601482
105	0xbca924f8	-0.02064751
106	0x3dc4bc6c	0.09606251
107	0x3e898739	0.2686098
108	0xbeb41184	-0.35169613
109	0x3d88c831	0.066788085
110	0xbe80b686	-0.25139254
111	0x3ce50b80	0.027959585
112	0xbd3e6f8d	-0.046493102
113	0xbe94d179	-0.29066065
114	0xbd8ecc70	-0.06972587
115	0x3e6c3702	0.23067859
116	0xbd25db77	-0.0404925
117	0xbe20d1b3	-0.15704994
118	0xbeed88e2	-0.46393496
119	0xbf02f8c2	-0.51160824
120	0xbea7ef8b	-0.32799944
121	0x3d30abd2	0.04313261
122	0xbe3e696b	-0.18594901
123	0xbf027273	-0.50955886
124	0xbf11cf65	-0.56957084
125	0xbf00672b	-0.5015742
126	0x3eced415	0.4039618
127	0x3e38269a	0.17983475
128	0x3e7e4c91	0.24833895
129	0x3ec3d5ae	0.38248962
130	0xbd72143c	-0.05910133
131	0xbe0f53d4	-0.13996822
132	0xbe217a42	-0.15769294
133	0xbe22d35e	-0.15900943
134	0x3ebfb606	0.3744356
135	0xbd92b5d6	-0.07163589
136	0x3c203456	0.009778103
137	0xbe3918bb	-0.1807584
138	0xbd1b3380	-0.03789091
139	0xbea271a7	-0.31727335
140	0x3e455bb3	0.19273262
141	0xbba0bc00	-0.004905224
142	0xbe0271c0	-0.12738705
143	0x3e6a06ee	0.22854206

conv2d_1.0.bias f4 [16]
0	0xbe6f8706	-0.23391351
1	0x3dd878bb	0.105699025
2	0xbe641f3f	-0.22277544
3	0x3da22a18	0.07918185
4	0xbdaffeea	-0.08593543
5	0xbea3699b	-0.31916508
6	0x3e15bfc5	0.14623936
7	0x3b5226fa	0.003206669
8	0x3dabd13c	0.08389518
9	0x3e399295	0.18122323
10	0xbd91fa0b	-0.0712777
11	0x3ce114b3	0.02747569
12	0x3daa61d5	0.08319441
13	0x3d96e069	0.073670216
14	0x3c34dca8	0.011038937
15	0xbe23bb73	-0.15989475

conv2d_1.2.weight f4 [16, 16, 3, 3]
0	0x3d9e1ed8	0.07720727
1	0x3d72770b	0.05919556
2	0x3cb1f950	0.021725327
3	0xbd8d5032	-0.06900062
4	0xbd982f98	-0.07430953
5	0xbd8b1852	-0.06791748
6	0x3c92f7ab	0.017940363
7	0x3cf0a0a0	0.029373467
8	0x3d00341b	0.03129969
9	0x3c98a3ec	0.018632852
10	0x3dcd0c50	0.10012114
11	0x3d937d49	0.072016306
12	0x3d49d680	0.04927683
13	0xbd1c950c	-0.03822808
14	0x3d489f54	0.048980072
15	0xbc85cf7d	-0.01633429
16	0xbcfea9d3	-0.031086838
17	0xbbef9d9f	-0.007312491
18	0x3d23a5fb	0.039953213
19	0x3bc1daff	0.005915999
20	0x3be8d5d0	0.0071055666
21	0x3d87cb66	0.06630592
22	0xbd43c25c	-0.047792777
23	0xbdb31f65	-0.087462224
24	0x39aa45d1	0.00032476944
25	0xbd98435f	-0.07434725
26	0xbd1305ec	-0.03589432
27	0xbd295a31	-0.04134578
28	0x3d8b8b34	0.0681366
29	0x3c647e00	0.013946056
30	0xbc4d286a	-0.0125218425
31	0x3c3233cf	0.01087661
32	0xbd282a28	-0.04105583
33	0x3d71660f	0.05893522
34	0xbd6498b6	-0.0558097
35	0x3daae014	0.08343521
36	0x3cc28184	0.023743398
37	0xbd0ecdbb	-0.03486417
38	0xbdcc616d	-0.0997952
39	0xbd8814f9	-0.06644625
40	0xbd03706b	-0.032089632
41	0xbdb81bd8	-0.08989686
42	0xbc0f2fa9	-0.00873939
43	0xbc40b5ea	-0.011762122
44	0x3c4b6fe5	0.012416814
45	0xbda2c3db	-0.07947513
46	0xbd3388e3	-0.043831717
47	0xbcbe6f40	-0.023246408
48	0xbd32275b	-0.043494564
49	0xbcd88526	-0.026430678
50	0xbccaa9fb	-0.024739256
51	0xbc853bbb	-0.016263833
52	0x3d939d27	0.07207709
53	0xbd84df60	-0.06487918
54	0xbd87c596	-0.066294834
55	0xbb5fb88b	-0.0034137096
56	0xbd76d425	-0.06026091
57	0xbdebf327	-0.11520987
58	0xbd9b41b9	-0.07580895
59	0xbcd3eb05	-0.025868902
60	0xbd88d302	-0.066808715
61	0xbcc83a47	-0.024441851
62	0xbd250d97	-0.040296163
63	0x3dc54528	0.09632331
64	0x3ddf206b	0.10894855
65	0x3def5124	0.11685398
66	0x3cfa9c9e	0.030592259
67	0x3c7c5ed3	0.015403467
68	0x3c9b461f	0.018954335
69	0x3d8b52ff	0.068029396
70	0x3df7f14d	0.12106571
71	0x3d70d704	0.058798805
72	0x3c1ed3e3	0.009694072
73	0xbda37875	-0.0798196
74	0xbdbbcbb7	-0.09169715
75	0x3d8bf1ba	0.06833215
76	0xbd566c07	-0.052349117
77	0x3d5095f9	0.050924275
78	0x3da83be4	0.08214548
79	0xbd0e8c05	-0.0348015
80	0x3c2e8d33	0.010653782
81	0xbd241886	-0.04006245
82	0x3d76baac	0.060236618
83	0xbcc59c5b	-0.024122408
84	0xbdb131ec	-0.086521
85	0x3c28b800	0.010297775
86	0x3d98f414	0.07468429
87	0x3d281d8d	0.041043807
88	0x3d15feda	0.03662
89	0x3d8e4d0f	0.069482915
90	0xbc3dbfa0	-0.0115813315
91	0xbd85b8bf	-0.06529378
92	0x3d90f882	0.07078649
93	0xbd3d22ab	-0.04617564
94	0xbcd56edb	-0.026053837
95	0xbda17ef8	-0.078855455
96	0xbd781e10	-0.060575545
97	0xbd077e30	-0.033079326
98	0x3d8fd7bb	0.07023569
99	0xbc239c03	-0.009985927
100	0x3d75c2ee	0.060000353
101	0x3d7f81db	0.0623797
102	0xbc606ac9	-0.013697335
103	0x3d0102e9	0.031496916
104	0xbd67e540	-0.056615114
105	0xbe0a0c32	-0.13481215
106	0xbd238244	-0.039919153
107	0xbdd7867c	-0.10523698
108	0x3d8ed4f0	0.06974208
109	0xbda13440	-0.07871294
110	0x3d79d7ef	0.060996946
111	0xbd494149	-0.049134526
112	0x3c7848ba	0.015154058
113	0x3ce15725	0.027507374
114	0x3d4bd8b4	0.04976721
115	0xbd68de26	-0.056852482
116	0x3d2fbba0	0.042903543
117	0xbe30d635	-0.17269213
118	0xbdb0d68b	-0.08634671
119	0xbe12c758	-0.14333856
120	0xbe2c7cab	-0.16844432
121	0xbe328761	-0.17434455
122	0xbdb06156	-0.08612315
123	0xbde5e8d8	-0.11226052
124	0xbcc221b3	-0.02369771
125	0xbe00786a	-0.12545934
126	0x3db18eea	0.08669837
127	0xbbf7a7e0	-0.007557854
128	0x3c36d54d	0.011159253
129	0xbba330dc	-0.0049801897
130	0x3d22d907	0.039757755
131	0x3c579c74	0.01315986
132	0x3e207ab0	0.15671802
133	0x3e4d9cfc	0.20079416
134	0x3e31769f	0.17330407
135	0xbda0ba82	-0.078480735
136	0x3d63a673	0.05557866
137	0xbbf2ea96	-0.0074132187
138	0x3d5ce37b	0.05392788
139	0x3da5d983	0.08098128
140	0xbd84d5bc	-0.06486079
141	0x3d9d8b77	0.076926164
142	0x3a6d0cab	0.000904272
143	0x3da5df9f	0.08099293
144	0xbd9dd450	-0.07706511
145	0x3a8cab56	0.0010732214
146	0xbc0918cb	-0.0083677275
147	0xbd97d2ca	-0.07413252
148	0xbcc104cb	-0.023561856
149	0x3c32aa0b	0.010904799
150	0xbb95d280	-0.0045722127
151	0xbda01370	-0.078162074
152	0xbd120cb3	-0.035656642
153	0xbcf7d7c4	-0.030254252
154	0x3d159f4f	0.03652888
155	0xbdc1fcbf	-0.094720356
156	0x3d283caa	0.04107348
157	0x3cf6fa4f	0.030148653
158	0xbda11efa	-0.078672364
159	0x3ce50a1f	0.027958928
160	0xbd1e8404	-0.03870012
161	0x3d8bd226	0.06827192
162	0x3b143d2b	0.0022619467
163	0x3d9566a2	0.07294966
164	0x3d956397	0.07294386
165	0x3d1b5fde	0.037933223
166	0xbd6818d0	-0.056664288
167	0xbd902a32	-0.07039298
168	0x3d8dc212	0.069217816
169	0x3d421668	0.04738465
170	0x3da3a39a	0.07990189
171	0xbda6647d	-0.08124635
172	0xbd3ce292	-0.04611451
173	0xbd0faf0f	-0.03507906
174	0xbc1324bb	-0.008980925
175	0xbcb231ce	-0.021752264
176	0x3d270668	0.040777594
177	0xbd67423c	-0.05645965
178	0x3cb1ee23	0.021719998
179	0xbd91f1e7	-0.07126217
180	0x3d6e81e0	0.058229327
181	0x3c03282b	0.008005182
182	0x3d2fafdb	0.04289232
183	0x3c2020b6	0.009773424
184	0xbd6bb3a0	-0.05754435
185	0xbd985b12	-0.07439245
186	0xbd424433	-0.04742832
187	0x3d6affd6	0.05737289
188	0xbda12fc4	-0.07870439
189	0xbd054090	-0.032532275
190	0xbd106a70	-0.035257757
191	0x3d1940eb	0.037415426
192	0x3cf6a9ab	0.0301102
193	0xbd8e833f	-0.06958627
194	0xbd0ef0d8	-0.034897655
195	0x3d799393	0.060931753
196	0x3c2a1f56	0.010383448
197	0xbd9d123f	-0.07669496
198	0x3d5ea0b3	0.054352473
199	0x3d4d3f6e	0.05010932
200	0xbd88cf1b	-0.06680127
201	0x3cc194db	0.02363055
202	0xbcdec81b	-0.027195027
203	0xbd20c4ce	-0.039250188
204	0x3c82e9eb	0.015980681
205	0xbd2a3636	-0.041555606
206	0xbd4602e3	-0.048342597
207	0x3d4b5ac5	0.04964711
208	0xbd1e8674	-0.038702443
209	0x3a4d35b9	0.00078281347
210	0xbbc41d9f	-0.0059849764
211	0xbd9c13ae	-0.07620941
212	0xbccce46d	-0.025011266
213	0x3c1c67e1	0.009546251
214	0x3cda60c1	0.026657464
215	0x3d33c06b	0.043884676
216	0xbc80bc38	-0.01571475
217	0x3d251346	0.040301584
218	0xba542fd5	-0.0008094286
219	0xbd809f5a	-0.06280394
220	0x3c9d8d79	0.019232498
221	0xbdb4b931	-0.08824385
222	0xbb80b4d6	-0.0039278073
223	0x3d80c7cf	0.062881105
224	0x3c8b9e06	0.017043125
225	0xbda1492d	-0.07875285
226	0xbce1f8c0	-0.027584434
227	0xbca1579f	-0.019695101
228	0x3c23d5e6	0.009999728
229	0xbd9c165f	-0.076214544
230	0x3d6e82a6	0.058230065
231	0xbd867e15	-0.06567017
232	0xbda71492	-0.0815822
233	0xbdadf0be	-0.084931836
234	0x3da42c34	0.080162436
235	0x3d8d27b7	0.06892341
236	0xbb05cb00	-0.0020415187
237	0xbcb88826	-0.022525858
238	0x3c90dec6	0.017684352
239	0xbd2c2b78	-0.042033643
240	0x3bfbb4eb	0.007681479
241	0x3d55a86e	0.05216258
242	0xbb080e2b	-0.0020760398
243	0xbd8d841d	-0.06909964
244	0x3d8b6ab0	0.068074584
245	0xbca35760	-0.019939125
246	0x3d64f661	0.055899028
247	0xbd91470e	-0.07093631
248	0xbd2d31eb	-0.042283934
249	0xbd173e1c	-0.036924466
250	0xbd061dc5	-0.032743234
251	0xbd4c5833	-0.0498888
252	0x3cdb5266	0.02677269
253	0xbd97762e	-0.07395588
254	0xbc0d7dc9	-0.008635947
255	0xbbc68051	-0.006057777

conv2d_1.2.bias f4 [16]
0	0x3d92df75	0.07171527
1	0xbd470df3	-0.048597287
2	0x3c8728af	0.016498892
3	0xbcbe91ee	-0.023262944
4	0xbda95f56	-0.08270137
5	0x3d2373e3	0.03990544
6	0xbd9a2915	-0.07527367
7	0x3c1cfccf	0.009581759
8	0xbcbb3a2c	-0.022854887
9	0xbd1af8d8	-0.037834972
10	0xbcb101d2	-0.021607313
11	0x3d7b4f83	0.061355125
12	0xbc8c7c54	-0.017149128
13	0xbd32ae81	-0.04362345
14	0x3d87ebbe	0.06636761
15	0x3c085a0b	0.008322249

conv2d_2.0.weight f4 [32, 16, 3, 3]
0	0x3d1f013a	0.03881953
1	0xbc3a1500	-0.011357546
2	0x3df97967	0.12181359
3	0x3bc2dc90	0.0059467033
4	0xbce75b1e	-0.02824169
5	0xbc56a756	-0.013101419
6	0xbd83d4af	-0.064370506
7	0xbd69a966	-0.057046317
8	0xbd702fb4	-0.058639243
9	0xbd85d2ae	-0.065343246
10	0xbd9c3f93	-0.07629313
11	0xbcbc941b	-0.023019841
12	0xbd845577	-0.064616136
13	0x3d15e4de	0.036595218
14	0x3d72c296	0.059267603
15	0x3b4d252b	0.0031302671
16	0xbd7b7f40	-0.061400652
17	0x3c11a64b	0.008889745
18	0xbb98a596	-0.0046584113
19	0xbc327f16	-0.010894557
20	0x3d885116	0.06656091
21	0x3d2725fe	0.040807717
22	0x3d943fd2	0.07238735
23	0x3d58cb6e	0.05292838
24	0x3cfe4a4b	0.031041285
25	0xbd3b2473	-0.045689058
26	0x3d8480f4	0.06469908
27	0xbcb9825f	-0.022645174
28	0x3b786a44	0.0037905136
29	0x3ce95782	0.02848411
30	0xbb48c9e0	-0.0030637905
31	0x3cc13481	0.023584606
32	0xbdf99edf	-0.121885054
33	0x3d35ff42	0.044432886
34	0x3d50762e	0.050893955
35	0xbd6ed60f	-0.05830961
36	0xbab61adb	-0.0013893502
37	0x3cf461c3	0.029831773
38	0x3d8de0b3	0.069276236
39	0x3d2641d7	0.040590134
40	0x3d483559	0.048879
41	0xbd4cba04	-0.049982086
42	0x3d6e30ce	0.058152013
43	0x3d9b7cf5	0.07592193
44	0x3da83fc3	0.082152866
45	0xbba22ae1	-0.004948959
46	0xbd260738	-0.040534228
47	0x3dcf78b8	0.10130447
48	0x3caccec1	0.021094682
49	0x3d484231	0.04889125
50	0xbd135de6	-0.03597822
51	0xbe02b075	-0.12762626
52	0xbddf4422	-0.10901667
53	0xbc486ea0	-0.012233406
54	0xbc9780d2	-0.018494043
55	0x3d5533d9	0.0520514
56	0xbc3a3f8b	-0.011367689
57	0xbd9a148f	-0.075234525
58	0xbd9136de	-0.07090543
59	0xbcb240c6	-0.021759402
60	0x3d04944e	0.032367997
61	0x3d2caedb	0.042158943
62	0xbd956433	-0.07294502
63	0x3d4f4170	0.050599515
64	0x3da210a6	0.07913332
65	0xbb8c6fc2	-0.0042857835
66	0x3c949c16	0.018140834
67	0xbd9b4833	-0.0758213
68	0x3d1a16e0	0.03761947
69	0x3caf0325	0.021363804
70	0x3aeef660	0.0018231384
71	0xbc43baa7	-0.011946357
72	0x3d8c3252	0.06845535
73	0x3d11b6b0	0.035574615
74	0x3cb45fbe	0.02201831
75	0x3cca6ecb	0.024711033
76	0x3d23f6dd	0.04003035
77	0xbd9b9817	-0.07597368
78	0xbd3306a4	-0.043707505
79	0xbd287fae	-0.04113739
80	0xbd5646a4	-0.052313462
81	0x3cdadc60	0.026716411
82	0x3d8af63c	0.06785247
83	0xbc335e8b	-0.010947834
84	0xbc9906e0	-0.018680036
85	0x3d53bff0	0.051696718
86	0xbc588ac0	-0.013216674
87	0x3d4ca086	0.049957775
88	0xbd84b0c0	-0.06479025
89	0xbd1bda00	-0.038049698
90	0x3d5738c6	0.052544378
91	0xbd6e7814	-0.058219984
92	0x3cfcd640	0.030863881
93	0xbcdb3258	-0.026757404
94	0x3d1c6cc0	0.03818965
95	0xbd637ed6	-0.055540882
96	0xbda85ac7	-0.082204394
97	0x3cb90668	0.022586063
98	0xb9a2faab	-0.0003108581
99	0x3da7e517	0.08197992
100	0x3d906940	0.07051325
101	0x3dd66d41	0.10470057
102	0xbb1e546c	-0.0024159206
103	0x3bd0d202	0.006372691
104	0xbc753f16	-0.014968654
105	0xbdf0d4c2	-0.1175933
106	0xbd85a6da	-0.06525965
107	0xbd54f8e4	-0.051995173
108	0x3a8647db	0.0010244803
109	0xbd79ca68	-0.060984045
110	0x3d05fae4	0.03270997
111	0xbcc675f5	-0.024226168
112	0xbda2a7e1	-0.079421766
113	0xbd0245a1	-0.031804685
114	0x3d89a47b	0.06720825
115	0x3d6f5de5	0.058439154
116	0xbd835cc1	-0.06414176
117	0x3d198f58	0.03749022
118	0xbd1630cc	-0.03666763
119	0x3c0116fb	0.007879014
120	0x3d31dc59	0.04342303
121	0xbdb636f0	-0.08897197
122	0x3af014e9	0.0018316779
123	0x3cb3b8ac	0.021938644
124	0xbd496edf	-0.049178
125	0x3b295270	0.002583649
126	0x3d4d0883	0.050056946
127	0x3d44c5cc	0.048040196
128	0x3e06dc4f	0.13169979
129	0x3ca311b5	0.019905904
130	0xbd1cde8a	-0.038298167
131	0xbd70c372	-0.05878014
132	0xbd9384f4	-0.07203093
133	0xbd5009af	-0.050790485
134	0xbd961150	-0.07327521
135	0x3d1052c3	0.035235178
136	0x3cc1d73d	0.023662204
137	0x3e2065b1	0.15663792
138	0xbb007b38	-0.0019604694
139	0xbdbe4212	-0.09289946
140	0x3d75011c	0.05981551
141	0xbdd1f143	-0.10251095
142	0xbdd4fe77	-0.10400098
143	0xbd11bc85	-0.035580177
144	0x3defb241	0.11703921
145	0x3e09a36d	0.13441248
146	0x3d941e5a	0.072323516
147	0x3d5767c1	0.05258918
148	0xbd08f773	-0.03343911
149	0x3da5d4e1	0.08097244
150	0xbd7bb37f	-0.061450478
151	0x3d55c424	0.052189007
152	0xbc82475c	-0.015903167
153	0x3cc14b13	0.023595368
154	0xbcd740b6	-0.026275974
155	0x3d0156e9	0.031577025
156	0xbc3e4e0f	-0.01161529
157	0x3d97ee41	0.0741849
158	0x3d4c6db8	0.049909323
159	0xbd617cf6	-0.055050813
160	0xbd493d80	-0.049130917
161	0x3d6f3c50	0.058407128
162	0xbd4b0a66	-0.049570464
163	0x3d0a7915	0.03380688
164	0x3ca1aeb0	0.019736618
165	0xbaad1c00	-0.0013207197
166	0x3cc78f76	0.0243604
167	0x3d8e55c4	0.06949952
168	0xbd17afd8	-0.037032932
169	0x3c21b447	0.009869642
170	0x3d86cd5e	0.065821394
171	0xbdb2e805	-0.087356605
172	0xbc905229	-0.017617302
173	0x3ce68203	0.028138166
174	0xbc88d7e2	-0.016704503
175	0x3b71de5a	0.0036906213
176	0xbd8facbf	-0.070153706
177	0x3cb28e0c	0.021796249
178	0xbdb2d770	-0.08732498
179	0xbbc1272d	-0.0058945627
180	0xbd6b25d2	-0.057409115
181	0xbd25401c	-0.040344343
182	0xbd9d8a90	-0.07692444
183	0x3d5fb584	0.054616466
184	0x3abc07bd	0.0014345568
185	0x3d7cee43	0.06175066
186	0xbcbd2730	-0.023089975
187	0x3c9da276	0.019242506
188	0x3d8b8d9a	0.06814118
189	0x3c3271a3	0.010891351
190	0x3c24071c	0.010011461
191	0x3dc201c9	0.09472997
192	0x3dc46107	0.09588819
193	0x3df7441c	0.12073538
194	0x3df68d0d	0.12038622
195	0xbd5db1da	-0.05412469
196	0xbd8b1aef	-0.067922466
197	0x3c44d5d9	0.012013876
198	0xbd9f7707	-0.077863745
199	0xbd634ea2	-0.055494912
200	0xbca5bb4b	-0.02023091
201	0xbcceb76b	-0.025233945
202	0x3d29c071	0.041443292
203	0x3d6d72d0	0.05797082
204	0xbd73c9d7	-0.05951866
205	0x3da65cac	0.081231445
206	0xbcfaf9e0	-0.030636728
207	0xbd11570b	-0.0354834
208	0x3d8e4960	0.06947589
209	0xbd16e229	-0.036836777
210	0x3dbaa6ce	0.09113847
211	0x3dbabbd7	0.09117859
212	0x3caeed12	0.021353278
213	0x3d998330	0.07495725
214	0x3d799e64	0.06094207
215	0x3d4b7b4a	0.049678124
216	0xbd1b9475	-0.037983377
217	0xbc253979	-0.010084503
218	0xbba2691a	-0.0049563767
219	0x3d38e7c4	0.045142904
220	0xbd6ca798	-0.057777017
221	0xbd17381d	-0.03691875
222	0xbd8447f0	-0.064590335
223	0x3d8f4f74	0.06997576
224	0x3bdbaccb	0.006703948
225	0xbd248370	-0.04016441
226	0xbc8fa8b0	-0.017536491
227	0xbcd44aab	-0.02591451
228	0x3d3b6788	0.045753032
229	0xbd90b4d6	-0.07065742
230	0xbcf5bd06	-0.02999736
231	0xbd998523	-0.07496097
232	0xbc85c1fb	-0.016327849
233	0xbd760d9b	-0.06007157
234	0x3c110440	0.008851111
235	0x3d96f796	0.07371442
236	0x3c8b9946	0.01704086
237	0x3da0b1d6	0.078464195
238	0xbd1ef858	-0.038811058
239	0x3cefb81b	0.029262593
240	0x3d23d7f3	0.040000867
241	0xbd6345f0	-0.05548662
242	0x3a942156	0.0011301439
243	0x3d6f2a86	0.058390163
244	0x3e016d40	0.12639332
245	0x3be53708	0.0069950856
246	0x3d82b966	0.06383018
247	0xbc93236e	-0.01796123
248	0xbcac85b0	-0.02105984
249	0x3bcd4679	0.0062645045
250	0xbcb1597c	-0.021649115
251	0xbd9fb1e6	-0.07797603
252	0x3be7e1fd	0.0070765004
253	0x3d882223	0.06647136
254	0xbde45a3e	-0.11150025
255	0x3d9d64c7	0.076852374

conv2d_2.0.bias f4 [32]
0	0x3d70db3e	0.058802836
1	0x3bdb8536	0.0066992296
2	0x3de7f936	0.1132683
3	0x3db4fe91	0.08837617
4	0x3cf72218	0.030167624
5	0xbbd48770	-0.006485872
6	0xbd960416	-0.07324998
7	0xbd8e76b3	-0.06956234
8	0x3de8d290	0.113682866
9	0x3cda392e	0.026638594
10	0x3c60a529	0.013711252
11	0x3d25b7cf	0.040458497
12	0x3ce655de	0.028117117
13	0x3d927924	0.07152012
14	0xbd887d88	-0.06664568
15	0xbd368028	-0.044555813
16	0xbb87bbd9	-0.004142266
17	0xbd013c00	-0.03155136
18	0xbce1dc30	-0.027570814
19	0xbcf6658f	-0.030077724
20	0x3cae939a	0.021310616
21	0x3c51207f	0.012764095
22	0x3c657ee6	0.014007306
23	0x3d619b4f	0.055079754
24	0x3bc29304	0.005937936
25	0xbdb0b811	-0.08628858
26	0x3b8e0503	0.0043340935
27	0xbd37df83	-0.04489089
28	0xbc9f9447	-0.019479884
29	0x3dc5bfc2	0.096557155
30	0xbd9b04d6	-0.07569282
31	0xbc0f6f89	-0.008754619

conv2d_2.2.weight f4 [32, 32, 3, 3]
0	0xbd76eae8	-0.060282618
1	0x3c00646b	0.0078364415
2	0xbd190b8d	-0.03736453
3	0xbd9f233b	-0.077703916
4	0xbd907e3e	-0.07055329
5	0x3d13a250	0.036043465
6	0xbc9927b1	-0.018695684
7	0xbd928beb	-0.071555935
8	0xbd8db21c	-0.06918737
9	0x3b82bb3c	0.0039896052
10	0xbceb77c1	-0.028743627
11	0x3a11bbc1	0.00055592885
12	0xbd3bee36	-0.045881473
13	0xbd9e724f	-0.077366464
14	0x3d13cc14	0.036083296
15	0xbc11cd5d	-0.00889906
16	0x3d055dcb	0.03256015
17	0xbd659825	-0.0560533
18	0xbcd2f036	-0.025749307
19	0x3cbc76c3	0.023005849
20	0xbcb4eea4	-0.022086449
21	0xbcb78462	-0.022401992
22	0xbd26df34	-0.040740207
23	0xbd439dac	-0.04775779
24	0x3c2f2d17	0.010691903
25	0x3c17560c	0.009236824
26	0x3c294df6	0.010333529
27	0x3d0fd714	0.035117224
28	0x3d8eff27	0.0698226
29	0xbc495a71	-0.012289629
30	0x3c7ea96f	0.015543326
31	0xbd1f7f40	-0.038939714
32	0x3b0c8bd9	0.002144566
33	0xbd32ade7	-0.043622877
34	0x3d8630db	0.06552287
35	0x3d7951e8	0.060869128
36	0xbbaf7fb3	-0.005355799
37	0xbd533540	-0.051564455
38	0xbc4bcee9	-0.012439468
39	0x3d3e244d	0.046421338
40	0xbd8581bb	-0.06518885
41	0xbd01b86d	-0.031670023
42	0xbdc033b8	-0.093848646
43	0xbd13189c	-0.03591214
44	0xbc5f3e6d	-0.013625723
45	0xbd563e3b	-0.05230544
46	0xbd0f67c9	-0.035011087
47	0xbd240e64	-0.040052786
48	0xbdc1345a	-0.094338134
49	0xbb95e19d	-0.0045740143
50	0x3c033115	0.008007308
51	0xbdb038a3	-0.086045526
52	0xbb94fc68	-0.0045466907
53	0xbd5678f9	-0.052361462
54	0x3cf82036	0.030288797
55	0xbd312e00	-0.04325676
56	0xbc76a86e	-0.015054805
57	0x3d699186	0.057023548
58	0xbd38fe73	-0.045164537
59	0xbd0cd1bf	-0.034379717
60	0x3d3bd730	0.045859516
61	0xba9d243f	-0.0011988952
62	0xbd1e3d11	-0.038632456
63	0x3bab165f	0.0052211727
64	0x3d0627cf	0.03275281
65	0x3a4a69ba	0.0007721443
66	0x3ce180c9	0.02752723
67	0xbd256037	-0.04037496
68	0xbd07f16b	-0.03318922
69	0xbcedcfc6	-0.029029738
70	0xbcfcec84	-0.030874498
71	0xbd0140ec	-0.031556055
72	0x3aa0b9bd	0.0012262386
73	0x3c41bdbd	0.011825022
74	0xbd07477d	-0.03302716
75	0xbccd4b02	-0.02506018
76	0xbd3c8aae	-0.046030693
77	0x3cf84d65	0.030310342
78	0x3d0ed852	0.034874268
79	0x3bd1e0b1	0.006404959
80	0xba5af92d	-0.000835317
81	0xbdb12cf5	-0.08651153
82	0x3b8b2562	0.0042463997
83	0xbd64582b	-0.055748146
84	0xbd9bb18a	-0.07602222
85	0xbcf46db4	-0.029837467
86	0xbd0b69c5	-0.034036417
87	0xbcfc9b0b	-0.030835649
88	0x3ce89c0e	0.028394725
89	0xba47efcf	-0.0007626982
90	0x3ccb3b59	0.024808573
91	0xbcea6d50	-0.028616577
92	0xbcc2f3d5	-0.023797909
93	0xbda3749c	-0.07981226
94	0x3ca83c00	0.020536423
95	0x3cb655a5	0.022257635
96	0xbd0ebb43	-0.034846555
97	0x3d413b6f	0.04717582
98	0xbcd50094	-0.026001252
99	0xbd3b6d2f	-0.045758422
100	0xbd714c7b	-0.058910828
101	0xbd7c441f	-0.061588403
102	0x3cc2a879	0.023761975
103	0x3baa460d	0.005196339
104	0xbcfe5f90	-0.031051427
105	0x3baf5963	0.005351232
106	0xbcdae2fb	-0.02671956
107	0xbd523feb	-0.05133049
108	0xbb4f7a1a	-0.0031658472
109	0xbd27c92a	-0.04096333
110	0xbd1ef67d	-0.03880929
111	0xbca8edd3	-0.020621216
112	0x3c9a9599	0.018870162
113	0x3c00b18a	0.007854829
114	0xbd88b438	-0.06674999
115	0xbccb85d7	-0.024844093
116	0xbd560847	-0.052253988
117	0x3a44ee85	0.0007512349
118	0xbd158c80	-0.036510944
119	0xbd298840	-0.041389704
120	0x3ca64b7d	0.020299667
121	0x3c147865	0.009061907
122	0x3d372184	0.044709697
123	0xbca3c4cf	-0.019991307
124	0xbdd1f393	-0.10251536
125	0xbda01453	-0.078163765
126	0xbd41f4b7	-0.04735252
127	0x3c458177	0.012054793
128	0xbc0522d0	-0.008125976
129	0x3d202fbf	0.039108034
130	0x3d26d11a	0.04072676
131	0xbd5e187c	-0.05422257
132	0xbd0a872c	-0.033820316
133	0x3d4b6c55	0.04966386
134	0xbcdcfb81	-0.026975395
135	0x3ced7027	0.028984142
136	0xbd542462	-0.05179251
137	0x3c310b2f	0.010805889
138	0xbd03fd9a	-0.032224275
139	0x3d733a75	0.05938192
140	0xbcd826aa	-0.026385624
141	0x3cc8e9dc	0.024525575
142	0xbd2b0e39	-0.04176161
143	0x3cfaf769	0.030635552
144	0xbdbe4836	-0.09291117
145	0xbcdf8e11	-0.027289422
146	0x3cbfa3b7	0.023393495
147	0xbd3dae63	-0.046308886
148	0xbd1fa2ab	-0.03897349
149	0x3d54b00e	0.05192571
150	0x3d1a9556	0.037740074
151	0xbc8fb946	-0.0175444
152	0x3c55998f	0.0130370995
153	0xbd9c6e24	-0.07638195
154	0xbc1801c1	-0.009277762
155	0xbd9310ca	-0.07180937
156	0x3cc41e64	0.023940273
157	0x3d594da5	0.053052563
158	0x3cd1f7b3	0.025630808
159	0x3d105d13	0.035245012
160	0x3cfa6993	0.03056792
161	0x3d445e53	0.047941517
162	0xbd6f8365	-0.058474917
163	0xbd26377e	-0.040580265
164	0x3d5b44b3	0.053532314
165	0xbc876e67	-0.016532136
166	0xbc552365	-0.013008927
167	0x3d30325d	0.04301678
168	0x3c5261d9	0.0128407115
169	0xbcd91fe2	-0.02650446
170	0xbd3f0571	-0.04663605
171	0xbc7c0faa	-0.015384594
172	0x3ce5e1b8	0.028061733
173	0x3c4a3bbc	0.012343343
174	0xbd55b114	-0.052170828
175	0x3bfb0e91	0.0076616486
176	0xbc0046f9	-0.007829421
177	0xbd11ba84	-0.035578266
178	0xbc86c58b	-0.016451618
179	0x3c1ebbfb	0.009688373
180	0xbc852997	-0.016255183
181	0xbcd2cd53	-0.025732672
182	0x3d08a618	0.033361524
183	0x3d0ed03a	0.03486655
184	0x3d56a3a0	0.05240214
185	0xbcdc2df5	-0.026877383
186	0xbda9528b	-0.08267697
187	0xbd994c28	-0.07485229
188	0xbdb1e547	-0.08686309
189	0xbd8c04b1	-0.06836832
190	0xbd92c70d	-0.07166872
191	0xbd18e4bf	-0.037327524
192	0xbde610ae	-0.1123365
193	0xbd6b39f7	-0.057428326
194	0xbdeb927d	-0.1150255
195	0x3c91d50a	0.01780178
196	0xbd8f5d19	-0.07000179
197	0xbd00772a	-0.031363644
198	0xbd9ffcfc	-0.07811925
199	0x3cfa9c94	0.03059224
200	0xbd0dce2d	-0.034620453
201	0xbd0a2bb0	-0.03373307
202	0x3d1643e3	0.036685836
203	0x3d4c32a7	0.049852993
204	0x3c9c8fd9	0.01911156
205	0x3d5a5f51	0.053313557
206	0x3d38d7c8	0.04512766
207	0x3d8cc5cf	0.068736665
208	0xbc2349d6	-0.009966334
209	0xbcb92f97	-0.0226057
210	0x3bef8d14	0.007310519
211	0xbd3dcd7f	-0.046338554
212	0x3c265897	0.010152957
213	0x3b574592	0.0032847864
214	0xbd34479b	-0.0440136
215	0xbc64e846	-0.013971394
216	0xbdb4ba11	-0.08824552
217	0xb9111cb0	-0.00013838965
218	0xbcb25a3a	-0.021771539
219	0xbba78afb	-0.0051130033
220	0xbceb1cdf	-0.02870029
221	0xbcf574e0	-0.029962957
222	0x3ca3ea40	0.02000916
223	0x3c66a9a7	0.014078534
224	0xba1bef0c	-0.00059484015
225	0x3d179605	0.037008304
226	0xbcd4663e	-0.02592766
227	0xbc707180	-0.014675498
228	0x3c1cf183	0.009579065
229	0x3d704911	0.05866343
230	0xbd43674c	-0.047705933
231	0xbd580981	-0.05274344
232	0xbd6d475a	-0.057929374
233	0xbc5c44f0	-0.01344417
234	0xbcbb9b52	-0.022901211
235	0xbd6c6fe9	-0.057723913
236	0xbcde8e76	-0.02716754
237	0x3bc73181	0.0060788994
238	0xbd92e4fa	-0.0717258
239	0xbd9a77fd	-0.07542417
240	0xbd2dd2a2	-0.042437203
241	0xbce424cd	-0.02784958
242	0xbcee15c1	-0.029063107
243	0xbd084cf3	-0.03327651
244	0x3c803cd5	0.015654007
245	0x3d563144	0.052293077
246	0xbd513f3a	-0.05108569
247	0x3d112e76	0.0354447
248	0xbd28d04a	-0.041214265
249	0xbd2eb39f	-0.04265177
250	0xbcc8a56a	-0.024492938
251	0xbceeff27	-0.0291744
252	0xb9579ebb	-0.0002056313
253	0xbcbc0d2c	-0.0229555
254	0xbc7d8221	-0.01547292
255	0xbd0ed80b	-0.034874003

conv2d_2.2.bias f4 [32]
0	0xbc09d6cb	-0.008413027
1	0xbc9c6a61	-0.019093694
2	0xbd5067ca	-0.05088023
3	0xbd85b1b0	-0.06528032
4	0xbd71aaf3	-0.05900092
5	0xbd2dde04	-0.04244806
6	0xbc82e694	-0.015979089
7	0x3d399d62	0.045316108
8	0xbc63f399	-0.013913059
9	0x3be59132	0.007005834
10	0x39a25b11	0.00030966898
11	0x3d947fa6	0.072509095
12	0xbd4411bf	-0.047868486
13	0xbd0983bf	-0.03357291
14	0x3d20c481	0.0392499
15	0x3d5b5e22	0.05355657
16	0xbcf0cfc9	-0.029395955
17	0xbd04f7c8	-0.032462865
18	0xbcdafd7c	-0.026732199
19	0x3d8c880e	0.06861888
20	0x3d3cad03	0.046063434
21	0x3ad0673d	0.0015899908
22	0xbd71ce8e	-0.059034877
23	0xbd915dfb	-0.070980035
24	0x3d6fe1a4	0.058564797
25	0xbcdb859c	-0.026797108
26	0x3cbb046b	0.022829255
27	0xbc91f5b3	-0.017817354
28	0x3ca23e65	0.019805143
29	0x3bd3022d	0.0064394684
30	0x3d6164ac	0.05502765
31	0xbd0f99ac	-0.035058662

conv2d_3.0.weight f4 [64, 32, 3, 3]
0	0xbd8e720c	-0.069553465
1	0xbcfdc356	-0.030976932
2	0xbd7e166a	-0.062033094
3	0x3d275a71	0.040857736
4	0xbd166559	-0.036717746
5	0x3c26b921	0.010175974
6	0x3cc78fe0	0.024360597
7	0x3c385600	0.011250973
8	0xbd6f0764	-0.058356658
9	0x3b5832cd	0.0032989264
10	0x3d376516	0.044774137
11	0x3bc0fd08	0.0058895387
12	0xbc87e40b	-0.016588232
13	0x3cb139bc	0.021633975
14	0x3ca9cfae	0.020728912
15	0xbba87bb0	-0.005141698
16	0x3cc887c2	0.024478797
17	0x3d01b081	0.031662468
18	0xbcf4a117	-0.02986197
19	0x3d259018	0.04042062
20	0xbbb3cad1	-0.005486824
21	0x3d3219b9	0.043481562
22	0x3ce55dd0	0.027998835
23	0x3d7d747c	0.061878666
24	0x3ca9cb5a	0.020726848
25	0xbca27e4e	-0.019835617
26	0x3d1b8f20	0.03797829
27	0x3c355214	0.011066932
28	0x3d1aae5f	0.03776395
29	0x3d94a9f1	0.07258976
30	0xbd88824c	-0.06665477
31	0xbda42196	-0.080142185
32	0xbc369d83	-0.011145952
33	0xbc6f4a19	-0.014605069
34	0x3d78ae10	0.060712874
35	0x3d11a0ac	0.03555362
36	0x3d3cdf1d	0.046111215
37	0xbc550fe4	-0.013004277
38	0x39be8566	0.00036339014
39	0x3d49b39b	0.04924355
40	0x3d53e45b	0.05173145
41	0xbc35e894	-0.011102814
42	0x3ca954e7	0.020670367
43	0xbd45fb4e	-0.048335366
44	0x3d39d311	0.045367304
45	0xbb62d766	-0.003461325
46	0xbd4bac72	-0.049725004
47	0xbc588b6a	-0.013216833
48	0xbc9457ad	-0.018108213
49	0x3d348b52	0.04407818
50	0xbc7337a1	-0.014844806
51	0xbcf622d2	-0.0300459
52	0xbc77da13	-0.015127677
53	0xbc33b304	-0.010967974
54	0xbd35cc98	-0.04438457
55	0xbd659f1d	-0.056059945
56	0x3c813981	0.01577449
57	0xbc53c1a3	-0.012924585
58	0x3c8af08b	0.016960403
59	0x3cdeab14	0.027181186
60	0xbd722fce	-0.05912762
61	0xbd91ea4f	-0.07124769
62	0xbd09e8c0	-0.033669233
63	0x3da39ed1	0.07989276
64	0x3d28c745	0.041205663
65	0x3da1350a	0.078714445
66	0xbd23a1c0	-0.03994918
67	0xbd8a909f	-0.067658655
68	0xbd06f207	-0.03294566
69	0x3b02f12d	0.0019980178
70	0x3c7c4674	0.015397657
71	0x3d8ffdaa	0.070308045
72	0xbb31f22d	-0.0027152405
73	0xbb520777	-0.0032047906
74	0xbcc3c532	-0.023897741
75	0x3d041895	0.032250006
76	0xbd3c8da6	-0.046033524
77	0xbda626b0	-0.08112848
78	0x3d6d1484	0.057880893
79	0xbd2f74cc	-0.042835996
80	0x3d04e068	0.032440573
81	0x3b96439b	0.004585696
82	0xbd5161c5	-0.05111863
83	0xbc694ec1	-0.014239968
84	0x3bc1a69b	0.0059097535
85	0x3d963b92	0.07335581
86	0x3d265dce	0.040616803
87	0xbcc2238b	-0.023698589
88	0xbd91b647	-0.07114845
89	0xbd146207	-0.0362263
90	0xbd0d3269	-0.034471903
91	0xbccd96c6	-0.025096308
92	0x3d5b7868	0.053581625
93	0xba02cec8	-0.0004989919
94	0x3adf48a1	0.0017035195
95	0x3a5041ce	0.0007944376
96	0x3d1d793b	0.038445693
97	0x3a62b842	0.00086486724
98	0x3d348441	0.04407144
99	0xbcd293f9	-0.025705324
100	0x3c0e94da	0.008702481
101	0x3d6cc0ba	0.057800986
102	0xbd1358de	-0.035973422
103	0x3d3bf171	0.045884553
104	0x3ca98436	0.020692926
105	0x3c0b16cc	0.008489322
106	0x3c2c30f1	0.010509715
107	0xbd555c59	-0.052090023
108	0xbccf409f	-0.025299368
109	0x3c3d1c91	0.011542455
110	0x3c5ecf26	0.013599193
111	0x3cd6f51f	0.02623993
112	0x3d40319b	0.046922307
113	0xbb6f42a7	-0.0036508234
114	0xbd0c05d3	-0.034185242
115	0x3cb104dd	0.021608764
116	0xbd11626a	-0.035494246
117	0x3b343e9f	0.0027503145
118	0xbd0fe718	-0.035132498
119	0x3c9539c6	0.018216025
120	0xbbd3ad2d	-0.006459853
121	0x3d84590c	0.06462297
122	0x3c6293db	0.013829197
123	0xbd8fff37	-0.070311
124	0xbd47da4b	-0.048792165
125	0x3d0614a3	0.032734524
126	0x3d7e6786	0.062110446
127	0x3c8491e1	0.016182842
128	0x3d683153	0.056687664
129	0xbc984723	-0.018588608
130	0x3d59f5bd	0.05321287
131	0xbd2d4e76	-0.042311154
132	0xbd366f46	-0.044539712
133	0xbd4c89c1	-0.04993606
134	0x3b4ce1aa	0.0031262436
135	0xbe3d1916	-0.18466601
136	0xbe1f1915	-0.15536912
137	0xbdce02e6	-0.100591466
138	0x3d035260	0.03206098
139	0x3d2e43e9	0.042545233
140	0x3d54934d	0.05189829
141	0xbd883ac1	-0.066518314
142	0xbcbba8c7	-0.022907628
143	0xbd731752	-0.05934841
144	0xbe087ce3	-0.1332889
145	0xbdbb89a0	-0.09157109
146	0xbe015976	-0.12631783
147	0x3d97849c	0.0739834
148	0x3ce241ec	0.027619325
149	0x3b95cd31	0.00457158
150	0xbdd3428d	-0.10315428
151	0xbcf32bf5	-0.029684046
152	0xbd952e16	-0.07284181
153	0x3d22e156	0.03976568
154	0xbd1c29eb	-0.038125914
155	0x3d4da8b0	0.0502097
156	0x3d2bb838	0.04192373
157	0x3c69c617	0.01426842
158	0xb9ff914a	-0.0004874564
159	0xbb8279c8	-0.0039818026
160	0xbcd1512b	-0.0255514
161	0x3d7427db	0.05960832
162	0xbd5d23dd	-0.05398928
163	0xbc296bd3	-0.010340649
164	0x3b9da7c4	0.004811259
165	0x3c85caf1	0.016332122
166	0xbce5269e	-0.027972516
167	0x3d3fea1f	0.046854135
168	0xbad1e0bf	-0.0016012414
169	0x3ca02d22	0.019552771
170	0x3d40cd3a	0.04707072
171	0xbb7efb53	-0.0038907125
172	0xbcc07691	-0.023494037
173	0x3cb91cd5	0.022596756
174	0xbdcd65f7	-0.10029214
175	0xbde03b06	-0.10948758
176	0xbd9bd45c	-0.07608864
177	0x3dc48c14	0.0959703
178	0x3dc5c59b	0.09656831
179	0x3d9a8427	0.07544737
180	0x3d5a5ff0	0.05331415
181	0x3dcca2c0	0.099919796
182	0x3de1ceac	0.11025748
183	0xbd2a4157	-0.04156622
184	0xbda1155e	-0.078654036
185	0xbdf11623	-0.117718
186	0x3d3ee857	0.046608295
187	0x3cc6926f	0.024239747
188	0xbc208979	-0.009798401
189	0xbd719368	-0.05897847
190	0xbe00675e	-0.12539431
191	0xbe158b01	-0.14603807
192	0xbd6b6cff	-0.057476994
193	0xbc69fc46	-0.014281338
194	0x3d2fe35a	0.04294143
195	0x3d13abe5	0.036052603
196	0x3d3849a1	0.044992093
197	0x3cb1dada	0.021710802
198	0xbd6dd8bf	-0.058068033
199	0xbd0b58fe	-0.034020416
200	0xbc318dbd	-0.010837016
201	0xbd0e9d63	-0.034818064
202	0xbd220eaf	-0.039564785
203	0x3cf43d67	0.029814435
204	0x3d7a9ef9	0.061186764
205	0x3d252b63	0.04032458
206	0xbd12e3a0	-0.03586161
207	0x3cb561ff	0.022141455
208	0xbd5b9112	-0.053605147
209	0x3d15c187	0.036561515
210	0x3c3bb845	0.0114575075
211	0xbc8542c9	-0.016267197
212	0x3cb09b17	0.021558328
213	0x3c81a37e	0.01582503
214	0xbd3ed31c	-0.04658805
215	0x3d18d255	0.037309963
216	0x3d737bff	0.059444424
217	0xb9af7cdc	-0.0003347163
218	0xbd1402bd	-0.036135424
219	0xbbaacaa7	-0.0052121463
220	0xbdacf3ef	-0.08444964
221	0xbda1c0c9	-0.07898099
222	0xbc84a3f0	-0.016191453
223	0xbd32a623	-0.04361547
224	0x3d65012a	0.055909313
225	0x3d2d13ed	0.04225533
226	0xbcd2898b	-0.025700351
227	0x3d0f7257	0.035021152
228	0x3903f7ce	0.00012585448
229	0x3d2381bd	0.03991865
230	0xbbbc6734	-0.0057496075
231	0x3cf14dc6	0.02945603
232	0xbc7bceea	-0.015369156
233	0x3c8e1534	0.017344095
234	0x3d3aafa5	0.045577664
235	0xbd07605b	-0.033050876
236	0xbda0253c	-0.07819602
237	0x3ca30aee	0.019902673
238	0x3cfb0662	0.030642692
239	0x3c85ecd8	0.016348287
240	0xbcfecf86	-0.031104814
241	0xbc8e4b85	-0.017369995
242	0x3c7ffd7e	0.015624402
243	0x3ce8b1ef	0.028405158
244	0xbd192dec	-0.03739731
245	0x3c21a877	0.009866825
246	0x3d3d84ce	0.04626923
247	0x3d5ec678	0.054388493
248	0xbd1aaa35	-0.03775998
249	0x3c0865c4	0.008325044
250	0xbd383d7f	-0.044980522
251	0xbd6fbd5c	-0.058530197
252	0x3d88f05e	0.066864714
253	0x3ae6254e	0.0017558725
254	0x3d3a8c32	0.045543857
255	0x3c310de9	0.010806539

conv2d_3.0.bias f4 [64]
0	0x3d6ffe68	0.05859223
1	0xbd4d7851	-0.05016357
2	0xbd15955e	-0.0365194
3	0x3dd01ee1	0.1016214
4	0x3d5d78ae	0.054070167
5	0x3d1a92fa	0.037737824
6	0xbd7f72e8	-0.062365443
7	0x3ce068ff	0.027393816
8	0x3d850c8e	0.06496535
9	0xba8c6630	-0.0010711607
10	0x3dcd1c8f	0.10015213
11	0xbda08ca0	-0.07839322
12	0xbd368f28	-0.04457012
13	0x3c0490dc	0.008091178
14	0x3d960132	0.07324447
15	0x3d9a5cd3	0.07537236
16	0xbd49fd4a	-0.04931382
17	0xbca009e6	-0.01953597
18	0xbccbe192	-0.024887834
19	0xbdb60f98	-0.08889693
20	0x3dbc43bf	0.09192609
21	0xbbd5162f	-0.0065028886
22	0x3ccdd456	0.025125664
23	0xbd6c08ef	-0.057625707
24	0x3c88f93b	0.016720405
25	0xbc2da8a3	-0.010599288
26	0x3d522b42	0.051310785
27	0x3dccd98b	0.100024305
28	0x3de574de	0.11203931
29	0xbb227d03	-0.002479375
30	0x3c27da17	0.010244868
31	0x3c89fbb4	0.016843654
32	0x3d03ef53	0.03221066
33	0xbd78f1bc	-0.06077741
34	0x3a485a82	0.0007642881
35	0xbd4cdfdf	-0.050018188
36	0x3ca75830	0.020427793
37	0xbcbced8b	-0.023062488
38	0x3c78ac12	0.0151777435
39	0x3c1aaf9a	0.009441281
40	0x3c0847a1	0.008317859
41	0x3d700d8d	0.058606673
42	0x3c0f0492	0.008729117
43	0x3d9445a2	0.07239844
44	0xbd5acd44	-0.053418413
45	0x3ddc50fe	0.107576355
46	0xbd2acff7	-0.041702237
47	0xbd8945a1	-0.06702734
48	0xbd107c8b	-0.035275023
49	0x3d4c60b3	0.049896907
50	0xbd03df2a	-0.032195248
51	0x3dc3b16f	0.09555327
52	0xbd8896da	-0.06669398
53	0xbd5acea9	-0.053419743
54	0xbc3d3490	-0.011548176
55	0x3d17ea27	0.03708854
56	0x3c0dc655	0.008653243
57	0x3d37f51e	0.044911496
58	0xbd1cf9eb	-0.038324278
59	0xbd72dfdc	-0.05929552
60	0xbd81bb88	-0.06334597
61	0x3dbad4ee	0.09122644
62	0xbd63ff77	-0.055663552
63	0xbcff1255	-0.031136671

conv2d_3.2.weight f4 [64, 64, 3, 3]
0	0x3c8c5515	0.017130414
1	0xbd3a6c54	-0.045513466
2	0xbd743df2	-0.05962939
3	0xbd81ef9e	-0.063445315
4	0xbc1120f3	-0.008857953
5	0xbc2ea7a7	-0.010660089
6	0xbcb03c95	-0.021513263
7	0xbca11cbe	-0.019667026
8	0x3ca71702	0.020396713
9	0x3c9b5664	0.018962093
10	0x3ca5bc3e	0.020231362
11	0xbbf14ac2	-0.007363648
12	0xbccd0e63	-0.025031274
13	0x3d091cd1	0.033474747
14	0x3cc1e7f6	0.023670178
15	0xbc76b58b	-0.015057932
16	0xbcda61f8	-0.026658043
17	0x3c9d8225	0.019227097
18	0x3d30db84	0.043178096
19	0x3c8f69d2	0.017506514
20	0xbb94871f	-0.0045327093
21	0x3cd3261a	0.025775004
22	0xbb7913dd	-0.0038006224
23	0x3c723646	0.014783448
24	0xbd83ee12	-0.06441893
25	0xbd67b0f2	-0.056565233
26	0xbcf8c380	-0.03036666
27	0x3c8671c5	0.016411671
28	0xbd159b43	-0.036525022
29	0xbbc32d0d	-0.005956298
30	0x3d5c571d	0.053794015
31	0x3d621c84	0.055202976
32	0x3cceb8fb	0.02523469
33	0x3c7caefb	0.015422578
34	0xbd18c6ec	-0.03729908
35	0x3cd0978d	0.02546289
36	0xbc588316	-0.013214847
37	0xbd5a3769	-0.0532755
38	0x3c668de9	0.01407192
39	0x3cd5937a	0.026071299
40	0x3c9b448f	0.01895359
41	0xbd2c4ea3	-0.04206718
42	0xbc18bca1	-0.009322316
43	0xbcdaf4e1	-0.026728095
44	0x3b0bf5c1	0.0021356198
45	0xbcc4813f	-0.02398741
46	0xbc2a6fa3	-0.010402593
47	0x3ce11f87	0.027480854
48	0x3d1d8c2d	0.03846376
49	0xbc018baf	-0.007906838
50	0xbd33d348	-0.043902665
51	0xbd0ca869	-0.034340296
52	0xbd3606cd	-0.04444008
53	0xbd62640b	-0.05527119
54	0xbb601dd6	-0.003419747
55	0xbc4084cf	-0.011750414
56	0x3b52b0fe	0.0032148953
57	0xbd3dba08	-0.04631999
58	0xbbe359c0	-0.0069381893
59	0xbd02a9cb	-0.03190021
60	0x3d9ec3f9	0.077522226
61	0x3cb94cad	0.02261957
62	0xbd30a13e	-0.043122523
63	0xbdb0fad0	-0.08641589
64	0xbd908bd0	-0.07057917
65	0x3c874913	0.016514337
66	0xbcf91c25	-0.030408928
67	0x3d50c5fc	0.050970063
68	0xbcbae786	-0.022815477
69	0xbcb78115	-0.022400418
70	0xbca26be8	-0.019826844
71	0xbc836cf8	-0.016043171
72	0xbd1ea399	-0.038730238
73	0xbc51fe83	-0.012817028
74	0x3c8e11a3	0.017342394
75	0xbd3dc24e	-0.04632788
76	0xbd237ba4	-0.039912835
77	0xbce7791a	-0.028255988
78	0x3c7709b0	0.015077993
79	0xbbc50301	-0.006012321
80	0xbc4ecefd	-0.012622592
81	0x3ce04be6	0.027379941
82	0x3d112fe9	0.03544608
83	0xbd16cef9	-0.03681848
84	0xbd47b257	-0.048754063
85	0xbd4cd8be	-0.05001139
86	0xbbacc12e	-0.0052720523
87	0xbcef2630	-0.029193014
88	0x3cd682dc	0.026185445
89	0x3ce66604	0.028124817
90	0xbd9fd3de	-0.07804082
91	0xbca05eee	-0.019576516
92	0xbd6b9116	-0.05751141
93	0xbd14107b	-0.03614853
94	0xbcd1499f	-0.0255478
95	0xbb133c01	-0.0022466185
96	0xbbb0bfc7	-0.0053939554
97	0xbbbdfc3e	-0.005797892
98	0xbd0dfe91	-0.0346666
99	0x3d1315b7	0.03590938
100	0xbc9ecb7e	-0.019384142
101	0x3cb24d86	0.021765482
102	0xbad30bd6	-0.001610155
103	0xbbe6faa0	-0.00704892
104	0x3c7a8806	0.01529122
105	0xbd23c1c8	-0.039979726
106	0xbd279833	-0.040916633
107	0x3c442e8b	0.011973987
108	0xbc03e105	-0.008049254
109	0xbc8c159e	-0.017100152
110	0x3d12a653	0.03580315
111	0x3cab9a62	0.020947639
112	0x3cff9c88	0.03120257
113	0xbc8428c6	-0.016132724
114	0x3b8c8136	0.004287864
115	0x3aff1011	0.0019459744
116	0xbcfc5273	-0.030801034
117	0xbd0a6f74	-0.033797696
118	0xba949909	-0.0011337112
119	0xbc1bfd7f	-0.009520887
120	0xbd245612	-0.040121146
121	0xbcf0614f	-0.029343275
122	0x3ca8e214	0.020615615
123	0x3cde1d2d	0.027113521
124	0xbbce14e5	-0.006289112
125	0x3cdc90c3	0.026924497
126	0x3c852482	0.01625276
127	0xbd1caa63	-0.03824843
128	0xbca6f27e	-0.020379301
129	0x3c5fa355	0.013649781
130	0x3c33fc94	0.010985512
131	0x3cd61cbf	0.026136754
132	0xbc9f2d9d	-0.01943093
133	0x3c8386c9	0.016055482
134	0xbb28bba7	-0.0025746615
135	0xbc4d7253	-0.012539464
136	0xbc9a8995	-0.018864432
137	0xbcc5e067	-0.024154855
138	0x3c92297d	0.017842049
139	0x3cab7569	0.020930009
140	0x3ceace7f	0.028662918
141	0x3b412529	0.0029471612
142	0x3cb46ee5	0.022025535
143	0x3cad15a3	0.021128481
144	0x3c99dae5	0.018781135
145	0x3c4f64ae	0.012658281
146	0xbb1c716f	-0.0023871323
147	0xbcd70970	-0.026249617
148	0xbcafe022	-0.02146918
149	0xbc0fc0fe	-0.00877404
150	0xbd0cf87f	-0.03441667
151	0xbcac088b	-0.021000167
152	0xbb6acbe2	-0.003582709
153	0x3c6f8564	0.014619205
154	0xbd366158	-0.044526428
155	0xbc6da926	-0.01450566
156	0x3e06c5b6	0.13161358
157	0x3da67740	0.08128214
158	0x3da21a9b	0.07915231
159	0xbcbcfcd4	-0.023069777
160	0x3cc88c17	0.024480863
161	0xbd49d993	-0.04927976
162	0x3c0147d5	0.007890661
163	0xbccb1b57	-0.02479331
164	0x3cddfeef	0.0270991
165	0xbc2ed213	-0.010670203
166	0xbc90ab47	-0.017659796
167	0xbd314400	-0.04327774
168	0xbc69539e	-0.014241127
169	0xbca2b14c	-0.019859932
170	0xbcc4044c	-0.02392783
171	0xbd25b620	-0.04045689
172	0xbcc3e062	-0.023910705
173	0xbc38abd3	-0.011271435
174	0xbc20b806	-0.0098095
175	0xbc4b15c0	-0.012395322
176	0x3c98aa97	0.018636031
177	0x3cfbb2c3	0.030724889
178	0xbd6b1fc6	-0.05740335
179	0xbd818458	-0.06324071
180	0xbcc46370	-0.023973197
181	0xba682fe6	-0.0008857235
182	0x3b9cfd8c	0.0047909673
183	0xbd05f981	-0.03270865
184	0xbd2f3203	-0.042772304
185	0x3c9f3dae	0.01943859
186	0x3c191abf	0.009344756
187	0xbd54f276	-0.05198904
188	0xbc73f4ee	-0.014889939
189	0xbd379b9e	-0.044826142
190	0xbafc68ce	-0.0019257308
191	0xbd8750b5	-0.066071905
192	0x3c9393a2	0.018014733
193	0x3c99574c	0.018718384
194	0x3d1bd164	0.038041487
195	0xbd79b475	-0.060963113
196	0xbd78fa27	-0.06078544
197	0xbd8fd61b	-0.07023259
198	0xbbf1af52	-0.007375636
199	0x3cdf9211	0.02729133
200	0xbc072106	-0.0082476195
201	0xbc8c1543	-0.017099982
202	0x3ba76064	0.005107926
203	0xbd009a43	-0.031397115
204	0xbd478e38	-0.048719615
205	0xbc8a96db	-0.016917637
206	0x3c52bd8c	0.012862574
207	0xbd79a7a3	-0.060950886
208	0xbb6c7103	-0.0036078102
209	0x3bbb588a	0.005717342
210	0xbb9b70e5	-0.0047436827
211	0x3d38c47f	0.04510927
212	0x3c298575	0.01034676
213	0x3c6e061d	0.014527825
214	0x3b428b3d	0.0029685043
215	0xbd0e33a1	-0.034717206
216	0x3bbe665b	0.0058105416
217	0x3ce9687f	0.02849221
218	0x3cf7fe90	0.030272752
219	0xbd42db98	-0.047572702
220	0x3bb6da99	0.005580258
221	0xbb47d304	-0.0030490765
222	0xbd2cd7dc	-0.042198047
223	0xbd48caa6	-0.049021386
224	0xbd0bc5db	-0.034124237
225	0x3c90e03c	0.017685048
226	0xbd4800e5	-0.048828978
227	0xbb4df643	-0.00314273
228	0xbc6190c1	-0.013767422
229	0xbcc75cdf	-0.024336277
230	0xbbeea0cc	-0.007282352
231	0xbb13701f	-0.002249725
232	0xbc90a906	-0.017658722
233	0xbd35859e	-0.04431688
234	0xbc81706a	-0.015800674
235	0x3b001fbc	0.0019550165
236	0x3c4d882a	0.012544671
237	0xba4a8629	-0.000772568
238	0xbcb01339	-0.021493541
239	0xbccdd388	-0.02512528
240	0xbd1f19bc	-0.0388429
241	0x3c08cbf0	0.008349404
242	0xbd08c6e5	-0.033392806
243	0x3c617f3a	0.013763243
244	0x3ba4dad6	0.00503097
245	0xbcabb015	-0.020957986
246	0x3baf8089	0.0053558988
247	0xbc48e225	-0.012260948
248	0xbce4ba8f	-0.02792099
249	0x3ab6be1c	0.0013942155
250	0xbc86f884	-0.016475923
251	0xbc4e0486	-0.012574321
252	0x3bc984c9	0.0061498624
253	0xbca38d5a	-0.019964863
254	0xbbd9b001	-0.0066432958
255	0xbcbd1ad5	-0.023084084

conv2d_3.2.bias f4 [64]
0	0x3a9ebcd6	0.0012110721
1	0xbc4f960b	-0.01267005
2	0x3c1f97a4	0.009740744
3	0x3d8be9a7	0.06831675
4	0x3cac4e29	0.021033363
5	0x3c19155e	0.009343473
6	0xbd37ff5c	-0.044921264
7	0x3cf92bca	0.030416388
8	0x3b3cc9c8	0.0028806794
9	0xbc56209a	-0.013069296
10	0xbd05f739	-0.032706473
11	0xbd7269ef	-0.059183057
12	0x3b2a3caa	0.00259761
13	0x3ca4a6c2	0.020099048
14	0xbcd3cd8b	-0.025854846
15	0xbb54e727	-0.003248641
16	0x3c15efc7	0.009151406
17	0xbd158df8	-0.036512345
18	0xbc924164	-0.017853446
19	0x3d0f2b18	0.034953207
20	0xbd479728	-0.04872814
21	0xbd38766f	-0.045034822
22	0xbd8ae58b	-0.06782063
23	0x3c820a2b	0.01587399
24	0x3d0aa931	0.03385276
25	0xbd703ea3	-0.058653485
26	0xbd07afe3	-0.033126723
27	0xbd05b9c2	-0.032647856
28	0x3af2329b	0.0018478216
29	0xbd868183	-0.06567671
30	0x3c7345de	0.014848201
31	0xbc29141f	-0.010319739
32	0x3cb6e34e	0.022325184
33	0xbd147843	-0.036247503
34	0xbd216354	-0.039401367
35	0xbd223bb6	-0.039607726
36	0xbb683732	-0.003543329
37	0x3c2dea26	0.010614907
38	0xbc3f58c7	-0.011678881
39	0x3ab447a2	0.0013754258
40	0xbd458cf4	-0.048230127
41	0xbd486005	-0.048919696
42	0xbb9b89ff	-0.004746675
43	0xbd1ab12f	-0.03776663
44	0xbc7d8cf9	-0.015475505
45	0xbd0e39bd	-0.034723032
46	0x3dc7ea89	0.09761531
47	0xbc309e6c	-0.010779958
48	0xbcf334bc	-0.029688232
49	0x3cc87e8d	0.024474407
50	0xbb75b442	-0.0037491475
51	0xbb536f51	-0.0032262395
52	0xbce44d68	-0.027868941
53	0xbc56138b	-0.013066183
54	0xbc935c20	-0.017988265
55	0xbb15c2d3	-0.002285172
56	0xbd1ffee4	-0.039061442
57	0xbd478b9b	-0.048717123
58	0x3dbddb08	0.092702925
59	0x3cd2937e	0.025705095
60	0x3d73d1ab	0.059526127
61	0x3d78a55d	0.060704578
62	0x3b124aae	0.0022322345
63	0x3c5587e2	0.013032885
