models/model15_logflux_lr005_nofs_X0.pth (torch, 622686 bytes, 16 tensors)

conv2d_1.0.weight f4 [16, 1, 3, 3]
00000000: 99f5 3a3e f26f c7bd 30ba 7fbe 39bd cd3d
00000010: b945 3cbe 62f6 613e fee3 7c3e abe5 34be
00000020: ca3c 90be 442b 963e 9a38 84be 6c9d 513e
00000030: 20e8 11bc ff7b 30be e576 133e 6369 cbbd
00000040: 2882 42be 95f5 993e 8e9b 88be ab6e 583c
00000050: 131d 1fbe 36af fc3d 860d f5bd e393 66be
00000060: 560f 2ebd b617 d73d c041 12bd 7976 553e
00000070: c5e6 f93d a8a6 fd3c faeb a7bc 2a1d 59be
00000080: e02b 783e 6353 48be ac21 953e 94b5 283d
00000090: 8f03 a53d 5240 b53d 4739 debd 691b b23d
000000a0: d2dd 8d3c 0819 bebd d5a8 57be 3bd2 11be
000000b0: 4fb3 a6bd f58c adbe 3a07 11be 7c85 2c3e
000000c0: 54b8 893e d569 4fbd 279b a03e 4804 9abe
000000d0: 5229 8c3e 3800 0f3e df21 90be 4d7a b93d
000000e0: ff0e a13e 96f3 d93d 4ea4 e3bd de89 72be
000000f0: 2766 423e 172d 3e3e 9af5 83be e17f 8ebe
00000100: a321 a83e 80ee 603e 6989 8b3e 6aae 7abd
00000110: 88d3 5cbe a036 203e 54d3 eabc 03ea 87be
00000120: aaf7 c03d bd60 98be 2db9 90be 270f 06be
00000130: 071b 9abe 54df 6a3e 7ac3 303e f4dc debd
00000140: 905f 3f3d 0583 993e 773e f3bd 6e46 36be
00000150: 4d06 a0bb 4105 b63d 2404 7abe 87ed 083e
00000160: d20a 9f3d ff09 a73e b9cf 8fbd 464a dabc
00000170: 87fb d33d 87f6 5f3e 4c39 99be 1aad b93d
00000180: 8be1 5bbe 255b 54be 0699 0b3d 3fd9 38be
00000190: afdf 9dbd e363 273e 0f3a 903e 3c2b 91bd
000001a0: 73b7 1e3e c0f2 12bc 9b46 8a3e b4d4 debc
000001b0: 30e9 80bd 8319 38be db05 84bd c03f 1b3e
000001c0: 8b8d 60be 4b20 44bd bb45 e6bd 56e2 2c3e
000001d0: 3a01 89be ffa2 9dbe c87b 2fbe 63fb 133e
000001e0: 3b3b fc3d eb99 64be d690 793d 40a5 c2bd
000001f0: 1b4e b33d b87a 9ebe 722f 4cbe 3d5b 66be
00000200: a464 90be cdbc adbe ba90 a5be bb3d 2cbe
00000210: 363f b43e 3b1f ac3e f51a 2dbd e431 b3bd
00000220: 0b39 abbd 6496 9dbe 7bd7 d1bd 7921 8d3e
00000230: ab77 dabd 2e11 01be 5bef 4c3e 426f a33e
0.1825775 -0.09738149 -0.24973369 0.10045857 -0.18385972 0.22066644 0.24696347 -0.17665736
-0.28171378 0.29329884 -0.25824434 0.20470208 -0.008905441 -0.17234801 0.14400823 -0.0993221
-0.18994963 0.30070177 -0.2668118 0.013209979 -0.15538435 0.12338106 -0.1196547 -0.22517352
-0.042495094 0.105025694 -0.035707235 0.20845975 0.12202219 0.030963257 -0.020498265 -0.21202531
0.24235487 -0.1956306 0.29127252 0.04118879 0.080573194 0.08850159 -0.108507685 0.08696634
0.017317686 -0.09282118 -0.21060498 -0.14240353 -0.08139669 -0.33896604 -0.14162913 0.16847795
0.26898444 -0.05063804 0.31368372 -0.3008139 0.27375275 0.13964927 -0.28150842 0.0905653
0.31456754 0.106421635 -0.11115323 -0.23685405 0.1898428 0.18571888 -0.25773317 -0.2783194
0.32838163 0.2196598 0.27253273 -0.06120149 -0.21565068 0.15645838 -0.028665222 -0.26545724
0.09422238 -0.29761305 -0.28266278 -0.13091718 -0.30098745 0.22936755 0.17262068 -0.10881987
0.046721995 0.29982772 -0.118771486 -0.17800304 -0.0048835636 0.08887721 -0.24415642 0.1337186
0.07765736 0.32624814 -0.07022042 -0.026646744 0.103507094 0.21871386 -0.29926527 0.0906622
-0.21472757 -0.20737894 0.03408148 -0.18051623 -0.0770868 0.16346698 0.28169295 -0.070883244
0.15499668 -0.008969009 0.27006993 -0.027201034 -0.06294477 -0.17978482 -0.06446429 0.15161037
-0.21928994 -0.04788236 -0.11243769 0.16883215 -0.26758748 -0.3078842 -0.17137063 0.14451365
0.12315985 -0.2232434 0.060929142 -0.09504175 0.08755132 -0.30953002 -0.19939974 -0.22495742
-0.28201783 -0.33933106 -0.3233698 -0.16820423 0.35204476 0.33617577 -0.042262036 -0.0874975
-0.083604895 -0.307788 -0.10246178 0.275646 -0.10667356 -0.1260421 0.20013182 0.3192082

conv2d_1.0.bias f4 [16]
00000000: c23b 0e3e eb7d bc3c b3f4 58be 111e 76be
00000010: c68a 783d f301 8c3d c9c3 11be c156 82be
00000020: 3c1a a93e 041b 8e3d cd8f 0d3c f8f0 5b3e
00000030: 663b 96be 8216 87be a229 53be 22fa 8abb
0.13889983 0.023009261 -0.21187095 -0.24034907 0.06067922 0.06836309 -0.14234842 -0.25456813
0.33027828 0.069387466 0.008640242 0.21478641 -0.29342192 -0.2638436 -0.2062135 -0.004241244

conv2d_1.2.weight f4 [16, 16, 3, 3]
00000000: cfd2 7d3d 4714 383c 39b6 153d 5d84 c43d
00000010: 7194 5f3c 4a02 673d ae51 da3c 73fd d23d
00000020: c5ad 0b3e 6695 9abc f21d 03bd 474d 1f3d
00000030: 62d9 8bbd 831a 23bd df5e 053d ddea 62bd
00000040: 3453 9a3d 3645 da3c be48 073d 36b1 43bc
00000050: 0413 9f3d 0b76 9cbc 5c73 a4bd be33 36bd
00000060: 6e57 433d 1b7b 99bd 5b45 2abd 38aa 38bc
00000070: f82c 80bd ef08 b03c 6535 8abd 8a76 5ebd
00000080: 97c4 693d b17e 4cbd 5813 58bd ab0c 20bd
00000090: 2a94 cd3d a5cb e5bc d23e d13d 3f9e 803d
000000a0: c63d e33c 6e78 1d3d a6e5 dc3c 4d5e 7f3b
000000b0: 2eb7 9f3d 1b3a 77bd de0d 2d3d 8bda b03a
000000c0: ca66 aabc 9749 babd 3de4 9e3d 9c74 693d
000000d0: a74e 23bd ef63 e13c 2282 ef3c 183e ec3d
000000e0: 5cca a83d 4ab1 02bd 565a 733d 5e8b 1cbd
000000f0: 9530 843d 4d21 dc3d 59f8 10bd 5784 0c3e
00000100: 5724 b8bc da32 273d a6c0 733c aeba d53d
00000110: 7227 06bd a36d f23d e274 413c 3129 6f3d
00000120: 4398 7a3d 3417 3f3d 0931 713d 88ef 873d
00000130: 2858 f03d 9679 c93c 5cab 003b f4b0 133c
00000140: 5b87 f53d 0e6c 9d3d bd73 27bd 18f2 89bd
00000150: 116b 86bd 93cc 003d d008 5ebc 37fe 77bd
00000160: 6265 84bd 3526 fdbc 93b0 873d 3ddd db3d
00000170: 362d 61ba d69d c83d a259 893c 6d6d 5a3d
00000180: c1a5 a83c 4743 af3c fe66 0c3e 28ea a33c
00000190: 971e ef3c 8e68 3f3d 6d21 01bd e4cd 87bd
000001a0: a8c4 e03c 586c 613c 9a97 09bd 77f0 a63d
000001b0: 48bb 453d e290 853d 5ed7 353d 7f7c a23d
000001c0: a888 083d 56c5 83bc c009 163d db4e 823c
000001d0: 604e 2e3c 4e8d 11bd 5618 62bb e009 923c
000001e0: 0cb9 99bd 46d7 8cbd b6ee 0d3d 3062 44bd
000001f0: 2bda 88bd 5a55 833d 2f41 2c3d 041e 283d
00000200: 2b28 ca3d f484 433d 864c f33d 6be2 933d
00000210: 0fbc 003e 38f4 a23d 3bcb 9c3d 5fba 17bd
00000220: cb0b 983b 7180 c43d 6259 b93d 6d16 6b3d
00000230: d84d 743d 7b3c fc3b 7081 bf3d 33c1 a03d
00000240: 0225 9cbd 40f9 69bd 38a6 a1bd 6695 e73c
00000250: ac7c 893d c050 6abd de38 1cbd 2850 05bd
00000260: 4029 943b 96ec 23bc d629 4f3d 568f e13b
00000270: cc61 913d 4317 a63d 401b 963d 52d8 95bd
00000280: 982e 22bd 34cd 9abd ac1f 893d 787f 67bd
00000290: 708b d33c 8eb7 063d 76a5 9a3d 58bb 2b3d
000002a0: 48cb 593d 96cc 76bd c3c1 4ebd f869 65bd
000002b0: bb1e 383d d8bb 373d 8b7d 253c 16fa 573d
000002c0: 6b2f 4cbd cba3 083c 9456 9abd 40f9 abbb
000002d0: 5608 4abd 6bba c1bc 3022 c2bc d849 10bd
000002e0: 4354 39bd 76e7 273d 566d 803a 5b2e 123d
000002f0: 1687 0e3d cb4e d9bc 9425 96bd 768c b0bc
00000300: 6bc2 973b 6397 a1bd b639 4a3c ab32 98bb
00000310: 5e64 5abd 0661 71bd bb87 a63d 5741 a0bd
00000320: 3ebb 88bd ab43 583b 2223 9fbd 2bf5 8fbb
00000330: 5812 223d bb25 0abd ae92 10bd cedb 63bd
00000340: 6088 2d3c e601 f83c fbd1 c93c ceaa 6cbd
00000350: 60e1 52bc b357 68bd b025 973c 33f4 83bd
00000360: c031 b1bb d0ef a3bc 6029 f3bc 0eb2 0abd
00000370: 589e 2ebd 7e73 6fbd b3fe 8fbd 52e7 883d
00000380: 565f dbbb a802 56bd 8060 cfbb dc66 a2bd
00000390: 6b49 3cbd 5681 423c 4010 0c3c 6b66 79bd
000003a0: 8025 5c3b ebe1 433d 002b edbb 0b20 6e3c
000003b0: 4b78 e43c 8e57 6a3d 401d 04bd fbda 553d
000003c0: 48fd 66bd e6a5 5dbd eb13 c33b 0610 7a3d
000003d0: 309f 42bd 4ead 1dbd f0fd c2bc 0606 98bc
000003e0: 3eb0 73bd ab5d 3d3b f607 0abd e485 87bd
000003f0: 663d be3c c0b1 2a3d 1330 0e3d 26a5 8fbc
0.06196862 0.011235303 0.036550734 0.09595559 0.013646231 0.056398667 0.026650276 0.10302248
0.13640507 -0.018870067 -0.03201098 0.038892057 -0.06828572 -0.039820205 0.03256118 -0.055399764
0.07535401 0.02664433 0.033028357 -0.011944106 0.07767299 -0.019099256 -0.080298156 -0.04448294
0.0476908 -0.07494184 -0.04157005 -0.011271052 -0.06258577 0.021488635 -0.067484654 -0.054312266
0.05707225 -0.04992551 -0.052752823 -0.03907458 0.10038026 -0.028051207 0.1021706 0.06280183
0.027739417 0.03844493 0.026964974 0.003896612 0.07798611 -0.060358148 0.042249553 0.0013492865
-0.020800967 -0.090960674 0.07758377 0.056995973 -0.03986993 0.027513472 0.029236857 0.11535281
0.08241722 -0.031907357 0.059412323 -0.03821885 0.06454579 0.10748539 -0.035393093 0.13722359
-0.022478266 0.04081998 0.014877474 0.10435997 -0.03275246 0.11837318 0.011807652 0.058388893
0.061180364 0.046652988 0.058884654 0.06637484 0.117355645 0.02459411 0.0019633388 0.009014357
0.11988708 0.076866254 -0.04088186 -0.06735629 -0.0656339 0.031445097 -0.013551906 -0.060545173
-0.0646465 -0.030902008 0.06625476 0.10735557 -0.0008589806 0.0979573 0.016766373 0.053327013
0.02058685 0.021394385 0.13711163 0.020009115 0.029189391 0.04673057 -0.031526018 -0.066310674
0.027437523 0.013758741 -0.033591844 0.08151334 0.04827431 0.06521775 0.044394843 0.07933902
0.03333345 -0.016085308 0.036630392 0.015906742 0.010638803 -0.03553515 -0.0034499369 0.017826974
-0.07505998 -0.06876998 0.03465148 -0.0479452 -0.06682237 0.06412764 0.04205435 0.04104425
0.09870943 0.047734216 0.1187983 0.0722092 0.12571739 0.07956737 0.07655951 -0.03704297
0.0046400777 0.09594811 0.090502515 0.057394434 0.05964455 0.0076976395 0.0935086 0.0784935
-0.07624246 -0.05712247 -0.07893032 0.02826948 0.067132324 -0.057205915 -0.03814017 -0.032547146
0.004521519 -0.010005137 0.050577007 0.006883542 0.070987314 0.081099056 0.07329416 -0.073166505
-0.039595217 -0.07558671 0.06695494 -0.056518048 0.025823325 0.032889895 0.075510904 0.04192671
0.05317238 -0.060253702 -0.050477754 -0.056009263 0.04495118 0.044856876 0.010100733 0.052728735
-0.04984991 0.008339833 -0.07536045 -0.005248219 -0.049324356 -0.023648461 -0.023697942 -0.035226673
-0.045246374 0.040992223 0.000979821 0.03568874 0.034796797 -0.02652683 -0.07331386 -0.021551352
0.0046313307 -0.07890203 0.012342861 -0.004644712 -0.053318374 -0.05893042 0.08131357 -0.078249626
-0.066763386 0.0032999318 -0.07770373 -0.00439324 0.039568275 -0.03372739 -0.035296135 -0.055629544
0.010591596 0.030274343 0.02463626 -0.05778008 -0.012871116 -0.05672426 0.018450588 -0.06443062
-0.005407542 -0.020011812 -0.029682815 -0.033861212 -0.042631477 -0.05845975 -0.07031002 0.06684746
-0.0066947145 -0.052248627 -0.0063286424 -0.07929775 -0.045968454 0.011871656 0.008548796 -0.06088869
0.0033591688 0.047822874 -0.007237792 0.014534007 0.027889391 0.057212405 -0.032254457 0.05221079
-0.05639389 -0.05411329 0.005953302 0.061050437 -0.047515094 -0.038495354 -0.023802727 -0.01855756
-0.05949425 0.0028894942 -0.033699 -0.066173345 0.023222636 0.04167342 0.034713816 -0.017534804

conv2d_1.2.bias f4 [16]
00000000: c039 a83d a0d7 82bc 5051 183d 8c84 603d
00000010: 979a a2bc b140 80bd b8a1 86bd 9eeb 1ebd
00000020: 0ff2 95bd 5583 b33d 446e 703c 584e a8bd
00000030: a8a9 d0bc 3cc9 12bd 73b6 863d a467 80bd
0.0821414 -0.015971959 0.03718692 0.054813907 -0.019849105 -0.06262339 -0.06573814 -0.03879892
-0.0732156 0.08765284 0.014674727 -0.08218068 -0.025471523 -0.035836443 0.06577768 -0.06269768

conv2d_2.0.weight f4 [32, 16, 3, 3]
00000000: 0219 48bc 4531 99bc 0b4e 32bd 7370 99bd
00000010: 0d1d c83c 4084 45bd 7a78 623c 1fe6 13bd
00000020: 6eeb 87bc 902e 44bd e0af 1e3c 03d7 223d
00000030: f64b 72bd e324 6bbd dbbe 2ebd 4ee7 26bd
00000040: e02f 0ebc 007c 7f3c 21fc 45bd e643 11bd
00000050: be33 123d 9e05 3a3c 6786 873d b505 503d
00000060: cec7 bebc e6b5 ae3c 51c1 8c3d d6d2 19bd
00000070: 398c 16bd f160 9bbd 36da c03c 022a 20bd
00000080: dd36 063d 8635 acbd 88c6 83ba ad9e 1c3d
00000090: fb28 dd3c 86d3 003d d08c 4cbd 0f5d 8a3d
000000a0: a1c1 863d da86 85bd 85ec 14bd 197c 99bd
000000b0: 541f 83bd 3230 853d 0196 933d 4198 943d
000000c0: 7f6a 58bc 4428 883d ece2 4cbd 4d9f 1f3d
000000d0: 63a8 a9bd ad47 a63c 09a4 bebb 81f1 85bd
000000e0: 12f7 443d 02bb 353d 6757 2f3d 42ae a03b
000000f0: 8a71 99bd 2ff2 813d 3762 40bc 9724 2fbd
00000100: bdc9 d3bc 96b4 b2bd 34f0 a3bd 0025 d63c
00000110: 4368 9b3a 334e 15bd d5a4 efbc a365 4abd
00000120: b44e eb3c c987 2ebd 1be9 0f3d 0551 803d
00000130: c2b4 c03a 9c4f 353c c3d6 4d3c 2c62 263d
00000140: d7de bcba 309c 1d3d f58b 82bd 4b18 0abc
00000150: 1fb5 46bd 1da4 523d 8330 b6bd 140b c6bc
00000160: f9ea f93c 2f6e cabd d64c 933d 83ad 3a3d
00000170: 0bdc 02bd ef48 b53c b2ff 963b 40d4 b7bc
00000180: 478d 2abd fc9f 843d 58a1 e1bc 3575 d939
00000190: 2109 bbbd d344 18bd d7dd a8bd 48e5 7cbb
000001a0: dcec 17bc 3473 60bd ec5d 5dbc 8f63 fbba
000001b0: 0dfd b6bd 05bc 9ebd 0550 78bd 1d45 bfbc
000001c0: 4570 97bd 43d6 073d b2a4 38bc 607b 00bd
000001d0: eeb8 8c3d d099 ce3c ef74 553d 3120 aabd
000001e0: 4b05 e3bc c2cc 3bbc ed43 eabc 0a53 993c
000001f0: 46a8 273d 6a52 493d 0675 013d cde0 6e3d
00000200: 76e9 82bc f8c9 e8bc b3c6 2fbd e891 ed38
00000210: a26e a73c 7b84 8e3c 7755 3d3d a0d0 263d
00000220: 9419 973c f829 dabc 3984 833d f59b 633d
00000230: c26a 293d 6835 953d 00ae 903d 3fbe 48bd
00000240: 1941 a03d e18d d53d fa9f ca3d 0854 12bd
00000250: 6e79 ef3d af4d e93d d71f 9a3d e6a6 4c3d
00000260: 377f 6ebc 069c a8bc d62f 0a3b 8094 b03b
00000270: 7434 a63d 13a9 7f3d 0b3a 90bd a617 5a3d
00000280: 56d6 ce3a 2b2e 5f3d 0068 07bd 9d2f b13d
00000290: 3efa 23bd d562 1ebd bfff e3bc 1315 723d
000002a0: 261d 1f3d 6d33 ed3a ad4b 3bbd ce4c 263c
000002b0: 210a 97bd 80da 63bd f57d a8bc 6780 543d
000002c0: 973d 30bd a78a 64bd 0b62 623d ca72 8b3d
000002d0: 706a 43bd 0106 d93c 7bbd 653a e834 813d
000002e0: 5148 a5bd dfe8 733b 9944 4a3d f949 933d
000002f0: d9d9 9c3d 076d fd3c ee9f 60bd 87b3 593c
00000300: d5f1 3f3d e893 b83b ca43 d53d ee9a 543d
00000310: a272 a03d 6891 463d 293d 4cbc 5467 433c
00000320: 6b63 523b 6b49 203c a3cb 55bd 4768 2a3d
00000330: e8cf 35bc 25a6 87bd 44bd 893d 310f 26bb
00000340: 6295 b53c 6f8a e83c 25bd 71bd 92e5 16bd
00000350: 1009 d7bb 9129 833c d9e6 a93c a854 f7bc
00000360: 255a 483d 0fb1 203d c24f 413d 1579 9fbb
00000370: e230 9cbd 6510 babd 13e6 583c 6342 443b
00000380: b3ed 7ebd af2e 443d e9fc b23c bab0 6d3d
00000390: fea6 bbbc 9490 7fbd bdf0 6ebd ea8a ea3b
000003a0: ee98 743d 0061 b13d d86d 0aba f496 e6bb
000003b0: e410 3bbc bfd1 66bd dda7 a7bc 0baa f53c
000003c0: eeae 42bd a00e 163d b97c 8cbd 6b16 2cbd
000003d0: 905c cbbc a27b 823d 7643 4abc 1eee 16bd
000003e0: 894c 29bd 1260 803d 8d5b 3b3d 96d2 95bd
000003f0: 129e 063d b2c9 35bd 4914 81bb 1d0c 02bd
-0.012212994 -0.018700251 -0.04353146 -0.07492151 0.024427915 -0.048221827 0.013822669 -0.036108132
-0.016591754 -0.047895968 0.009685487 0.039755832 -0.059154473 -0.057408225 -0.042662483 -0.040747933
-0.0086784065 0.015593529 -0.048336152 -0.035465144 0.035693876 0.011353878 0.06617432 0.050786693
-0.023288634 0.02132697 0.0687281 -0.037554584 -0.03675482 -0.075868495 0.023541551 -0.03910256
0.032767165 -0.08408646 -0.0010053674 0.038237263 0.02699708 0.031451724 -0.049938977 0.06756031
0.065799005 -0.065198615 -0.036358375 -0.07494373 -0.0640246 0.06503333 0.07206345 0.07255603
-0.013208984 0.06648305 -0.050021097 0.03897028 -0.0828407 0.02029785 -0.0058178944 -0.06540204
0.048087187 0.044367798 0.042807963 0.0049035857 -0.07492359 0.06345021 -0.011742166 -0.042759504
-0.025853032 -0.0872585 -0.080047995 0.02614069 0.0011856634 -0.03645153 -0.029253403 -0.049413335
0.028724052 -0.042609964 0.035134416 0.06265453 0.0014702308 0.011066344 0.01256341 0.040620968
-0.0014409673 0.03847903 -0.06374351 -0.008428643 -0.048512574 0.051426042 -0.088959716 -0.024175204
0.030507552 -0.09884297 0.0719239 0.04557563 -0.03194813 0.022129504 0.004608118 -0.022440076
-0.04163864 0.06475827 -0.027542755 0.0004147679 -0.091326006 -0.03717501 -0.082454376 -0.003858881
-0.00927278 -0.054797366 -0.013511162 -0.0019179451 -0.08934984 -0.07750706 -0.060623188 -0.023348385
-0.073944606 0.03316332 -0.011269735 -0.03136766 0.0687121 0.025219828 0.05211347 -0.08306921
-0.027712485 -0.011462392 -0.028596843 0.018716354 0.040931962 0.04915086 0.031605743 0.058319855
-0.015980463 -0.028416619 -0.042914104 0.00011328218 0.020438496 0.017397156 0.046224084 0.040726304
0.018444814 -0.02663134 0.06421704 0.055568654 0.041361578 0.07285577 0.07064438 -0.049009558
0.078249164 0.10427452 0.09893794 -0.03572467 0.11693083 0.1139177 0.07525604 0.049963854
-0.014556698 -0.02058221 0.0021085641 0.0053887963 0.081154734 0.0624171 -0.07042321 0.05324521
0.001578043 0.05448739 -0.033058167 0.0865166 -0.04003357 -0.038668472 -0.02783191 0.05910213
0.038846157 0.0018096991 -0.045726467 0.010150148 -0.07374979 -0.0556283 -0.020567873 0.051880267
-0.043027487 -0.05579629 0.055269282 0.06809004 -0.04770893 0.02649212 0.00087638915 0.06308919
-0.08070434 0.003721766 0.049381826 0.071918435 0.07658739 0.030935777 -0.05484002 0.013287432
0.04686149 0.005632866 0.1041332 0.051905565 0.078343645 0.048478514 -0.012465754 0.011926491
0.0032102715 0.009783129 -0.052196156 0.041603353 -0.011096932 -0.066234864 0.06725553 -0.0025338645
0.022165958 0.028386323 -0.059018273 -0.03684003 -0.0065623596 0.016011031 0.02073996 -0.030191734
0.048914094 0.039231356 0.047195204 -0.004866729 -0.07626511 -0.09085158 0.013238448 0.0029946796
-0.062238406 0.047896083 0.021849113 0.058029868 -0.022906777 -0.06239374 -0.058335055 0.007157673
0.059716158 0.086610794 -0.000528065 -0.007037038 -0.011417601 -0.056352373 -0.020465786 0.02998831
-0.047530107 0.03663504 -0.068597265 -0.042013567 -0.02482441 0.06371237 -0.0123451855 -0.03684818
-0.041332755 0.06268324 0.045741607 -0.07315557 0.03286559 -0.044381805 -0.0039391858 -0.031749833

conv2d_2.0.bias f4 [32]
00000000: f95e 41bd ec24 3c3d 07f8 813d 7713 ab3b
00000010: 11fb 30bd 2f65 66bb ca3d 113d 2d81 e53b
00000020: 7df6 3ebd 1d64 28bd 75b6 863c 18dd 953d
00000030: 4251 ea3c 904c 5fbd a736 60bd e469 82bd
00000040: 3446 0d3d 4041 253d e1a5 8ebc d9f8 6a3d
00000050: f954 c9bc b230 c5bc dffa ffbb 3efe c8bb
00000060: ea20 333b 3c4e 753c 240d 513d 0ddf 873b
00000070: d8ea 5bbd 6fd4 70bd 97b8 2c3d f345 e6bc
-0.047209714 0.04593365 0.063461356 0.0052208262 -0.043208186 -0.0035155525 0.035459317 0.0070039243
-0.04662179 -0.0411111 0.016444424 0.07317561 0.0286032 -0.054516375 -0.05473962 -0.06367853
0.03449078 0.04034543 -0.017413082 0.057366226 -0.024576651 -0.024071071 -0.0078118886 -0.0061338237
0.002733285 0.014972266 0.051037923 0.004146463 -0.05369076 -0.058796342 0.042168226 -0.028109526

conv2d_2.2.weight f4 [32, 32, 3, 3]
00000000: f875 233d 1f4a 763d 2888 75bd b42b fe3a
00000010: 68e3 28bd c149 00bc dd68 4cbc 5a6f c0bc
00000020: 317e 65bd e7a5 043b c11b 183d 3819 643c
00000030: 83f2 8c3d 9540 e63c 3f37 7b3d 2240 8c3c
00000040: 98a5 d7bc 01c1 4dbc 83f1 9ebc 58a7 0ebd
00000050: addb 493b 124b 373d f865 14bd b142 0bbc
00000060: 4eac 583d 2733 8c3d a04a 973d 32a5 903c
00000070: d175 183c 46ac a93a d921 1fbd 83ec 1b3d
00000080: 62ac dbbc 8b62 85bc c215 d43b 65fd 3cbd
00000090: 5fce 58bd 769f 7a3d c387 80bb cc1a 0e3d
000000a0: f491 5d3d fe02 adbb a0b2 de3c e1dd 11bd
000000b0: 2bf8 43bb aab9 cabc 52b3 e03c 1a3f a23c
000000c0: 93c5 66bd 9ad3 083d 71b1 983c af5c c23c
000000d0: dc8c eebc 4f84 7cbd f95b 02bd 38ee 1dbd
000000e0: 3d39 1d3d d8cf 2abd 715c 113d 360e 563d
000000f0: 6ab4 373d 05d4 a3bc 4c92 a0bb 98b6 e13c
00000100: 0c6d f53c 2e15 92bd c103 a73b 7941 39bd
00000110: 8221 21bd dfc3 44ba c38d a73c 36d7 2abd
00000120: 6a16 b73b 1bf1 de3c b88d 073c 5c3e 3dbd
00000130: 5a36 35bd 05d4 66bd 03ac 273d dcc4 a4ba
00000140: 7435 2bbd bc09 a8bc b826 7c3d 41c3 423c
00000150: 33ae 533d 4894 90bb fc49 203d 8c9f c93c
00000160: bf21 40bd 983c 00bd 7c57 09bd 8f77 573d
00000170: 9bce 073d e02a ae3c bca7 513b fb74 28bd
00000180: 2061 09bc 478b 0b3d bb4a 623d f138 33bc
00000190: 454f d6bc 1ca1 18bb 001c 543d f723 31bd
000001a0: bb9f 1d3c 3333 cd3c 8d3d 353b 1091 bdbc
000001b0: 3214 643c 98ea 4a3d 7128 633b 56a4 8f3c
000001c0: 3f5f a6bc 6e00 593b 3681 ddbc 1f43 6c3c
000001d0: 8606 40bd d346 1dbd ecf7 2e3d 5928 653d
000001e0: 0611 c73c 85b4 0c3d 7633 10bd 009e 87bb
000001f0: dc5c 87bc 9923 463b 8221 2c3d 8f18 6bbc
00000200: 550f 5b3d 8517 e43c 5d55 043d 1021 f83c
00000210: f060 c63c c382 08bb f5a9 413d 4367 5abd
00000220: 486e 283d d2b3 60bd f512 8dbc 5fcf 5d3d
00000230: 5c56 b7bc 93d0 2f3c fbd0 033d 28c9 f43b
00000240: 7c74 813d 3cbd 303d bdf9 0cbd 4b28 e1bb
00000250: ff7b 443d 2a32 833d 7402 3b3c 8ef9 363d
00000260: 9222 413c aa7c 463d f6fd 7a3d fc92 bebc
00000270: 7b99 113d 613f 1cbd cb8d 583d f2aa 82bb
00000280: 1490 923d 02a5 6b3d c781 92bc c23e 4fbc
00000290: 9822 a53c b5c6 74bd 5edd fcbc f319 953c
000002a0: f68e 1dbd d095 423d 590a 95bc 68a4 ad3c
000002b0: 4ce8 e8bc 44b2 c0bc ca4b 423d 8c60 123b
000002c0: 8808 4a3b 377b 25bd aea3 333c 7c77 0e3d
000002d0: 92c4 403d 3e74 1dbd d8d1 f6bb ee40 853b
000002e0: e082 7abc 5cfa 2f3d 4fe5 5ebc ae9d dd3c
000002f0: cbd2 103d 4264 c93b 27d3 71bd 6d58 afbc
00000300: 0755 533d a2fa 763d 5635 abbb 168d de3c
00000310: 521d 26bd af71 20bd 5208 023d 5332 053d
00000320: 9ffb d43c 6d18 e6bc 5b8c 823c 71fd 823c
00000330: faf8 66bb b59b ba3c 8885 b73b 8af3 603d
00000340: 5c9e 3b3c 0cba f3bb 2e61 44bd 2f0d 40bd
00000350: a773 223d a248 253d c982 82bc 47b6 3f3d
00000360: cb87 5e3d 7d86 f0ba 25da b63b d9c0 04bc
00000370: 57e9 4b3d cdc1 8ebc 22ed 6b3d 80f0 6e3d
00000380: ee67 a1bc f949 8e3b b67f 10bc fc58 7a3d
00000390: 44f4 d43c 03c1 e6bc 1188 c53c 1b23 4a3d
000003a0: 5782 e3bc b8b9 ebbc 65e4 1d3d f01b 5a3c
000003b0: 88f0 f03c ef59 173c ac15 a4ba 8156 253c
000003c0: ee65 2a3c 690b 973b b28a 2abb 4fba d43c
000003d0: 9a8a 8f3c aa6d 5e3c 2032 fc3b 2472 993c
000003e0: 25b7 13bb 94b1 813d 15f2 123b 060e abba
000003f0: 5e1c e2bc 8b33 24bd 026b 62bd 2666 ec3b
0.039907426 0.06012928 -0.0599443 0.0019391687 -0.041232497 -0.007830084 -0.012476173 -0.023490597
-0.05602855 0.0020240487 0.037135843 0.013922028 0.06882193 0.028106967 0.061331984 0.017120425
-0.026324078 -0.012558223 -0.019402271 -0.03482756 0.0030801103 0.044749327 -0.036230057 -0.008499787
0.052898698 0.06845694 0.073872805 0.017656896 0.009305433 0.0012945018 -0.03885064 0.038067352
-0.026815597 -0.01628234 0.0064723203 -0.046140093 -0.052931186 0.06118723 -0.003922434 0.034693524
0.05409427 -0.0052798977 0.027184784 -0.03561199 -0.0029902558 -0.024746735 0.027429257 0.01980548
-0.056340765 0.033404924 0.018639298 0.023725836 -0.029119901 -0.061649617 -0.031825993 -0.03855726
0.038384665 -0.04170212 0.03548855 0.052259646 0.04484979 -0.01999856 -0.0049002524 0.027552888
0.029959224 -0.07132946 0.005096883 -0.045228455 -0.039338596 -0.00075059937 0.02045334 -0.041709147
0.0055873888 0.027214577 0.0082735345 -0.04620205 -0.044241287 -0.05635454 0.040935528 -0.0012570876
-0.041799024 -0.020512454 0.061560363 0.0118873725 0.0516798 -0.0044122078 0.039133057 0.02461221
-0.046907183 -0.031307787 -0.033530697 0.052604254 0.03315602 0.021260679 0.0031990847 -0.041127186
-0.008384973 0.034068372 0.05524705 -0.010938869 -0.026160846 -0.0023289388 0.051784515 -0.04324719
0.009620602 0.025048828 0.0027655095 -0.02314046 0.013920831 0.049540132 0.0034661556 0.017534416
-0.020309089 0.0033111828 -0.027039152 0.0144203 -0.04688122 -0.03839762 0.042716905 0.05594668
0.02430011 0.034351844 -0.035205327 -0.004138708 -0.016523771 0.003023362 0.042024143 -0.014349117
0.05348142 0.027843246 0.03230797 0.030289203 0.024216145 -0.0020829893 0.047281224 -0.053321134
0.041120797 -0.05485899 -0.017220953 0.054152843 -0.022380047 0.01073088 0.03218172 0.0074702688
0.06321046 0.043149218 -0.034417856 -0.0068712584 0.047969814 0.064060524 0.011414159 0.044671588
0.011788027 0.048458733 0.061277352 -0.023263447 0.03554676 -0.03814638 0.0528696 -0.0039876634
0.07156387 0.05753041 -0.017884148 -0.01264924 0.020158097 -0.059759814 -0.030867275 0.01820085
-0.038466416 0.047506154 -0.01819341 0.02119656 -0.02843108 -0.023522504 0.04743556 0.0022335378
0.003082784 -0.04040071 0.010964317 0.034781918 0.047062464 -0.038440935 -0.0075323395 0.004066578
-0.015289992 0.04296337 -0.013604476 0.027052727 0.035357278 0.006145985 -0.05903926 -0.02140447
0.05159476 0.060297616 -0.005224864 0.027166884 -0.040555306 -0.039170917 0.031746216 0.032518696
0.025998889 -0.028087819 0.015936067 0.01598999 -0.0035243616 0.022779325 0.005600635 0.054919757
0.01145133 -0.00743795 -0.04794424 -0.046887573 0.039661076 0.04035247 -0.015931504 0.046804693
0.05432872 -0.0018350628 0.005580204 -0.008102619 0.049783077 -0.017426396 0.057599194 0.058334827
-0.019702878 0.0043423143 -0.008819511 0.06112002 0.025995381 -0.028168207 0.024112733 0.049349885
-0.027772112 -0.028775081 0.038547892 0.013312325 0.02941157 0.00923775 -0.0012518666 0.010091425
0.0104002785 0.0046095145 -0.002602261 0.025967745 0.017522145 0.013575951 0.007696405 0.018731184
-0.0022539583 0.063326985 0.0022422124 -0.0013050444 -0.027601417 -0.040088218 -0.05527783 0.0072143255

conv2d_2.2.bias f4 [32]
00000000: de3e 0bbd 5d9e 4c3d d980 813d a42e 89bb
00000010: 2f10 9e3d f172 a93d 0af3 0f3d 40f3 27bd
00000020: 95c1 46bd cadd 4ebd 734a 103b 0f5d 3c3d
00000030: fe7f 033d 57ef 0fbd 15d5 2fbd c7af 903b
00000040: f8dc 13bc 5ae4 07bd 7801 22bd e7b0 903c
00000050: a00c 733d d388 5e3b 33d2 c0bc c7a9 e1bc
00000060: e1fc 503d 4f72 5239 27c7 3bbb c5c6 4fbc
00000070: 6e40 633d 1b39 15bd faf2 863c d2e7 6cbd
-0.0339955 0.049955714 0.06323404 -0.004186468 0.077179305 0.082738765 0.03514389 -0.041003466
-0.048524458 -0.050504483 0.0022017031 0.045987185 0.032104485 -0.03514036 -0.04292782 0.0044154855
-0.009024851 -0.033176757 -0.039552182 0.017662479 0.059338212 0.0033956065 -0.02353773 -0.027546776
0.051022414 0.00020069744 -0.002865264 -0.012681668 0.055481367 -0.036431413 0.016473282 -0.05783827

conv2d_3.0.weight f4 [64, 32, 3, 3]
00000000: d594 e93c cfb2 6fbd eab6 52bb 5d7b 1e3d
00000010: 6c87 7bbd a361 e1bc a48b 453b 8b81 d13c
00000020: 2805 ab3c c625 41bc aab7 88bd 2a38 dcbb
00000030: 6c97 66bb 84b7 26bd 8d85 2abd de15 5cbc
00000040: e06f 2a3d 8750 02bd 359c 1fbc ee49 e33c
00000050: e08e 0d3d 8a8e 73bd 480d 2fbd 11f4 f3bc
00000060: fb61 e7bb c3a8 9c3c a63a 62bb 18ec 3c3d
00000070: 017a ed3c 2627 3fbd 5bd0 78bd fb4e f6bb
00000080: 769f d7bb bee1 89ba 51b1 b2bc 98e0 913c
00000090: 7257 f53a 5b68 e13b 6461 f3bb 2980 84bd
000000a0: bf94 debc 9491 47bd 15f0 85bd 7b83 5dbc
000000b0: 1fec 2b3c e81f 153d 9864 083d 72c5 85bd
000000c0: 3ad9 2e3c 469b b0bc 2e18 0bbd 3d6a 89bd
000000d0: 8bdb 083d a500 5abd 082c 8ebb 6917 0b3d
000000e0: 9063 00bd ad6a 06bd 159b 413d ca41 79bd
000000f0: 7b53 16bd 09f1 c43c 3379 39bd 2488 b13c
00000100: 4933 e83b 9d1e edbc 4d52 91ba 4aed 5c3d
00000110: c195 093d 67cc a9bc 3e1c 4fbd d1f0 0fbd
00000120: 1bca a53c b9be 6d3c 8551 b2bc a2bb 44bd
00000130: bb20 8dbd 1147 2bbd 1184 a53c 971c 7dbd
00000140: 55e8 383d 549c b4bc 697e ecbc 0d78 53bd
00000150: 1d5f 953c 4b04 303d b613 3b3d db29 2f3d
00000160: 88fc 503d 2dbd 2b3d b7df 6dbd dbfd 53bc
00000170: 3328 283c 3dff c43c f7f3 6b3c 1b31 353d
00000180: 6dd4 10bc f727 a73c 7b67 5cbd 0012 bf3c
00000190: dd73 05bd bb87 ba3c 40a3 0a3d 3c2e 19bd
000001a0: d1b0 33bd cf00 503d 514c f8bc 8885 3dbd
000001b0: 3a5c 943b 14a0 2a3d 80f6 89bd 298f febb
000001c0: f89e 053d b915 08bd 8e38 e93c 9326 0bbd
000001d0: a0a1 9a3c 3a12 5abd d930 59bd ef15 f13b
000001e0: f0bc 07bd 30c4 4cbd c83e c8bc 308e 083d
000001f0: 9e63 41bb 30d4 01bd 6b29 35bc 6c87 f8bc
00000200: 8e34 123d 6c32 b8bc cd3b 643c 92a3 5bbd
00000210: c94c ddbc 87ca ca3c 2169 03bd 5df2 48bc
00000220: 1084 d5bc 6c80 35bd 9a61 f43c 6ee6 ec3b
00000230: 9260 423d fb21 0cbd eb48 d0bc ab66 66bd
00000240: 2365 a2ba abf2 27bd 80a0 4dbd 3f3a f33c
00000250: 3eeb 35bd e0c1 80bd 153e 503b 838f 693b
00000260: f4a5 0a3c aecd a0bc ad67 a63c 7f47 49bd
00000270: c75a 3d3d 2aff d9bb 8bd8 4d3d 534f 72bc
00000280: cfef 64bd 3eed 503d a014 4bbd 2a61 25bc
00000290: 5494 de3c 31e7 49bd eb63 4b3d 19ec 1cbd
000002a0: 2e2a 5cbd 3033 303d 8416 c5bc 2b16 0abc
000002b0: d5b1 8bbd 4db8 b33c 9ba9 22bd 27ff e33b
000002c0: 0b8d c53a d8e8 2a3d 6c46 d93b 3b9e 1e3d
000002d0: cb91 5cbd 0bd3 293c 1460 b23c 6353 d13c
000002e0: 7890 c8bc d759 44bd 94f9 6f3c ecd9 42bd
000002f0: 7c51 e5bb 7377 2b3c 39d9 4abd d287 3bbd
00000300: bdb3 20bc 870d 253d e866 693c 3fd5 05bd
00000310: b2db 503d 0b9e 80bc 52aa 533d 7f8a 69bd
00000320: 5716 65bd 384b 273d 9ff1 343d faa1 e7b9
00000330: cfca 2c3d 8d7a 073d ab02 20bd 613e 9cbb
00000340: 8f91 23bd ca91 883c c423 3abd db58 05bd
00000350: 869a 3ebd 3db4 f33c 4120 61bd b3f8 063d
00000360: 3979 813b 794d f13c ee34 8fbc 910d 283d
00000370: 2451 8f3b c618 c7ba 93ad f6bc 6c47 65bd
00000380: acd1 8ebc 98f0 d4bb 33d1 fabc 2092 29bd
00000390: 7764 afbc 50eb 4cbd 6544 84bd 78e6 83ba
000003a0: 8297 f1bc b228 e63c 33ce 8a3c 8622 b5bc
000003b0: 8aa9 733c 2095 84bd bc3b 8abc 13c8 193d
000003c0: 1caf 49bc 1fcc 02bd f8bd 693d 32d4 413d
000003d0: 8327 e0bc 6066 1abd 22e1 febc 8363 3c3d
000003e0: 6341 0b3d 37c8 5cbd 6507 6e3c 1ddf 2a3b
000003f0: 662e 0bbd f863 0fbc d9e7 8c3c 4b45 38bd
0.028513351 -0.058520135 -0.0032152482 0.038691867 -0.061408445 -0.027512377 0.0030143047 0.025574466
0.020876482 -0.011788791 -0.06675656 -0.0067205625 -0.003518547 -0.040702358 -0.04163127 -0.013432948
0.0416106 -0.031815078 -0.0097418325 0.027745213 0.034560084 -0.059462108 -0.042737275 -0.029779466
-0.0070612407 0.01912344 -0.003451982 0.046123594 0.02898884 -0.046668194 -0.06074558 -0.0075167394
-0.0065802885 -0.0010519547 -0.021813067 0.01780729 0.0018718077 0.006878895 -0.0074273814 -0.06469757
-0.027170537 -0.04872282 -0.06539933 -0.013520117 0.010493307 0.03640738 0.03329906 -0.065318
0.010671908 -0.021558415 -0.033958606 -0.067097165 0.033412497 -0.05322327 -0.004338745 0.033957873
-0.03134495 -0.032816578 0.04726704 -0.060853757 -0.036700707 0.024040716 -0.0452816 0.021671362
0.007086192 -0.028945262 -0.001108715 0.053937234 0.033590082 -0.02072735 -0.050564043 -0.03514177
0.020237973 0.014510804 -0.021767387 -0.048030503 -0.068910085 -0.04181582 0.020204576 -0.061794844
0.045143444 -0.0220472 -0.02886887 -0.05162816 0.01823383 0.042972844 0.045673095 0.042764526
0.051022083 0.04192846 -0.05807468 -0.012938942 0.0102634905 0.024047488 0.0144014275 0.044236284
-0.008839709 0.020404799 -0.053809624 0.023324013 -0.0325812 0.0227698 0.033847094 -0.03739761
-0.043869797 0.05078202 -0.030309828 -0.046269923 0.004527596 0.04165657 -0.06736469 -0.007768531
0.032622308 -0.03322384 0.02846935 -0.033972334 0.018875897 -0.05324004 -0.0530251 0.007357351
-0.03313917 -0.049991786 -0.024443999 0.033338726 -0.002950884 -0.0316965 -0.011057238 -0.030338012
0.03569465 -0.02248498 0.013930273 -0.05362279 -0.027014153 0.024754776 -0.03208268 -0.012264815
-0.026063949 -0.044311926 0.029831696 0.007229618 0.047455378 -0.034212094 -0.025425395 -0.056250256
-0.001238976 -0.04100291 -0.050201893 0.02969086 -0.044413798 -0.06286979 0.0031775285 0.0035638518
0.008462418 -0.019629326 0.020313108 -0.04914045 0.04622915 -0.0066527324 0.05025534 -0.01478942
-0.05589276 0.0510075 -0.049580216 -0.0100939665 0.027170338 -0.049292747 0.049655836 -0.038311098
-0.053751163 0.043017566 -0.024058588 -0.008428137 -0.06821028 0.021938467 -0.03971253 0.0069579068
0.0015071941 0.041725963 0.0066307094 0.03872512 -0.053849977 0.010365258 0.02177433 0.025552457
-0.02448295 -0.04793724 0.014646906 -0.047571108 -0.006998239 0.010465491 -0.049523566 -0.045783825
-0.009808478 0.040296104 0.014245726 -0.03267407 0.050990768 -0.01570036 0.051676102 -0.057016846
-0.055929508 0.04084322 0.04417574 -0.00044180435 0.0421856 0.033075858 -0.039065044 -0.0047681783
-0.039933737 0.01667108 -0.045444265 -0.032555442 -0.046534084 0.02974903 -0.0549624 0.03295202
0.0039512184 0.029455887 -0.017481294 0.041028563 0.0043736864 -0.0015189878 -0.030112064 -0.055976316
-0.017433964 -0.0064984076 -0.030617332 -0.04139912 -0.02141021 -0.0500291 -0.06458358 -0.0010063192
-0.02949119 0.028095577 0.016944027 -0.022111189 0.014871964 -0.06473756 -0.016874187 0.03754432
-0.012309816 -0.031932946 0.057065934 0.047321506 -0.02736259 -0.03769529 -0.031113211 0.04599334
0.033997905 -0.053901877 0.01452813 0.0026072927 -0.033979796 -0.008751862 0.017200397 -0.044987958

conv2d_3.0.bias f4 [64]
00000000: 5d81 89bd 1dde e2bc 1d2d f53c e166 3dbb
00000010: b467 893d 21ae 8d3d b469 39bd 36d3 423d
00000020: cf21 edbc 3c29 683d e976 c4bc e36b 563d
00000030: 9e1e 45bc 2059 8c3d 2772 a8bc 314c bb3c
00000040: d9ed 823d f48c 103d a323 e1bc 0870 a23c
00000050: 9617 853d e19f 04bd 413d 0bbc 0a07 893d
00000060: ec12 50bd 1f2a 553c b359 833d b522 913d
00000070: fc74 123c 54b4 2f3d e2f0 c6bc af82 2cbd
00000080: b666 75bd a77f 8d3d 13e1 8cbd ead5 c539
00000090: b7dd e83c 7b4c 8e3d 6b45 2abc c198 013d
000000a0: f9ad 4cbd ee79 fdbb 702c fa3b 279a 973d
000000b0: 1a86 0cbc abc0 7cbd feac f03c 534f 20bc
000000c0: a47b 993d 0c03 a4bc 8fa3 803c 9567 583d
000000d0: 8581 1b3d 5573 e2ba 8197 31bc ec85 d63c
000000e0: 489f 4e3d 6719 2fbd ba31 4abd a7c5 ad3c
000000f0: b835 3fbd 73bb 953d 02ff 653d 69b6 ecbc
-0.06714127 -0.027693802 0.029928738 -0.0028900432 0.06709233 0.06917978 -0.045266822 0.047564708
-0.028946785 0.05667995 -0.023982482 0.052348983 -0.0120312255 0.06852937 -0.020562245 0.02286348
0.06393022 0.035290673 -0.027482813 0.019828811 0.06498639 -0.032379035 -0.008498491 0.06690796
-0.050799295 0.013010531 0.06413593 0.07086698 0.008939024 0.042896584 -0.024284784 -0.042116817
-0.059912406 0.069091134 -0.06878867 0.00037734146 0.028426034 0.06948181 -0.010392527 0.031639818
-0.0499706 -0.0077354824 0.007634692 0.07402449 -0.008576894 -0.06170718 0.029379364 -0.009784537
0.07494286 -0.020020984 0.01570299 0.05283316 0.037965316 -0.0017276803 -0.010839344 0.026186906
0.05044487 -0.042748835 -0.04936383 0.021212412 -0.04668209 0.07311144 0.056151398 -0.028895574

conv2d_3.2.weight f4 [64, 64, 3, 3]
00000000: 1b8e 2e3c b702 293d 754a c23c 0f1b ddbc
00000010: 4657 ccbc 8162 96bc 6198 8bbc b7ea 2fbd
00000020: d865 9a3c 160f 2ebb 630f 183d ab49 35bc
00000030: f2cc 17bd 2bd3 983c c348 f43c df67 07bd
00000040: 6b3f 4ebc 5e34 eabc 9cad f93c f6d3 373c
00000050: c46f 8dbc d69e bd3b 013f ff3c c7c4 823c
00000060: 33f2 11bd 6845 22bd f12a 983c a2ce 0ebd
00000070: 3868 49bc 624c efbc cf9d cfbc a91d 15bc
00000080: 7c3f 893c 3673 a1bb a04f 39bd 0de3 ad3c
00000090: 2856 5cbc 0178 823d 4861 1f3d 03f7 4b3d
000000a0: a91c 2f3c 3c0c 6c3d 77fb 513d 6b1e 863d
000000b0: d7c5 9b3d 92d9 093c fe78 f9bb 402a 763c
000000c0: c46e 933c 87d5 1bbd 2b0f 0d3c 5e14 30bd
000000d0: bd64 e1bc 5244 0abd 17aa 77bc dbd8 f4bc
000000e0: a0fb b73c e618 89bc 68c5 35bd 17df 913a
000000f0: 3b99 c1bc f08e a4ba daf0 83bb a90a febc
00000100: 9b7f e7bc a26e 0cbd 2b68 de3c ce50 54bb
00000110: 238d b33b 1567 babc 6faf 0ebd b5ae 18bc
00000120: 2938 1fbd 38fd e33c b60f 0c3d a6db 813c
00000130: 537b b9bc 7469 c6bc 8749 debc 999f 07bd
00000140: c9b4 22bd 49a1 c83c c44a e73c d890 8dbc
00000150: b8a4 71bc 3380 273c 7f7b 383c 0804 953b
00000160: 354e 2c3c 25f8 d13c 1463 eebc 9e59 6fbd
00000170: 976f 653b b284 223c 610d 43bd 1836 f5bc
00000180: ec3b 7fbd 5b28 26bd b0b6 1cbc 0122 353d
00000190: 111d 1e3d f2ba 333d ef43 233c e3a1 3a3d
000001a0: d8cd 8e3d 2654 493d b28c 823c be41 373d
000001b0: e521 c4bc d9d6 f2bc ca68 2ebd ebd7 e13c
000001c0: adb4 08bd ce42 84bc 1245 3d3d 0c86 4a3c
000001d0: 01f2 893c 8c09 523c 71eb 423d 8535 16bc
000001e0: 1d12 93bc 32b0 503d 13b6 cc3c e091 debb
000001f0: a91f b4bc 6e6f 1c3c 9df2 45bd 04b3 35bd
00000200: 6b30 eabc c8e2 8dbc cfe6 d93a 0b2a a6bc
00000210: 5ca7 06bc f8ca 9a3c 4bcb e23c 617c 3ebb
00000220: 8e82 04bc f5d3 f23c 7403 bd3b cd66 3c3d
00000230: 83ba 833c d265 0abd 754a cebc fb63 f538
00000240: 88a7 163d 8547 3ebc 51c4 033d 39ae ccbc
00000250: 9d25 153d 5dab 16bb a2c5 b73c 4eef 443d
00000260: 4d25 b53c de83 7fbb f9cd e03c 7c3c 993c
00000270: cf50 33bb b220 b13c 5f8f ef3c 176e b23c
00000280: d81d e13c acb3 243d df73 5abd 73eb aabc
00000290: 6357 a0bd 37f0 3ebd bd76 b3bc 7a12 e9ba
000002a0: 729d f4bc 7f5b cbbc 0718 ec3c 8ccb 853c
000002b0: 7b75 9dbc 97be 283d 3446 f0bc 97e6 9a3c
000002c0: 32e8 143c 1ab4 613c d931 413c 3331 f8b9
000002d0: 53ad 893c 4d8f 0abc b2ef 5e3d dbe5 143d
000002e0: 1ef8 3c3d b375 d23a a7af dcbc ae33 9abc
000002f0: 4739 ed3c aec6 e63c 0111 0cbc 5725 21bd
00000300: 4e04 cebc bbc6 35bc 9ec9 3abd c63f 3fbc
00000310: 708d 5cbc 360d 043c a138 e43c 17c6 d6bb
00000320: 9d0b a43c 3601 113d f2e1 a5bb 63f5 033d
00000330: a30e e83c 112e 5b3b 9087 03bd b25e abbc
00000340: 6760 c3bc cc92 213c 2d10 bc3c ec9b 313d
00000350: 2aa7 903c 82f2 9ebb 16ee ccbc ed01 433d
00000360: a7d8 923c 028a e33c 727d 06bd 7878 083d
00000370: e3c5 5ebc eb10 0dbc 0815 383c 71eb a43c
00000380: 5ab9 14bd f112 1c3d b278 763c 24ab 543d
00000390: 2a6f 053c d8ea 8b3d 2e9b 9f3c 63a5 9a3c
000003a0: d4cd da3c 2ff4 4a3c 9044 a03c b12c 1c3d
000003b0: 8a4c 223d d333 2e3c 655a 283d 7172 2b3d
000003c0: d441 c13d 018c cd3d c025 c23d 2d9a f13c
000003d0: c9d1 5c3d 0615 143d 51c0 113d e7e4 183d
000003e0: a98d 2c3d 7397 a03c 54dc 573b 28ae 6a3d
000003f0: fd33 20bc 287b 01bd 86f3 76bc f7b6 8fbc
0.010653998 0.041262355 0.023717145 -0.026990442 -0.024943959 -0.018357517 -0.017040433 -0.04294845
0.018847391 -0.0026559285 0.03712405 -0.011064927 -0.037060685 0.01865538 0.029819852 -0.033058044
-0.012588362 -0.028589424 0.030478291 0.011219969 -0.017265208 0.005786757 0.031157972 0.015962971
-0.03563137 -0.039616972 0.018575164 -0.03486503 -0.012292914 -0.029211227 -0.025343804 -0.00910131
0.016753905 -0.0049270643 -0.045241952 0.02122643 -0.013448276 0.06370545 0.038911134 0.049796116
0.010687985 0.057628855 0.051265206 0.065487705 0.07606094 0.008413689 -0.0076133003 0.015024722
0.017997153 -0.038045432 0.008609573 -0.042988174 -0.027513856 -0.03375656 -0.015116236 -0.029888561
0.022458851 -0.016735505 -0.044377714 0.0011129108 -0.023632636 -0.0012554806 -0.0040265145 -0.031010943
-0.02825909 -0.034285195 0.02714928 -0.0032396796 0.0054794713 -0.022754231 -0.034835275 -0.009318997
-0.038871918 0.027830705 0.03419467 0.015851807 -0.022641813 -0.024220206 -0.02713467 -0.03311119
-0.03972319 0.02449097 0.028233893 -0.017280981 -0.014748745 0.010223436 0.0112599125 0.0045475997
0.010516693 0.02563102 -0.029099979 -0.058435075 0.003500914 0.009919332 -0.04762018 -0.02993302
-0.062313005 -0.04056583 -0.0095650405 0.04422188 0.03860194 0.043879457 0.009964927 0.045564543
0.06972855 0.049152516 0.01593623 0.04474043 -0.023941943 -0.029643463 -0.042580403 0.027568778
-0.03337543 -0.016145136 0.04620845 0.012361061 0.01683903 0.012819659 0.047587816 -0.0091680335
-0.017952973 0.050949283 0.024989164 -0.006792292 -0.021987753 0.009548051 -0.048327077 -0.044360176
-0.02858754 -0.017320052 0.0016624572 -0.02028372 -0.0082186125 0.018895611 0.027684828 -0.0029065835
-0.008087767 0.029642085 0.005768234 0.045996476 0.016080147 -0.03378851 -0.025181988 0.00011701133
0.036780864 -0.011613731 0.032169644 -0.02498542 0.036412824 -0.0022990324 0.022433106 0.04807978
0.022112513 -0.003898851 0.027441965 0.018705599 -0.0027361398 0.021622036 0.02924317 0.02178101
0.02748005 0.04021041 -0.05333316 -0.020864224 -0.07829168 -0.046615805 -0.021907205 -0.0017781996
-0.029860232 -0.024823902 0.02882005 0.01633241 -0.019221058 0.041197386 -0.02933035 0.018908782
0.009088563 0.01377585 0.01179167 -0.00047338902 0.01680628 -0.008457017 0.05442781 0.03635202
0.04613506 0.0016056806 -0.026939226 -0.01882347 0.028957976 0.02817091 -0.008548976 -0.03934225
-0.025148537 -0.011094744 -0.045602433 -0.01167292 -0.013461456 0.00805979 0.027859034 -0.006554376
0.020025069 0.035401545 -0.005062335 0.03221644 0.028327292 0.0033444206 -0.032111704 -0.020919178
-0.02384968 0.009861659 0.022956932 0.04336159 0.017657835 -0.0048506865 -0.025015872 0.04760926
0.017925574 0.027775768 -0.032834478 0.033318013 -0.013596985 -0.008609991 0.011235483 0.020131798
-0.036309578 0.038104 0.015043424 0.051921025 0.008144179 0.06831902 0.019483175 0.01887769
0.026709475 0.0123873195 0.019563943 0.03812856 0.039623775 0.010632473 0.041101832 0.041857187
0.09436384 0.10036469 0.094798565 0.029492462 0.053911004 0.036152862 0.035583798 0.037327673
0.042127285 0.019603467 0.0032937722 0.057294995 -0.00977802 -0.03161159 -0.015072709 -0.0175433

conv2d_3.2.bias f4 [64]
00000000: e4c1 813d d3bf 56bc 0c1e 493c de8e a33c
00000010: 96bf 14bb e6e8 853c 4c29 8c3d d5c0 0fbd
00000020: 5af3 0e3c 6942 0b3c b15c 6a3c e26c 10bd
00000030: 9912 853b ff69 1e3d c4ed 703b 52da 32bd
00000040: b6d5 25bc 8252 17bd 1739 f7bc 5eb6 e2bb
00000050: 7320 6cbc 1807 d9bb 9789 a7bc 7d6b c9bb
00000060: a829 b83c 64d3 fe3c 74dc 7b3b 7504 5e3d
00000070: 9f00 f0bc b40b 18bd 5173 34bd f2c9 7ebc
00000080: 7b07 633c a381 513d 5e16 2fbd 0635 f23c
00000090: 8966 803a 270e 0e3d f0f8 c5bc 6c45 38bd
000000a0: 94c6 3f3b a52a dfbc ed78 24bd 0b0f 31bc
000000b0: 6563 3ebd 2bec 9d3c 0650 84bc d725 64bb
000000c0: 50e0 bcbc b5ac 04bd 2694 adbc 37ee e9bc
000000d0: 8d38 c8bc a4f6 d4bb e28e 033d b864 373c
000000e0: 5792 493c 29cd 003d 1801 7c3c 493a f03c
000000f0: 513a 0ebd 116e 893c bfaa 0e3c 0a69 40bc
0.0633581 -0.013107258 0.01227523 0.019965585 -0.0022697202 0.016346406 0.06843814 -0.03509601
0.008725012 0.00849972 0.014304326 -0.03526009 0.004061055 0.038675305 0.0036762813 -0.043665238
-0.010121753 -0.03694392 -0.03017859 -0.0069187125 -0.014412033 -0.00662316 -0.02045135 -0.006146847
0.0224808 0.031106658 0.003843096 0.05420347 -0.029297171 -0.037120536 -0.044055287 -0.015551077
0.013856764 0.05114902 -0.04274594 0.0295663 0.0009796183 0.034681465 -0.024166554 -0.04498808
0.002926265 -0.027242014 -0.040154386 -0.010806809 -0.04648151 0.019277653 -0.01615144 -0.0034812593
-0.02305618 -0.03239127 -0.021188807 -0.028555973 -0.024441028 -0.0064991284 0.032118686 0.011193447
0.012302957 0.031445656 0.01538112 0.029324668 -0.034723584 0.016776117 0.008707701 -0.011743793

fc1.weight f4 [64, 1280]
00000000: 09fe fabc a4a9 1ebb 299a 143c 9430 213b
00000010: a5e3 23bd 023e 94bc fba9 84bc 324f 0ebc
00000020: c4bb fdbc 3e1d 06bc 651e a4bc e183 223c
00000030: 4e8d cebc 7c18 dfbb d35d 9abb cf6d 69bb
00000040: 9cae bcbc c554 adbc 3cb1 c0bc 36d8 edbc
00000050: 5c9e ff3b 8385 453c a6b0 803c bab2 953c
00000060: 3a23 cf3c 0d05 b2bc a4b3 b13c 8003 c6bc
00000070: 93b9 a4bc b569 9e3c ffc3 983c 43b8 2c3c
00000080: 2c88 b8bc 4a70 bebc 283e 25bb 3c92 b9bc
00000090: e6e9 7dbc 1f98 a7bc 7f74 8cbc e41f 703b
000000a0: 16af 243d a952 df3c d7e1 143d f6b1 1fba
000000b0: 1737 073d 71fe 91bc a698 3cbc 9ec8 913c
000000c0: fc3a 403c e2e2 033c 9851 903c a53b 093c
000000d0: 70d5 82bb 08e9 d3bc 1ba4 67bc aa6b 513d
000000e0: 207c 6c3c d47d 5c3d ca62 8a3c 10a3 5e3d
000000f0: 9a64 2b3c 0861 4fbb 3fd9 ccbb 7e6d f5bb
00000100: 055c 043d 2252 dd3c 63c2 b33c 0544 0f3d
00000110: b5c4 293b 5baa cb3c dd50 adba ea50 d43c
00000120: 8729 3b3c f5b9 133c f684 91bc 4ea2 97bc
00000130: 2bfc 9b3c 6625 05bc 1d3d 103d 3e31 923c
00000140: 54e4 9dbc 0a82 a93c 3e53 083c 8ab4 e43c
00000150: 8549 0dbc ceeb f53c cddb 1abc fa72 883c
00000160: e6ee c73c 99d1 a1bb 87eb db3c d120 b7bb
00000170: 8af9 4fbb 9440 043d d15d 0e3d 71bb 29ba
00000180: 4368 423c b68c 9abb 9e49 a9bc 7430 c2bc
00000190: 5bfd bd3c 9c91 593d 154b c53c 958e a33b
000001a0: ded0 1c3d 4428 fc3c 5b3d 333d b013 da3c
000001b0: cd97 5e3b cc88 e03a 3198 be3c 58cc 043d
000001c0: 200f 84bc c5f3 d6bb acf6 30bc c6bc b33c
000001d0: 8179 30bb 6f22 963c 41b8 b6bb 1c39 243c
000001e0: 42ea dfbc 1ee0 063b 1e09 803b f264 93bb
000001f0: 7612 2ebc c69e 0fbd 705f d8bc cbd7 77bc
00000200: de3a 3fbd 1f98 44bd 3e48 f0b9 439d db3b
00000210: 439a 22bd eef7 3fbd ea6d abbb 2dc1 25bd
00000220: 5aa8 2bbc 49f4 aa3a 6bbf c5bb 26cc 163c
00000230: 66bd 9bbb fbe8 0ebb 5ee2 e23c cb93 0abc
00000240: 88a1 61bc 7a8a 1e3b f87f 7aba 3699 bbbc
00000250: 1cb4 8d3c b3e9 cd3b e3c6 39bc 6bbc dbbc
00000260: 46cb 7cbb 9ef3 cdbc 51e7 7a3c cccd dfbc
00000270: 6207 9f3c 6f1e c43c 3d11 ab3c b0ee 823b
00000280: 1bc5 123c c4c9 9abc e7f9 a43c ae68 8cbb
00000290: 18c1 a73c 47b6 11bc 8738 8cbc 4d28 60bc
000002a0: 650b 83bc aff6 5d3c eb6f 173c 812f 26bd
000002b0: 6c26 2dbd 3c99 bf3b dc13 04bd 8f91 353d
000002c0: 50ef 1f3c e45a 413d a814 223d fd9a f63c
000002d0: 729f f63a da0e 20bc 74c0 e2bb 54cb e53c
000002e0: b303 e43c 40b3 40bc a40c 343c 5ac9 46bc
000002f0: cd0f a33c a3e1 2fbc 47f3 123c 5d76 033d
00000300: 762e c1bc 1e23 c2bc 4857 a83a be5a 323b
00000310: 9d3b e63c 0bac 013d 5386 eb3b 87bf 08ba
00000320: 987f 1a3d 227f 133d 23c8 9b3c 6fd0 d13c
00000330: 633b f73c 8b6e c5bc 8be0 b9bc 93df 0dbd
00000340: f487 003c 1643 4d3b 3f3f 95bb 0c9a bc3b
00000350: 2140 1bbc 8030 da3c 32c2 1a3c 7fb0 95bb
00000360: 0fff 053c 3953 70bc 74db 943b 4b90 8dbc
00000370: da00 473c e6f0 c13c b34b 0ebc cd72 d93c
00000380: fc30 9e3c 27e8 d2bb fe45 57bc 0bc2 bf3c
00000390: 43f5 5a3c 9e4d 843c 0a1c d93c c6e1 89bc
000003a0: d3d7 eebb 632e 87bc 4c47 e23c 2e5a dc3c
000003b0: 268a 48bc a89c a1bc b1f1 c03c c5b1 56bc
000003c0: c947 2f3c 18de 0d3c 9e9a 72bb 2e61 1cbc
000003d0: 4f50 c0bc 7228 26bc 0702 083d 2dde 823c
000003e0: b109 533c edd6 83bc ae05 053d cf59 44bc
000003f0: dc2b 75bc 1920 be3c 490d ce3b 329f 95bc
-0.030638712 -0.002421 0.009069958 0.0024595605 -0.04001202 -0.018095974 -0.016194334 -0.008685874
-0.030973323 -0.008185683 -0.020034024 0.009919138 -0.025213864 -0.0068083387 -0.0047108917 -0.003561843
-0.023032479 -0.021158585 -0.023522012 -0.029033761 0.0078008603 0.012055757 0.015709233 0.0182737
0.025285352 -0.021730924 0.021692105 -0.02417159 -0.02010802 0.019337514 0.018648146 0.010541978
-0.02252587 -0.023246903 -0.002521405 -0.022652738 -0.01549766 -0.02045828 -0.017145393 0.0036640102
0.040206037 0.027261095 0.03634819 -0.0006091887 0.033011522 -0.017821522 -0.011511004 0.017795857
0.011732813 0.008049699 0.017617032 0.008376037 -0.003992729 -0.025867954 -0.014138247 0.051128067
0.014433891 0.053830937 0.01689281 0.054354727 0.010460997 -0.0031643528 -0.0062514837 -0.007489859
0.03231432 0.027016703 0.021943277 0.034976978 0.00259046 0.024861505 -0.0013222952 0.02591749
0.011423475 0.009016504 -0.017763596 -0.01851001 0.019041141 -0.008126592 0.035214532 0.017845746
-0.019273914 0.02069189 0.008320628 0.027918119 -0.008623485 0.030019667 -0.009451819 0.016656388
0.024405908 -0.004938316 0.026845707 -0.005588629 -0.003173443 0.03228815 0.03475744 -0.00064747693
0.011865678 -0.004716481 -0.020664986 -0.023704745 0.023192098 0.05311738 0.024083653 0.0049913623
0.03828513 0.030780919 0.043759685 0.026620716 0.0033964992 0.0017130612 0.02326593 0.03242144
-0.016120493 -0.0065598213 -0.010800999 0.0219406 -0.002692789 0.018326966 -0.005576164 0.010023382
-0.027333383 0.0020580362 0.003907337 -0.0044981176 -0.010624519 -0.035063528 -0.026412696 -0.015127133
-0.046687 -0.047996636 -0.00045830192 0.0067020967 -0.039697897 -0.046867304 -0.0052316086 -0.04046743
-0.01047715 0.0013042773 -0.0060347817 0.009203946 -0.0047528027 -0.0021806348 0.02769583 -0.008458088
-0.013771422 0.0024191425 -0.0009555812 -0.022900205 0.017297797 0.0062839626 -0.011338922 -0.026823243
-0.003857331 -0.02514058 0.015313939 -0.027319811 0.0194127 0.023940293 0.020882243 0.003995739
0.008958126 -0.018895037 0.020138694 -0.0042849397 0.020477816 -0.008893556 -0.017116798 -0.013681483
-0.015996644 0.0135475835 0.009242992 -0.040572647 -0.04227297 0.0058471244 -0.032245502 0.04432827
0.009761646 0.04720582 0.03957048 0.030103201 0.0018815829 -0.009769166 -0.006919915 0.028051056
0.027833795 -0.0117614865 0.010989342 -0.012132967 0.019904995 -0.010734948 0.008969135 0.032095302
-0.023581725 -0.023698386 0.0012843395 0.002721473 0.028104598 0.031658214 0.0071876436 -0.0005216528
0.03771934 0.036009915 0.019016331 0.025612084 0.030179685 -0.024100563 -0.022690078 -0.034637045
0.007844914 0.0031320504 -0.0045546587 0.0057556685 -0.009475739 0.026634455 0.009445714 -0.004568159
0.0081784865 -0.014668279 0.0045427624 -0.017280718 0.012146199 0.02367444 -0.00868504 0.026544
0.019310467 -0.006436366 -0.013139246 0.023407957 0.013364139 0.016150292 0.026502628 -0.01683129
-0.007288912 -0.016501611 0.027621888 0.02689847 -0.012239968 -0.01972802 0.023552747 -0.013103907
0.010698267 0.008658908 -0.0037018429 -0.009544654 -0.023475794 -0.010141479 0.03320506 0.015975082
0.012880729 -0.016093696 0.03247612 -0.011984303 -0.01496407 0.023208665 0.006288205 -0.018264387

fc1.bias f4 [64]
00000000: 0b03 513c 2f34 5a3c 7686 733c 8cc5 2f3c
00000010: 0a8f 95bc 8898 9c3c d813 f53b 93bc 283c
00000020: 3c09 cbbc 6f0c 5f3c 035f b2bc 79bd 883c
00000030: 16d2 a5bb e6ae f43b 41b9 b5bc 7fe6 42bc
00000040: db26 963c ac20 92b9 f36a a6bc fd85 2bbc
00000050: 4159 953c 0641 e538 d524 c43c 17d7 c4bc
00000060: 0103 98ba 3eaa f8bb fc4b ffbc 2e68 abbc
00000070: 339f f73c 4824 a53b 2f95 1ebc aecb 6ebb
00000080: 876a 9e3c 1ae7 41bb d1fd 78bc 16cb 0cbd
00000090: ada1 13bc 9bb1 3bbc 234d b0bc c2a8 8f3c
000000a0: 6cd3 54bc 8097 74bc 5afc 43bc a4f5 4abc
000000b0: adb0 0bbc 325a 743c a8e0 823b d22a c7bc
000000c0: 07ad a33c d320 be3c f6e7 813c c4f3 4a3c
000000d0: 751c 913c 87ce cd3c dea7 2a3c 9c1b b7bb
000000e0: 6dab 013d 9b07 0cbd b392 5dbc 4ceb 2f3b
000000f0: 7225 0b3b 335b 723b 0ce4 993c c11a 1e3d
0.012757073 0.013318106 0.014863601 0.010728251 -0.018256683 0.019115701 0.007479172 0.010298866
-0.024784677 0.013613804 -0.02177382 0.01669191 -0.0050604446 0.0074671386 -0.022183063 -0.011895775
0.018329075 -0.00027871632 -0.02031467 -0.010468957 0.018231036 0.000109316825 0.023943344 -0.024028344
-0.0011597575 -0.007588654 -0.031164162 -0.0209237 0.03022728 0.0050397255 -0.009679123 -0.003643732
0.019337906 -0.002958721 -0.015197233 -0.034373365 -0.0090107145 -0.011455919 -0.021521157 0.017536525
-0.01298986 -0.014928699 -0.011962021 -0.012387667 -0.0085260095 0.014914082 0.0039940663 -0.02431241
0.019979967 0.023209011 0.015857678 0.01238722 0.017713765 0.025122894 0.010415999 -0.005588008
0.031657625 -0.03418694 -0.013523745 0.0026843129 0.0021232036 0.0036980629 0.018785499 0.038599733
